sliced_opt/code/experiment/shape_registration/result/exp3/sot_param.pt (torch, 84069 bytes, 301 tensors)

theta f4 [3]
0.4027419 3.0810835 0.96741486
00000000: 3034 ce3e 7930 4540 80a8 773f

beta f4 [3]
-0.15069142 0.7174612 -1.8349404
00000000: da4e 1abe 8aab 373f 54df eabf

beta f4 [3]
-0.5821786 0.6568253 -1.546695
00000000: a809 15bf b425 283f 1afa c5bf

beta f4 [3]
-0.7798003 0.3056402 -1.3444216
00000000: fea0 47bf df7c 9c3e 0216 acbf

beta f4 [3]
-0.8448529 0.00656833 -1.134697
00000000: 4848 58bf 253b d73b c03d 91bf

beta f4 [3]
-0.80754817 -0.2713418 -0.96415293
00000000: 7abb 4ebf 50ed 8abe bad2 76bf

beta f4 [3]
-0.8054694 -0.45691067 -0.81809664
00000000: 3e33 4ebf 32f0 e9be c86e 51bf

beta f4 [3]
-0.8970003 -0.5245556 -0.6822829
00000000: d0a1 65bf 4749 06bf 18aa 2ebf

beta f4 [3]
-1.0409154 -0.54532915 -0.53993493
00000000: b73c 85bf b19a 0bbf 2d39 0abf

beta f4 [3]
-1.134871 -0.6631563 -0.3612675
00000000: 7443 91bf 9cc4 29bf 0ef8 b8be

beta f4 [3]
-1.123131 -0.8939941 -0.12216491
00000000: c2c2 8fbf ccdc 64bf 9931 fabd

beta f4 [3]
-1.1197227 -1.0190179 0.123168185
00000000: 1353 8fbf 2e6f 82bf 9a3f fc3d

beta f4 [3]
-1.0679063 -1.11547 0.38746125
00000000: 27b1 88bf b9c7 8ebf 5261 c63e

beta f4 [3]
-0.9986463 -1.1308177 0.6463733
00000000: 49a7 7fbf a2be 90bf b878 253f

beta f4 [3]
-0.9732913 -1.0608422 0.8558276
00000000: 9e29 79bf adc9 87bf 8517 5b3f

beta f4 [3]
-0.9024323 -0.99612474 1.0103618
00000000: ce05 67bf 0802 7fbf 8953 813f

beta f4 [3]
-0.8914707 -0.90409094 1.0829812
00000000: 6c37 64bf 8172 67bf 219f 8a3f

beta f4 [3]
-0.8744425 -0.86334604 1.0852334
00000000: 77db 5fbf 3f04 5dbf eee8 8a3f

beta f4 [3]
-0.90544856 -0.84730375 1.0111353
00000000: 7acb 67bf e6e8 58bf e26c 813f

beta f4 [3]
-0.8670641 -0.8871445 0.9350584
00000000: eaf7 5dbf e71b 63bf fd5f 6f3f

beta f4 [3]
-0.92510164 -0.87730014 0.8008619
00000000: 76d3 6cbf be96 60bf 4905 4d3f

beta f4 [3]
-0.9630532 -0.84476733 0.69055986
00000000: a88a 76bf ac42 58bf 88c8 303f

beta f4 [3]
-0.97441953 -0.8327989 0.6033954
00000000: 8f73 79bf 4f32 55bf 1f78 1a3f

beta f4 [3]
-0.98542994 -0.84946513 0.50020593
00000000: 2345 7cbf 8c76 59bf 7f0d 003f

beta f4 [3]
-0.98599297 -0.86775684 0.44672593
00000000: 096a 7cbf 5025 5ebf 43b9 e43e

beta f4 [3]
-0.9688662 -0.9243911 0.407977
00000000: 9e07 78bf e5a4 6cbf 5de2 d03e

beta f4 [3]
-0.9391421 -0.9985105 0.37972417
00000000: 9e6b 70bf 629e 7fbf 356b c23e

beta f4 [3]
-0.92476356 -1.0686433 0.35237417
00000000: 4ebd 6cbf 4ec9 88bf 636a b43e

beta f4 [3]
-0.89813775 -1.1555144 0.33923534
00000000: 5bec 65bf e5e7 93bf 41b0 ad3e

beta f4 [3]
-0.903016 -1.2141632 0.32968605
00000000: 0e2c 67bf b369 9bbf 9ccc a83e

beta f4 [3]
-0.90875345 -1.2561067 0.3406826
00000000: 11a4 68bf 1bc8 a0bf f36d ae3e

beta f4 [3]
-0.9763731 -1.2436184 0.3236343
00000000: 96f3 79bf e32e 9fbf 65b3 a53e

beta f4 [3]
-0.9506916 -1.2668163 0.35079247
00000000: 8660 73bf 0927 a2bf 129b b33e

beta f4 [3]
-0.9889667 -1.222237 0.35610682
00000000: ec2c 7dbf 4372 9cbf a253 b63e

beta f4 [3]
-1.042356 -1.1569737 0.32257506
00000000: ec6b 85bf b717 94bf 8f28 a53e

beta f4 [3]
-1.059754 -1.0878769 0.34386986
00000000: 05a6 87bf 8d3f 8bbf b60f b03e

beta f4 [3]
-1.0789744 -1.0104339 0.35173112
00000000: d51b 8abf e655 81bf 1a16 b43e

beta f4 [3]
-1.1034101 -0.9430432 0.3353043
00000000: 8b3c 8dbf 476b 71bf 01ad ab3e

beta f4 [3]
-1.0984657 -0.9091385 0.32877487
00000000: 869a 8cbf 4dbd 68bf 2e55 a83e

beta f4 [3]
-1.0542104 -0.9313102 0.3437478
00000000: 5ef0 86bf 586a 6ebf b6ff af3e

beta f4 [3]
-0.9989718 -0.9620941 0.40173104
00000000: 9ebc 7fbf cd4b 76bf b1af cd3e

beta f4 [3]
-0.96186835 -0.98092777 0.46057266
00000000: 013d 76bf 151e 7bbf 2ed0 eb3e

beta f4 [3]
-0.9376234 -1.011437 0.48902375
00000000: 1608 70bf c576 81bf 5261 fa3e

beta f4 [3]
-0.91087115 -1.0545889 0.51636827
00000000: da2e 69bf c5fc 86bf b630 043f

beta f4 [3]
-0.90660655 -1.0823907 0.5475881
00000000: 5e17 68bf c78b 8abf bc2e 0c3f

beta f4 [3]
-0.9512294 -1.0776654 0.57118785
00000000: c583 73bf f1f0 89bf 5e39 123f

beta f4 [3]
-0.9880524 -1.0783741 0.5836782
00000000: 01f1 7cbf 2a08 8abf ef6b 153f

beta f4 [3]
-1.014958 -1.0746849 0.5912957
00000000: 25ea 81bf 468f 89bf 285f 173f

beta f4 [3]
-0.94462454 -1.1118385 0.64738274
00000000: ead2 71bf b950 8ebf e0ba 253f

beta f4 [3]
-0.87757224 -1.1429476 0.6560008
00000000: 93a8 60bf 1b4c 92bf abef 273f

beta f4 [3]
-0.8492015 -1.1476519 0.63297
00000000: 4565 59bf 42e6 92bf 520a 223f

beta f4 [3]
-0.8653473 -1.131311 0.5810025
00000000: 6787 5dbf cdce 90bf 94bc 143f

beta f4 [3]
-0.90271956 -1.1052022 0.50215364
00000000: a118 67bf 4477 8dbf 248d 003f

beta f4 [3]
-0.9138497 -1.0914785 0.4650232
00000000: 0ef2 69bf 91b5 8bbf 8517 ee3e

beta f4 [3]
-0.9529284 -1.0662357 0.42183903
00000000: 1ef3 73bf 697a 88bf 49fb d73e

beta f4 [3]
-1.0090959 -1.0208309 0.38879898
00000000: 0e2a 81bf 96aa 82bf a910 c73e

beta f4 [3]
-1.0987058 -0.94059837 0.35601395
00000000: 64a2 8cbf 0ecb 70bf 7647 b63e

beta f4 [3]
-1.1758988 -0.8812323 0.29091236
00000000: da83 96bf 7198 61bf 77f2 943e

beta f4 [3]
-1.2229779 -0.8718145 0.19342035
00000000: 8a8a 9cbf 3c2f 5fbf fc0f 463e

beta f4 [3]
-1.2646673 -0.86461824 0.049138617
00000000: 9ee0 a1bf 9f57 5dbf 9345 493d

beta f4 [3]
-1.2626948 -0.88895845 -0.04421577
00000000: fc9f a1bf c892 63bf 981b 35bd

beta f4 [3]
-1.2053721 -0.9696384 -0.129879
00000000: a249 9abf 393a 78bf 00ff 04be

beta f4 [3]
-1.1406491 -1.0408435 -0.15480901
00000000: ca00 92bf 5c3a 85bf 4186 1ebe

beta f4 [3]
-1.0274491 -1.1491693 -0.10425406
00000000: 7483 83bf fb17 93bf 2783 d5bd

beta f4 [3]
-0.97139597 -1.1848475 -0.10654247
00000000: 68ad 78bf 15a9 97bf f032 dabd

beta f4 [3]
-0.9160371 -1.2185086 -0.09397992
00000000: 6881 6abf 17f8 9bbf 8b78 c0bd

beta f4 [3]
-0.91082275 -1.2171081 -0.086029135
00000000: ae2b 69bf 33ca 9bbf 0b30 b0bd

beta f4 [3]
-0.9085254 -1.2192575 -0.088006765
00000000: 1f95 68bf a110 9cbf e43c b4bd

beta f4 [3]
-0.9751904 -1.1569593 -0.15068366
00000000: 14a6 79bf 3e17 94bf d14c 1abe

beta f4 [3]
-1.0530491 -1.0707208 -0.22782427
00000000: 50ca 86bf 610d 89bf c44a 69be

beta f4 [3]
-1.0907402 -1.009821 -0.30014765
00000000: 609d 8bbf d141 81bf f4ac 99be

beta f4 [3]
-1.0679402 -1.0172966 -0.37132823
00000000: 44b2 88bf c636 82bf bc1e bebe

beta f4 [3]
-1.0080494 -1.0516618 -0.4458581
00000000: c307 81bf db9c 86bf 8347 e4be

beta f4 [3]
-0.93613815 -1.0907671 -0.51692075
00000000: c0a6 6fbf 429e 8bbf eb54 04bf

beta f4 [3]
-0.8315898 -1.1251214 -0.61455333
00000000: 12e3 54bf fa03 90bf 5e53 1dbf

beta f4 [3]
-0.7249321 -1.1315325 -0.7345605
00000000: 2695 39bf 0fd6 90bf 280c 3cbf

beta f4 [3]
-0.5880005 -1.1587057 -0.80754757
00000000: 3387 16bf 7850 94bf 70bb 4ebf

beta f4 [3]
-0.45090503 -1.1653274 -0.88279486
00000000: 06dd e6be 7329 95bf d8fe 61bf

beta f4 [3]
-0.32853037 -1.1667168 -0.94105566
00000000: 2235 a8be fa56 95bf 06e9 70bf

beta f4 [3]
-0.17926596 -1.1867915 -0.9614452
00000000: 7f91 37be c9e8 97bf 4621 76bf

beta f4 [3]
-0.020241056 -1.2011777 -0.95992756
00000000: 92d0 a5bc 31c0 99bf d0bd 75bf

beta f4 [3]
0.15223409 -1.2027725 -0.93830293
00000000: 41e3 1b3e 73f4 99bf 9f34 70bf

beta f4 [3]
0.30544406 -1.2208052 -0.8610915
00000000: 2a63 9c3e 5843 9cbf 7e70 5cbf

beta f4 [3]
0.43767393 -1.2517068 -0.7461351
00000000: cc16 e03e ee37 a0bf b602 3fbf

beta f4 [3]
0.5332648 -1.2733572 -0.65151864
00000000: 0b84 083f 5efd a2bf edc9 26bf

beta f4 [3]
0.5517692 -1.3204129 -0.5429698
00000000: bf40 0d3f 4a03 a9bf 1200 0bbf

beta f4 [3]
0.5233154 -1.3665377 -0.46906486
00000000: 00f8 053f b5ea aebf 4529 f0be

beta f4 [3]
0.4634928 -1.3937066 -0.4590036
00000000: ee4e ed3e fa64 b2bf 8502 ebbe

beta f4 [3]
0.37784743 -1.408968 -0.48686558
00000000: 3875 c13e 1059 b4bf 7246 f9be

beta f4 [3]
0.24279581 -1.4137198 -0.5235194
00000000: 779f 783e c5f4 b4bf 5e05 06bf

beta f4 [3]
0.17300168 -1.3830198 -0.594621
00000000: 5a27 313e cb06 b1bf 1539 18bf

beta f4 [3]
0.12349531 -1.3398954 -0.662254
00000000: 1ceb fc3d b181 abbf 7a89 29bf

beta f4 [3]
0.024337295 -1.2977911 -0.7272167
00000000: 025f c73c 051e a6bf e02a 3abf

beta f4 [3]
-0.09540288 -1.2516936 -0.78649765
00000000: 9662 c3bd 7f37 a0bf e957 49bf

beta f4 [3]
-0.19481179 -1.2325009 -0.81235206
00000000: be7c 47be 97c2 9dbf 4ef6 4fbf

beta f4 [3]
-0.28508684 -1.219725 -0.825504
00000000: e7f6 91be f31f 9cbf 3b54 53bf

beta f4 [3]
-0.29213554 -1.2598656 -0.80397016
00000000: ca92 95be 4743 a1bf fdd0 4dbf

beta f4 [3]
-0.33660224 -1.3033922 -0.75805783
00000000: 2157 acbe 8ed5 a6bf 1410 42bf

beta f4 [3]
-0.40320235 -1.3462616 -0.65402466
00000000: 8a70 cebe 4d52 acbf 296e 27bf

beta f4 [3]
-0.42790437 -1.3869468 -0.53946763
00000000: 4816 dbbe 7987 b1bf 8d1a 0abf

beta f4 [3]
-0.3947639 -1.4236519 -0.42191705
00000000: 7e1e cabe 3a3a b6bf 8305 d8be

beta f4 [3]
-0.35248497 -1.4380195 -0.35790235
00000000: e978 b4be 0611 b8bf fa3e b7be

beta f4 [3]
-0.357871 -1.448549 -0.28866705
00000000: de3a b7be 0e6a b9bf 2bcc 93be

beta f4 [3]
-0.3713305 -1.4390484 -0.2395079
00000000: 081f bebe bd32 b8bf 8f41 75be

beta f4 [3]
-0.39865723 -1.4329901 -0.23281962
00000000: cd1c ccbe 386c b7bf 4468 6ebe

beta f4 [3]
-0.41255 -1.427608 -0.25352505
00000000: c139 d3be dcbb b6bf 09ce 81be

beta f4 [3]
-0.41592005 -1.4054371 -0.38136896
00000000: 79f3 d4be 5de5 b3bf cb42 c3be

beta f4 [3]
-0.46262392 -1.3511765 -0.4981715
00000000: 0bdd ecbe 5af3 acbf 5610 ffbe

beta f4 [3]
-0.5107223 -1.2816869 -0.62351245
00000000: b2be 02bf 510e a4bf 839e 1fbf

beta f4 [3]
-0.54919237 -1.2008799 -0.73168975
00000000: df97 0cbf 6fb6 99bf 0550 3bbf

beta f4 [3]
-0.5592913 -1.1597449 -0.78445864
00000000: b72d 0fbf 8572 94bf 48d2 48bf

beta f4 [3]
-0.5411807 -1.1207314 -0.8637288
00000000: d18a 0abf 2074 8fbf 551d 5dbf

beta f4 [3]
-0.5056827 -1.1010066 -0.9097102
00000000: 6c74 01bf c9ed 8cbf c5e2 68bf

beta f4 [3]
-0.47150135 -1.0881277 -0.9538046
00000000: a068 f1be c547 8bbf 8a2c 74bf

beta f4 [3]
-0.4487958 -1.1081842 -0.94958586
00000000: 90c8 e5be fbd8 8dbf 0f18 73bf

beta f4 [3]
-0.4374024 -1.1053675 -0.9717227
00000000: 35f3 dfbe af7c 8dbf d2c2 78bf

beta f4 [3]
-0.35401142 -1.1416373 -0.97312033
00000000: fc40 b5be 2c21 92bf 6a1e 79bf

beta f4 [3]
-0.18337502 -1.1698563 -0.9905642
00000000: a9c6 3bbe dabd 95bf 9e95 7dbf

beta f4 [3]
-0.032480627 -1.1990955 -0.97819436
00000000: 680a 05bd f67b 99bf f26a 7abf

beta f4 [3]
0.11795416 -1.2026981 -0.9507359
00000000: f391 f13d 03f2 99bf 6e63 73bf

beta f4 [3]
0.2825497 -1.2155038 -0.867043
00000000: 5baa 903e a195 9bbf 88f6 5dbf

beta f4 [3]
0.45738196 -1.2149988 -0.757222
00000000: f82d ea3e 1585 9bbf 4dd9 41bf

beta f4 [3]
0.6161529 -1.2093891 -0.6248522
00000000: 32bc 1d3f 43cd 9abf 50f6 1fbf

beta f4 [3]
0.73409224 -1.1853778 -0.5368758
00000000: 78ed 3b3f 76ba 97bf b170 09bf

beta f4 [3]
0.8091904 -1.1737148 -0.47108075
00000000: 1a27 4f3f 493c 96bf 7f31 f1be

beta f4 [3]
0.9206498 -1.1179636 -0.44151804
00000000: b5af 6b3f 6e19 8fbf a70e e2be

beta f4 [3]
0.9690394 -1.0872486 -0.42475075
00000000: f712 783f f62a 8bbf ee78 d9be

beta f4 [3]
0.9827866 -1.0739076 -0.41121763
00000000: e797 7b3f ce75 89bf 1e8b d2be

beta f4 [3]
0.9701228 -1.083576 -0.38833332
00000000: f859 783f 9eb2 8abf a0d3 c6be

beta f4 [3]
0.9461861 -1.0930514 -0.40808228
00000000: 4139 723f 1ce9 8bbf 29f0 d0be

beta f4 [3]
0.95044863 -1.0815531 -0.43330097
00000000: 9a50 733f 5570 8abf a0d9 ddbe

beta f4 [3]
0.930365 -1.0876554 -0.45476505
00000000: 672c 6e3f 4b38 8bbf f7d6 e8be

beta f4 [3]
0.8703412 -1.1291571 -0.48636392
00000000: aece 5e3f 3888 90bf b104 f9be

beta f4 [3]
0.78945947 -1.1954546 -0.4923
00000000: 041a 4a3f a804 99bf bf0e fcbe

beta f4 [3]
0.7033422 -1.2520338 -0.5030481
00000000: 3c0e 343f a542 a0bf c3c7 00bf

beta f4 [3]
0.5908946 -1.3222933 -0.51607394
00000000: de44 173f e840 a9bf 6c1d 04bf

beta f4 [3]
0.5183861 -1.3708829 -0.51259303
00000000: f4b4 043f 1779 afbf 4c39 03bf

beta f4 [3]
0.4526236 -1.3976563 -0.53186476
00000000: 48be e73e 67e6 b2bf 4a28 08bf

beta f4 [3]
0.37906575 -1.4200281 -0.54918945
00000000: e814 c23e 7bc3 b5bf ae97 0cbf

beta f4 [3]
0.24815306 -1.4162294 -0.6061337
00000000: d61b 7e3e 0147 b5bf 942b 1bbf

beta f4 [3]
0.14141098 -1.3583219 -0.7120974
00000000: 0ace 103e 7edd adbf 044c 36bf

beta f4 [3]
0.009880213 -1.2994151 -0.78469837
00000000: 9ee0 213c 3c53 a6bf fee1 48bf

beta f4 [3]
-0.10285054 -1.2437742 -0.84402126
00000000: 4ea3 d2bd fe33 9fbf c711 58bf

beta f4 [3]
-0.2058287 -1.2108109 -0.8600234
00000000: c2c4 52be dafb 9abf 7e2a 5cbf

beta f4 [3]
-0.27591896 -1.2158259 -0.84768665
00000000: 4045 8dbe 2fa0 9bbf fe01 59bf

beta f4 [3]
-0.38211107 -1.2360071 -0.7924973
00000000: 10a4 c3be 7b35 9ebf 1ae1 4abf

beta f4 [3]
-0.47352785 -1.2749447 -0.69086546
00000000: 3e72 f2be 6331 a3bf 8fdc 30bf

beta f4 [3]
-0.5366605 -1.2783626 -0.65378946
00000000: 9562 09bf 63a1 a3bf bf5e 27bf

beta f4 [3]
-0.5939029 -1.2749625 -0.63072294
00000000: 050a 18bf f931 a3bf 0f77 21bf

beta f4 [3]
-0.6298289 -1.2809981 -0.6000102
00000000: 773c 21bf bff7 a3bf 459a 19bf

beta f4 [3]
-0.6734036 -1.2963362 -0.52455705
00000000: 2e64 2cbf 58ee a5bf 5f49 06bf

beta f4 [3]
-0.7061579 -1.3088856 -0.43665996
00000000: c4c6 34bf 9089 a7bf e591 dfbe

beta f4 [3]
-0.7670689 -1.278495 -0.37773386
00000000: a15e 44bf b9a5 a3bf 5566 c1be

beta f4 [3]
-0.81389254 -1.2512852 -0.3209323
00000000: 435b 50bf 1d2a a0bf 3d51 a4be

beta f4 [3]
-0.8386998 -1.22073 -0.3214318
00000000: 08b5 56bf e140 9cbf b592 a4be

beta f4 [3]
-0.87250096 -1.181153 -0.3645834
00000000: 395c 5fbf 0630 97bf adaa babe

beta f4 [3]
-0.86759776 -1.1644064 -0.3911607
00000000: e31a 5ebf 450b 95bf 3746 c8be

beta f4 [3]
-0.81170166 -1.1754683 -0.45562366
00000000: aecb 4fbf bf75 96bf 8147 e9be

beta f4 [3]
-0.7416351 -1.2024041 -0.539638
00000000: ccdb 3dbf 61e8 99bf b725 0abf

beta f4 [3]
-0.653962 -1.2328726 -0.5967927
00000000: 0e6a 27bf c5ce 9dbf 68c7 18bf

beta f4 [3]
-0.5631287 -1.2282375 -0.682825
00000000: 3429 10bf e336 9dbf 9fcd 2ebf

beta f4 [3]
-0.42873776 -1.2458785 -0.7695897
00000000: 8483 dbbe f278 9fbf d503 45bf

beta f4 [3]
-0.31154463 -1.2703571 -0.8131212
00000000: c782 9fbe 109b a2bf b628 50bf

beta f4 [3]
-0.18406317 -1.3158318 -0.8173619
00000000: 0e7b 3cbe 2d6d a8bf a13e 51bf

beta f4 [3]
-0.13769153 -1.3063437 -0.85568166
00000000: 02ff 0cbe 4536 a7bf f40d 5bbf

beta f4 [3]
-0.10457832 -1.3056908 -0.8470859
00000000: 292d d6bd e020 a7bf 9fda 58bf

beta f4 [3]
-0.07435506 -1.2720853 -0.86097956
00000000: 7747 98bd b1d3 a2bf 2869 5cbf

beta f4 [3]
-0.030677946 -1.2457397 -0.8590519
00000000: 5150 fbbc 6674 9fbf d3ea 5bbf

beta f4 [3]
-0.049199637 -1.2423128 -0.839246
00000000: 8f85 49bd 1b04 9fbf d3d8 56bf

beta f4 [3]
-0.012863871 -1.2583873 -0.82936215
00000000: fcc2 52bc d612 a1bf 1451 54bf

beta f4 [3]
-0.0045398762 -1.2892994 -0.7832003
00000000: 3ec3 94bb c307 a5bf d17f 48bf

beta f4 [3]
0.0153991245 -1.323901 -0.74643135
00000000: 9c4c 7c3c 9775 a9bf 2016 3fbf

beta f4 [3]
0.04598891 -1.3683943 -0.6919681
00000000: de5e 3c3d 8b27 afbf d224 31bf

beta f4 [3]
0.0814134 -1.4134929 -0.6147895
00000000: 12bc a63d 56ed b4bf d862 1dbf

beta f4 [3]
0.08431213 -1.4363538 -0.52533406
00000000: d7ab ac3d 71da b7bf 4b7c 06bf

beta f4 [3]
0.076531395 -1.4410063 -0.47919023
00000000: 7ebc 9c3d e572 b8bf 6c58 f5be

beta f4 [3]
0.10910836 -1.4311445 -0.41009742
00000000: 3474 df3d be2f b7bf 4af8 d1be

beta f4 [3]
0.13034955 -1.415132 -0.35292816
00000000: 5a7a 053e 0c23 b5bf 00b3 b4be

beta f4 [3]
0.16337553 -1.3904845 -0.33168155
00000000: ea4b 273e 65fb b1bf 2ad2 a9be

beta f4 [3]
0.18319288 -1.3790262 -0.36773282
00000000: ea96 3b3e ee83 b0bf 7a47 bcbe

beta f4 [3]
0.1401779 -1.3864394 -0.4256801
00000000: cc8a 0f3e d976 b1bf bef2 d9be

beta f4 [3]
0.15316692 -1.3863263 -0.5173685
00000000: cad7 1c3e 2473 b1bf 4372 04bf

beta f4 [3]
0.15750344 -1.3853691 -0.6281981
00000000: 9548 213e c653 b1bf 97d1 20bf

beta f4 [3]
0.13027252 -1.3751941 -0.73200625
00000000: 2966 053e 5c06 b0bf c364 3bbf

beta f4 [3]
0.11744566 -1.3130547 -0.8757752
00000000: 5a87 f03d 2d12 a8bf ce32 60bf

beta f4 [3]
0.10835355 -1.2285012 -1.006059
00000000: 77e8 dd3d 873f 9dbf 8bc6 80bf

beta f4 [3]
0.062077627 -1.1750578 -1.0525852
00000000: 1c45 7e3d 4b68 96bf 1dbb 86bf

beta f4 [3]
0.04540899 -1.1262852 -1.0703219
00000000: c7fe 393d 1d2a 90bf 4f00 89bf

beta f4 [3]
0.057632577 -1.1260178 -1.0215547
00000000: 2310 6c3d 5a21 90bf 4ec2 82bf

beta f4 [3]
0.051843446 -1.1389533 -0.95970047
00000000: cb59 543d 39c9 91bf eeae 75bf

beta f4 [3]
0.062823474 -1.1930667 -0.8730689
00000000: 98a9 803d 69b6 98bf 7281 5fbf

beta f4 [3]
0.04532795 -1.258741 -0.7944348
00000000: cda9 393d 6d1e a1bf 1460 4bbf

beta f4 [3]
0.048448253 -1.3173571 -0.72814894
00000000: ad71 463d 289f a8bf f867 3abf

beta f4 [3]
0.058163907 -1.3921803 -0.6244979
00000000: 473d 6e3d f732 b2bf 18df 1fbf

beta f4 [3]
0.089499414 -1.4164337 -0.60369027
00000000: 784b b73d b34d b5bf 728b 1abf

beta f4 [3]
0.06595237 -1.441287 -0.57902616
00000000: 0912 873d 187c b8bf 0f3b 14bf

beta f4 [3]
-0.069799855 -1.4630193 -0.5434615
00000000: 3af3 8ebd 3744 bbbf 4b20 0bbf

beta f4 [3]
-0.2599349 -1.4340614 -0.54270715
00000000: 3016 85be 538f b7bf dbee 0abf

beta f4 [3]
-0.38312185 -1.3895305 -0.52877986
00000000: 8c28 c4be 23dc b1bf 1e5e 07bf

beta f4 [3]
-0.42696476 -1.3584801 -0.49973843
00000000: 209b dabe ade2 adbf b7dd ffbe

beta f4 [3]
-0.45652503 -1.3305273 -0.48361066
00000000: a6bd e9be b84e aabf d19b f7be

beta f4 [3]
-0.46947742 -1.3161056 -0.48568547
00000000: 585f f0be 2676 a8bf c4ab f8be

beta f4 [3]
-0.48163027 -1.3103694 -0.5171831
00000000: 3e98 f6be 2fba a7bf 1d66 04bf

beta f4 [3]
-0.47157925 -1.3310765 -0.55620694
00000000: d672 f1be b760 aabf 9463 0ebf

beta f4 [3]
-0.4573674 -1.3692013 -0.5816699
00000000: 0f2c eabe fd41 afbf 52e8 14bf

beta f4 [3]
-0.44704485 -1.4082944 -0.55668324
00000000: 10e3 e4be fe42 b4bf cb82 0ebf

beta f4 [3]
-0.43869618 -1.4114485 -0.55359745
00000000: c99c e0be 58aa b4bf 90b8 0dbf

beta f4 [3]
-0.41934085 -1.3914095 -0.56918657
00000000: d8b3 d6be b519 b2bf 36b6 11bf

beta f4 [3]
-0.42903435 -1.3650514 -0.55921257
00000000: 64aa dbbe 01ba aebf 8e28 0fbf

beta f4 [3]
-0.45278743 -1.3281226 -0.5600563
00000000: c1d3 e7be ecff a9bf da5f 0fbf

beta f4 [3]
-0.41685218 -1.2886919 -0.6155223
00000000: a66d d5be dbf3 a4bf df92 1dbf

beta f4 [3]
-0.39793894 -1.2634958 -0.6279135
00000000: a7be cbbe 3bba a1bf f0be 20bf

beta f4 [3]
-0.36332303 -1.2564212 -0.65706974
00000000: 7a05 babe 69d2 a0bf b935 28bf

beta f4 [3]
-0.30819076 -1.2850243 -0.66282654
00000000: 2ecb 9dbe ad7b a4bf 00af 29bf

beta f4 [3]
-0.23765506 -1.3220514 -0.6739174
00000000: d95b 73be fb38 a9bf da85 2cbf

beta f4 [3]
-0.18194905 -1.336038 -0.7236096
00000000: da50 3abe 4b03 abbf 7b3e 39bf

beta f4 [3]
-0.06415028 -1.3565897 -0.75050676
00000000: 3961 83bd bba4 adbf 3621 40bf

beta f4 [3]
0.054178633 -1.3302144 -0.82842743
00000000: 6aea 5d3d 7744 aabf d213 54bf

beta f4 [3]
0.159459 -1.2812089 -0.88952434
00000000: 3849 233e a7fe a3bf deb7 63bf

beta f4 [3]
0.2505465 -1.2423785 -0.90396523
00000000: a147 803e 4206 9fbf 446a 67bf

beta f4 [3]
0.23727207 -1.2158339 -0.9178846
00000000: 73f7 723e 72a0 9bbf 7cfa 6abf

beta f4 [3]
0.23077205 -1.2347833 -0.85797477
00000000: 824f 6c3e 610d 9ebf 3ca4 5bbf

beta f4 [3]
0.20360695 -1.245813 -0.8253689
00000000: 577e 503e cd76 9fbf 604b 53bf

beta f4 [3]
0.1844442 -1.2820129 -0.77141273
00000000: f1de 3c3e 0019 a4bf 4e7b 45bf

beta f4 [3]
0.12500808 -1.336469 -0.707326
00000000: 1e02 003e 6b11 abbf 5113 35bf

beta f4 [3]
0.039698847 -1.370665 -0.67935175
00000000: 429b 223d f371 afbf ffe9 2dbf

beta f4 [3]
-0.10467835 -1.393293 -0.6296787
00000000: 9a61 d6bd 6d57 b2bf a032 21bf

beta f4 [3]
-0.1965959 -1.3999888 -0.5844145
00000000: 7050 49be d532 b3bf 309c 15bf

beta f4 [3]
-0.26334268 -1.3819994 -0.60557705
00000000: dad4 86be 5be5 b0bf 1907 1bbf

beta f4 [3]
-0.2974321 -1.33475 -0.6338113
00000000: 0549 98be 17d9 aabf 7541 22bf

beta f4 [3]
-0.3367563 -1.2915314 -0.66594833
00000000: 526b acbe e750 a5bf 977b 2abf

beta f4 [3]
-0.35313815 -1.2777824 -0.66311467
00000000: 86ce b4be 608e a3bf e2c1 29bf

beta f4 [3]
-0.35882947 -1.2670598 -0.72107476
00000000: 7fb8 b7be 042f a2bf 5b98 38bf

beta f4 [3]
-0.3503595 -1.281469 -0.757891
00000000: 5262 b3be 2d07 a4bf 2505 42bf

beta f4 [3]
-0.3866269 -1.2844212 -0.7900183
00000000: f6f3 c5be ea67 a4bf a43e 4abf

beta f4 [3]
-0.3911028 -1.2985568 -0.78628135
00000000: a03e c8be 1c37 a6bf bc49 49bf

beta f4 [3]
-0.40920427 -1.3043982 -0.75045544
00000000: 3983 d1be 85f6 a6bf d91d 40bf

beta f4 [3]
-0.41969293 -1.2726785 -0.767722
00000000: fee1 d6be 21e7 a2bf 6e89 44bf

beta f4 [3]
-0.4154617 -1.2512228 -0.7512064
00000000: 65b7 d4be 1228 a0bf 104f 40bf

beta f4 [3]
-0.39418927 -1.2298261 -0.76100516
00000000: 2dd3 c9be f16a 9dbf 3cd1 42bf

beta f4 [3]
-0.3470549 -1.2032614 -0.8196222
00000000: 2eb1 b1be 7804 9abf c3d2 51bf

beta f4 [3]
-0.28020257 -1.1924862 -0.8856583
00000000: b676 8fbe 63a3 98bf 81ba 62bf

beta f4 [3]
-0.19905931 -1.2029618 -0.9250307
00000000: 34d6 4bbe a7fa 99bf d0ce 6cbf

beta f4 [3]
-0.09205893 -1.2290218 -0.9349094
00000000: 6489 bcbd 9650 9dbf 3956 6fbf

beta f4 [3]
-0.0244653 -1.2577461 -0.90907943
00000000: 746b c8bc d3fd a0bf 6eb9 68bf

beta f4 [3]
0.030132262 -1.2723047 -0.8807074
00000000: efd7 f63c e1da a2bf 0a76 61bf

beta f4 [3]
0.073549 -1.2826496 -0.85367143
00000000: dca0 963d dd2d a4bf 368a 5abf

beta f4 [3]
0.13980895 -1.2792575 -0.8313574
00000000: 142a 0f3e b6be a3bf d7d3 54bf

beta f4 [3]
0.1260001 -1.2854534 -0.797012
00000000: 2c06 013e bd89 a4bf fa08 4cbf

beta f4 [3]
0.09941579 -1.2911983 -0.7580824
00000000: 819a cb3d fc45 a5bf b011 42bf

beta f4 [3]
0.053615175 -1.3215714 -0.7224602
00000000: 969b 5b3d 4029 a9bf 27f3 38bf

beta f4 [3]
0.017551607 -1.3746581 -0.68324715
00000000: 63c8 8f3c ccf4 afbf 49e9 2ebf

beta f4 [3]
-0.002927139 -1.429149 -0.6597152
00000000: 3ed5 3fbb 5bee b6bf 18e3 28bf

beta f4 [3]
-0.055570774 -1.4273268 -0.69712985
00000000: 2e9e 63bd a5b2 b6bf 1a77 32bf

beta f4 [3]
-0.0706009 -1.3990904 -0.7330091
00000000: 3497 90bd 6515 b3bf 7ca6 3bbf

beta f4 [3]
-0.094720684 -1.3162977 -0.80592
00000000: ebfc c1bd 717c a8bf c650 4ebf

beta f4 [3]
-0.09174346 -1.2067348 -0.9209823
00000000: ffe3 bbbd 4976 9abf 7fc5 6bbf

beta f4 [3]
-0.12003237 -1.1198304 -0.9928178
00000000: 88d3 f5bd 9a56 8fbf 4f29 7ebf

beta f4 [3]
-0.19471815 -1.0243585 -1.0726172
00000000: 3264 47be 2e1e 83bf 854b 89bf

beta f4 [3]
-0.3267526 -0.94035023 -1.1191739
00000000: 1e4c a7be cbba 70bf 1741 8fbf

beta f4 [3]
-0.3881355 -0.94343036 -1.1087979
00000000: b2b9 c6be a784 71bf 17ed 8dbf

beta f4 [3]
-0.42786193 -0.97513723 -1.0751383
00000000: b810 dbbe 98a2 79bf 229e 89bf

beta f4 [3]
-0.44411403 -1.0483849 -1.0028636
00000000: ea62 e3be 7a31 86bf d65d 80bf

beta f4 [3]
-0.4159852 -1.17174 -0.8802557
00000000: 03fc d4be 94fb 95bf 7058 61bf

beta f4 [3]
-0.38596722 -1.2983664 -0.71286285
00000000: 7f9d c5be df30 a6bf 2e7e 36bf

beta f4 [3]
-0.3467131 -1.3916143 -0.5494153
00000000: 6184 b1be 6b20 b2bf 7ba6 0cbf

beta f4 [3]
-0.362633 -1.4303669 -0.42853734
00000000: 08ab b9be 4316 b7bf 3f69 dbbe

beta f4 [3]
-0.3555403 -1.4477977 -0.35587823
00000000: 6109 b6be 6f51 b9bf ac35 b6be

beta f4 [3]
-0.35899684 -1.4473861 -0.31139645
00000000: 6fce b7be f343 b9bf 5b6f 9fbe

beta f4 [3]
-0.35737905 -1.4373133 -0.3219992
00000000: 63fa b6be e2f9 b7bf 14dd a4be

beta f4 [3]
-0.3266533 -1.4252528 -0.40615907
00000000: 1a3f a7be af6e b6bf 15f4 cfbe

beta f4 [3]
-0.34311372 -1.3714137 -0.52011764
00000000: 9aac afbe 7c8a afbf 6e26 05bf

beta f4 [3]
-0.4050914 -1.3195508 -0.60757565
00000000: 2468 cfbe 0ae7 a8bf 148a 1bbf

beta f4 [3]
-0.50544995 -1.2568246 -0.6808597
00000000: 2b65 01bf a1df a0bf d24c 2ebf

beta f4 [3]
-0.5693791 -1.1903142 -0.7481367
00000000: d4c2 11bf 375c 98bf e385 3fbf

beta f4 [3]
-0.6263962 -1.1238557 -0.8051675
00000000: 805b 20bf 81da 8fbf 751f 4ebf

beta f4 [3]
-0.635088 -1.0924907 -0.84752476
00000000: 2195 22bf bcd6 8bbf 62f7 58bf

beta f4 [3]
-0.58869946 -1.1085671 -0.85922563
00000000: 02b5 16bf 87e5 8dbf 36f6 5bbf

beta f4 [3]
-0.5011725 -1.1609823 -0.86620474
00000000: d74c 00bf 119b 94bf 98bf 5dbf

beta f4 [3]
-0.4053828 -1.2189978 -0.8503032
00000000: 568e cfbe 1f08 9cbf 78ad 59bf

beta f4 [3]
-0.33055183 -1.2763337 -0.7813818
00000000: 173e a9be e75e a3bf a308 48bf

beta f4 [3]
-0.2604313 -1.3195254 -0.7085142
00000000: 4057 85be 35e6 a8bf 3061 35bf

beta f4 [3]
-0.13687566 -1.340662 -0.67456365
00000000: 2229 0cbe d09a abbf 34b0 2cbf

beta f4 [3]
0.0068073077 -1.3815492 -0.58670604
00000000: d60f df3b 9bd6 b0bf 5e32 16bf

beta f4 [3]
0.13933766 -1.4258265 -0.5098962
00000000: 88ae 0e3e 7c81 b6bf 8f88 02bf

beta f4 [3]
0.2549052 -1.4466888 -0.47954354
00000000: ef82 823e 192d b9bf bb86 f5be

beta f4 [3]
0.3760121 -1.430813 -0.47487453
00000000: a884 c03e e124 b7bf c122 f3be

beta f4 [3]
0.5100597 -1.3937838 -0.4596508
00000000: 4693 023f 8267 b2bf 5a57 ebbe

beta f4 [3]
0.58219117 -1.3506626 -0.4198031
00000000: 7b0a 153f 83e2 acbf 6ff0 d6be

beta f4 [3]
0.6075315 -1.3175154 -0.4153264
00000000: 2f87 1b3f 58a4 a8bf a9a5 d4be

beta f4 [3]
0.6044366 -1.3103335 -0.3973507
00000000: 5bbc 1a3f 02b9 a7bf 8d71 cbbe

beta f4 [3]
0.58366734 -1.3030202 -0.41642806
00000000: 396b 153f 5ec9 a6bf 0f36 d5be

beta f4 [3]
0.57916236 -1.3011171 -0.46860483
00000000: fc43 143f 018b a6bf f9ec efbe

beta f4 [3]
0.5352073 -1.3316488 -0.5091622
00000000: 5803 093f 7873 aabf 7458 02bf

beta f4 [3]
0.50837487 -1.3544552 -0.5359354
00000000: db24 023f ca5e adbf 1033 09bf

beta f4 [3]
0.5061798 -1.343118 -0.6028044
00000000: 0095 013f 4aeb abbf 6451 1abf

beta f4 [3]
0.40895274 -1.3563958 -0.6564807
00000000: 4162 d13e 619e adbf 1f0f 28bf

beta f4 [3]
0.2935698 -1.3326013 -0.72842544
00000000: c84e 963e ae92 aabf 177a 3abf

beta f4 [3]
0.19264501 -1.2662927 -0.8194014
00000000: bc44 453e e115 a2bf 4ac4 51bf

beta f4 [3]
0.049156237 -1.1819228 -0.9033557
00000000: 0d58 493d 3f49 97bf 5242 67bf

beta f4 [3]
-0.039665677 -1.1359231 -0.9361432
00000000: 7a78 22bd ee65 91bf 15a7 6fbf
