code/experiment/dataset_similarity/encoder.pt (torch, 186744 bytes, 14 tensors)

encoder_cnn.0.weight f4 [8, 1, 3, 3]
000000 99 35 f8 bd bd 59 47 be 42 ae 74 bd 5a ec e0 bd
       -0.12119598 -0.19467826 -0.059736498 -0.109825805
000010 8e 18 d2 bd af c7 2a 3e 30 e4 9d bd 39 a5 48 3b
       -0.1025859 0.16677736 -0.07709539 0.0030616059
000020 d8 f1 29 3e f4 00 91 3b 53 79 83 3d 63 a0 1b 3e
       0.16596162 0.0044251624 0.06419625 0.15197901
000030 fb 90 c3 bd 73 3b 37 bd a3 e1 3e 3e db 85 06 be
       -0.09549137 -0.04473443 0.18640761 -0.13137
000040 9c 75 25 be 75 e3 c2 3c be c0 9b 3d 1a fb 64 3e
       -0.16158146 0.0237901 0.07605122 0.22361413
000050 82 38 01 3e 51 5e c5 3d 31 b0 01 bb da 08 1f be
       0.12619212 0.0963713 -0.0019788856 -0.1553072
000060 84 dd de bd 95 4f 62 be 3d f5 43 bd de e8 bd bd
       -0.108820945 -0.2210067 -0.0478413 -0.092729315
000070 28 6c f5 3c 8d 42 d4 bd ad 74 07 3d c0 35 65 3e
       0.0299588 -0.10364256 0.033070255 0.22383785
000080 47 d4 15 3d 3a 41 9d bd 63 1b 4d 3d a7 22 4a be
       0.036579397 -0.076784566 0.050074946 -0.19739781
000090 cb 78 c6 bd 27 03 e4 bd 93 0b e4 bd 28 11 f4 bd
       -0.09691008 -0.11133414 -0.1113502 -0.11917335
0000a0 27 38 13 bd 75 b3 07 be 28 71 fd bd ed f4 0d be
       -0.035942223 -0.13252051 -0.123750985 -0.13862963
0000b0 6d aa 82 bd 0b fb 5f be 68 4c 85 bd 59 e1 4d be
       -0.063801624 -0.21873109 -0.06508714 -0.20105495
0000c0 ab 5c f2 bd 43 0a d0 bd cc c9 95 bd d9 7e 87 be
       -0.11834081 -0.10158207 -0.0731388 -0.26463965
0000d0 cc 3e b0 bd 71 c8 76 be 6d ab 03 3d 2e 9d ca 3d
       -0.086057276 -0.240999 0.032145906 0.09893261
0000e0 58 2b 84 3d 85 3b a2 3d 4d 59 4a 3e 4a a9 cb 3d
       0.0645358 0.07921509 0.19760628 0.09944399
0000f0 ef f1 9f 3d 89 09 c4 3d 59 65 0b 3d ea 54 9a 3b
       0.07809817 0.09572131 0.0340322 0.0047098296
000100 84 f2 74 bd 09 05 6a 3c ba f0 b5 bd 32 03 3b be
       -0.059801593 0.014283427 -0.088838056 -0.18262938
000110 20 c0 ae bd dd d7 91 3c 87 0a 6f bd a6 4b 14 bc
       -0.08532739 0.017803127 -0.05835965 -0.009051239

encoder_cnn.0.bias f4 [8]
000000 b6 85 0a 3d 3d 61 bb 3a 64 0e 89 bb 1e 16 d6 3d
       0.033818923 0.0014295947 -0.0041826237 0.10453437
000010 96 db 84 3e 51 12 33 3e a6 8d 75 3e e3 97 93 3e
       0.2594878 0.17487456 0.23979816 0.28826818

encoder_cnn.2.weight f4 [16, 8, 3, 3]
000000 cd 49 3e 3d a1 a9 e8 bb d5 77 f2 bc 5c 0e d7 bc
       0.0464571 -0.0071002995 -0.029598156 -0.026251964
000010 29 94 58 bc 8a 98 ef 3b ee 8d 8f bc b5 99 04 be
       -0.013218918 0.0073118852 -0.017523732 -0.1294926
000020 93 29 23 bd f1 58 48 3d cc 5a ff 3b 85 ba 5f 3c
       -0.03983457 0.048912946 0.0077928063 0.01365531
000030 43 b5 22 3d e8 7e bf bb dd 17 04 3d f9 6c 1d 3e
       0.039723646 -0.005843986 0.03224932 0.15373601
000040 0d 58 ea 3d 72 1f 88 3d 59 2c 3c bd 03 e9 78 bc
       0.114425756 0.06646623 -0.04594073 -0.015192273
000050 e3 0f 15 3b 6b 30 0b be a8 d4 a9 bd 10 c2 29 bc
       0.0022745065 -0.13592689 -0.08292514 -0.0103612095
000060 fa 4d ed bc 4a 0b 3d 3c db 09 40 3d f3 77 1c bc
       -0.028967846 0.011538336 0.0468844 -0.0095500825
000070 02 e0 22 bc 83 73 e1 3c d3 15 02 be cd 3c 56 bb
       -0.009941103 0.0275209 -0.12703638 -0.0032690049
000080 a8 66 cd bb 90 10 9f 3c 10 80 2d 3d 23 24 7c 3d
       -0.006268341 0.019417077 0.042358458 0.0615579
000090 5d ef 22 3c 37 d1 aa 3d ea 59 84 3c 46 16 fd bd
       0.009944764 0.08340686 0.016156156 -0.12357764
0000a0 3b fb 9b 3c 9c 48 47 bb bb 33 71 3d 16 c5 21 bd
       0.019040694 -0.0030408269 0.058887225 -0.039494596
0000b0 3a 7a 94 3b 25 aa 65 bd 3b 20 b1 bc da fe e5 bc
       0.004531172 -0.056070466 -0.021621814 -0.028075624
0000c0 d1 26 2d be 82 56 e1 3c 97 38 80 bd 03 c4 a7 3c
       -0.16909339 0.02750707 -0.06260794 0.020479208
0000d0 6d 55 c6 bb ae 02 38 bd 2d 0c 97 3c 37 cb 24 bd
       -0.006052664 -0.04492443 0.018438423 -0.040232863
0000e0 70 41 d9 3b 07 9c 1e 3e c6 0e 18 be 7b 5f 7d bd
       0.006630115 0.15489207 -0.14849386 -0.061858635
0000f0 0d 57 a9 3d 4e 41 0b 3e ef 6a a0 3d db 4e bb bb
       0.08268557 0.1359913 0.07832896 -0.0057161874
000100 20 ed 9d 3d f5 dd 69 3d 77 79 c4 bd fc 81 e9 3c
       0.07711244 0.05709644 -0.0959348 0.028504364
000110 fd bc b2 3d b0 71 45 3d 83 5c 15 3d 60 00 d0 3d
       0.08727453 0.048204124 0.03646518 0.101563215
000120 a6 32 02 bc 86 3b bc bc a7 a7 2c 3c 57 9e e0 bc
       -0.007946646 -0.022977602 0.010538018 -0.027419252
000130 9d b9 48 3c 19 e7 3c 3d 8a da 0c 3d d9 2f 76 3c
       0.012251285 0.04611883 0.034388103 0.015026056
000140 95 a8 c3 3c 59 ff 8b ba 92 69 79 bd c6 e5 13 bd
       0.023884097 -0.0010680958 -0.060891695 -0.0361078
000150 f9 31 a3 3d 71 de 3a 3c de bc 42 3c 38 38 d3 3d
       0.07968516 0.011405573 0.01188585 0.10313457
000160 dc e7 86 3d 2a ef 53 bc f0 b8 f6 3c e7 e5 3d 3c
       0.065871924 -0.012935439 0.030117482 0.0115904575
000170 3b 6c 1b 3c a1 17 39 bb 9b 23 1f ba 8c 3c ec 3c
       0.009486253 -0.0028242844 -0.0006070674 0.028837465
000180 06 e0 41 bd 62 03 af bd 61 07 16 3c 16 7a 6a 3d
       -0.047332786 -0.08545567 0.009157033 0.057245336
000190 97 6f 30 bd 60 41 91 bd 9f 33 c2 3c ca 62 af bd
       -0.04307517 -0.070925474 0.023706255 -0.085637644
0001a0 bc 23 42 bc b7 c1 20 3d 35 d0 ad bd 02 c2 97 bc
       -0.01184934 0.03924724 -0.08486978 -0.018525127
0001b0 7d 96 0e bc 54 29 86 3d b4 a1 c8 bc 47 5b c7 bd
       -0.008702871 0.065508515 -0.024491169 -0.09734207
0001c0 4c ad 51 3e fa a8 98 3d 56 56 70 be bc 0c a7 3d
       0.20476264 0.07454105 -0.23470435 0.08156726
0001d0 d1 85 ab 3d 08 6b e3 3b e3 62 f0 3c df 2a 20 3a
       0.08375133 0.0069402494 0.029344028 0.0006109904
0001e0 10 07 48 bd 40 a0 05 3e 80 4e 66 3d f9 80 0c be
       -0.04883486 0.13049412 0.056227207 -0.13721074
0001f0 64 27 d2 3d cd 92 b9 3d d3 c4 33 3d c4 7d 61 bd
       0.102614194 0.09061203 0.043888878 -0.05505158
000200 15 fb 0b bd 75 42 88 3d 5c 3b 1d bd 1f e2 de bc
       -0.034174997 0.06653301 -0.038386688 -0.027207432
000210 28 31 05 3e 8a 3a ea 3c df 9e bb 3c 7b e2 2c 3e
       0.13007033 0.028592367 0.022902904 0.1688327
000220 c5 c9 28 bd b5 1b 06 be b7 e7 a5 b9 12 0b 9d 3d
       -0.041208047 -0.13096507 -0.00031643893 0.07668127
000230 de 05 f2 3c 97 eb a2 bd 45 07 c3 3d d5 c0 f3 3d
       0.029543813 -0.079550914 0.09522871 0.11902014
000240 25 3b 34 3d 13 c4 91 3c f6 90 29 bd 87 36 b1 3c
       0.044001717 0.01779369 -0.04139801 0.021632446
000250 dd d0 50 3d eb 3e fd ba 4f 5e 8c 3d b6 75 c7 bc
       0.050980438 -0.0019321119 0.068539254 -0.024348121
000260 fd b9 b2 bc ba a9 3b bc f7 e3 63 3c 45 08 fd 3c
       -0.021817202 -0.01145404 0.0139093315 0.030887732
000270 c4 e0 ac bc 15 1c 17 bd 1f 6b 8b 3d 73 8b ee 3c
       -0.02110327 -0.036892015 0.06807541 0.029119229
000280 d6 f8 be bd da 18 e5 3c 43 5b a6 bb b7 82 02 bd
       -0.093248054 0.027965952 -0.005076797 -0.03186294
000290 9c ae 3d bc 20 19 89 3d 5c ee 8a 3d db 88 93 3a
       -0.011577275 0.06694245 0.06783745 0.0011255996
0002a0 3f b0 2f bd b3 e1 da bd 76 68 5e bd 62 05 de 3c
       -0.04289269 -0.1068758 -0.05429884 0.027102176
0002b0 be e0 1e bc 56 fa 98 3c 0f ae f3 3c 7d 5c 01 bc
       -0.009697137 0.018674057 0.029746084 -0.007895586
0002c0 cf 91 6c 3d ef 96 7c bb 85 2c 04 be 15 09 e3 3c
       0.05775624 -0.0038542112 -0.12907608 0.027714292
0002d0 f2 45 d3 3b 62 cf da bb cf a0 b1 3b 27 e9 9d 3d
       0.006447547 -0.006677554 0.005420781 0.07710486
0002e0 46 0b 12 3d b0 96 ff 3a fd a8 9c 3c 47 f2 d7 bd
       0.035655282 0.0019499864 0.019123549 -0.105442576
0002f0 d1 98 c1 3d 23 ad a4 bc e6 40 6c bd ee a6 10 3b
       0.094529755 -0.02010209 -0.05767908 0.0022072154
000300 2e 36 a2 3d bd e3 b2 bc a1 04 30 3b d7 65 0c bd
       0.0792049 -0.02183711 0.0026858228 -0.03427681
000310 b8 29 94 be 60 12 0c 3c 19 7b b3 3c 83 48 92 bc
       -0.2893808 0.008549303 0.021909283 -0.017856842
000320 b4 1f ac bc 96 6d 2b bd 99 31 bc 3c 5e b1 9e bc
       -0.021011211 -0.041852556 0.022972869 -0.019371685
000330 95 72 33 3c 8a 15 c5 3e 05 f1 ee bb 73 09 65 3b
       0.010952611 0.38492996 -0.0072919154 0.003494826
000340 52 83 e4 3b 0a de 53 3b b1 ac 9b 3d e2 f4 1c 3d
       0.0069736624 0.003232839 0.07601298 0.038319476
000350 57 24 b6 3c ec 88 7a 3d 6c b3 a1 3d 36 f9 99 3d
       0.022234125 0.061165735 0.0789555 0.07518236
000360 fe 8e cf bc 9c 4e 16 3d de e2 94 bb a6 91 15 3d
       -0.025336739 0.03669606 -0.0045436462 0.036515854
000370 b9 83 c3 bc 71 5f 75 bb ec 3f 33 3d 69 3c 7d bc
       -0.023866521 -0.003744092 0.043762133 -0.015456297
000380 7d fa c3 bd 4a 61 57 3d 00 6f 96 3d ba 47 28 bd
       -0.09569261 0.052583016 0.0734539 -0.04108403
000390 db 23 54 3d ac d8 28 3e 3f 23 7e bd 2b 6e e5 3c
       0.051792007 0.16488904 -0.062045332 0.028006634
0003a0 97 0b b5 3d dc 5d 83 3d ee 23 66 ba fe d3 90 bc
       0.08840101 0.06414387 -0.00087791577 -0.01767921
0003b0 c8 37 48 bc 85 50 ef bc 06 db 97 bd 19 24 2e bd
       -0.012220331 -0.0292132 -0.07414822 -0.042514894
0003c0 e9 35 b6 3b 5d 47 fd bb 21 09 7e bd 96 9d e9 bb
       0.005560626 -0.0077294544 -0.062020425 -0.0071293814
0003d0 33 8b 8e 3b 33 f7 63 bd 62 94 08 3d 2f 62 30 bb
       0.00435009 -0.05565567 0.033344634 -0.002691399
0003e0 3b 76 38 bd 85 13 c8 3b eb f4 fb 3b c2 fa 51 3c
       -0.04503463 0.0061058425 0.0076891086 0.012816133
0003f0 c0 2b d8 b8 f9 0d 48 bb 47 83 81 3d 62 4e 2e bc
       -0.00010307832 -0.0030525906 0.06323867 -0.010638805

encoder_cnn.2.bias f4 [16]
000000 62 f7 2a b8 30 d7 f0 36 4c 7c db b8 06 74 2f 37
       -4.076155e-05 7.1776085e-06 -0.00010465886 1.0457827e-05
000010 59 e1 13 b8 d1 19 cd 36 13 a5 f8 36 35 f2 2c b8
       -3.5257402e-05 6.1124815e-06 7.410193e-06 -4.123357e-05
000020 fd 3b 04 39 34 cc 50 b8 e0 ec 84 b5 b6 2e c6 34
       0.00012610848 -4.9781243e-05 -9.903706e-07 3.691436e-07
000030 bf ae 16 38 66 5d 69 b8 b2 bf 05 b8 ce 6c 5a b8
       3.5925532e-05 -5.5638513e-05 -3.18882e-05 -5.2076583e-05

encoder_cnn.3.weight f4 [16]
000000 5f 1c 05 3f b4 c0 48 3f 45 43 0a 3f 61 ac 26 3f
       0.51996416 0.7841904 0.54008895 0.6510678
000010 7d 76 4a 3f 00 e3 f9 3e b2 24 71 3f 22 b7 0c 3f
       0.7908705 0.48806 0.9419662 0.5496694
000020 5c ef 6a 3f e5 58 24 3f 19 ed 10 3f 1b 5c 3f 3f
       0.91771483 0.6419814 0.5661178 0.74749917
000030 0b 1b 2e 3f b1 de 2b 3f 9a b2 3a 3f a5 76 55 3f
       0.68010014 0.67136675 0.72928774 0.8338416

encoder_cnn.3.bias f4 [16]
000000 ff c9 e5 3d 55 b1 2f be cd 94 9e 3d 80 31 19 be
       0.11220168 -0.1715749 0.07743225 -0.14960289
000010 4e 3f 03 3f 0a 2e 14 be 55 39 a5 bd 79 a0 15 bd
       0.5126847 -0.14470688 -0.08067576 -0.03652999
000020 ce 30 6c 3c 15 ee bf bc b0 94 e6 3d 93 95 bb 3d
       0.014415933 -0.023428956 0.11258829 0.091593884
000030 40 16 dd 3e ad c3 04 be 89 03 26 be 4b cf 9e 3d
       0.43181038 -0.1296527 -0.16212286 0.07754382

encoder_cnn.3.running_mean f4 [16]
000000 d9 d4 01 3e 69 87 12 3e c5 bc 45 3e ff c4 3d 3d
       0.12678851 0.14309467 0.19310291 0.04633045
000010 72 42 9c bd e7 7f bd 3d 7e b1 67 bd 47 4b 86 3e
       -0.07629861 0.09252911 -0.056565754 0.26229307
000020 54 d1 93 3e 23 af dc 3e 9f 46 02 3d 54 7c c0 bc
       0.28870642 0.4310237 0.03180563 -0.023496784
000030 3a 38 b6 3d e1 56 70 3e 9a ad 9a bd d2 ce ef 3e
       0.08897443 0.23470642 -0.07552643 0.4683748

encoder_cnn.3.running_var f4 [16]
000000 b7 05 a0 3b a3 4d bd 3b 7c b1 ca 3b 30 70 a3 3b
       0.0048834938 0.0057770773 0.0061857086 0.004987739
000010 b4 c9 12 3d 0a 12 2d 3b 4c b0 84 3c 99 71 91 3b
       0.03583689 0.0026408457 0.016197346 0.0044385907
000020 2a 97 27 3c 0c 12 d5 3b e6 03 b6 3b 42 3d 20 3c
       0.010228911 0.0065023955 0.005554664 0.00978023
000030 f2 4b d6 3c 3d 1d ab 3b d1 66 29 3c cf 1e 80 3c
       0.02615926 0.0052219913 0.010339455 0.01563969

encoder_cnn.5.weight f4 [32, 16, 3, 3]
000000 c9 a9 81 3d 76 94 10 3d 43 2a 28 bd 46 b1 5e bd
       0.06331212 0.035297833 -0.04105593 -0.05436828
000010 45 32 b4 bd e1 3b 25 3c 0a a3 4c 3d 9d 22 a9 bd
       -0.08798651 0.010085077 0.049960174 -0.08258555
000020 26 4b 85 bc d5 2e 37 3c a1 b6 55 bd 85 6b af bd
       -0.016271185 0.011180599 -0.05217612 -0.085654296
000030 85 13 cc bc 51 c5 96 bd 99 e9 0c 3d ab e9 91 3d
       -0.024911651 -0.07361854 0.034402464 0.07124647
000040 b4 6b 60 bd dd 87 d1 3d 23 72 90 bb 4c b7 9d bd
       -0.054790214 0.10230992 -0.0044081374 -0.07700977
000050 8d 44 99 bb c4 25 2f bd 95 ed c6 3d 96 d7 18 3d
       -0.0046773613 -0.042760625 0.09713284 0.037314974
000060 8e cd df bd ea a1 99 3d 8a c7 26 3e be e6 5d 3d
       -0.10927878 0.07501586 0.16287056 0.05417513
000070 8b be 66 3c 62 61 a6 bd b5 38 32 3d 9f 27 39 3d
       0.014083515 -0.08124043 0.04351111 0.0452038
000080 73 03 1f 3d 4f cc 8a bc 77 ab 11 3e 13 72 9f 3d
       0.03882165 -0.016943125 0.14225565 0.0778543
000090 91 c6 06 3d 9f 09 52 bd ce b0 0d bd 17 35 9e 3c
       0.03290421 -0.051278707 -0.034592442 0.019312425
0000a0 f7 d1 04 3d 8e 58 84 3d ac c2 16 3e ac 90 74 be
       0.0324268 0.06462203 0.14722699 -0.23883313
0000b0 49 29 c4 3d 00 bc 89 3d 62 24 99 3d f6 60 58 bd
       0.09578187 0.06725311 0.074776426 -0.052826844
0000c0 ea eb 05 3e bf 09 61 3d 44 9b 8a 3c bd 91 0b 3e
       0.13078275 0.054940935 0.01691974 0.13629813
0000d0 ed b9 2a 3e b2 6c a5 3d 6d 2b 98 3d 12 20 71 bd
       0.16672488 0.080773726 0.07430158 -0.058868475
0000e0 0c 21 eb bb 05 1d 0e 3e 85 e7 c2 bc 80 44 02 3b
       -0.0071755704 0.13878258 -0.023792038 0.0019877255
0000f0 c1 5e 89 3e 6f 03 f3 bd 1d 28 d7 bd 72 83 17 bd
       0.26830104 -0.11865889 -0.10505698 -0.03699059
000100 9e 5d 7e 3b f0 fb 23 3d ae 93 a1 bd e7 06 be 3c
       0.0038813124 0.04003519 -0.07889496 0.02319665
000110 a1 9d 76 3c b3 07 56 3a 4c 63 57 3d 09 7d 79 bd
       0.01505223 0.00081645994 0.05258493 -0.06091026
000120 85 10 31 3c 3f b2 af 3c c4 22 38 bd e7 ca 2a 3d
       0.010807161 0.021447299 -0.04495503 0.04169741
000130 c8 b8 0e bd 80 37 07 be 17 4e a3 bd 18 cf 71 bc
       -0.03484419 -0.13204765 -0.07973879 -0.014758848
000140 65 e1 19 3c ee 06 a0 3c 26 02 56 ba fa 34 fc ba
       0.009392117 0.019534554 -0.0008163772 -0.0019241862
000150 ca f1 a2 bd 8f f4 f0 3c 19 85 75 bd 45 6f 2f 3d
       -0.07956274 0.02941349 -0.059941385 0.042830724
000160 39 8a e1 bc 67 cc 56 3c 24 ae 38 b9 9f e2 6e bd
       -0.02753173 0.013110257 -0.0001761248 -0.05832159
000170 3a c5 38 3b e2 b7 ae bd c7 b8 18 be 42 b9 3b 3d
       0.0028193728 -0.085311666 -0.14914237 0.045830972
000180 28 23 ff 3d 3d 11 66 3b 2c 6a 4e 3c 32 28 c7 bd
       0.124578774 0.003510549 0.012598556 -0.097244635
000190 53 b9 44 3c 75 02 bc bd 5a 38 98 bd f9 76 55 3d
       0.012007075 -0.09180156 -0.07432623 0.052115414
0001a0 74 2d a2 bd e5 41 0a bd 5e 68 e5 bc 79 01 8e bc
       -0.07918826 -0.03375425 -0.028003868 -0.017334687
0001b0 f6 f7 81 bc e3 b1 fe 3c dd 1b f1 bc e5 c5 41 3d
       -0.015865307 0.031090682 -0.029432232 0.047307868
0001c0 34 50 9d bc 96 cd a7 bd d7 d4 a5 3c 42 b9 ba 3d
       -0.019203283 -0.08193509 0.020243092 0.091173664
0001d0 02 c0 c2 bc db d1 37 3d 29 e7 48 3c 14 a1 98 3c
       -0.023773197 0.04487787 0.012262144 0.018631496
0001e0 60 92 ce bb 50 dd 46 bd af 9c 08 3e b7 b2 9f 3d
       -0.0063040704 -0.048550904 0.1334102 0.07797759
0001f0 70 04 fe 3d c7 99 ae bc 03 a0 e3 3c 3b 7c e0 bd
       0.1240319 -0.021313561 0.02778626 -0.10961195
000200 02 59 81 bd 75 ff a8 bd 95 02 83 3d 75 a3 20 3c
       -0.06315805 -0.082518496 0.06396977 0.009804596
000210 7e a5 01 3d 19 78 fc bc 87 6b ab bd ae 33 9c ba
       0.031651966 -0.030818986 -0.083701186 -0.0011917257
000220 68 e9 cd 3a cf 59 ca 3c 05 4c 33 3d f2 23 ab bd
       0.0015709819 0.024701027 0.04377367 -0.083564654
000230 f3 de 85 bc bb b5 7c 3d 71 6f e1 3c 21 d5 17 3c
       -0.016341662 0.06169675 0.02751896 0.0092671225
000240 06 18 b6 bc a5 60 27 be 3e 3a 15 be a7 ba c0 3d
       -0.022228252 -0.1634546 -0.14572999 0.09410601
000250 1c e9 37 3d a9 95 3f 3b 4d b3 7e bd a8 7a 69 bb
       0.044900045 0.0029233492 -0.062182713 -0.0035626087
000260 43 64 34 3b bc 6b 72 bd 9f 1e 12 bd 6d 77 1a bd
       0.002752558 -0.059184775 -0.035673734 -0.03771155
000270 31 0d e8 3d 4b 16 2b 3d fc dd 3b bd 73 9d 05 bd
       0.11330641 0.041769307 -0.045865998 -0.03262086
000280 cd 85 5e 3c dd e2 68 3c 85 0e 8e 3d cb f9 f9 bc
       0.013581705 0.014214245 0.06936363 -0.030514618
000290 8a ae db bc cc 2d 84 bb d2 9d 96 3d 15 15 95 3d
       -0.026816625 -0.0040337797 0.073543206 0.07279412
0002a0 7f bb 0d bd fb 15 72 bc 97 ab 81 3d a8 14 df bd
       -0.03460264 -0.014775748 0.06331556 -0.10892612
0002b0 49 4a 37 bc f6 3a fe 3c 8d c4 d7 3d 42 30 05 bc
       -0.011187145 0.031033974 0.10535536 -0.008129181
0002c0 9e 25 b2 bc 4f 9c dd 3c 41 6c d5 3c 0f f1 59 3d
       -0.021746453 0.027052073 0.026052596 0.053208407
0002d0 48 51 61 be 34 43 54 be 95 52 92 bd 04 9c 81 3d
       -0.22003663 -0.20728761 -0.071446575 0.06328586
0002e0 e6 21 0f bd 12 2c 0c 3d 06 0b c5 3b cf 96 5f 3d
       -0.034944437 0.034221716 0.006013277 0.05458718
0002f0 f3 17 6f bb d9 da 0a bc 5d 11 89 bc 20 ce 26 bd
       -0.003648278 -0.008475029 -0.016731912 -0.04072392
000300 7f 94 21 bb 23 39 c2 bb 39 f0 86 bd 4d 6f ce 3d
       -0.002465516 -0.0059272214 -0.065887876 0.10079823
000310 a7 67 24 bc 70 3d 70 3d aa 4c 68 3d 83 ce 86 3e
       -0.010034478 0.05865234 0.056713738 0.2632943
000320 52 66 e2 bc 75 74 ea 3c e8 81 12 3d 34 5d 34 bd
       -0.02763668 0.028619984 0.03576842 -0.044034198
000330 b0 a3 5e 3d b4 cf 08 bd 0b 08 c8 bd 94 9d 64 bc
       0.054355323 -0.033401206 -0.09767159 -0.013953585
000340 64 bf f5 3b e7 d0 4b bd 53 82 0c 3e 57 52 b8 3d
       0.007499622 -0.04975977 0.1372159 0.0900008
000350 c5 95 24 3d 69 70 ed 3a f5 79 6e bd e5 4c ad bc
       0.040181894 0.0018115166 -0.058221776 -0.02115483
000360 85 b8 a9 3d c5 f5 85 3d c9 32 05 3d ea d8 88 3d
       0.082871474 0.065410174 0.032519136 0.06681998
000370 17 7b d8 bb 2e f0 5d 3c 7f 19 a1 3c 42 9d b4 bc
       -0.0066064703 0.013546033 0.019665478 -0.022047643
000380 a2 a6 87 bd 02 81 d4 b9 dc ae 9f bc d2 e7 5a bd
       -0.066235796 -0.0004053191 -0.01949256 -0.053443737
000390 dc 4a 44 bc b9 0b 0e be 12 b6 6e 3d 96 10 b5 3c
       -0.0119807385 -0.1387166 0.058279105 0.022102635
0003a0 d9 6f 92 bd fb 72 7d bc f9 b0 cc bb 02 f5 ef 3c
       -0.071502395 -0.015469308 -0.0062466827 0.029291634
0003b0 04 b3 05 be b1 d5 d8 3c b1 4d fa bc de 7d 54 3b
       -0.1305657 0.026469084 -0.030554624 0.0032423656
0003c0 35 86 11 3d b7 a7 9e bc d4 df 80 bb b7 af 17 3e
       0.03552838 -0.019367082 -0.0039329324 0.14813124
0003d0 d8 43 9b bd 08 df 68 bd 42 40 00 be ec bc 9d bd
       -0.075812995 -0.056853324 -0.12524512 -0.077020496
0003e0 a7 65 86 bd 6a 11 cf bc c6 3d f2 bd 0d a3 ab 3c
       -0.065623574 -0.025276858 -0.118281886 0.020951772
0003f0 54 97 23 bd d9 38 4b bd 35 7f 87 bb c0 c4 8a 3d
       -0.03993924 -0.04961476 -0.0041350373 0.06775808

encoder_cnn.5.bias f4 [32]
000000 f5 89 d6 bc 7a b4 11 3e e9 06 0f bd ad 78 2d bc
       -0.02618883 0.14229003 -0.0349187 -0.010587853
000010 a5 5a c7 be 87 9d f7 bb ce 7b 0e 3c 6d 70 88 bd
       -0.38936344 -0.0075566205 0.0086965095 -0.066620685
000020 04 73 58 3b a9 f7 ee bc 1c c8 32 bc b9 4f a4 3d
       0.003302754 -0.029170828 -0.010911968 0.080230184
000030 80 5b 12 bc 83 f3 9f 3d 96 da e4 3d da a8 68 3d
       -0.008932948 0.07810118 0.111745045 0.056801654
000040 e6 92 8b 3e f9 0a 80 bd a0 19 95 3d 68 67 a2 bc
       0.27260512 -0.06252093 0.07280278 -0.019824699
000050 4c 90 18 bd cc 49 6c 3c c8 d1 97 3c e7 ba 53 3d
       -0.037246987 0.014421891 0.018532649 0.051691916
000060 47 ad a5 bd 44 12 89 bd d8 81 cd 3c 8f 13 1c 3e
       -0.08089691 -0.06692937 0.025086328 0.15241836
000070 22 c1 84 bd 50 a5 3e 3d 56 f0 d7 3d 5a 5b 57 3d
       -0.0648215 0.046544373 0.10543887 0.052577354

encoder_lin.0.weight f4 [128, 288]
000000 a0 e1 09 80 0e 60 07 80 61 e7 05 80 2d 02 05 80
       -9.07458e-40 -6.77306e-40 -5.4218e-40 -4.59958e-40
000010 40 63 06 00 99 49 08 80 c2 e8 01 80 39 d2 08 80
       5.86617e-40 -7.61086e-40 -1.75333e-40 -8.10098e-40
000020 2b 21 08 00 f9 4c 05 00 b2 19 06 00 da 06 03 00
       7.46582e-40 4.8679e-40 5.60231e-40 2.77964e-40
000030 97 d1 02 80 0f 8c 08 00 d0 95 08 80 2a 18 0c 80
       -2.58858e-40 7.84928e-40 -7.88427e-40 -1.110694e-39
000040 27 0e 00 80 b4 a0 01 80 63 40 01 80 bf cf 08 00
       -5.077e-42 -1.49485e-40 -1.14933e-40 8.09209e-40
000050 f8 eb 09 80 e3 6c 05 00 ff a4 08 80 16 61 07 80
       -9.11169e-40 4.98239e-40 -7.93873e-40 -6.77676e-40
000060 09 cb 07 00 db b6 08 00 6c a6 04 00 85 01 0d 80
       7.15684e-40 8.0028e-40 4.27043e-40 -1.194407e-39
000070 d6 e2 03 80 df e1 00 80 4a 74 0a 80 90 00 09 80
       -3.5688e-40 -8.1027e-41 -9.60072e-40 -8.26721e-40
000080 56 f4 03 00 2c 25 06 80 18 17 00 80 51 6b 02 80
       3.63158e-40 -5.64348e-40 -8.284e-42 -2.22169e-40
000090 c3 9d 06 00 d7 3d 03 80 e1 84 08 80 4c 1d 0a 80
       6.07607e-40 -2.9769e-40 -7.82352e-40 -9.28865e-40
0000a0 80 60 03 80 af 6b 08 80 4b 1f 06 80 a5 79 00 80
       -3.10124e-40 -7.73314e-40 -5.62239e-40 -4.3638e-41
0000b0 af 69 00 80 03 0f 09 80 6c 03 0b 00 44 f3 06 00
       -3.7912e-41 -8.31905e-40 1.011418e-39 6.3828e-40
0000c0 f6 6e 06 80 66 94 00 80 fc 26 04 80 9d f3 06 80
       -5.90818e-40 -5.3235e-41 -3.81327e-40 -6.38405e-40
0000d0 e6 e1 01 00 ec bf 02 80 f7 18 04 80 85 cc 0f 00
       1.72873e-40 -2.5252e-40 -3.76298e-40 1.4509e-39
0000e0 05 3b 01 00 5e 16 08 00 d8 9c 05 00 a3 6f 07 80
       1.13008e-40 7.42708e-40 5.15442e-40 -6.82896e-40
0000f0 65 1d 03 80 2e 74 09 80 fb 8c 02 00 fb d7 07 80
       -2.86051e-40 -8.68197e-40 2.34245e-40 -7.20328e-40
000100 77 e8 07 00 fb b4 02 00 18 07 00 00 70 c7 09 80
       7.26241e-40 2.48595e-40 2.545e-42 -8.98064e-40
000110 44 92 0a 00 74 53 05 80 73 f5 01 80 9e ce 04 00
       9.70825e-40 -4.89115e-40 -1.79886e-40 4.41462e-40
000120 4b 62 04 00 89 d5 0a 00 ba 07 02 00 68 a8 07 80
       4.02603e-40 9.94957e-40 1.86443e-40 -7.03261e-40
000130 18 b6 08 80 3d 40 02 00 c9 45 05 00 37 e4 07 00
       -8.00007e-40 2.06715e-40 4.84212e-40 7.24717e-40
000140 8c b3 00 00 30 35 0b 00 82 19 03 00 02 02 0a 80
       6.4409e-41 1.02927e-39 2.84657e-40 -9.19075e-40
000150 dd 87 05 00 bc 87 06 80 b8 44 04 80 14 32 02 80
       5.07916e-40 -5.99705e-40 -3.91994e-40 -2.01636e-40
000160 23 d3 03 80 e8 db 08 00 65 a4 04 80 19 2b 0b 00
       -3.51248e-40 8.13571e-40 -4.26316e-40 1.025651e-39
000170 9d 0d 09 00 d0 bd 09 80 e9 99 02 80 e2 54 08 00
       8.31403e-40 -8.94611e-40 -2.38884e-40 7.65134e-40
000180 1c 1e 08 00 71 7a 03 00 72 34 0a 80 36 97 03 00
       7.45485e-40 3.1943e-40 -9.37169e-40 3.29751e-40
000190 9c b9 04 80 ea fa 07 80 7a f3 02 00 35 0f 09 00
       -4.33926e-40 -7.3286e-40 2.71014e-40 8.31975e-40
0001a0 c6 2e 00 80 d4 5d 06 00 3c 98 07 00 c4 83 07 00
       -1.6779e-41 5.84672e-40 6.9746e-40 6.90117e-40
0001b0 61 e9 0a 80 f8 38 03 80 14 9f 07 80 8f 72 00 00
       -1.002076e-39 -2.95943e-40 -6.99915e-40 4.1096e-41
0001c0 df 5e 03 80 0b 0c 05 00 79 e6 02 00 20 8d 08 00
       -3.0954e-40 4.63498e-40 2.66349e-40 7.8531e-40
0001d0 5c ea 07 80 a3 6b 04 00 b6 60 02 00 1d 76 03 00
       -7.26921e-40 4.05955e-40 2.18364e-40 3.17878e-40
0001e0 02 5c 04 80 48 4b a0 07 3d ed 92 81 f0 6b 02 80
       -4.00348e-40 2.411837e-34 -5.397235e-38 -2.22392e-40
0001f0 2a c9 71 81 30 2e 05 00 a5 03 08 80 f0 a9 00 80
       -4.4409037e-38 4.75746e-40 -7.35991e-40 -6.0962e-41
000200 44 42 02 80 58 01 01 00 23 51 08 00 39 c6 00 00
       -2.07443e-40 9.2318e-41 7.6379e-40 7.1109e-41
000210 d6 31 03 00 b3 a6 03 00 b9 f2 00 00 e2 6a 04 00
       2.93384e-40 3.35307e-40 8.7072e-41 4.05684e-40
000220 3a f1 0d 80 5a 81 02 80 a1 11 29 90 09 97 31 9b
       -1.280397e-39 -2.30074e-40 -3.3342954e-29 -1.4689899e-22
000230 ef dd 06 80 06 5e ce 94 12 7a c8 9a 14 6f 04 00
       -6.30628e-40 -2.083777e-26 -8.2915276e-23 4.0719e-40
000240 a0 85 16 8b 6b 48 a7 9a 0a 09 01 00 c0 21 d5 98
       -2.8989477e-32 -6.918658e-23 9.5078e-41 -5.509329e-24
000250 03 ad d4 9c 0b df 04 00 a1 d4 01 00 aa 8a 01 00
       -1.4073706e-21 4.47355e-40 1.68112e-40 1.41579e-40
000260 0a 2a 02 80 0d 2d 04 00 92 ae 07 80 80 a3 07 80
       -1.98752e-40 3.83503e-40 -7.05473e-40 -7.01501e-40
000270 05 1b 09 80 da ca 06 80 5a c3 00 80 bd 3b 08 00
       -8.36212e-40 -6.23782e-40 -7.0079e-41 7.56114e-40
000280 b7 05 07 00 56 96 01 80 14 5b 05 00 db 2c 04 00
       6.44899e-40 -1.45766e-40 4.9185e-40 3.83433e-40
000290 42 aa 04 00 d9 eb 01 80 ce 74 03 80 de 37 08 00
       4.28419e-40 -1.76442e-40 -3.17408e-40 7.54725e-40
0002a0 96 41 08 00 92 0a 00 80 d3 22 05 80 5e 5c 08 80
       7.58212e-40 -3.792e-42 -4.7167e-40 -7.67819e-40
0002b0 67 38 04 80 eb 9d 02 00 7f a7 00 00 21 03 07 00
       -3.87575e-40 2.40321e-40 6.0086e-41 6.43971e-40
0002c0 8e 57 00 80 b6 e7 01 00 ee e9 07 80 88 e9 05 80
       -3.1409e-41 1.74958e-40 -7.26767e-40 -5.42953e-40
0002d0 24 33 08 00 eb 70 04 80 26 57 04 00 19 05 08 00
       7.5303e-40 -4.0785e-40 3.98605e-40 7.36513e-40
0002e0 3c 68 07 00 73 9a 03 00 de 80 03 80 fd c4 05 80
       6.80241e-40 3.30912e-40 -3.21735e-40 -5.29844e-40
0002f0 13 e8 05 00 00 ff 09 00 f8 37 08 80 b6 5f 01 80
       5.4243e-40 9.17996e-40 -7.54762e-40 -1.2617e-40
000300 b7 5b 0b 00 b8 aa 09 80 a6 ca 06 00 43 93 07 80
       1.043092e-39 -8.87762e-40 6.2371e-40 -6.95676e-40
000310 7f 1b 05 80 4f e4 08 00 0d 87 08 00 b1 80 07 80
       -4.69041e-40 8.16586e-40 7.83131e-40 -6.89014e-40
000320 70 ac 05 00 93 b2 0b 80 d3 7e 08 00 d7 ff 06 80
       5.21036e-40 -1.074251e-39 7.8018e-40 -6.42791e-40
000330 36 28 07 00 66 31 07 80 c1 f8 00 00 18 ce 02 00
       6.57273e-40 -6.60569e-40 8.9236e-41 2.57603e-40
000340 38 f5 05 80 35 76 01 80 f9 1b 04 00 7b 6b 03 80
       -5.47145e-40 -1.3424e-40 3.77377e-40 -3.14063e-40
000350 38 38 07 80 b4 c7 01 00 b0 e2 07 00 ea 10 05 80
       -6.63016e-40 1.63475e-40 7.24169e-40 -4.65245e-40
000360 b2 7f 08 80 0d 57 04 00 fc cd 03 00 15 a4 04 00
       -7.80492e-40 3.9857e-40 3.494e-40 4.26204e-40
000370 89 73 07 00 f3 3e 0b 80 bc fb 07 00 90 10 09 00
       6.84295e-40 -1.032772e-39 7.33154e-40 8.32461e-40
000380 ff 08 04 80 a7 f7 0d 80 6a c6 06 00 ad e5 09 80
       -3.70569e-40 -1.282702e-39 6.2219e-40 -9.08912e-40
000390 85 cc 09 80 8c 5f 08 00 18 40 06 80 f6 49 00 00
       -8.99887e-40 7.6896e-40 -5.74005e-40 2.6532e-41
0003a0 c8 27 0a 00 f7 01 05 80 50 ea 05 00 cd 9b 09 00
       9.32626e-40 -4.59882e-40 5.43233e-40 8.8241e-40
0003b0 18 4d 00 00 72 88 00 80 cc b6 07 00 ec 36 07 80
       2.7656e-41 -4.8947e-41 7.08424e-40 -6.62551e-40
0003c0 bc fc 07 00 3a b9 02 80 16 14 0a 00 b4 6c 07 00
       7.33512e-40 -2.50118e-40 9.2556e-40 6.81844e-40
0003d0 02 f3 33 9d 89 ee 9d 9a 4a 09 06 80 98 16 22 a3
       -2.3816085e-21 -6.531905e-23 -5.54345e-40 -8.786822e-18
0003e0 df 66 14 9b f3 83 03 80 8a ea 03 80 2c 04 02 80
       -1.2275513e-22 -3.22841e-40 -3.59643e-40 -1.85168e-40
0003f0 aa 56 c7 99 c1 b9 06 00 68 8a 04 80 fd 7e 06 00
       -2.0611121e-23 6.17649e-40 -4.16993e-40 5.96568e-40

encoder_lin.0.bias f4 [128]
000000 39 97 5d 80 7b 4f 86 bd 5b 9e f1 b9 09 64 ef bc
       -8.59495e-39 -0.065581284 -0.00046085086 -0.029222505
000010 55 d2 d5 3d 93 64 9d ae d7 d9 6d bd f2 19 10 3e
       0.10440508 -7.157399e-11 -0.058069076 0.14072397
000020 9e 58 66 3d e6 c1 e8 3c eb 6b f0 3d 64 f4 25 3d
       0.056236856 0.02841277 0.11739334 0.040516272
000030 03 31 15 3e 2c 90 97 3d 6d f3 b6 af 37 dd ec 3c
       0.14569478 0.074005455 -3.3278572e-10 0.028914077
000040 d7 69 f9 3c f9 9f 3b 3d 75 65 66 3d 05 89 aa 3d
       0.030445976 0.04580686 0.0562491 0.08326916
000050 0b 60 94 3d 88 2c 9e bc d4 d4 78 b1 94 36 e3 3d
       0.07244881 -0.019308344 -3.6209729e-09 0.11094394
000060 44 b7 75 ba 4e 30 07 80 2b a9 58 3d ea 9b ba 3d
       -0.0009373317 -6.60177e-40 0.052895706 0.091117695
000070 29 de e3 3c 8c e9 78 3d 7e fd 5b 3d a5 56 c9 3d
       0.027815895 0.060769603 0.053708546 0.09830979
000080 f8 81 66 bc d9 82 43 3d b1 29 52 3c 60 e7 f4 3c
       -0.014069073 0.047732208 0.012827323 0.029895484
000090 6e 49 20 3d 97 86 92 3d 8d bd 7d 3c 16 85 ef bc
       0.039132528 0.07154577 0.015487087 -0.029238265
0000a0 c8 e3 02 80 b4 0b 90 bb 73 d5 1e bc db 31 85 bc
       -2.65384e-40 -0.0043959264 -0.009694445 -0.016259125
0000b0 4b 41 03 3e a0 c0 84 bd 0f d5 03 3e a4 ae 64 3d
       0.12817876 -0.06482053 0.12874244 0.055830613
0000c0 22 19 db 3a 8b 4a ea bb bc 16 45 3d 4f 77 23 95
       0.0016715864 -0.0071499995 0.048117384 -3.3011706e-26
0000d0 ec 31 39 ba eb c9 fe 3d f9 98 aa 3d 20 63 08 3d
       -0.0007064629 0.124408565 0.083299585 0.033297658
0000e0 4c 1c 09 a5 4d 34 a7 9a f9 f0 e6 99 07 97 56 bc
       -1.1892443e-16 -6.915408e-23 -2.387877e-23 -0.013097531
0000f0 c0 50 11 0f e3 86 25 3e ec f4 4e bd 1a d2 e1 3d
       7.164604e-30 0.16164736 -0.050526544 0.11026402
000100 34 a5 54 bc 04 c4 4a 3d 32 43 91 3c 57 9b 5d 3d
       -0.012978841 0.04950334 0.017732237 0.05410322
000110 3e dd 21 3c 48 a3 00 3a e4 a8 a6 3d 2f 14 73 b9
       0.009879408 0.00049071433 0.08137682 -0.00023181805
000120 83 4c b5 3d a4 c5 93 3c 2b ba ca bc 5e 12 56 3a
       0.08852484 0.018038578 -0.024746975 0.0008166189
000130 eb 6b 98 3d 0a 9b 48 3d b2 68 34 3d dd b0 83 3d
       0.07442459 0.04897598 0.044045158 0.06430218
000140 f4 1f 98 bd 88 c5 9a 3d 57 02 aa bd e3 96 28 bc
       -0.074279696 0.07557207 -0.083012275 -0.01028988
000150 a6 f7 ae 3d 6c 56 75 bb d8 85 2a b9 64 65 0a 3d
       0.08543329 -0.0037435545 -0.00016262324 0.0337881
000160 63 13 c8 bc d1 e2 87 3d 28 2e 0b 3e 12 a8 8f 02
       -0.024423307 0.06635059 0.13591826 2.110843e-37
000170 1b 52 30 bc fa 9a ab 3d 6c 92 31 3e 3f 9e a2 3d
       -0.010761763 0.08379169 0.17341012 0.07940339
000180 d4 b1 1e 3c 7b 36 ef 3c 65 75 01 00 e3 ed 7b bc
       0.009685952 0.029200783 1.33949e-40 -0.015376541
000190 f9 98 28 bd 75 a2 04 3d 84 09 ea 3d 73 5c 30 3e
       -0.04116151 0.032381494 0.11427596 0.17222767
0001a0 97 48 a8 bc 12 fb 81 3d c7 95 a3 3d 6b de 2d 3d
       -0.020542426 0.06346716 0.07987552 0.042448442
0001b0 f2 2b 29 bd 2e b4 56 b4 bb 02 5f bd 51 71 9e bc
       -0.041301675 -1.9995852e-07 -0.054445963 -0.019341143
0001c0 12 4c 4d bd 41 1d 28 3e bc db 78 3c a1 2b 63 bd
       -0.050121374 0.1641741 0.0151891075 -0.05546153
0001d0 55 b3 1b 3e 16 1d 4e bd f8 56 aa bc 77 25 2d 3d
       0.15205128 -0.050320707 -0.020793423 0.042272057
0001e0 d5 23 a6 bd e2 bb c1 3c e4 a3 10 3b e6 39 25 3e
       -0.08112303 0.02364916 0.0022070343 0.16135368
0001f0 eb b0 99 3d 7a 7f 15 3d 82 87 16 3d c7 11 03 3c
       0.075044475 0.036498524 0.036750324 0.007999844

encoder_lin.2.weight f4 [20, 128]
000000 fb ab 68 2f 87 75 f3 bd ef 9d 16 3e be 18 7a 3d
       2.1161377e-10 -0.11887651 0.14708684 0.061058752
000010 de 0e cf 3c c8 d3 96 b8 91 58 49 bd cc a3 20 3d
       0.025275644 -7.192005e-05 -0.04915673 0.03921871
000020 47 f2 55 3e 81 f7 63 bd cb f3 0f 3e b1 ba 8c 3d
       0.20893203 -0.05565596 0.14057843 0.06871546
000030 a8 56 ea bd 2b 99 05 3e 59 59 ee 39 8c 0e b5 3c
       -0.114423096 0.1304671 0.00045461467 0.022101663
000040 7b b8 0e be f5 8c 63 3e a6 25 49 be 83 10 fe 3d
       -0.13937561 0.2222174 -0.19643268 0.12405493
000050 ab ad b4 bc fb 21 ec 3d de 83 ec b7 7d 2b 49 be
       -0.022055468 0.11529919 -2.8194798e-05 -0.19645496
000060 0a fc c8 3c d8 f5 de 27 fb 95 80 3d ad 4e 82 3d
       0.024534244 6.1883922e-15 0.062786065 0.063626625
000070 d9 85 92 3c 47 7f f8 bd 35 d9 6c be 75 68 00 be
       0.01788609 -0.12133651 -0.23129733 -0.12539847
000080 10 19 09 ba 81 8a 0f 3e 12 1a fd 3d a4 95 c7 bd
       -0.000522987 0.14017679 0.12358488 -0.097453386
000090 01 4b 24 3e c0 84 ae 3d 6b eb 64 bd 38 1f 2d be
       0.16044237 0.08521414 -0.055888575 -0.1690644
0000a0 ad e9 2b 2c 77 65 76 39 1d 7f c6 bc 6d 45 01 3d
       2.4430278e-12 0.00023498187 -0.024230534 0.03156035
0000b0 50 93 a0 3c bb d6 2b bd 4f b4 7e 3e d0 91 9a 3d
       0.019601494 -0.04195283 0.2487347 0.07547343
0000c0 83 09 f6 bd 75 54 3f be 3e 37 ac 3d 3c 7f 97 a0
       -0.12013533 -0.18684562 0.08408974 -2.5664592e-19
0000d0 2d ea 8e bb 83 e1 50 bd 25 39 1f 3d c4 1c 5a 3e
       -0.004361412 -0.050996315 0.038872857 0.21300036
0000e0 7e 73 b3 a4 bc 61 52 b5 68 76 8d b7 2c ec 63 bd
       -7.782453e-17 -7.837332e-07 -1.6863647e-05 -0.055645153
0000f0 0b 63 09 23 be 8c e1 ba db d1 aa 3b 1a 79 04 be
       7.447758e-18 -0.0017208082 0.005213005 -0.12936822
000100 1a e9 86 3d 34 f0 7a 3d 92 b9 11 be 92 ac 0d 3e
       0.06587429 0.06126423 -0.14230946 0.13835362
000110 90 58 d8 bd 94 b5 d0 bd 9c 64 19 bd 28 bd f5 3b
       -0.10563767 -0.10190883 -0.037449464 0.007499356
000120 96 b3 a9 bd f8 f2 86 bd e6 ee ba 3d 6d 6c f9 bd
       -0.082862064 -0.06589311 0.091275975 -0.12178884
000130 5a 69 c9 3c 87 4f 95 3d 36 e7 8f 3c 22 45 38 bd
       0.024586368 0.07290559 0.017566305 -0.044987805
000140 84 0b 0b be dc cc 08 bc fc 9b fb 3d eb 21 23 3e
       -0.13578612 -0.0083496235 0.12285611 0.15930907
000150 3d 9d 47 3d ba 6c fc bd 05 72 3b bb 25 45 4b bd
       0.04873394 -0.123254254 -0.0028601896 -0.04962649
000160 e3 85 b8 3d f6 fe 69 3b 78 62 d2 3d d8 82 01 80
       0.09009912 0.0035704947 0.10272688 -1.38773e-40
000170 e2 9d b3 bd c8 d5 ed 3d 18 d2 0f be 5d d3 22 3d
       -0.08770348 0.11613041 -0.14044988 0.039752353
000180 be 1b 45 3e 77 05 c4 bd 5e d2 e9 34 de d1 01 be
       0.19248864 -0.09571355 4.3552694e-07 -0.12677714
000190 fa 24 8f bd e1 d3 07 bd bc 27 8a be 82 a5 0a be
       -0.069894746 -0.033161048 -0.2698344 -0.13539699
0001a0 dc a9 7f 3d 92 86 1a 3c 23 5a 23 bd f4 d1 13 3e
       0.06241785 0.009431498 -0.039880883 0.1443556
0001b0 e6 ab 66 bc 02 62 82 39 a2 ca 7a 3e 0e 02 26 3e
       -0.01407907 0.00024868554 0.24491361 0.16211721
0001c0 bb 8f 88 bd 2a 20 8a 3d 44 29 fd 3d c4 2f 84 3d
       -0.066680394 0.06744416 0.123613864 0.06454423
0001d0 bb c0 7b bc 26 5c b3 3d 1a cb c3 bb 91 45 1c 3e
       -0.015365775 0.0875781 -0.0059751393 0.15260912
0001e0 52 28 89 bc 7b b9 1f 3e 74 a0 7f 3d 5f a8 fe ba
       -0.016742859 0.15598099 0.06240888 -0.0019428841
0001f0 b1 5b f8 3d 41 ef 83 bd bb 0d 4e bd 1a 39 9b 3d
       0.12126864 -0.064421184 -0.050306063 0.07579251
000200 3b 04 e6 38 41 8b 1a be e9 aa 35 3d 51 3c 07 3c
       0.000109680426 -0.15092184 0.044352446 0.008254127
000210 f3 d4 9d bb 91 84 dd 3b 3c 9b 3a bd 98 39 dc 3c
       -0.0048166453 0.006760188 -0.0455582 0.026882932
000220 41 b6 b8 3c e0 13 90 be a5 f8 ea 3c fa 94 5f bd
       0.022547843 -0.28140163 0.028683016 -0.054585434
000230 45 9c 84 3d de b2 84 3d d9 e6 19 3b 77 ad eb 3d
       0.064751185 0.06479429 0.0023483543 0.11507695
000240 45 9c ae 3b 32 68 3e bd 93 71 6d 3d 97 06 50 3d
       0.0053286874 -0.046486087 0.05796964 0.050787535
000250 49 dc 5e 3d c7 69 13 bd 71 0b b2 b4 34 8d 2a bd
       0.0544093 -0.03598955 -3.3163408e-07 -0.041638568
000260 a9 e9 16 be 1c 6c df 32 59 c8 8b 3d a8 e1 cb 3d
       -0.14737572 2.600978e-08 0.06825323 0.0995515
000270 ec b6 0e bc 1f fe a5 3d 55 dd 3a bd 6a 26 87 3e
       -0.008710604 0.081051104 -0.045621235 0.26396495
000280 1e 86 71 bd 2b 80 57 3d 1b 88 10 3e 4d 61 9d bc
       -0.058965795 0.052612465 0.1411442 -0.019211436
000290 4f f7 c7 3b 1a 52 4c 3e 22 61 e8 bd 8e 22 ac 3d
       0.0061024795 0.19953194 -0.113466516 0.08405028
0002a0 02 6d 09 ac 15 87 21 3c f5 e5 dd 3c 03 43 bc bd
       -1.9529382e-12 0.009858866 0.027087191 -0.09192469
0002b0 d0 83 13 3e 33 55 19 3d 2a bd b3 3c 38 ff 29 bd
       0.14405751 0.037434768 0.021940786 -0.04150316
0002c0 cd 81 18 be a8 14 41 be f3 9e 04 3e a6 6e 39 31
       -0.14893265 -0.18855536 0.1295126 2.698394e-09
0002d0 36 e1 65 bb 94 cf cf 3d 37 7a 36 be 78 b9 6e bd
       -0.0035076863 0.10147014 -0.17820059 -0.058282346
0002e0 f4 62 ce b7 fb e5 63 36 4b d2 36 b4 4a 26 a1 3d
       -2.4603192e-05 3.3959502e-06 -1.7026575e-07 0.07868631
0002f0 50 31 51 32 15 a7 72 3d ef 97 bf 3d 14 b9 48 bd
       1.21766135e-08 0.059241373 0.09355151 -0.04900463
000300 b6 5c 62 3d 5a 6a a9 bd dc 46 05 3e bd e1 24 be
       0.055264197 -0.08272238 0.13015312 -0.16101737
000310 7f c0 51 bd 20 3b 63 be 9d fb 5f bd 0a bc 21 39
       -0.05120897 -0.22190523 -0.054683316 0.00015424207
000320 ba 82 7a be 29 e0 85 bd d3 91 86 3c 41 f5 24 3e
       -0.2446393 -0.06536896 0.016426956 0.16109182
000330 8c 77 05 be 09 da 31 bd 94 c0 02 3d c8 9f b6 bd
       -0.13033885 -0.043420825 0.031921938 -0.089171946
000340 fe d6 f5 bb a4 31 5e 3d 57 b1 4f bd 77 b6 88 3e
       -0.0075024357 0.05424656 -0.050706234 0.2670171
000350 dd d4 19 be a9 63 96 3d f2 2c 4a 3a 99 15 36 3d
       -0.15022607 0.073432274 0.0007712386 0.04445419
000360 c5 74 a1 bd df 22 f3 bd b8 2b 40 be 05 7a 19 98
       -0.078836 -0.118718855 -0.18766677 -1.983639e-24
000370 11 1e 93 bc d0 c1 15 3e a4 14 ec bd df 2c 99 bd
       -0.017958673 0.14624715 -0.115273744 -0.074792616
000380 94 2c 0e be 46 f6 6b bd 4b 1d 35 b5 cb 6f 17 bc
       -0.13884193 -0.05760791 -6.747038e-07 -0.009242962
000390 56 56 0d 3c 1a ce 49 bd 54 06 0d 3e 2d 89 1a 3e
       0.008626541 -0.04926882 0.13771945 0.15091391
0003a0 e4 24 5a bd 9f ce 75 bd f4 d1 02 be dc cb 83 3c
       -0.053257838 -0.060011502 -0.12775403 0.016088419
0003b0 47 78 2d be cb d2 c7 b6 63 6a 81 3e 3b f8 7c 3d
       -0.16940413 -5.9552017e-06 0.2527648 0.06176017
0003c0 96 4e d1 bb 7c 8b 0a 3c 13 94 54 3e 01 31 e5 bd
       -0.006387542 0.008456107 0.20759611 -0.111909874
0003d0 e7 e2 d1 bd 96 0f b1 ba f0 0c 31 3c cc 80 49 bd
       -0.10248356 -0.0013508673 0.010806307 -0.049195096
0003e0 84 9b 0d 3e e9 50 12 be 81 d2 2a 3c 64 64 7d 3e
       0.13828856 -0.14288677 0.010426165 0.24745327
0003f0 cf e0 9e 3d e9 d1 95 3d 8e 08 15 3e a3 64 44 3c
       0.077577226 0.07315428 0.14554045 0.011986884

encoder_lin.2.bias f4 [20]
000000 69 be aa bb ee 8b f0 3d 26 8b b2 3d b4 9f 86 bc
       -0.005210687 0.117454395 0.08717947 -0.016433574
000010 1e 38 39 3c 13 fe 49 3e d9 11 98 3b 3a 86 bf 3c
       0.011304883 0.19725828 0.0046407995 0.023379434
000020 4f 58 cd be ff 07 31 be cf 20 54 bd 91 a6 a6 bd
       -0.40106437 -0.17288207 -0.0517891 -0.08137239
000030 58 57 9d 3e 1f 00 6d 3d 98 b4 dd bd 94 53 1e 3e
       0.307307 0.057861444 -0.10825461 0.1546157
000040 1d 7b 54 3d b6 dc 3d bd 0f d9 12 bd b3 6d f8 bc
       0.051875222 -0.046353064 -0.035851534 -0.030325746
