sliced_opt/code/experiment/shape_registration/data/test/data336.pt (torch, 50719 bytes, 4 tensors)

X f4 [2048, 3]
00000000: b191 7abe 9975 42bd 6d20 93be 36a7 723f
00000010: 9aac 443d 8a4c a13e 8656 34ba 9f9f e23e
00000020: 0b9d 603f 19df 71bf b7dc 4f3d 4328 a23e
00000030: bc0c 873c ff67 8cbd 613f c03e d08d 553c
00000040: 385a 1abd 4ac3 6cbf 56e7 e13e 8ec1 a4bc
00000050: efcd 24be 4fbe c13e e2b6 613d abc1 4d3f
00000060: 8a88 c0be 2b64 613d c1af 4b3f c4bb febe
00000070: 2444 0dbd 47fc 0d3e 4af9 443d fd19 dd3d
00000080: b9e8 9cbc 69e9 b53d 12a0 3a3d 3691 05bf
00000090: b2ce 153f 5059 e6bc 93e7 463e aadb ed3b
000000a0: a081 be3d 5931 3a3f 74d9 21bf 59a6 a5bd
000000b0: 399f 26be 0b01 40be 438c c4bd 6d1d 4e3d
000000c0: 0cd1 0d3e 3d84 1abe e89a 39be f161 44bf
000000d0: 82bd 8f3c 3b59 9f3d 3ee1 963e a1b9 98bd
000000e0: 0281 943d 3c41 1abd c551 e93d bd99 95be
000000f0: fbd2 acbb d099 283e 5d3f f93e 19ce 9fbd
00000100: 08ae 0ebd 2630 31bf a177 6ebd 284a cb3d
00000110: 96a5 553e c86d cabe d587 91bc fe14 c0bd
00000120: f9ab 27ba 9fa9 ad3e b231 283f 13f8 233f
00000130: 6c4b aabd ec27 17bd 446c 503f 0840 823c
00000140: 3adb ec3d 3fb7 703d fcb5 c0bd c887 f43d
00000150: 56f1 ac3e a979 e6bd 540b b4be 9a0c 4fbe
00000160: d56d 3b3d ccc1 213f f1b8 4abd 87a4 b9bd
00000170: 0d09 cdbe f0a5 593e 831c 373d 8fed 233f
00000180: 00a9 a9bd 0d90 1fbd eeab 0cbe af9b adbc
00000190: c5ac debc abc0 113f 0cd1 0d3e fbea 1abd
000001a0: 91df b1be 3967 f13e c23f aabc d006 fb3c
000001b0: 1c58 bb3d d094 223d d15e 40be 6f16 763d
000001c0: d449 4a3d 0ab6 45bf ca1d 8b3e 8c85 76bd
000001d0: 5d49 d5bd 62d8 bcbd e297 f43c b8e7 06bf
000001e0: 6c1a 10bf 6ce5 6e3a 292d acbc 150e b13c
000001f0: f80c 1ebe 469f 4bbd a73a 103c 855a 1ebe
00000200: 27ab 4bbf c588 c03d 35b4 a03c dc01 7b3e
00000210: 0542 c8be f645 e6bd 158a b3be 6c04 bcbd
00000220: 3820 253d 969f 553d 7cef 85bd 924c 81bd
00000230: 5ae2 633e 8264 2eba 56ee 803e f934 4b3f
00000240: 433a 4ebf 4130 643c 62fa 773e 27cc 98bd
00000250: 4ae1 853d 7285 bd3e ddf1 10bc e4a7 e03d
00000260: 0b30 24bf f012 7bbe 4580 81bd 4239 f8bd
00000270: 6d82 aebe ae4e 60bd d6ec 6f3d efc4 693a
00000280: 9949 bebd 3f45 10bf f234 25bf 3b8a e7bb
00000290: 1a7c 3a3e 9acf 5fbe cb48 393d 5f43 493f
000002a0: 256f bbbe d081 febd 4aca 4cbe b8d1 223e
000002b0: e457 afbd 7140 c63b 6f11 28bd a154 e63d
000002c0: 824e 10be 7e52 613e 630a 3d3d 3e05 4a3f
000002d0: 4b5c 8d3d 929d 173d 548b ee3e 4ae1 e1bb
000002e0: 0074 cfbd 1d96 84be 2b2b 863e f281 eebc
000002f0: acde 82be 1457 2b3f cebc 3d3c c49b 8a3d
00000300: de5c 163f 99bb 07bd bd97 23be e5d9 c23b
00000310: ebfa f93d 1f12 dbbe 5bb9 8d3d e5ab b43d
00000320: 1ff1 fb3d 582d ae3d 9d5b 94bc 7e3b 26bf
00000330: cc61 bb3e ec9a 04be 28a2 5bbe 86bc 99bc
00000340: 95f8 4e3e 7af4 1e3f 998d 533f 0e33 7e3c
00000350: c84c 823e d9e5 15be 8755 1cbe 0b86 3bbe
00000360: bf0c a33d 28e3 413d 958a 1d3f 506e bdbd
00000370: b072 eabb 7427 9bbe e763 85bd 9c67 b4ba
00000380: 4ff0 52bf 7a0b 443d 33d5 d13d 1067 b63e
00000390: cf27 8cbd 77bd c3bd 1546 c73d fa45 9f3d
000003a0: b577 9d3d 276c a7be 718b bf3d b2ff 81ba
000003b0: 2e44 80bd 9b61 d7bd 94c1 2a3d 8dbb 3b3f
000003c0: 3ced 8b3d 76b6 82bd 7b99 edbe a265 e2bb
000003d0: 2ed7 d43e 0ec4 413f e0fa 6abf 5b9e 033d
000003e0: c122 4a3e 0936 b93e 36e9 11bd 6ae4 afbc
000003f0: e3d8 333f 099d f7ba f358 4b3e fd72 e6be
-0.2446964 -0.04747543 -0.28735676 0.94786394 0.04801617 0.31503707 -0.0006879348 0.44262406
0.8773963 -0.94481045 0.0507476 0.31671342 0.016485564 -0.06855773 0.37548354 0.013034299
-0.037683696 -0.9248549 0.44121808 -0.020111825 -0.16094182 0.37840506 0.05510605 0.8037364
-0.3760417 0.05502717 0.79565054 -0.4975263 -0.034488812 0.13865767 0.048089303 0.107959725
-0.01915394 0.0888241 0.04556281 -0.521747 0.58518517 -0.02811876 0.19424276 0.007258852
0.09302068 0.7273155 -0.6322243 -0.08088369 -0.16271676 -0.18750398 -0.09597065 0.05032103
0.13849276 -0.15089507 -0.18125498 -0.76711947 0.017546419 0.07780691 0.2946872 -0.07457281
0.07251169 -0.03765987 0.113925494 -0.29218856 -0.0052741743 0.16464925 0.48681155 -0.07802982
-0.034833938 -0.69214094 -0.058219556 0.099262536 0.20863947 -0.3953688 -0.017764965 -0.09379004
-0.00063961704 0.33918473 0.6570083 0.64050406 -0.08315167 -0.036903307 0.814152 0.015899673
0.11565252 0.058768507 -0.09409711 0.11939961 0.33777875 -0.112536736 -0.35164893 -0.20219651
0.04575904 0.63186336 -0.04949278 -0.09064584 -0.40045968 0.21254706 0.044704925 0.6403436
-0.08284187 -0.038955737 -0.13737461 -0.0211924 -0.027181992 0.56934613 0.13849276 -0.03782175
-0.3474088 0.47149065 -0.020782355 0.030642897 0.09147665 0.0396927 -0.1878617 0.060079988
0.049386814 -0.77230895 0.27171165 -0.060185954 -0.104143836 -0.09220959 0.02985758 -0.52697325
-0.56290317 0.0009113166 -0.021017628 0.02161316 -0.15434635 -0.04971244 0.008803046 -0.15464218
-0.7955803 0.09401087 0.01961718 0.24512428 -0.3911287 -0.11243813 -0.35066286 -0.09180531
0.04031393 0.052154146 -0.06539819 -0.06313433 0.22254315 -0.000665255 0.25181836 0.79377705
-0.8055765 0.01392752 0.24216607 -0.07460814 0.06537111 0.37015873 -0.008846727 0.109695226
-0.6413581 -0.24518943 -0.063232936 -0.12120296 -0.34083882 -0.054762535 0.058575474 0.000891759
-0.092913814 -0.5635566 -0.64533913 -0.007066039 0.18211403 -0.21856537 0.045235436 0.78618425
-0.36608234 -0.124271035 -0.19999042 0.15900314 -0.08561686 0.0060501625 -0.04103225 0.112466104
-0.14092448 0.22004125 0.046152484 0.7891425 0.06902369 0.037015505 0.46590674 -0.0068933116
-0.10129547 -0.25895777 0.2620481 -0.029114697 -0.2556051 0.66929746 0.011580659 0.06767991
0.58735454 -0.03313789 -0.15975852 0.005946385 0.12206062 -0.42787263 0.069201194 0.08821849
0.123018496 0.085047424 -0.01811009 -0.6493453 0.3659805 -0.12949723 -0.21448576 -0.018766653
0.20212014 0.6209179 0.82637936 0.015515102 0.25449204 -0.14638461 -0.15267001 -0.18312852
0.079614155 0.047335774 0.61539584 -0.09249556 -0.007154785 -0.30303538 -0.065131955 -0.0013763788
-0.8239793 0.047862507 0.10245743 0.35625505 -0.068435304 -0.09557622 0.09730164 0.07777019
0.07688848 -0.326997 0.09352768 -0.0009918122 -0.06263004 -0.10516664 0.041688517 0.73333055
0.06832358 -0.06382458 -0.4640616 -0.006909088 0.4157042 0.7568978 -0.91789055 0.03213344
0.1973982 0.36174038 -0.035622798 -0.021471221 0.7025282 -0.0018891405 0.1985815 -0.45009604

Y f4 [2048, 3]
00000000: 5915 a13f ccd2 723f 47e3 43bf 3a94 683f
00000010: e3d1 e73f 2cb5 60bf 20cd 8c3f fc83 c73f
00000020: 300d f9bd b906 c63f 4f04 613f 645d 3ebe
00000030: 91bb a63f 16d1 b23f 6712 0dbf b269 863f
00000040: 80f6 443f 5389 94bf 3848 843f c2ed ab3f
00000050: 4fed 71bf cdbb 973f 61b0 e13f d92d debe
00000060: 1533 b83f 4b9d b13f 00ab 26be 22ee b43f
00000070: 834f 833f dee8 edbe a9fb 8e3f e892 993f
00000080: 7120 30bf ea3d 863f 98f3 7c3f 6e2b 77bf
00000090: 9be3 863f 88e2 ca3f 58a0 54bf 2f2e a33f
000000a0: 38f1 c43f b0a4 a4be 5c3f b73f a25d 523f
000000b0: be86 13bf f812 aa3f 0d88 923f 7958 24bf
000000c0: a6b6 9a3f 15e1 993f 5a28 64bf 0049 bb3f
000000d0: 6a59 5b3f c6ed c0be 691e 943f 15ed b13f
000000e0: 67ac 4cbf 33ea 8b3f 395a 833f 6efe 48bf
000000f0: d7c6 983f 7e2e b43f 2d08 d0be 6089 8f3f
00000100: 32dc 553f 04ea 81bf 9284 993f 32f6 a03f
00000110: fa1e 0bbf 91dd a93f ba78 763f fd67 1bbf
00000120: f970 8f3f d4d6 bb3f 3a34 87be 7e42 833f
00000130: 9c30 c13f 7f21 7bbf dcb7 6f3f 12bf d33f
00000140: f693 6fbf e8e0 a03f 0a42 a63f a4b4 32bf
00000150: 6043 8b3f 7b59 9b3f 1c0c 84bf b492 ad3f
00000160: 8ab7 b23f ee94 9dbe c33f 993f 731c 7f3f
00000170: 9de9 67bf bde6 9b3f 4569 cd3f 7b1f e9be
00000180: 3feb 9c3f 30a6 8c3f 31db 3fbf f6c1 a93f
00000190: d294 bb3f 9c0f dcbe a262 8e3f 17bc 8d3f
000001a0: 621e 6ebf 1b77 873f 0393 b93f 6e5d 5dbf
000001b0: 564f 8e3f c22d 933f f616 4fbf 7663 813f
000001c0: 4486 5a3f db66 89bf 23f0 8f3f 296a a53f
000001d0: aad4 5ebf ba21 8f3f b106 663f 565a 68bf
000001e0: 3067 b13f 0798 693f de25 01bf 9714 a33f
000001f0: 4d9e 9a3f ef76 49bf 325c 923f 1257 583f
00000200: 29cb 91bf f7be 993f f22f ae3f 322c 1cbf
00000210: 2ed2 aa3f 22e0 5a3f e2ed 43bf b7c2 9b3f
00000220: 164c 963f 618c 20bf a752 a63f b732 a43f
00000230: 8ba6 17bf 9229 993f 04bc c53f 5881 6bbe
00000240: 3708 c13f eabd 6a3f 192e 92be 4f83 a03f
00000250: b467 aa3f 1cdd f1be 44e3 823f 0cc0 5f3f
00000260: eece 76bf 9023 a63f 04d3 833f 7ef3 30bf
00000270: eecf ad3f 5ca5 883f ef3d 11bf dd74 933f
00000280: 5295 713f 9864 80bf 6947 ba3f 4d56 783f
00000290: 58a5 c2be 3de6 b13f 4c23 bb3f fab0 69be
000002a0: 421e ae3f dae3 703f 40e9 34bf df46 993f
000002b0: 9b7e a53f 2528 49bf 92ad 8f3f 1c6c 8c3f
000002c0: 854c 36bf 51eb 9e3f f9f6 d63f e2d4 c5be
000002d0: a8a4 9e3f 9ad1 b93f 2e71 fabe 3d7c 9b3f
000002e0: 8416 8b3f f48b 5bbf d383 8a3f 3afe 9a3f
000002f0: ab9d 6dbf 69ad 7a3f 1cc0 c73f 4853 68bf
00000300: 92ec 7d3f fe71 b53f 104f 80bf 8645 863f
00000310: 4a50 7b3f bbec 5cbf 9bd8 923f 75f3 a33f
00000320: e581 22bf fa37 883f 5515 6f3f 7b23 86bf
00000330: ae7e 8e3f 95d1 a53f b97e 7bbf 7ba9 993f
00000340: 00e2 ba3f f8ce a5be 3428 753f 5c05 dd3f
00000350: dbc2 5fbf 7521 a73f 3ed4 873f a6f5 49bf
00000360: c9e0 a03f 6974 c33f 75ee d5be 871c 973f
00000370: b158 813f 3650 50bf d669 893f 582e 463f
00000380: 9e0c 89bf 6f1c 983f 45a1 b03f 74a9 02bf
00000390: 44fb a53f b7e8 9c3f 46ac 29bf 79e3 883f
000003a0: 4126 893f 486d 5bbf b72c 943f deae 9b3f
000003b0: bcaf 43bf 4a08 ac3f fb1d bf3f 959a 97be
000003c0: 5eaa 903f f89f 823f a33b 78bf 364b 8c3f
000003d0: 2d38 c03f e413 3fbe 547d c33f 9775 563f
000003e0: c9d4 84be 4a1e 8c3f 02b9 af3f 7bdc 5abf
000003f0: 4de4 7f3f b017 d23f 26a4 5cbf 900b af3f
1.258464 0.948529 -0.7651867 0.90851176 1.8110927 -0.87776446 1.1000099 1.5587153
-0.121607184 1.5470802 0.878972 -0.18590313 1.3025991 1.3970058 -0.55106205 1.0501006
0.7693863 -1.1604408 1.033454 1.3431933 -0.9450273 1.1854187 1.7631952 -0.43394354
1.4390589 1.3876127 -0.16276169 1.4135172 1.025864 -0.46466726 1.117055 1.1997957
-0.687995 1.0487645 0.98809195 -0.96550643 1.053821 1.5850382 -0.83057165 1.2748469
1.5386114 -0.32156897 1.4316211 0.8217412 -0.57627475 1.3287039 1.1447769 -0.641975
1.208699 1.2021815 -0.8912407 1.4631653 0.8568331 -0.37681407 1.157178 1.3900477
-0.79950565 1.0930847 1.0261909 -0.7851323 1.1935681 1.4076688 -0.40631238 1.1213799
0.83539116 -1.0149541 1.1993582 1.2575133 -0.5434414 1.3270742 0.96277964 -0.6070555
1.1206352 1.4674935 -0.26407033 1.0254667 1.509296 -0.98097986 0.9363992 1.6542685
-0.93585145 1.2568636 1.2988904 -0.69806886 1.0879936 1.2136682 -1.0316195 1.3560395
1.3962262 -0.30777687 1.1972584 0.99652785 -0.9059084 1.2179791 1.6047751 -0.4553183
1.2259291 1.0988216 -0.74943835 1.3262317 1.4654791 -0.4298066 1.112385 1.1073025
-0.9301511 1.0583223 1.449799 -0.8647069 1.1117961 1.1498339 -0.8089441 1.0108478
0.85361123 -1.0734514 1.1245159 1.2923023 -0.8704325 1.1182168 0.8985396 -0.9076284
1.3859615 0.912476 -0.50448406 1.2740659 1.207956 -0.78697103 1.1434386 0.8450786
-1.1390125 1.2011403 1.3608382 -0.61004937 1.3345392 0.8549825 -0.76534855 1.2168797
1.174197 -0.627142 1.2993973 1.2827977 -0.592385 1.1965811 1.5448003 -0.2299856
1.5080632 0.91696036 -0.28550795 1.2540072 1.3312898 -0.47239006 1.0225606 0.87402415
-0.964095 1.2979603 1.0298772 -0.6912154 1.357908 1.0675464 -0.5673513 1.1520039
0.9436847 -1.0030699 1.4553043 0.97006685 -0.38016772 1.3898388 1.4620147 -0.22821417
1.3602984 0.94097674 -0.7066841 1.1974753 1.2929262 -0.7857688 1.1224844 1.0970492
-0.7121051 1.2415563 1.679412 -0.3863898 1.2393999 1.451709 -0.48914474 1.214729
1.0866246 -0.85760427 1.082148 1.2108834 -0.9281871 0.9792085 1.5605502 -0.9075208
0.991891 1.4175413 -1.0024128 1.0489967 0.98169386 -0.8629872 1.1472353 1.2808672
-0.63479453 1.0642083 0.93391925 -1.0479578 1.113241 1.2954584 -0.9824024 1.2004846
1.460022 -0.32384467 0.9576447 1.726726 -0.874067 1.3057085 1.0611646 -0.78890455
1.2568599 1.52699 -0.4178349 1.1805581 1.0105191 -0.8137239 1.0735424 0.77414465
-1.0706975 1.1883677 1.3799216 -0.51039815 1.2967305 1.2258519 -0.66278493 1.0694419
1.0714799 -0.85713625 1.1576146 1.216274 -0.76440024 1.344003 1.4931024 -0.29610124
1.1301992 1.0205069 -0.96966 1.0960453 1.5017143 -0.18659931 1.5272622 0.8377318
-0.25943592 1.0946743 1.3728335 -0.85492676 0.99957734 1.6413479 -0.8618797 1.3675404

theta f4 [3]
00000000: db0f 493f 920a 86be 920a 06c0
0.7853982 -0.2617994 -2.0943952

beta f4 [3]
00000000: 9a99 993f 9a99 993f 3333 33bf
1.2 1.2 -0.7
