sliced_opt/code/experiment/shape_registration/data/test/data_noise2120.pt (torch, 105111 bytes, 6 tensors)

X0 f4 [2048, 3]
0	0xbefafc3b	-0.49020562
1	0xbe0dcc2c	-0.13847417
2	0xbe8201a2	-0.2539187
3	0x3ef4de2a	0.47825748
4	0x3ea33748	0.31878114
5	0x3f0a550d	0.5403603
6	0x3ef886cf	0.4854035
7	0xbe93d2fd	-0.2887191
8	0xbf534313	-0.8252422
9	0xbeedff28	-0.4648373
10	0x3ea1054e	0.3144936
11	0x3f0a83e2	0.5410749
12	0x3ef70472	0.4824558
13	0xbe456924	-0.19278389
14	0xbd4d7d18	-0.050168127
15	0xbdf6c2e3	-0.120488904
16	0x3c5ac130	0.013351724
17	0xbf4e98db	-0.8070199
18	0x3960cd00	0.00021438673
19	0xbe0a3af3	-0.1349905
20	0x3eca4125	0.39502826
21	0x3cf91a42	0.030408029
22	0x3c610c40	0.013735831
23	0xbe89bc4a	-0.26901466
24	0x3ef654d4	0.48111594
25	0xbea3484d	-0.318911
26	0x3f0bfa89	0.5467916
27	0xbef1a7c9	-0.47198322
28	0xbea5e3a5	-0.32400241
29	0x3f088694	0.5333035
30	0xbeef2f8d	-0.46715966
31	0xbea7085a	-0.3262356
32	0xbf4ff23d	-0.81229
33	0x3c3a98c0	0.0113889575
34	0x3ecf2ab3	0.40462264
35	0x3efe1e0c	0.496323
36	0xbed07f7a	-0.40722257
37	0x3c610c70	0.0137358755
38	0x3e43de49	0.19127764
39	0x3ef37eeb	0.47557768
40	0x3c610c60	0.013735861
41	0xbef20e4a	-0.47276527
42	0x3e92f347	0.2870123
43	0x3df1fc40	0.11815691
44	0x3e6d3657	0.2316526
45	0xbef89b68	-0.48556066
46	0x3c6f1900	0.014593363
47	0xbf20e88c	-0.6285484
48	0x3e7f3592	0.24922779
49	0x3c610c20	0.013735801
50	0xbf445a42	-0.7670022
51	0xbd86c448	-0.065804064
52	0x3ddf248e	0.10895644
53	0x3db4cf2e	0.08828579
54	0xbe48ac00	-0.19596863
55	0xbe0a3af3	-0.1349905
56	0xbefda06d	-0.49536458
57	0xbe92296f	-0.28547236
58	0x3caf99e0	0.021435678
59	0x3f05b68a	0.5223166
60	0x3e2275b4	0.15865213
61	0xbe0a3af3	-0.1349905
62	0x3b2be6e0	0.0026230142
63	0xbe50725d	-0.20356126
64	0xbe0a3af2	-0.13499048
65	0xbdb4091f	-0.08790802
66	0x3efaff0a	0.49022704
67	0xbb2d6fa0	-0.0026464239
68	0x3eed033e	0.46291536
69	0x3e28adfe	0.16472623
70	0x3e00ad13	0.12566023
71	0x3f079692	0.5296413
72	0xbe811a58	-0.2521541
73	0x3e87bac3	0.26509675
74	0x3e9df012	0.30847222
75	0x3d8b8312	0.06812109
76	0xbe6ca69f	-0.23110436
77	0xbf4dd7ac	-0.80407214
78	0x3e589c00	0.2115326
79	0xbe0a3af2	-0.13499048
80	0xbf00c1cc	-0.5029571
81	0x3eaa178a	0.33221084
82	0x3c610c30	0.013735816
83	0xbe55a354	-0.20863086
84	0x3eeb2c11	0.45932057
85	0xbe449662	-0.19197991
86	0x3e74cde3	0.23906665
87	0xbef6ea36	-0.48225564
88	0xbe453a4c	-0.1926052
89	0x3d0668e3	0.03281487
90	0x3e875573	0.2643238
91	0xbe13d5a0	-0.1443696
92	0x3ef4a67c	0.47783267
93	0x3e8b500a	0.27209502
94	0x3eb0577c	0.34441745
95	0x3ebf3b83	0.3735009
96	0xbe5fd048	-0.21856797
97	0xbe6ca69c	-0.23110431
98	0xbf4dd7ad	-0.8040722
99	0xbe3187bc	-0.17336935
100	0xbe0a3af1	-0.13499047
101	0x3e4b8d3c	0.19878095
102	0x3d443094	0.04789789
103	0x3e4fb48a	0.20283714
104	0x3e9e6527	0.30936548
105	0x3ef6e153	0.48218784
106	0xbe4551b9	-0.19269456
107	0xbea0ec41	-0.31430247
108	0x3bfe8830	0.0077676997
109	0x3c610c40	0.013735831
110	0xbf0e4586	-0.55574834
111	0xbe968d68	-0.2940476
112	0x3c610c58	0.013735853
113	0xbea0ec42	-0.3143025
114	0xbef9faa6	-0.48824042
115	0xbe4191a5	-0.18903215
116	0x3ea39bdc	0.3195485
117	0x3ef9134d	0.48647538
118	0xbd443148	-0.04789856
119	0xbf38c246	-0.7217144
120	0x3eebc444	0.46048176
121	0x3c610c40	0.013735831
122	0x3daf523c	0.08560607
123	0xbda884cd	-0.08228455
124	0x3e27757b	0.16353409
125	0x3f081d36	0.5316957
126	0xbef34d48	-0.47519898
127	0xbe456920	-0.19278383
128	0xbefda06d	-0.49536458
129	0x3e4926b2	0.19643667
130	0xbe0a3af4	-0.13499051
131	0x3e79ed2a	0.24406877
132	0xbec10a2a	-0.37703067
133	0x3c610c50	0.013735846
134	0xbd2ec152	-0.042664833
135	0xbe1a4c11	-0.1506808
136	0x3d71239e	0.058871858
137	0x3ea506d1	0.32231763
138	0xbeded018	-0.43518138
139	0xbdce2cff	-0.10067176
140	0xbf525ec4	-0.8217585
141	0xbe5dcd1c	-0.21660274
142	0x3ecf2ab2	0.4046226
143	0x3ef7074e	0.4824776
144	0xbef9cbd1	-0.48788312
145	0x3c2c11e0	0.010502309
146	0x3ed9b676	0.4252202
147	0x3e9289e8	0.2862084
148	0xbe4ba16e	-0.198858
149	0xbf4e8d26	-0.80684125
150	0xbeeb40aa	-0.45947772
151	0xbea7372f	-0.3265929
152	0xbe17fda4	-0.1484285
153	0x3eefa773	0.4680744
154	0xbe456920	-0.19278383
155	0xbf103142	-0.5632516
156	0xbef9cbd2	-0.48788315
157	0x3c609bf8	0.013709061
158	0xbecf407c	-0.40478885
159	0x3e416054	0.18884403
160	0xbe0a3af3	-0.1349905
161	0xbe954e6c	-0.29161394
162	0xbeecf1dc	-0.46278274
163	0x3e82b2e0	0.25527096
164	0x3e9ca83f	0.30597112
165	0x3edb0722	0.4277888
166	0x3e3e6ae7	0.18595468
167	0x3ec65df7	0.38743564
168	0xbe770bf3	-0.24125652
169	0x3c610c60	0.013735861
170	0xbf219828	-0.63122797
171	0xbbf03fa0	-0.0073318034
172	0xbe0a3af3	-0.1349905
173	0xbed323ac	-0.41238153
174	0x3961b800	0.00021526217
175	0xbe0a3af3	-0.1349905
176	0xbe086136	-0.13318333
177	0xbe7ebae0	-0.24875975
178	0xbe0a3af1	-0.13499047
179	0x3ec65df7	0.38743564
180	0x3df7e71a	0.12104626
181	0x3d1682f8	0.036745995
182	0x3e1984aa	0.14992014
183	0xbd8aa51c	-0.06769773
184	0xbe0a3af2	-0.13499048
185	0xbf2f1be2	-0.6840192
186	0xbe96b08a	-0.29431564
187	0x3e62172d	0.22079153
188	0x3f001674	0.5003426
189	0xbe29c163	-0.16577677
190	0xbe0a3af2	-0.13499048
191	0xbe9176f3	-0.28411064
192	0x3e1a97ec	0.15097016
193	0x3d090c1f	0.033458825
194	0x3eb2618f	0.34840056
195	0x3e92e794	0.28692305
196	0x3c610c38	0.013735823
197	0xbb9feae8	-0.004880298
198	0x3ea25ce2	0.3171149
199	0x3c610c00	0.013735771
200	0xbf16002e	-0.58594024
201	0xbd3893b8	-0.04506275
202	0xbe0a3af3	-0.1349905
203	0x3d62f9f8	0.05541417
204	0x3e837244	0.25673115
205	0x3c610c20	0.013735801
206	0xbec785d4	-0.3896929
207	0xbee0239e	-0.43777174
208	0xbe0dcc2a	-0.13847414
209	0x3f09d442	0.53839505
210	0xbeb5780b	-0.35443148
211	0xbe0a3af2	-0.13499048
212	0xbf27613b	-0.65382737
213	0xbdd80718	-0.10548228
214	0xbd065bf0	-0.032802522
215	0x3f02c35f	0.5107936
216	0x3df7b844	0.12095693
217	0x3c610c48	0.013735838
218	0xbdd2ef0c	-0.10299501
219	0x3ea64012	0.32470757
220	0xbe0a3af4	-0.13499051
221	0x3dce3cd8	0.10070199
222	0xbe0327ce	-0.12808153
223	0x3c610c50	0.013735846
224	0xbecb6904	-0.39728558
225	0x3d5943a0	0.053043008
226	0x3c610c50	0.013735846
227	0xbf3e9132	-0.744403
228	0xbe6f4592	-0.23366383
229	0x3c610c60	0.013735861
230	0x3dddc993	0.10829463
231	0xbdf6c2e3	-0.120488904
232	0x3c610c52	0.013735848
233	0xbe1f8d6f	-0.15581296
234	0x3efa3801	0.48870853
235	0x3c288e70	0.010287866
236	0xbdc3831a	-0.0954649
237	0x3ef37eeb	0.47557768
238	0x3c610c40	0.013735831
239	0x3e904f17	0.2818534
240	0x3ea4ec8b	0.32211718
241	0x3d0eae8e	0.034834437
242	0x3f0857c0	0.53258896
243	0x3ef73efe	0.48290247
244	0xbe456920	-0.19278383
245	0x3ed5d34a	0.41762763
246	0x3e130065	0.14355619
247	0xbe0a3af2	-0.13499048
248	0xbf2b3e8e	-0.66892326
249	0x3e8f3eee	0.279777
250	0x3e8a84f2	0.27054554
251	0x3f091315	0.5354474
252	0x3ef9c2eb	0.48781523
253	0xbc26ac60	-0.010172933
254	0xbe954e6c	-0.29161394
255	0xbee41283	-0.44545373

Y0 f4 [2048, 3]
0	0xbda0e622	-0.07856394
1	0x3f0e81f9	0.5566707
2	0x3db5fe16	0.08886354
3	0xbc91bc90	-0.017790109
4	0xbf46174e	-0.7737931
5	0x3e1c3393	0.15254049
6	0x3f140e89	0.5783468
7	0x3e68f12e	0.22748253
8	0xbf488f0a	-0.7834326
9	0xbeb56e0f	-0.3543553
10	0xbd9b6e68	-0.07589418
11	0x3f30b2c3	0.6902277
12	0x3db43572	0.087992564
13	0xbe8b3207	-0.27186605
14	0xbedfa3f1	-0.43679765
15	0x3f09461f	0.5362262
16	0x3f145b5d	0.5795191
17	0xbe53575d	-0.20638795
18	0xbeb94d09	-0.36191586
19	0xbe511f50	-0.20422101
20	0x3d22d70e	0.039755873
21	0x3e5668de	0.20938441
22	0x3e0dbb18	0.13840902
23	0xbdd1b0dd	-0.10238812
24	0xbed2dbad	-0.41183224
25	0xbf19e063	-0.6010801
26	0xbea2ebd4	-0.31820548
27	0xbf3e0ce0	-0.74238396
28	0x3de7b43c	0.11313674
29	0x3e60df09	0.21960081
30	0x3e567568	0.20943224
31	0x3f6f27d6	0.9342016
32	0xbe856757	-0.26055405
33	0xbdcb0d94	-0.09914699
34	0xbed9fffc	-0.42578113
35	0x3eefa392	0.46804482
36	0xbe8aa88c	-0.27081716
37	0x3e385b04	0.1800347
38	0x3e9f56e6	0.31120986
39	0x3f02c701	0.51084906
40	0xbd86f0a0	-0.06588864
41	0xbedbf560	-0.42960644
42	0x3c2448a0	0.010027081
43	0xbec63730	-0.3871398
44	0x3b9ab150	0.0047208443
45	0x3e903d0c	0.28171575
46	0x3f3d5fa4	0.7397406
47	0x3d890128	0.06689674
48	0x3f238d97	0.63887924
49	0x3e902f64	0.28161156
50	0xbececa22	-0.4038859
51	0xbc9b68ac	-0.01897081
52	0xbd135054	-0.03596528
53	0x3e190fe1	0.14947464
54	0x3e4b15ec	0.19832581
55	0x3ef8db74	0.4860493
56	0xbe267db0	-0.16258883
57	0xbeea0dd2	-0.4571367
58	0xbdeb317e	-0.11484049
59	0x3eba720f	0.36415145
60	0xbce8e033	-0.028427219
61	0xbda5f836	-0.08103983
62	0xbe425b13	-0.18980055
63	0xbdbd62f0	-0.092473865
64	0x3e77f547	0.2421466
65	0xbc684eb0	-0.014178917
66	0xbe1f5d6a	-0.15562978
67	0xbf2525ee	-0.64511
68	0xbdf453d4	-0.119300514
69	0xbe7510fa	-0.23932257
70	0xbef670d2	-0.4813295
71	0x3e3e2d3c	0.18571943
72	0xbe1469ca	-0.1449348
73	0xbd9d5517	-0.07682245
74	0x3ee62ce4	0.44956124
75	0x3ee6fa2c	0.4511274
76	0x3f01bf18	0.5068221
77	0xbefd02f2	-0.4941631
78	0x3eb20ea6	0.347768
79	0x3e420590	0.18947434
80	0xbecc37b2	-0.39886242
81	0x3e8bf9c6	0.27339
82	0xbdf92938	-0.12166065
83	0xbe82117c	-0.25403965
84	0xbdfe642f	-0.12421452
85	0xbedd3d6e	-0.4321093
86	0xbea43067	-0.32068178
87	0xbe9f90f6	-0.31165284
88	0x3ec7e002	0.39038092
89	0x3e152a1c	0.14566845
90	0xbeaa693c	-0.33283412
91	0xbee5226c	-0.44752824
92	0xbdb6e054	-0.08929506
93	0x3d3027f0	0.043006837
94	0xbf06c274	-0.5264046
95	0x3e6c35e0	0.23067427
96	0x3eb314bc	0.34976757
97	0x3f37ff7f	0.7187423
98	0xbea8defc	-0.32982624
99	0xbe91ac7e	-0.28451914
100	0x3d3552b6	0.044268332
101	0x3d8f1a39	0.069874234
102	0xbd9ef0fc	-0.07760808
103	0xbe903cdc	-0.28171432
104	0x3e6d6c2f	0.231858
105	0x3e8ca896	0.2747237
106	0xbde12a88	-0.1099444
107	0xbf07abb2	-0.5299636
108	0x3eceea48	0.40413117
109	0x3ea955c6	0.33073252
110	0xbe435d5b	-0.19078581
111	0x3e01bc6e	0.12669536
112	0x3ecfdc84	0.40597928
113	0x3d8a6a69	0.067585774
114	0xbf03ab44	-0.51433206
115	0x3e5f73e0	0.21821547
116	0x3e819868	0.2531159
117	0x3f272a82	0.65299237
118	0x3dc42a10	0.09578335
119	0xbf11c62c	-0.5694301
120	0x3de2ae22	0.110683694
121	0xbecb1725	-0.39666095
122	0xbe64e76d	-0.22353907
123	0xbe9c1dac	-0.30491388
124	0xbe9f08e4	-0.3106147
125	0x3eb64a26	0.35603446
126	0x3d838190	0.064211965
127	0x3f356a90	0.70865726
128	0xbd395640	-0.04524827
129	0xbe3e4164	-0.18579632
130	0xbe837e8c	-0.25682485
131	0xbe011f32	-0.12609556
132	0xbdc1fcc7	-0.094720416
133	0x3e9a19a3	0.30097684
134	0x3e5842b8	0.21119201
135	0xbe7b04b9	-0.2451352
136	0xbdd1eaf6	-0.10249893
137	0x3e79b35a	0.24384823
138	0x3ebb2b05	0.3655626
139	0x3f5a66ac	0.85312915
140	0xbdec8914	-0.11549583
141	0xbe2e0b10	-0.16996408
142	0xbe7ebdef	-0.24877141
143	0x3f1805e4	0.5938399
144	0xbeeef837	-0.46673748
145	0x3dc7480c	0.09730539
146	0x3ee02309	0.4377673
147	0x3f0cc8b8	0.5499377
148	0x3ead3181	0.3382683
149	0xbf18a852	-0.59631836
150	0xbe83d5f0	-0.2574916
151	0x3f05a7df	0.52209276
152	0xbcf9f27a	-0.03051113
153	0x3ee43478	0.4457128
154	0x3d58ef88	0.05296281
155	0xbf1c2618	-0.60995626
156	0x3dfa1ff6	0.12213127
157	0x3f1acc62	0.60468113
158	0x3e1634a9	0.14668526
159	0x3e42df19	0.19030418
160	0x3d9d5668	0.07682496
161	0xbe9f4d2e	-0.3111357
162	0xbe6504f7	-0.22365175
163	0x3daa4fd0	0.08316004
164	0x3f0fe921	0.562151
165	0xbc10d040	-0.008838713
166	0xbf1b08e7	-0.6056046
167	0x3cef5ae8	0.029218152
168	0x3ebd29de	0.36946005
169	0x3f0f9fd5	0.5610326
170	0xbd9909a4	-0.07472542
171	0x3e534b18	0.20634115
172	0x3e977222	0.29579264
173	0xbe772c90	-0.24138093
174	0x3c3dd540	0.011586487
175	0x3df43468	0.11924058
176	0xbe168605	-0.14699562
177	0xbee39f08	-0.4445727
178	0xbc7e71e0	-0.01553008
179	0x3e381aae	0.17978927
180	0xbd26c094	-0.040711
181	0xbe442eeb	-0.19158523
182	0x3c30a210	0.010780826
183	0x3ec11007	0.3770754
184	0x3f01baed	0.5067585
185	0xbe9b0ab9	-0.30281618
186	0xbea531c3	-0.32264528
187	0xbe1a59b2	-0.15073279
188	0x3f0241b7	0.5088152
189	0x3d743554	0.05962117
190	0x3eab31f2	0.33436543
191	0xbdd7763c	-0.10520598
192	0xbe30a184	-0.17249113
193	0xbeab2cf6	-0.3343274
194	0x3d7b6076	0.06137129
195	0x3de80c6c	0.11330494
196	0xbe5a10ed	-0.21295519
197	0xbe1fc9b8	-0.15604293
198	0x3f08ebfb	0.5348508
199	0x3df6e408	0.12055212
200	0xbec1f026	-0.3787853
201	0xbe0d1646	-0.13778028
202	0x3d18720a	0.03721813
203	0xbd5eaa9f	-0.054361936
204	0x3ebfdd25	0.37473407
205	0x3d385dbc	0.045011267
206	0xbe8cb104	-0.27478802
207	0xbf1eca6c	-0.6202762
208	0x3d0605f8	0.032720536
209	0x3ead888d	0.33893242
210	0x3e823a47	0.25435087
211	0x3f3341d2	0.7002231
212	0xbe02d893	-0.12777929
213	0xbed64e5d	-0.4185666
214	0xbe670b08	-0.22562802
215	0x3e5e0378	0.2168101
216	0x3dfdf626	0.12400465
217	0xbcf75208	-0.030190483
218	0xbdc3c7dc	-0.095596045
219	0xbd2007f4	-0.039070085
220	0xbe87172c	-0.26384866
221	0xbe8028cc	-0.25031126
222	0x3e79e88b	0.24405114
223	0x3eab10fa	0.3341139
224	0xbd69043e	-0.05688881
225	0x3f0db4a1	0.5535374
226	0x3ed35979	0.412792
227	0xbe911ecf	-0.28343818
228	0xbe1a654c	-0.15077704
229	0x3dd2094f	0.10255682
230	0x3e3ac29d	0.18238302
231	0x3d9b9fea	0.075988606
232	0x3e38f723	0.18063025
233	0x3cc5b142	0.024132375
234	0x3e7c81ad	0.24658842
235	0xbe9c81a8	-0.3056767
236	0xbe9cd18e	-0.30628628
237	0xbcba57b8	-0.022746906
238	0xbf072ac4	-0.5279963
239	0xbe26b746	-0.16280851
240	0xbe772c53	-0.24138002
241	0xbf12f2c0	-0.5740166
242	0x3cf0ded8	0.029403135
243	0xbe787445	-0.24263103
244	0xbf0f0470	-0.55866146
245	0xbe8b1766	-0.2716629
246	0x3ee1d69d	0.4410905
247	0x3eaec626	0.3413555
248	0xbed64f6a	-0.41857463
249	0xbde98764	-0.11402777
250	0xbf1c4cc1	-0.6105462
251	0x3e6a6a65	0.22892149
252	0x3ebeb0a0	0.3724413
253	0xbe3776dc	-0.17916435
254	0xbec7ce95	-0.39024797
255	0xbeea7ef0	-0.4579997

X1 f4 [2252, 3]
0	0xbefafc3b	-0.49020562
1	0xbe0dcc2c	-0.13847417
2	0xbe8201a2	-0.2539187
3	0x3ef4de2a	0.47825748
4	0x3ea33748	0.31878114
5	0x3f0a550d	0.5403603
6	0x3ef886cf	0.4854035
7	0xbe93d2fd	-0.2887191
8	0xbf534313	-0.8252422
9	0xbeedff28	-0.4648373
10	0x3ea1054e	0.3144936
11	0x3f0a83e2	0.5410749
12	0x3ef70472	0.4824558
13	0xbe456924	-0.19278389
14	0xbd4d7d18	-0.050168127
15	0xbdf6c2e3	-0.120488904
16	0x3c5ac130	0.013351724
17	0xbf4e98db	-0.8070199
18	0x3960cd00	0.00021438673
19	0xbe0a3af3	-0.1349905
20	0x3eca4125	0.39502826
21	0x3cf91a42	0.030408029
22	0x3c610c40	0.013735831
23	0xbe89bc4a	-0.26901466
24	0x3ef654d4	0.48111594
25	0xbea3484d	-0.318911
26	0x3f0bfa89	0.5467916
27	0xbef1a7c9	-0.47198322
28	0xbea5e3a5	-0.32400241
29	0x3f088694	0.5333035
30	0xbeef2f8d	-0.46715966
31	0xbea7085a	-0.3262356
32	0xbf4ff23d	-0.81229
33	0x3c3a98c0	0.0113889575
34	0x3ecf2ab3	0.40462264
35	0x3efe1e0c	0.496323
36	0xbed07f7a	-0.40722257
37	0x3c610c70	0.0137358755
38	0x3e43de49	0.19127764
39	0x3ef37eeb	0.47557768
40	0x3c610c60	0.013735861
41	0xbef20e4a	-0.47276527
42	0x3e92f347	0.2870123
43	0x3df1fc40	0.11815691
44	0x3e6d3657	0.2316526
45	0xbef89b68	-0.48556066
46	0x3c6f1900	0.014593363
47	0xbf20e88c	-0.6285484
48	0x3e7f3592	0.24922779
49	0x3c610c20	0.013735801
50	0xbf445a42	-0.7670022
51	0xbd86c448	-0.065804064
52	0x3ddf248e	0.10895644
53	0x3db4cf2e	0.08828579
54	0xbe48ac00	-0.19596863
55	0xbe0a3af3	-0.1349905
56	0xbefda06d	-0.49536458
57	0xbe92296f	-0.28547236
58	0x3caf99e0	0.021435678
59	0x3f05b68a	0.5223166
60	0x3e2275b4	0.15865213
61	0xbe0a3af3	-0.1349905
62	0x3b2be6e0	0.0026230142
63	0xbe50725d	-0.20356126
64	0xbe0a3af2	-0.13499048
65	0xbdb4091f	-0.08790802
66	0x3efaff0a	0.49022704
67	0xbb2d6fa0	-0.0026464239
68	0x3eed033e	0.46291536
69	0x3e28adfe	0.16472623
70	0x3e00ad13	0.12566023
71	0x3f079692	0.5296413
72	0xbe811a58	-0.2521541
73	0x3e87bac3	0.26509675
74	0x3e9df012	0.30847222
75	0x3d8b8312	0.06812109
76	0xbe6ca69f	-0.23110436
77	0xbf4dd7ac	-0.80407214
78	0x3e589c00	0.2115326
79	0xbe0a3af2	-0.13499048
80	0xbf00c1cc	-0.5029571
81	0x3eaa178a	0.33221084
82	0x3c610c30	0.013735816
83	0xbe55a354	-0.20863086
84	0x3eeb2c11	0.45932057
85	0xbe449662	-0.19197991
86	0x3e74cde3	0.23906665
87	0xbef6ea36	-0.48225564
88	0xbe453a4c	-0.1926052
89	0x3d0668e3	0.03281487
90	0x3e875573	0.2643238
91	0xbe13d5a0	-0.1443696
92	0x3ef4a67c	0.47783267
93	0x3e8b500a	0.27209502
94	0x3eb0577c	0.34441745
95	0x3ebf3b83	0.3735009
96	0xbe5fd048	-0.21856797
97	0xbe6ca69c	-0.23110431
98	0xbf4dd7ad	-0.8040722
99	0xbe3187bc	-0.17336935
100	0xbe0a3af1	-0.13499047
101	0x3e4b8d3c	0.19878095
102	0x3d443094	0.04789789
103	0x3e4fb48a	0.20283714
104	0x3e9e6527	0.30936548
105	0x3ef6e153	0.48218784
106	0xbe4551b9	-0.19269456
107	0xbea0ec41	-0.31430247
108	0x3bfe8830	0.0077676997
109	0x3c610c40	0.013735831
110	0xbf0e4586	-0.55574834
111	0xbe968d68	-0.2940476
112	0x3c610c58	0.013735853
113	0xbea0ec42	-0.3143025
114	0xbef9faa6	-0.48824042
115	0xbe4191a5	-0.18903215
116	0x3ea39bdc	0.3195485
117	0x3ef9134d	0.48647538
118	0xbd443148	-0.04789856
119	0xbf38c246	-0.7217144
120	0x3eebc444	0.46048176
121	0x3c610c40	0.013735831
122	0x3daf523c	0.08560607
123	0xbda884cd	-0.08228455
124	0x3e27757b	0.16353409
125	0x3f081d36	0.5316957
126	0xbef34d48	-0.47519898
127	0xbe456920	-0.19278383
128	0xbefda06d	-0.49536458
129	0x3e4926b2	0.19643667
130	0xbe0a3af4	-0.13499051
131	0x3e79ed2a	0.24406877
132	0xbec10a2a	-0.37703067
133	0x3c610c50	0.013735846
134	0xbd2ec152	-0.042664833
135	0xbe1a4c11	-0.1506808
136	0x3d71239e	0.058871858
137	0x3ea506d1	0.32231763
138	0xbeded018	-0.43518138
139	0xbdce2cff	-0.10067176
140	0xbf525ec4	-0.8217585
141	0xbe5dcd1c	-0.21660274
142	0x3ecf2ab2	0.4046226
143	0x3ef7074e	0.4824776
144	0xbef9cbd1	-0.48788312
145	0x3c2c11e0	0.010502309
146	0x3ed9b676	0.4252202
147	0x3e9289e8	0.2862084
148	0xbe4ba16e	-0.198858
149	0xbf4e8d26	-0.80684125
150	0xbeeb40aa	-0.45947772
151	0xbea7372f	-0.3265929
152	0xbe17fda4	-0.1484285
153	0x3eefa773	0.4680744
154	0xbe456920	-0.19278383
155	0xbf103142	-0.5632516
156	0xbef9cbd2	-0.48788315
157	0x3c609bf8	0.013709061
158	0xbecf407c	-0.40478885
159	0x3e416054	0.18884403
160	0xbe0a3af3	-0.1349905
161	0xbe954e6c	-0.29161394
162	0xbeecf1dc	-0.46278274
163	0x3e82b2e0	0.25527096
164	0x3e9ca83f	0.30597112
165	0x3edb0722	0.4277888
166	0x3e3e6ae7	0.18595468
167	0x3ec65df7	0.38743564
168	0xbe770bf3	-0.24125652
169	0x3c610c60	0.013735861
170	0xbf219828	-0.63122797
171	0xbbf03fa0	-0.0073318034
172	0xbe0a3af3	-0.1349905
173	0xbed323ac	-0.41238153
174	0x3961b800	0.00021526217
175	0xbe0a3af3	-0.1349905
176	0xbe086136	-0.13318333
177	0xbe7ebae0	-0.24875975
178	0xbe0a3af1	-0.13499047
179	0x3ec65df7	0.38743564
180	0x3df7e71a	0.12104626
181	0x3d1682f8	0.036745995
182	0x3e1984aa	0.14992014
183	0xbd8aa51c	-0.06769773
184	0xbe0a3af2	-0.13499048
185	0xbf2f1be2	-0.6840192
186	0xbe96b08a	-0.29431564
187	0x3e62172d	0.22079153
188	0x3f001674	0.5003426
189	0xbe29c163	-0.16577677
190	0xbe0a3af2	-0.13499048
191	0xbe9176f3	-0.28411064
192	0x3e1a97ec	0.15097016
193	0x3d090c1f	0.033458825
194	0x3eb2618f	0.34840056
195	0x3e92e794	0.28692305
196	0x3c610c38	0.013735823
197	0xbb9feae8	-0.004880298
198	0x3ea25ce2	0.3171149
199	0x3c610c00	0.013735771
200	0xbf16002e	-0.58594024
201	0xbd3893b8	-0.04506275
202	0xbe0a3af3	-0.1349905
203	0x3d62f9f8	0.05541417
204	0x3e837244	0.25673115
205	0x3c610c20	0.013735801
206	0xbec785d4	-0.3896929
207	0xbee0239e	-0.43777174
208	0xbe0dcc2a	-0.13847414
209	0x3f09d442	0.53839505
210	0xbeb5780b	-0.35443148
211	0xbe0a3af2	-0.13499048
212	0xbf27613b	-0.65382737
213	0xbdd80718	-0.10548228
214	0xbd065bf0	-0.032802522
215	0x3f02c35f	0.5107936
216	0x3df7b844	0.12095693
217	0x3c610c48	0.013735838
218	0xbdd2ef0c	-0.10299501
219	0x3ea64012	0.32470757
220	0xbe0a3af4	-0.13499051
221	0x3dce3cd8	0.10070199
222	0xbe0327ce	-0.12808153
223	0x3c610c50	0.013735846
224	0xbecb6904	-0.39728558
225	0x3d5943a0	0.053043008
226	0x3c610c50	0.013735846
227	0xbf3e9132	-0.744403
228	0xbe6f4592	-0.23366383
229	0x3c610c60	0.013735861
230	0x3dddc993	0.10829463
231	0xbdf6c2e3	-0.120488904
232	0x3c610c52	0.013735848
233	0xbe1f8d6f	-0.15581296
234	0x3efa3801	0.48870853
235	0x3c288e70	0.010287866
236	0xbdc3831a	-0.0954649
237	0x3ef37eeb	0.47557768
238	0x3c610c40	0.013735831
239	0x3e904f17	0.2818534
240	0x3ea4ec8b	0.32211718
241	0x3d0eae8e	0.034834437
242	0x3f0857c0	0.53258896
243	0x3ef73efe	0.48290247
244	0xbe456920	-0.19278383
245	0x3ed5d34a	0.41762763
246	0x3e130065	0.14355619
247	0xbe0a3af2	-0.13499048
248	0xbf2b3e8e	-0.66892326
249	0x3e8f3eee	0.279777
250	0x3e8a84f2	0.27054554
251	0x3f091315	0.5354474
252	0x3ef9c2eb	0.48781523
253	0xbc26ac60	-0.010172933
254	0xbe954e6c	-0.29161394
255	0xbee41283	-0.44545373

Y1 f4 [2252, 3]
0	0xbda0e622	-0.07856394
1	0x3f0e81f9	0.5566707
2	0x3db5fe16	0.08886354
3	0xbc91bc90	-0.017790109
4	0xbf46174e	-0.7737931
5	0x3e1c3393	0.15254049
6	0x3f140e89	0.5783468
7	0x3e68f12e	0.22748253
8	0xbf488f0a	-0.7834326
9	0xbeb56e0f	-0.3543553
10	0xbd9b6e68	-0.07589418
11	0x3f30b2c3	0.6902277
12	0x3db43572	0.087992564
13	0xbe8b3207	-0.27186605
14	0xbedfa3f1	-0.43679765
15	0x3f09461f	0.5362262
16	0x3f145b5d	0.5795191
17	0xbe53575d	-0.20638795
18	0xbeb94d09	-0.36191586
19	0xbe511f50	-0.20422101
20	0x3d22d70e	0.039755873
21	0x3e5668de	0.20938441
22	0x3e0dbb18	0.13840902
23	0xbdd1b0dd	-0.10238812
24	0xbed2dbad	-0.41183224
25	0xbf19e063	-0.6010801
26	0xbea2ebd4	-0.31820548
27	0xbf3e0ce0	-0.74238396
28	0x3de7b43c	0.11313674
29	0x3e60df09	0.21960081
30	0x3e567568	0.20943224
31	0x3f6f27d6	0.9342016
32	0xbe856757	-0.26055405
33	0xbdcb0d94	-0.09914699
34	0xbed9fffc	-0.42578113
35	0x3eefa392	0.46804482
36	0xbe8aa88c	-0.27081716
37	0x3e385b04	0.1800347
38	0x3e9f56e6	0.31120986
39	0x3f02c701	0.51084906
40	0xbd86f0a0	-0.06588864
41	0xbedbf560	-0.42960644
42	0x3c2448a0	0.010027081
43	0xbec63730	-0.3871398
44	0x3b9ab150	0.0047208443
45	0x3e903d0c	0.28171575
46	0x3f3d5fa4	0.7397406
47	0x3d890128	0.06689674
48	0x3f238d97	0.63887924
49	0x3e902f64	0.28161156
50	0xbececa22	-0.4038859
51	0xbc9b68ac	-0.01897081
52	0xbd135054	-0.03596528
53	0x3e190fe1	0.14947464
54	0x3e4b15ec	0.19832581
55	0x3ef8db74	0.4860493
56	0xbe267db0	-0.16258883
57	0xbeea0dd2	-0.4571367
58	0xbdeb317e	-0.11484049
59	0x3eba720f	0.36415145
60	0xbce8e033	-0.028427219
61	0xbda5f836	-0.08103983
62	0xbe425b13	-0.18980055
63	0xbdbd62f0	-0.092473865
64	0x3e77f547	0.2421466
65	0xbc684eb0	-0.014178917
66	0xbe1f5d6a	-0.15562978
67	0xbf2525ee	-0.64511
68	0xbdf453d4	-0.119300514
69	0xbe7510fa	-0.23932257
70	0xbef670d2	-0.4813295
71	0x3e3e2d3c	0.18571943
72	0xbe1469ca	-0.1449348
73	0xbd9d5517	-0.07682245
74	0x3ee62ce4	0.44956124
75	0x3ee6fa2c	0.4511274
76	0x3f01bf18	0.5068221
77	0xbefd02f2	-0.4941631
78	0x3eb20ea6	0.347768
79	0x3e420590	0.18947434
80	0xbecc37b2	-0.39886242
81	0x3e8bf9c6	0.27339
82	0xbdf92938	-0.12166065
83	0xbe82117c	-0.25403965
84	0xbdfe642f	-0.12421452
85	0xbedd3d6e	-0.4321093
86	0xbea43067	-0.32068178
87	0xbe9f90f6	-0.31165284
88	0x3ec7e002	0.39038092
89	0x3e152a1c	0.14566845
90	0xbeaa693c	-0.33283412
91	0xbee5226c	-0.44752824
92	0xbdb6e054	-0.08929506
93	0x3d3027f0	0.043006837
94	0xbf06c274	-0.5264046
95	0x3e6c35e0	0.23067427
96	0x3eb314bc	0.34976757
97	0x3f37ff7f	0.7187423
98	0xbea8defc	-0.32982624
99	0xbe91ac7e	-0.28451914
100	0x3d3552b6	0.044268332
101	0x3d8f1a39	0.069874234
102	0xbd9ef0fc	-0.07760808
103	0xbe903cdc	-0.28171432
104	0x3e6d6c2f	0.231858
105	0x3e8ca896	0.2747237
106	0xbde12a88	-0.1099444
107	0xbf07abb2	-0.5299636
108	0x3eceea48	0.40413117
109	0x3ea955c6	0.33073252
110	0xbe435d5b	-0.19078581
111	0x3e01bc6e	0.12669536
112	0x3ecfdc84	0.40597928
113	0x3d8a6a69	0.067585774
114	0xbf03ab44	-0.51433206
115	0x3e5f73e0	0.21821547
116	0x3e819868	0.2531159
117	0x3f272a82	0.65299237
118	0x3dc42a10	0.09578335
119	0xbf11c62c	-0.5694301
120	0x3de2ae22	0.110683694
121	0xbecb1725	-0.39666095
122	0xbe64e76d	-0.22353907
123	0xbe9c1dac	-0.30491388
124	0xbe9f08e4	-0.3106147
125	0x3eb64a26	0.35603446
126	0x3d838190	0.064211965
127	0x3f356a90	0.70865726
128	0xbd395640	-0.04524827
129	0xbe3e4164	-0.18579632
130	0xbe837e8c	-0.25682485
131	0xbe011f32	-0.12609556
132	0xbdc1fcc7	-0.094720416
133	0x3e9a19a3	0.30097684
134	0x3e5842b8	0.21119201
135	0xbe7b04b9	-0.2451352
136	0xbdd1eaf6	-0.10249893
137	0x3e79b35a	0.24384823
138	0x3ebb2b05	0.3655626
139	0x3f5a66ac	0.85312915
140	0xbdec8914	-0.11549583
141	0xbe2e0b10	-0.16996408
142	0xbe7ebdef	-0.24877141
143	0x3f1805e4	0.5938399
144	0xbeeef837	-0.46673748
145	0x3dc7480c	0.09730539
146	0x3ee02309	0.4377673
147	0x3f0cc8b8	0.5499377
148	0x3ead3181	0.3382683
149	0xbf18a852	-0.59631836
150	0xbe83d5f0	-0.2574916
151	0x3f05a7df	0.52209276
152	0xbcf9f27a	-0.03051113
153	0x3ee43478	0.4457128
154	0x3d58ef88	0.05296281
155	0xbf1c2618	-0.60995626
156	0x3dfa1ff6	0.12213127
157	0x3f1acc62	0.60468113
158	0x3e1634a9	0.14668526
159	0x3e42df19	0.19030418
160	0x3d9d5668	0.07682496
161	0xbe9f4d2e	-0.3111357
162	0xbe6504f7	-0.22365175
163	0x3daa4fd0	0.08316004
164	0x3f0fe921	0.562151
165	0xbc10d040	-0.008838713
166	0xbf1b08e7	-0.6056046
167	0x3cef5ae8	0.029218152
168	0x3ebd29de	0.36946005
169	0x3f0f9fd5	0.5610326
170	0xbd9909a4	-0.07472542
171	0x3e534b18	0.20634115
172	0x3e977222	0.29579264
173	0xbe772c90	-0.24138093
174	0x3c3dd540	0.011586487
175	0x3df43468	0.11924058
176	0xbe168605	-0.14699562
177	0xbee39f08	-0.4445727
178	0xbc7e71e0	-0.01553008
179	0x3e381aae	0.17978927
180	0xbd26c094	-0.040711
181	0xbe442eeb	-0.19158523
182	0x3c30a210	0.010780826
183	0x3ec11007	0.3770754
184	0x3f01baed	0.5067585
185	0xbe9b0ab9	-0.30281618
186	0xbea531c3	-0.32264528
187	0xbe1a59b2	-0.15073279
188	0x3f0241b7	0.5088152
189	0x3d743554	0.05962117
190	0x3eab31f2	0.33436543
191	0xbdd7763c	-0.10520598
192	0xbe30a184	-0.17249113
193	0xbeab2cf6	-0.3343274
194	0x3d7b6076	0.06137129
195	0x3de80c6c	0.11330494
196	0xbe5a10ed	-0.21295519
197	0xbe1fc9b8	-0.15604293
198	0x3f08ebfb	0.5348508
199	0x3df6e408	0.12055212
200	0xbec1f026	-0.3787853
201	0xbe0d1646	-0.13778028
202	0x3d18720a	0.03721813
203	0xbd5eaa9f	-0.054361936
204	0x3ebfdd25	0.37473407
205	0x3d385dbc	0.045011267
206	0xbe8cb104	-0.27478802
207	0xbf1eca6c	-0.6202762
208	0x3d0605f8	0.032720536
209	0x3ead888d	0.33893242
210	0x3e823a47	0.25435087
211	0x3f3341d2	0.7002231
212	0xbe02d893	-0.12777929
213	0xbed64e5d	-0.4185666
214	0xbe670b08	-0.22562802
215	0x3e5e0378	0.2168101
216	0x3dfdf626	0.12400465
217	0xbcf75208	-0.030190483
218	0xbdc3c7dc	-0.095596045
219	0xbd2007f4	-0.039070085
220	0xbe87172c	-0.26384866
221	0xbe8028cc	-0.25031126
222	0x3e79e88b	0.24405114
223	0x3eab10fa	0.3341139
224	0xbd69043e	-0.05688881
225	0x3f0db4a1	0.5535374
226	0x3ed35979	0.412792
227	0xbe911ecf	-0.28343818
228	0xbe1a654c	-0.15077704
229	0x3dd2094f	0.10255682
230	0x3e3ac29d	0.18238302
231	0x3d9b9fea	0.075988606
232	0x3e38f723	0.18063025
233	0x3cc5b142	0.024132375
234	0x3e7c81ad	0.24658842
235	0xbe9c81a8	-0.3056767
236	0xbe9cd18e	-0.30628628
237	0xbcba57b8	-0.022746906
238	0xbf072ac4	-0.5279963
239	0xbe26b746	-0.16280851
240	0xbe772c53	-0.24138002
241	0xbf12f2c0	-0.5740166
242	0x3cf0ded8	0.029403135
243	0xbe787445	-0.24263103
244	0xbf0f0470	-0.55866146
245	0xbe8b1766	-0.2716629
246	0x3ee1d69d	0.4410905
247	0x3eaec626	0.3413555
248	0xbed64f6a	-0.41857463
249	0xbde98764	-0.11402777
250	0xbf1c4cc1	-0.6105462
251	0x3e6a6a65	0.22892149
252	0x3ebeb0a0	0.3724413
253	0xbe3776dc	-0.17916435
254	0xbec7ce95	-0.39024797
255	0xbeea7ef0	-0.4579997

theta_op f4 [3]
0	0x3f860a92	1.0471976
1	0xbf490fdb	-0.7853982
2	0xbf860a92	-1.0471976

beta_op f4 [3]
0	0x00000000	0.0
1	0x00000000	0.0
2	0x00000000	0.0
