code/experiment/shape_registration/result/saved/mumble_sitting/9k-5p/icp_umeyama_param.pt (torch, 315945 bytes, 800 tensors)

rotation f4 [3, 3]
00000000: e1fe 7f3f a043 933b 20ac 733b 800d 95bb
00000010: 25f8 7f3f c08d 723c 8048 6fbb e0d2 72bc
00000020: 5ef8 7f3f
0.9999829 0.0044941455 0.0037181452 -0.0045487285 0.99988014 0.014804304 -0.003651172 -0.014820784
0.99988353

beta f4 [3]
00000000: e094 a441 9330 6ec1 a452 97c0
20.572693 -14.886859 -4.728838

rotation f4 [3, 3]
00000000: 76fb 7f3f 40bb bf3b 48fb 263c a0b1 c9bb
00000010: 27e1 7f3f 7027 f63c f005 24bc 40a6 f6bc
00000020: fdde 7f3f
0.99993074 0.0058511794 0.010191746 -0.0061552078 0.9995293 0.030048102 -0.010011181 -0.030108571
0.9994963

beta f4 [3]
00000000: 2c17 9f41 2cb0 5ac1 7046 87c0
19.886314 -13.668011 -4.2273483

rotation f4 [3, 3]
00000000: 55f7 7f3f 6081 f33b 604e 6d3c 30a9 03bc
00000010: aac3 7f3f e89a 2c3d a0f5 67bc 000f 2dbd
00000020: e8be 7f3f
0.99986774 0.007431194 0.014484018 -0.008035943 0.99907935 0.042139918 -0.014157683 -0.042250633
0.99900675

beta f4 [3]
00000000: 4401 9b41 7474 4ac1 8083 76c0
19.375618 -12.653431 -3.8517761

rotation f4 [3, 3]
00000000: 69f2 7f3f 501d 1b3c e0d5 933c 1034 29bc
00000010: 6cb0 7f3f 9058 453d 7ceb 8fbc f011 46bd
00000020: 3aa9 7f3f
0.99979264 0.009467438 0.01804632 -0.010327354 0.99878573 0.048180163 -0.017568342 -0.04835695
0.99867594

beta f4 [3]
00000000: 93c3 9741 6937 3dc1 78de 59c0
18.970495 -11.826028 -3.4042034

rotation f4 [3, 3]
00000000: 43eb 7f3f f04e 5c3c 9c24 ae3c e072 6ebc
00000010: 909d 7f3f 185b 583d 5810 a8bc 288e 59bd
00000020: aa95 7f3f
0.99968356 0.013446555 0.021257691 -0.0145537555 0.99849796 0.05282125 -0.020515606 -0.053114086
0.99837744

beta f4 [3]
00000000: eac4 9541 7637 31c1 c825 41c0
18.72115 -11.07604 -3.017931

rotation f4 [3, 3]
00000000: 4be1 7f3f e0aa 913c 880d cc3c b8da 9cbc
00000010: 388e 7f3f 2030 643d 9895 c3bc 2809 66bd
00000020: dd85 7f3f
0.99953145 0.017781675 0.024908796 -0.019147262 0.99826384 0.055709958 -0.023875043 -0.056161076
0.99813634

beta f4 [3]
00000000: 7e5e 9541 d346 28c1 e8e6 2fc0
18.671139 -10.517291 -2.7484684

rotation f4 [3, 3]
00000000: 01d8 7f3f 30ca bb3c a8f9 d73c e0e6 c7bc
00000010: 3181 7f3f 4046 6a3d 0cd1 ccbc 70c4 6cbd
00000020: e97d 7f3f
0.9993897 0.022923559 0.026364163 -0.024402082 0.99806505 0.057195902 -0.025002025 -0.057804525
0.998015

beta f4 [3]
00000000: 8928 9541 a2c0 20c1 2863 25c0
18.644793 -10.0470295 -2.584177

rotation f4 [3, 3]
00000000: fece 7f3f c0d8 dd3c 681b e23c 2068 eabc
00000010: 7c7b 7f3f 787a 683d 2c0f d5bc 088a 6bbd
00000020: 587d 7f3f
0.9992522 0.027080894 0.027600959 -0.028614104 0.997978 0.05675742 -0.026008211 -0.057504684
0.99800634

beta f4 [3]
00000000: b24a 9541 1a49 1bc1 0804 1dc0
18.661472 -9.705347 -2.453371

rotation f4 [3, 3]
00000000: 36c4 7f3f e0a8 003d 5407 ed3c 582d 07bd
00000010: 7074 7f3f d878 663d 880b debc 982c 6abd
00000020: b07c 7f3f
0.9990877 0.03141105 0.028934158 -0.033002228 0.99787045 0.05626759 -0.027105108 -0.057171434
0.99799633

beta f4 [3]
00000000: cc99 9541 49e4 15c1 183c 13c0
18.700096 -9.368234 -2.3005428

rotation f4 [3, 3]
00000000: 91b5 7f3f 9417 173d 0814 f73c 38d6 1dbd
00000010: 8268 7f3f a845 653d c097 e5bc 00c6 69bd
00000020: 667b 7f3f
0.99886423 0.03688772 0.030160919 -0.038534373 0.9976884 0.055974633 -0.028026462 -0.057073593
0.99797666

beta f4 [3]
00000000: 051a 9641 d9d7 10c1 380e 09c0
18.762705 -9.052697 -2.1414928

rotation f4 [3, 3]
00000000: 79a8 7f3f e861 2a3d e004 fb3c 0c1f 31bd
00000010: e45e 7f3f 90db 613d a09c e7bc c8fb 66bd
00000020: 787d 7f3f
0.99866444 0.041597277 0.030641973 -0.0432425 0.99754167 0.05514103 -0.028272927 -0.05639246
0.99800825

beta f4 [3]
00000000: abc9 9641 0a18 0dc1 88a4 00c0
18.84847 -8.818369 -2.0100422

rotation f4 [3, 3]
00000000: d29a 7f3f b824 393d 402f 043d f048 40bd
00000010: a652 7f3f e83e 633d 1020 f3bc 0819 69bd
00000020: d778 7f3f
0.9984561 0.045201033 0.032271624 -0.04694456 0.99735487 0.055479914 -0.029678375 -0.056908637
0.9979376

beta f4 [3]
00000000: cde0 9741 7ee8 09c1 50e0 f2bf
18.984766 -8.619261 -1.8974705

rotation f4 [3, 3]
00000000: 5e91 7f3f 6c18 413d ccf4 0a3d a89f 48bd
00000010: 014c 7f3f 0894 633d 28b1 ffbc f0ff 69bd
00000020: fc74 7f3f
0.9983119 0.04714243 0.033924863 -0.048980385 0.9972535 0.055561095 -0.031212404 -0.057128847
0.9978788

beta f4 [3]
00000000: 5d01 9941 22dc 07c1 10cc e6bf
19.125666 -8.491243 -1.8031025

rotation f4 [3, 3]
00000000: 1688 7f3f 9004 4a3d f449 0f3d fcd3 51bd
00000010: 6c43 7f3f a8e2 643d 9096 03bd 70ce 6bbd
00000020: 6a71 7f3f
0.99817026 0.049320757 0.034982637 -0.051227555 0.9971225 0.05588022 -0.03212601 -0.05756992
0.9978243

beta f4 [3]
00000000: 361f 9a41 3ec1 05c1 e0ba debf
19.26524 -8.359678 -1.740078

rotation f4 [3, 3]
00000000: b881 7f3f 802f 523d cce2 0e3d d021 5abd
00000010: a637 7f3f b82b 6a3d b46e 02bd 3054 71bd
00000020: db6c 7f3f
0.9980731 0.05131483 0.03488426 -0.053254902 0.9969429 0.0571706 -0.031843856 -0.058918178
0.99775475

beta f4 [3]
00000000: b105 9b41 5434 03c1 60f7 dbbf
19.377779 -8.200275 -1.7184868

rotation f4 [3, 3]
00000000: 607d 7f3f 10c2 583d 36c4 0c3d 509e 60bd
00000010: ab30 7f3f 5096 6b3d 50b5 ffbc 98d5 72bd
00000020: b26c 7f3f
0.9980068 0.052919447 0.03436681 -0.05483848 0.99683636 0.057516396 -0.031214386 -0.05928573
0.9977523

beta f4 [3]
00000000: 3bd2 9b41 6431 01c1 6023 d8bf
19.477652 -8.074558 -1.6885796

rotation f4 [3, 3]
00000000: 9978 7f3f 0c99 5d3d b8f9 0d3d f088 65bd
00000010: fe2b 7f3f 0003 6c3d 56bf 00bd 507b 73bd
00000020: ae6b 7f3f
0.9979339 0.054101035 0.03466198 -0.056038797 0.996765 0.05762005 -0.031432472 -0.05944377
0.9977368

beta f4 [3]
00000000: 15a9 9c41 a122 ffc0 f086 cfbf
19.58256 -7.972977 -1.6213055

rotation f4 [3, 3]
00000000: 3f7a 7f3f 7c61 5c3d 74ea 0c3d 2c4a 64bd
00000010: 1e2c 7f3f 2019 6d3d 1468 ffbc 6878 74bd
00000020: 476b 7f3f
0.9979591 0.053803906 0.03440328 -0.0557348 0.9967669 0.05788529 -0.031177558 -0.05968514
0.9977307

beta f4 [3]
00000000: 263b 9d41 c719 fdc0 8055 c7bf
19.653881 -7.9093966 -1.5572968

rotation f4 [3, 3]
00000000: 4d7b 7f3f 4476 5b3d 006a 0c3d e43e 63bd
00000010: e72f 7f3f 98ef 693d 5cde febc 8840 71bd
00000020: 6e6e 7f3f
0.9979752 0.053579584 0.034280777 -0.0554799 0.9968247 0.05711326 -0.031111889 -0.058899432
0.9977788

beta f4 [3]
00000000: 83da 9d41 99d6 fbc0 a024 bcbf
19.731695 -7.869946 -1.4698677

rotation f4 [3, 3]
00000000: 2e7d 7f3f 1ce0 593d 5a75 0b3d d08b 61bd
00000010: 2a33 7f3f 600f 683d a45b fdbc a046 6fbd
00000020: b070 7f3f
0.99800384 0.053192243 0.034047462 -0.055064976 0.99687445 0.056655288 -0.030927487 -0.058416963
0.9978132

beta f4 [3]
00000000: 66b2 9e41 ebba fac0 1005 b4bf
19.837109 -7.835317 -1.4064045

rotation f4 [3, 3]
00000000: cb7e 7f3f 48ab 5a3d 642e 073d e8e7 61bd
00000010: 4a38 7f3f c0fd 613d 7068 f5bc 8000 69bd
00000020: 6e78 7f3f
0.99802846 0.053386003 0.033003226 -0.055152804 0.99695265 0.055173635 -0.029957026 -0.056885242
0.99793136

beta f4 [3]
00000000: 2070 9f41 0c4d f9c0 80d3 a7bf
19.929749 -7.790655 -1.311142

rotation f4 [3, 3]
00000000: 337f 7f3f b0ac 593d de08 083d 08e7 60bd
00000010: e43a 7f3f 7014 603d 086f f7bc 581c 67bd
00000020: ae79 7f3f
0.99803466 0.053143203 0.03321158 -0.05490783 0.99699235 0.05470699 -0.030204311 -0.056423515
0.99795043

beta f4 [3]
00000000: 3c51 a041 b7b3 f7c0 6010 98bf
20.039665 -7.740688 -1.1879997

rotation f4 [3, 3]
00000000: b27f 7f3f f4b5 573d 0a2e 0a3d 3ceb 5ebd
00000010: ac40 7f3f 9862 5b3d 3c72 fcbc c879 62bd
00000020: 967c 7f3f
0.9980422 0.05266376 0.033735313 -0.054423556 0.99708056 0.053560823 -0.03081619 -0.05529192
0.9979948

beta f4 [3]
00000000: 2655 a141 90e3 f6c0 a053 83bf
20.166576 -7.7152786 -1.0259895

rotation f4 [3, 3]
00000000: c47c 7f3f f852 5a3d 6a78 0b3d 9435 61bd
00000010: 1949 7f3f 78e0 4e3d d20d 00bd 6821 56bd
00000020: 4a86 7f3f
0.9979975 0.05330178 0.034050383 -0.054982737 0.99720913 0.05050704 -0.03126318 -0.052277952
0.99814284

beta f4 [3]
00000000: 674a a241 0703 f6c0 60bb 4abf
20.28633 -7.6878695 -0.7919216

rotation f4 [3, 3]
00000000: b279 7f3f 8478 5d3d 3029 0c3d 6c14 64bd
00000010: 5a4e 7f3f 4808 453d ce20 01bd 086f 4cbd
00000020: b78d 7f3f
0.9979507 0.05407001 0.034218967 -0.05568354 0.9972893 0.0481036 -0.031525426 -0.049910575
0.99825615

beta f4 [3]
00000000: c368 a341 3213 f5c0 0077 12bf
20.426153 -7.658593 -0.5721283

rotation f4 [3, 3]
00000000: 2b7c 7f3f 3436 5a3d 34c5 0c3d b8ae 60bd
00000010: 7855 7f3f b8a1 3f3d 2232 02bd 28f8 46bd
00000020: 7f91 7f3f
0.9979884 0.05327435 0.034367755 -0.054854125 0.9973979 0.046785086 -0.03178609 -0.048576504
0.99831384

beta f4 [3]
00000000: da50 a441 8f51 f4c0 4035 b6be
20.539478 -7.634956 -0.35587502

rotation f4 [3, 3]
00000000: e082 7f3f f898 513d 32a7 0d3d 08ed 57bd
00000010: 6061 7f3f 08bb 393d 62ce 03bd 38d8 40bd
00000020: 5795 7f3f
0.99809074 0.051171273 0.034583278 -0.052716285 0.9975796 0.045344383 -0.032179244 -0.047081202
0.9983725

beta f4 [3]
00000000: af10 a541 8c2e f4c0 0084 acbd
20.633146 -7.630682 -0.084236145

rotation f4 [3, 3]
00000000: ca86 7f3f 2859 4a3d 241a 113d f890 50bd
00000010: 626d 7f3f 2864 313d 8203 08bd 6073 38bd
00000020: 5299 7f3f
0.99815047 0.049401432 0.03542532 -0.050919503 0.9977628 0.043308407 -0.03320647 -0.045031905
0.99843323

beta f4 [3]
00000000: 7335 a641 12ab f4c0 80ba 503e
20.776098 -7.6458826 0.20383644

rotation f4 [3, 3]
00000000: 2a86 7f3f fc4d 473d b84c 163d d45f 4dbd
00000010: 7377 7f3f 7057 263d 7ee4 0dbd 7091 2dbd
00000020: c49d 7f3f
0.99814093 0.048658356 0.03669426 -0.050140217 0.9979164 0.04061073 -0.034641735 -0.042375028
0.99850106

beta f4 [3]
00000000: d2cd a741 1a13 f5c0 c082 fe3e
20.975498 -7.6585817 0.4970913

rotation f4 [3, 3]
00000000: 9486 7f3f 1cee 453d 0e78 173d 6c67 4bbd
00000010: 5d84 7f3f 00f7 133d 7e08 10bd 6036 1bbd
00000020: 64a8 7f3f
0.99814725 0.048322782 0.036979727 -0.049659178 0.99811345 0.03612423 -0.03516435 -0.037893653
0.9986632

beta f4 [3]
00000000: ff30 a941 6e3f f6c0 6007 533f
21.148924 -7.695243 0.8243313

rotation f4 [3, 3]
00000000: 3788 7f3f 6865 413d 847f 1a3d 0847 46bd
00000010: f692 7f3f b852 003d c82e 14bd 4891 07bd
00000020: 2eb1 7f3f
0.9981722 0.04721585 0.037719265 -0.048407584 0.9983362 0.031328887 -0.036177427 -0.033097535
0.9987973

beta f4 [3]
00000000: 21cc aa41 16b9 f8c0 e0f1 943f
21.349672 -7.7725935 1.1636314

rotation f4 [3, 3]
00000000: 9b8a 7f3f 9c90 3c3d 6e89 1c3d 4857 40bd
00000010: 77a5 7f3f e03b c13c 72df 17bd a097 cfbc
00000020: e5bd 7f3f
0.9982087 0.046036348 0.038217 -0.046958238 0.99861854 0.023588121 -0.03707833 -0.025340855
0.9989913

beta f4 [3]
00000000: 365a ac41 0370 fec0 30fa c53f
21.544048 -7.9511733 1.5466976

rotation f4 [3, 3]
00000000: 5886 7f3f 0013 353d 829d 2b3d 8cbb 37bd
00000010: fdb6 7f3f e067 703c 98c4 28bd a060 87bc
00000020: 68bf 7f3f
0.9981437 0.044207573 0.041898258 -0.044856593 0.9988859 0.014673203 -0.04120311 -0.016525567
0.9990144

beta f4 [3]
00000000: e07d ae41 62d5 02c1 a80f 0340
21.811462 -8.177095 2.0478306

rotation f4 [3, 3]
00000000: f377 7f3f 507b 2c3d 0e90 473d 5005 2ebd
00000010: 4fc3 7f3f 0084 db3b e038 46bd 8070 0fbc
00000020: adb0 7f3f
0.99792403 0.042109787 0.048721366 -0.042485535 0.9990739 0.0066990852 -0.048394084 -0.008754849
0.9987896

beta f4 [3]
00000000: ecfa b041 700c 06c1 08bc 2840
22.12252 -8.3780365 2.6364765

rotation f4 [3, 3]
00000000: 256b 7f3f 588f 253d 7ab3 5c3d 48f9 25bd
00000010: 22ca 7f3f 0082 4c3a 0864 5cbd 0014 42bb
00000020: c2a0 7f3f
0.99772865 0.040419906 0.0538821 -0.040520936 0.99917805 0.0007801354 -0.053806335 -0.0029613972
0.9985467

beta f4 [3]
00000000: 6c3a b341 0a93 08c1 f85f 4640
22.403526 -8.535898 3.0996075

rotation f4 [3, 3]
00000000: 7f5f 7f3f f080 213d 0e9f 6c3d d815 21bd
00000010: 04cd 7f3f 008a 3ebb 2ce8 6cbd 00da 243a
00000020: 4492 7f3f
0.9975509 0.039429605 0.057768874 -0.039327472 0.99922204 -0.0029073954 -0.057838604 0.0006288588
0.9983256

beta f4 [3]
00000000: 2623 b541 4b79 09c1 88b8 6140
22.642162 -8.592113 3.526888

rotation f4 [3, 3]
00000000: d34a 7f3f 882c 213d 3e16 813d a43f 20bd
00000010: 13cd 7f3f 80a0 9dbb b65f 81bd 80c2 183b
00000020: f27c 7f3f
0.9972355 0.03934911 0.063030705 -0.039123192 0.99922293 -0.004810393 -0.063170835 0.002330929
0.99800026

beta f4 [3]
00000000: 8d22 b741 d8de 08c1 0867 7e40
22.89187 -8.554405 3.9750385

rotation f4 [3, 3]
00000000: 2432 7f3f b007 283d 53bf 8a3d b836 26bd
00000010: f1c7 7f3f 00a6 01bc 2b4b 8bbd 8066 a83b
00000020: 5d67 7f3f
0.99685884 0.041022956 0.067747734 -0.040579528 0.9991446 -0.007913113 -0.068014465 0.005139172
0.99767095

beta f4 [3]
00000000: a758 b941 ca30 08c1 50e1 8c40
23.168287 -8.511911 4.402504

rotation f4 [3, 3]
00000000: 1b1a 7f3f 54e0 2a3d 2293 943d 6c12 27bd
00000010: cec2 7f3f 6042 69bc ffa6 95bd 80f6 373c
00000020: a84c 7f3f
0.9964921 0.041717842 0.07254626 -0.040789053 0.99906623 -0.014237016 -0.073072426 0.011228204
0.99726343

beta f4 [3]
00000000: a862 bb41 14b7 08c1 40cd 9b40
23.423172 -8.544697 4.868805

rotation f4 [3, 3]
00000000: ce07 7f3f 1412 263d 8488 9d3d 8c0b 20bd
00000010: 2ac0 7f3f 7032 a8bc a415 9fbd 70ef 8e3c
00000020: fe2f 7f3f
0.99621284 0.040544584 0.07692054 -0.039073512 0.99902594 -0.020531863 -0.077677995 0.017448157
0.99682605

beta f4 [3]
00000000: d03d bd41 c6e1 09c1 1815 a940
23.655182 -8.61762 5.283825

rotation f4 [3, 3]
00000000: ecf9 7e3f f84a 203d c57b a43d 5056 17bd
00000010: 8ab8 7f3f 80c2 e9bc 6897 a6bd 8084 d03c
00000020: 8511 7f3f
0.996001 0.039133996 0.0803142 -0.03694755 0.9989096 -0.028535128 -0.08134347 0.025453806
0.9963611

beta f4 [3]
00000000: d2f9 bd41 09aa 0ac1 c07e b840
23.746983 -8.6665125 5.7654724

rotation f4 [3, 3]
00000000: 68ee 7e3f 8c5a 183d 28b8 aa3d 4067 0dbd
00000010: 9ab4 7f3f b057 08bd f10e adbd 50f9 f73c
00000020: 78f7 7e3f
0.9958253 0.037195727 0.08335906 -0.034522295 0.9988495 -0.03328675 -0.084501155 0.030270249
0.9959636

beta f4 [3]
00000000: 67d7 be41 9d88 0ac1 d888 c440
23.855177 -8.658353 6.1417046

rotation f4 [3, 3]
00000000: baea 7e3f 8818 0d3d 0a79 ae3d 301f 00bd
00000010: f8af 7f3f e0a2 1cbd 26f5 b0bd e00e 113d
00000020: a3e1 7e3f
0.99576914 0.034447223 0.0851918 -0.031279743 0.9987788 -0.038241267 -0.08640508 0.035414577
0.99563044

beta f4 [3]
00000000: 52b6 bf41 448b 0bc1 a4f0 cd40
23.964024 -8.7215 6.435625

rotation f4 [3, 3]
00000000: b5f6 7e3f 2853 023d 1e2c ac3d a0bd e5bc
00000010: c5a1 7f3f 2022 3bbd cae6 aebd 20b8 303d
00000020: 57d3 7e3f
0.99595195 0.031817585 0.08406852 -0.028044522 0.99856216 -0.04568684 -0.08540113 0.043144345
0.9954123

beta f4 [3]
00000000: 2f54 c041 756e 0dc1 4044 d540
24.041105 -8.839467 6.6645813

rotation f4 [3, 3]
00000000: 0806 7f3f d864 e43c 4556 a93d 7870 c2bc
00000010: 3c99 7f3f a8a8 4fbd 6cf7 abbd e8d3 463d
00000020: 06cb 7e3f
0.9961858 0.027880117 0.08268408 -0.02373527 0.9984319 -0.050697953 -0.08396801 0.048541933
0.9952854

beta f4 [3]
00000000: 9b01 c141 245d 0ec1 6c25 da40
24.125784 -8.897739 6.817068

rotation f4 [3, 3]
00000000: d90d 7f3f e03c e13c 81a0 a63d 4000 bbbc
00000010: 7681 7f3f e890 6cbd b88e a9bd f015 643d
00000020: f2b8 7e3f
0.99630505 0.027494848 0.081360824 -0.022827268 0.99806917 -0.05775538 -0.082791746 0.055684984
0.99500954

beta f4 [3]
00000000: 1c03 c241 f827 0ec1 30ea df40
24.251518 -8.884758 6.9973373

rotation f4 [3, 3]
00000000: 2905 7f3f 5004 e33c 63c8 a93d b833 b7bc
00000010: 0266 7f3f b8a2 84bd 3c0f adbd b854 803d
00000020: 5c94 7e3f
0.9961725 0.027712017 0.08290174 -0.022363529 0.99765027 -0.06476349 -0.08450171 0.06266159
0.9944513

beta f4 [3]
00000000: 0d2c c341 6200 0dc1 6c45 e940
24.39651 -8.812593 7.2897243

rotation f4 [3, 3]
00000000: 79f0 7e3f a83d e13c e284 b13d 70e3 adbc
00000010: 0f45 7f3f 0856 94bd 5817 b5bd 3cf4 8f3d
00000020: 8e5c 7e3f
0.9958568 0.02749522 0.086679235 -0.021226615 0.9971475 -0.07242972 -0.08842343 0.07029006
0.9935998

beta f4 [3]
00000000: 7aae c441 4062 0cc1 9c94 f440
24.585194 -8.773987 7.643141

rotation f4 [3, 3]
00000000: 47e4 7e3f 802b db3c aa4e b63d 68e1 a2bc
00000010: 7f2f 7f3f 8418 9ebd eef4 b9bd 24c9 993d
00000020: 8437 7e3f
0.99567074 0.02675414 0.08901723 -0.019882873 0.9968185 -0.0771952 -0.0907992 0.07509068
0.9930346

beta f4 [3]
00000000: d188 c541 e023 0ac1 14a7 fd40
24.691805 -8.633759 7.9266453

rotation f4 [3, 3]
00000000: 57e1 7e3f b844 e43c 46a2 b63d 5089 a6bc
00000010: 0209 7f3f 40b1 acbd f8c1 babd 6439 a83d
00000020: 8c10 7e3f
0.9956259 0.027864799 0.0891767 -0.020329148 0.9962312 -0.08432245 -0.09119028 0.082140714
0.99244

beta f4 [3]
00000000: e575 c641 ba5c 07c1 a437 0341
24.807566 -8.460138 8.201084

rotation f4 [3, 3]
00000000: 27e0 7e3f e004 e73c 92d6 b63d b859 a5bc
00000010: e7eb 7e3f f431 b7bd de3b bbbd 00b3 b23d
00000020: 8ef2 7d3f
0.9956078 0.028200567 0.08927645 -0.020184383 0.9957871 -0.08945075 -0.09142278 0.08725548
0.99198234

beta f4 [3]
00000000: 2f9c c741 a55f 04c1 34e9 0641
24.951262 -8.273351 8.431934

rotation f4 [3, 3]
00000000: 46c5 7e3f 90ff ef3c f646 bf3d 80cd a7bc
00000010: 3ad0 7e3f f06e c0bd 5007 c4bd 6497 bb3d
00000020: 4dbe 7d3f
0.99519765 0.029296666 0.093397066 -0.020483732 0.9953648 -0.0939616 -0.09571707 0.09159735
0.991185

beta f4 [3]
00000000: bc73 c941 60d1 00c1 840a 0c41
25.18151 -8.051117 8.752567

rotation f4 [3, 3]
00000000: 1eb2 7e3f 5014 f23c dc64 c53d 6897 a7bc
00000010: 11d0 7e3f 7881 c0bd a82a cabd b47c bb3d
00000020: 5dab 7d3f
0.99490535 0.029550701 0.09638378 -0.020457938 0.99536234 -0.09399694 -0.09871417 0.091546446
0.99089605

beta f4 [3]
00000000: 9c8c cb41 9314 f9c0 98a9 0e41
25.443657 -7.7837615 8.916405

rotation f4 [3, 3]
00000000: 7da9 7e3f d0ae f53c 64e2 c73d d03f aabc
00000010: 60cf 7e3f 3c94 c0bd 16bb ccbd 406b bb3d
00000020: 50a3 7d3f
0.9947737 0.029990584 0.097599775 -0.020782381 0.9953518 -0.094032735 -0.09996621 0.09151316
0.9907732

beta f4 [3]
00000000: da34 cd41 3e8c f0c0 ccac 1041
25.650806 -7.5171194 9.042187

rotation f4 [3, 3]
00000000: ea9c 7e3f 186e e53c d808 cd3d 80ca 98bc
00000010: 63d7 7e3f 6cd9 bebd 9273 d1bd a8fd b93d
00000020: 2198 7d3f
0.9945818 0.028006598 0.100114524 -0.018651247 0.99547404 -0.09318814 -0.102271214 0.09081584
0.99060255

beta f4 [3]
00000000: 8f8e ce41 10de e9c0 0674 1241
25.819609 -7.3083572 9.153326

rotation f4 [3, 3]
00000000: 7797 7e3f b0dc d73c 30a2 cf3d 9030 8bbc
00000010: fedf 7e3f 289d bcbd f4b0 d3bd 580c b83d
00000020: 5896 7d3f
0.99449867 0.02635035 0.10138357 -0.01699093 0.99560535 -0.09209663 -0.103364855 0.089867294
0.9905753

beta f4 [3]
00000000: 9d84 cf41 33d0 e2c0 72b4 1341
25.939753 -7.087915 9.231554

rotation f4 [3, 3]
00000000: 429a 7e3f 0095 c73c 2ccb cf3d 9024 76bc
00000010: c3e3 7e3f 800a bcbd 4879 d3bd 80e4 b73d
00000020: 8897 7d3f
0.9945413 0.02436304 0.10146174 -0.015023366 0.99566287 -0.0918169 -0.10325867 0.0897913
0.99059343

beta f4 [3]
00000000: f66a d041 fd1d ddc0 1c1a 1441
26.052227 -6.9099107 9.256374

rotation f4 [3, 3]
00000000: 209a 7e3f b8ec a93c 9678 d13d e026 39bc
00000010: 94e5 7e3f f481 bcbd 7a7a d4bd 681c b93d
00000020: 9e90 7d3f
0.99453926 0.02074276 0.10228078 -0.011300772 0.9956906 -0.09204474 -0.10374923 0.09038621
0.99048793

beta f4 [3]
00000000: 92e4 d041 7638 d8c0 22da 1441
26.111607 -6.756892 9.303255

rotation f4 [3, 3]
00000000: 6b95 7e3f 1030 673c 4e2f d53d 80e1 96bb
00000010: 60ef 7e3f 885f babd 82ed d6bd 405c b83d
00000020: 8e8a 7d3f
0.99446744 0.01411058 0.10409413 -0.0046045184 0.9958401 -0.091002524 -0.1049452 0.0900197
0.9903954

beta f4 [3]
00000000: 50a8 d041 6991 d3c0 58b8 1541
26.082184 -6.6115003 9.357506

rotation f4 [3, 3]
00000000: bc91 7e3f 50d2 2c3c d624 d73d 00ce 6dba
00000010: a8ed 7e3f 3431 bbbd b437 d8bd 5cf3 b93d
00000020: 8881 7d3f
0.99441123 0.010548189 0.10505073 -0.0009071529 0.99581385 -0.09140244 -0.105574995 0.0907962
0.99025774

beta f4 [3]
00000000: 7465 d041 fdd0 cdc0 53c5 1641
26.049538 -6.4317613 9.423175

rotation f4 [3, 3]
00000000: 9481 7e3f 209c 003c 9256 dc3d 0032 0b3b
00000010: 46e8 7e3f 44fa bcbd 90e1 dcbd a457 bc3d
00000020: 5d6a 7d3f
0.9941647 0.007849723 0.107586995 0.002123952 0.9957317 -0.09227422 -0.1078521 0.091964036
0.9899042

beta f4 [3]
00000000: 30a7 d041 4670 c8c0 9028 1841
26.081635 -6.2637053 9.509903

rotation f4 [3, 3]
00000000: 4069 7e3f 00d9 223b e4c4 e33d c011 023c
00000010: d4e0 7e3f a4d5 bebd be3e e3bd 1475 bf3d
00000020: 8a4a 7d3f
0.9937935 0.002484858 0.11121538 0.007938802 0.9956181 -0.093180925 -0.110959515 0.09348503
0.9894186

beta f4 [3]
00000000: da85 d041 0fa8 c3c0 083a 1a41
26.065357 -6.114265 9.639168

rotation f4 [3, 3]
00000000: b551 7e3f c03a 93bb 0020 ea3d 20c6 753c
00000010: 60e7 7e3f 64d2 babd 8848 e8bd 781b bd3d
00000020: 4c3f 7d3f
0.99343425 -0.0044930875 0.11431885 0.01500085 0.995718 -0.0912216 -0.11341959 0.09233755
0.9892471

beta f4 [3]
00000000: 838e d041 1450 bfc0 00e8 1a41
26.069586 -5.978525 9.681641

rotation f4 [3, 3]
00000000: a623 7e3f 00a5 3bbc dc5b f53d 6084 b53c
00000010: 45ef 7e3f 040e b5bd 9a43 f2bd cc2c b93d
00000020: 8325 7d3f
0.99273145 -0.011452913 0.119804114 0.022157848 0.99583846 -0.08840564 -0.118293 0.090417475
0.98885363

beta f4 [3]
00000000: c338 d141 238b bbc0 8dad 1b41
26.152716 -5.8607345 9.729871

rotation f4 [3, 3]
00000000: 72f5 7d3f 1038 a5bc 04c9 fe3d 9049 013d
00000010: 59d3 7e3f fcfa b8bd c4e2 f9bd 188c bf3d
00000020: e4f4 7c3f
0.99202645 -0.020168334 0.124406844 0.031564295 0.9954124 -0.090322465 -0.12201455 0.09352893
0.98811173

beta f4 [3]
00000000: 314d d141 b807 bbc0 f80a 1d41
26.162691 -5.844692 9.815178

rotation f4 [3, 3]
00000000: d7bd 7d3f c092 eebc 1367 043e f8a3 273d
00000010: 40c1 7e3f 8882 b7bd 2316 01be a8ba c03d
00000020: 00d0 7c3f
0.991178 -0.02912271 0.12929945 0.040927857 0.99513626 -0.08960444 -0.126061 0.09410602
0.9875488

beta f4 [3]
00000000: 8064 d141 1ab8 b9c0 4dac 1d41
26.174072 -5.8037233 9.854566

rotation f4 [3, 3]
00000000: 5f4e 7d3f e486 1ebd 56c3 0e3e 6842 533d
00000010: bf9e 7e3f f035 b8bd ce6d 0abe dcff c43d
00000020: a973 7c3f
0.9894771 -0.03870286 0.13941702 0.051577 0.9946098 -0.08994663 -0.1351845 0.09619114
0.98613983

beta f4 [3]
00000000: edab d141 e4b6 b9c0 3dac 2041
26.208948 -5.8035755 10.04205

rotation f4 [3, 3]
00000000: 54f3 7c3f e05c 45bd 61a9 153e d00a 7e3d
00000010: 7c6d 7e3f b4b2 bbbd 6f38 10be f006 cc3d
00000020: 7029 7c3f
0.9880879 -0.048184276 0.14615394 0.06202203 0.9938581 -0.09164944 -0.14084028 0.09962261
0.9850073

beta f4 [3]
00000000: 6e84 d141 e268 bac0 86cd 2241
26.189663 -5.825303 10.175177

rotation f4 [3, 3]
00000000: a2ac 7c3f cc33 5bbd 2a20 1b3e 0891 8b3d
00000010: 584a 7e3f 30ab bebd e0fc 14be ac55 d13d
00000020: aceb 7b3f
0.98700917 -0.053516194 0.15148988 0.06814772 0.9933219 -0.09309995 -0.14549589 0.10221419
0.9840648

beta f4 [3]
00000000: dc34 d241 52ea b9c0 fd85 2341
26.27581 -5.8098536 10.220212

rotation f4 [3, 3]
00000000: 8b6a 7c3f a444 6fbd daeb 1f3e 98b3 973d
00000010: e419 7e3f 586b c5bd 11f8 18be 1859 da3d
00000020: d2a6 7b3f
0.9860007 -0.05841507 0.15617314 0.07407302 0.99258256 -0.09639615 -0.1493838 0.106615245
0.9830142

beta f4 [3]
00000000: e46d d241 2e98 b9c0 79e9 2441
26.303658 -5.7998266 10.307

rotation f4 [3, 3]
00000000: 5231 7c3f b88f 81bd be96 233e 2cd3 a23d
00000010: e7f7 7d3f 247e c7bd f1fa 1bbe c489 de3d
00000020: 937a 7b3f
0.98512757 -0.0632624 0.15975472 0.07950434 0.99206394 -0.09740856 -0.15232445 0.108661205
0.9823391

beta f4 [3]
00000000: ec2a d241 54c2 b6c0 b282 2541
26.270958 -5.7112217 10.344408

rotation f4 [3, 3]
00000000: 5f0f 7c3f 56e9 89bd 1225 253e 1022 ac3d
00000010: 26d4 7d3f 3c05 cbbd 8ce8 1cbe f4a7 e33d
00000020: 025f 7b3f
0.98460954 -0.067339584 0.16127422 0.084049344 0.9915184 -0.09913108 -0.15323085 0.11116019
0.98191845

beta f4 [3]
00000000: 7592 d141 f0ed b2c0 9c16 2641
26.196512 -5.591545 10.38052

rotation f4 [3, 3]
00000000: 9200 7c3f d44c 91bd fdf8 243e 08b7 b33d
00000010: 67bb 7d3f 202f ccbd 8f44 1cbe c8f2 e53d
00000020: 0c5d 7b3f
0.9843837 -0.07094732 0.16110606 0.08775145 0.9911408 -0.09969926 -0.15260528 0.112279475
0.98188853

beta f4 [3]
00000000: 09df d041 70ba adc0 88da 2541
26.108904 -5.4290085 10.365852

rotation f4 [3, 3]
00000000: dacf 7b3f fa23 98bd 6c0d 283e 94c4 bb3d
00000010: d09a 7d3f 680b cfbd 27ca 1ebe e078 ea3d
00000020: 0e33 7b3f
0.9836403 -0.07428737 0.1641137 0.09168354 0.9906435 -0.101095974 -0.15506802 0.11448836
0.9812478

beta f4 [3]
00000000: 14a3 d041 00e1 a8c0 8f77 2641
26.079628 -5.277466 10.404189

rotation f4 [3, 3]
00000000: 3f8b 7b3f 2819 96bd 77cc 2e3e e87d bc3d
00000010: 9d80 7d3f 3046 d6bd bf3d 25be 70b8 f23d
00000020: 0ad1 7a3f
0.9825935 -0.07329017 0.17070185 0.09203702 0.99024373 -0.10462606 -0.16136836 0.11851585
0.9797522

beta f4 [3]
00000000: ee8e d041 26c5 a0c0 b536 2941
26.06979 -5.024066 10.575856

rotation f4 [3, 3]
00000000: 1e5e 7b3f 26d1 91bd 98b1 333e a4fc ba3d
00000010: 3464 7d3f 28cb dfbd 51e5 29be 548e fc3d
00000020: 6478 7a3f
0.98190486 -0.0711997 0.17548215 0.091302186 0.9898102 -0.10927421 -0.16591384 0.123318344
0.9783995

beta f4 [3]
00000000: b887 d041 2454 98c0 818c 2b41
26.066269 -4.760271 10.721803

rotation f4 [3, 3]
00000000: d446 7b3f 1026 8ebd 6e71 363e f4b3 b93d
00000010: fa43 7d3f a0bf e9bd e061 2cbe d242 033e
00000020: 2e34 7a3f
0.9815495 -0.069408536 0.17816707 0.090675265 0.9893185 -0.11413503 -0.16834211 0.12818459
0.9773587

beta f4 [3]
00000000: 90cb cf41 b864 8fc0 d697 2d41
25.974396 -4.481045 10.849569

rotation f4 [3, 3]
00000000: 5445 7b3f f21a 8cbd 38f7 363e 880c b93d
00000010: 6b2a 7d3f e014 f1bd 95b1 2cbe 7cd8 063e
00000020: 3c12 7a3f
0.9815266 -0.06841077 0.17867744 0.09035593 0.9889285 -0.1177156 -0.16864617 0.1316852
0.97684073

beta f4 [3]
00000000: f834 cf41 0c46 88c0 9f2a 2e41
25.900864 -4.2585506 10.885406

rotation f4 [3, 3]
00000000: 0032 7b3f a083 83bd 8d30 3a3e ecba b33d
00000010: de02 7d3f 2812 ffbd 80d3 2fbe 5c7b 0d3e
00000020: 91b4 793f
0.9812317 -0.0642159 0.18182583 0.08775887 0.988325 -0.12454635 -0.17170525 0.13816589
0.9754115

beta f4 [3]
00000000: 8e73 ce41 7c2f 7cc0 0c25 3141
25.806423 -3.9403982 11.071545

rotation f4 [3, 3]
00000000: a335 7b3f f47a 76bd d24b 3b3e b4ef ad3d
00000010: 4fdf 7c3f 6ecd 05be c8f4 30be 8e34 133e
00000020: d772 793f
0.9812872 -0.06017585 0.18290642 0.08492985 0.9877824 -0.13066646 -0.17280877 0.14375517
0.97440857

beta f4 [3]
00000000: 8635 ce41 0c9b 6bc0 a189 3241
25.776134 -3.6813383 11.158601

rotation f4 [3, 3]
00000000: f63f 7b3f 20f0 66bd a0aa 3b3e 9cad a93d
00000010: a195 7c3f ac82 0fbe 4b12 31be 6465 1c3e
00000020: f217 793f
0.9814447 -0.056381345 0.18326807 0.082850665 0.98665816 -0.14014691 -0.17292134 0.15273052
0.9730216

beta f4 [3]
00000000: c808 cd41 1ca6 5ac0 a70f 3541
25.629288 -3.4163885 11.316321

rotation f4 [3, 3]
00000000: 204f 7b3f 006b 5cbd 7130 3b3e fcc7 a73d
00000010: c43c 7c3f fe7d 19be 972d 30be c803 263e
00000020: 74be 783f
0.9816761 -0.05381298 0.18280198 0.08192441 0.9853022 -0.14989468 -0.17204891 0.1621238
0.9716561

beta f4 [3]
00000000: 925c cc41 2cf6 4fc0 8f3e 3641
25.5452 -3.2494001 11.390273

rotation f4 [3, 3]
00000000: d455 7b3f 6cb1 4bbd dcce 3b3e 404f a23d
00000010: fefe 7b3f ea1c 21be cddb 30be cc0f 2d3e
00000020: cb69 783f
0.9817784 -0.04972975 0.1834063 0.07925272 0.9843596 -0.15733686 -0.17271347 0.16900557
0.9703643

beta f4 [3]
00000000: b211 cc41 b83b 43c0 4602 3741
25.50864 -3.05052 11.438055

rotation f4 [3, 3]
00000000: 3a50 7b3f 0c21 29bd 6c67 3e3e 8440 953d
00000010: bebd 7b3f a661 2abe 8233 34be 6a23 353e
00000020: 20e7 773f
0.9816929 -0.04129128 0.1859414 0.07287696 0.983364 -0.16638812 -0.17597774 0.1768929
0.96837044

beta f4 [3]
00000000: 3dcd cb41 6431 30c0 0ce9 3841
25.475214 -2.7530146 11.556896

rotation f4 [3, 3]
00000000: b43a 7b3f 5c70 0bbd 6da7 413e c444 8a3d
00000010: 6286 7b3f d6a5 31be a238 38be 8469 3b3e
00000020: 166d 773f
0.9813645 -0.0340427 0.18911524 0.06751397 0.98251927 -0.17348418 -0.17990354 0.1830197
0.96650827

beta f4 [3]
00000000: 3631 cb41 88a9 1cc0 c6db 3a41
25.399029 -2.4478474 11.678656

rotation f4 [3, 3]
00000000: 6333 7b3f 5834 efbc a612 433e 4820 833d
00000010: 0251 7b3f e89f 37be 6624 3abe 02ac 403e
00000020: 6815 773f
0.98125285 -0.029199764 0.19050083 0.064026415 0.98170483 -0.17932093 -0.18177947 0.18815616
0.9651704

beta f4 [3]
00000000: d5ab ca41 1ce7 0cc0 c795 3b41
25.333902 -2.2016058 11.724067

rotation f4 [3, 3]
00000000: f736 7b3f 389a d8bc c432 433e 4e50 813d
00000010: 23dc 7a3f 64a9 41be 9628 3abe ca5d 4a3e
00000020: 1899 763f
0.98130745 -0.026440725 0.19062334 0.06314145 0.9799215 -0.18912274 -0.18179545 0.1976234
0.9632735

beta f4 [3]
00000000: ea56 c941 c0b3 ffbf 6345 3d41
25.167439 -1.997673 11.82944

rotation f4 [3, 3]
00000000: 9a75 7b3f 98d3 b4bc 59ac 3e3e b851 763d
00000010: f448 7a3f 242a 4ebe acdd 35be 54f9 553e
00000020: 7a2f 763f
0.9822632 -0.022073552 0.18620433 0.060136527 0.9776757 -0.20133263 -0.17760342 0.20895892
0.96166193

beta f4 [3]
00000000: c64c c841 f02f edbf ea1c 3d41
25.037487 -1.8530254 11.819559

rotation f4 [3, 3]
00000000: 8c71 7b3f 9055 a0bc d74a 3f3e dcc4 753d
00000010: caa2 793f 626e 5abe 0143 36be 6405 623e
00000020: 4c7e 753f
0.98220134 -0.01957205 0.18680893 0.060002193 0.9751402 -0.2133117 -0.17798997 0.22072369
0.9589584

beta f4 [3]
00000000: d0a0 c641 48d8 d4bf e14e 3f41
24.828522 -1.6628504 11.956758

rotation f4 [3, 3]
00000000: dc73 7b3f a837 83bc 3973 3f3e e086 6d3d
00000010: a736 793f 1691 62be edbe 36be eaa4 693e
00000020: 3c06 753f
0.9822366 -0.01601775 0.18696298 0.057989955 0.9734902 -0.22125658 -0.1784627 0.22816816
0.9571264

beta f4 [3]
00000000: e045 c541 b8d7 b5bf 37ca 4041
24.659119 -1.4206457 12.049369

rotation f4 [3, 3]
00000000: 125a 7b3f d00b 60bc 37be 413e 2450 693d
00000010: e0fd 783f 28b4 66be c348 39be f88c 6d3e
00000020: 90ab 743f
0.9818431 -0.013674691 0.18920217 0.056961194 0.9726238 -0.22529662 -0.18094163 0.23198307
0.95574284

beta f4 [3]
00000000: 0ee7 c341 d8d6 94bf 116c 4241
24.48782 -1.1628065 12.151383

rotation f4 [3, 3]
00000000: dc2d 7b3f 0070 6dbc 4e3b 453e 5cd4 6f3d
00000010: b8fa 783f 087f 66be 7a7b 3cbe 5cb4 6d3e
00000020: 0b82 743f
0.9811685 -0.014492035 0.19260904 0.05855213 0.97257566 -0.22509396 -0.18406478 0.23213333
0.9551093

beta f4 [3]
00000000: 6e37 c241 a037 6dbf e452 4341
24.277065 -0.92663 12.207737

rotation f4 [3, 3]
00000000: c5d2 7a3f 2836 98bc 7a00 4c3e e256 843d
00000010: dcc1 783f e49f 68be 73e8 41be 5a1a 713e
00000020: cf08 743f
0.9797786 -0.018580511 0.19922057 0.06461884 0.97170806 -0.22717243 -0.18936329 0.23545209
0.9532594

beta f4 [3]
00000000: 0490 c041 000a 49bf e610 4541
24.07032 -0.78530884 12.316626

rotation f4 [3, 3]
00000000: 5179 7a3f 10de abbc b385 523e 6cdf 8c3d
00000010: 979e 783f 56ba 69be a38c 47be d429 733e
00000020: 439f 733f
0.97841364 -0.020979911 0.20558815 0.06878552 0.9711699 -0.22824988 -0.19487242 0.23746425
0.9516489

beta f4 [3]
00000000: cef1 bf41 300d 31bf 8299 4541
23.993069 -0.6916075 12.3499775

rotation f4 [3, 3]
00000000: 0228 7a3f c821 97bc a5b8 583e 9e0f 8c3d
00000010: 3c73 783f a0b5 6cbe 76f6 4dbe b220 763e
00000020: 141a 733f
0.977173 -0.018448725 0.21164186 0.06838916 0.97050834 -0.2311616 -0.20113549 0.2403591
0.9496167

beta f4 [3]
00000000: 347e bf41 e07c 08bf 3284 4641
23.936623 -0.53315544 12.407274

rotation f4 [3, 3]
00000000: dae5 793f a0ab 63bc ffc9 5d3e 861b 863d
00000010: 9665 783f 3a76 6ebe 67e3 53be 064d 773e
00000020: 79b5 723f
0.9761635 -0.013895899 0.21659087 0.065482184 0.9703001 -0.23287287 -0.20692216 0.24150476
0.94808155

beta f4 [3]
00000000: 8c01 bf41 e0fc a7be 163b 4741
23.875755 -0.32810116 12.451925

rotation f4 [3, 3]
00000000: c2be 793f c8c2 4abc 7b9e 603e 7e99 863d
00000010: 2019 783f 3c52 73be b1ac 56be 5823 7c3e
00000020: 963e 723f
0.975567 -0.012375541 0.21935456 0.06572245 0.9691334 -0.23761839 -0.20964314 0.24622858
0.9462675

beta f4 [3]
00000000: 52c4 bd41 00a6 49be 350a 4841
23.72086 -0.1969223 12.502492

rotation f4 [3, 3]
00000000: 088b 793f 4840 5dbc 501d 643e 84cf 8c3d
00000010: 19c1 773f 4e00 78be fa6a 59be 0fb7 803e
00000020: 3abe 713f
0.9747777 -0.013504095 0.22276807 0.06875518 0.9677902 -0.24218866 -0.21232215 0.25139663
0.9443089

beta f4 [3]
00000000: 2c30 bc41 0006 cdbd 48cd 4841
23.523521 -0.1001091 12.5501175

rotation f4 [3, 3]
00000000: ba9d 793f 80d7 7abc dab6 623e f6c4 8f3d
00000010: 50b9 773f f00f 78be 4596 57be 50e5 803e
00000020: 4cd2 713f
0.97506297 -0.015310168 0.22140065 0.07019989 0.9676714 -0.2422483 -0.21053417 0.25174952
0.9446151

beta f4 [3]
00000000: bf39 ba41 0081 4e3d 68cd 4741
23.278196 0.050415993 12.487648

rotation f4 [3, 3]
00000000: d19b 793f 08e2 8cbc afb3 623e de4a 923d
00000010: 26e2 773f 2620 75be 6e4c 57be 2433 7f3e
00000020: 5c02 723f
0.9750338 -0.017197624 0.22138856 0.07143186 0.9682945 -0.23938045 -0.2102525 0.24921852
0.9453485

beta f4 [3]
00000000: 54f3 b741 00ff 773e 0b6e 4641
22.993813 0.24218369 12.401866

rotation f4 [3, 3]
00000000: ea93 793f 084c 8fbc 2a39 633e 30c5 923d
00000010: 0eef 773f 363d 74be a0ca 57be 4265 7e3e
00000020: e708 723f
0.97491324 -0.01749231 0.22189775 0.07166517 0.96849144 -0.23851475 -0.21073389 0.24843314
0.94544834

beta f4 [3]
00000000: 480d b641 c03e cf3e 7c0c 4541
22.756485 0.40477562 12.315548

rotation f4 [3, 3]
00000000: e9cb 793f f077 9fbc 2a2c 5f3e 446f 943d
00000010: 9cf3 773f 80b2 73be 8169 53be 76f7 7d3e
00000020: e64d 723f
0.9757677 -0.01946637 0.21794191 0.07247785 0.96856093 -0.23798561 -0.20645715 0.2480143
0.94650114

beta f4 [3]
00000000: 3e20 b441 603e fa3e f82e 4241
22.515743 0.48875713 12.136467

rotation f4 [3, 3]
00000000: 44ee 793f 58de bebc 8c5d 5c3e 646f 993d
00000010: cd17 783f 5e99 70be fdf3 4fbe 9c67 7b3e
00000020: 7aa8 723f
0.9762919 -0.023299381 0.2152006 0.07491949 0.9691132 -0.23496005 -0.20307918 0.24551243
0.94788325

beta f4 [3]
00000000: 9cc8 b141 b037 1a3f 4d9f 3f41
22.222954 0.6024122 11.976392

rotation f4 [3, 3]
00000000: a0fe 793f c874 eebc e378 5a3e e0fb a23d
00000010: 482e 783f 688f 6dbe 5be2 4cbe cc5f 793e
00000020: b3f3 723f
0.9765415 -0.02910842 0.21335177 0.079581976 0.9694562 -0.23199236 -0.20008223 0.2435295
0.94903105

beta f4 [3]
00000000: 1ed5 ae41 90fb 333f 0484 3d41
21.854061 0.7030573 11.84473

rotation f4 [3, 3]
00000000: ffee 793f 3ca2 0abd 08e0 5a3e b648 ac3d
00000010: c428 783f 8047 6cbe 9d2c 4cbe b817 793e
00000020: e801 733f
0.97630304 -0.033846125 0.21374524 0.08412306 0.96937203 -0.2307415 -0.19938894 0.24325454
0.94924784

beta f4 [3]
00000000: 8d65 ab41 20a0 4f3f 68d5 3b41
21.424585 0.81103706 11.739601

rotation f4 [3, 3]
00000000: edd9 793f e41f 27bd 1822 5b3e b674 bb3d
00000010: aedb 773f 906f 6ebe 676f 4abe 52c4 7c3e
00000020: 71dc 723f
0.97598153 -0.040801898 0.21399724 0.0915312 0.9681958 -0.23284745 -0.19769059 0.24684265
0.94867617

beta f4 [3]
00000000: cad6 a641 a018 5f3f db79 3a41
20.854877 0.8714695 11.65475

rotation f4 [3, 3]
00000000: 83bf 793f 1c59 50bd 1dcf 5a3e 92dd d13d
00000010: b242 773f f4a3 73be 31f2 46be 630e 823e
00000020: 748e 723f
0.9755785 -0.05086623 0.2136807 0.10247339 0.96586144 -0.23793012 -0.19428326 0.254016
0.94748616

beta f4 [3]
00000000: 461f a041 60c1 793f e4ed 3941
20.01527 0.9756069 11.620579

rotation f4 [3, 3]
00000000: e8c7 793f 4ea3 44bd 25e3 5a3e 0634 d03d
00000010: 03a8 763f f697 7dbe 48b9 46be c0d7 863e
00000020: dce9 713f
0.9757066 -0.048007302 0.21375711 0.10166173 0.96350116 -0.24765 -0.19406617 0.2633648
0.94497466

beta f4 [3]
00000000: 8c2d 9941 384e a33f adc2 3a41
19.14724 1.2758245 11.672528

rotation f4 [3, 3]
00000000: eb09 7a3f 5cf0 4ebd 6c84 553e 4250 d73d
00000010: febb 753f 810f 85be 9f82 3fbe 9a2f 8d3e
00000020: 325f 713f
0.97671384 -0.050522193 0.20851296 0.10513355 0.9598998 -0.2598839 -0.18702172 0.2757538
0.9428588

beta f4 [3]
00000000: b2c2 9141 2055 be3f 8623 3b41
18.220066 1.4869728 11.696173

rotation f4 [3, 3]
00000000: 8fc4 7a3f 3cb3 5abd 0195 463e 0640 da3d
00000010: aa98 743f 8cea 8cbe 21b0 2ebe 099e 943e
00000020: ca0d 713f
0.97956175 -0.053393587 0.19392778 0.10656743 0.95545447 -0.27522695 -0.17059375 0.2902682
0.94161665

beta f4 [3]
00000000: 3aea 8941 6480 e03f bc60 3b41
17.239368 1.7539182 11.711117

rotation f4 [3, 3]
00000000: 04de 7b3f 5208 87bd 125d 2a3e 2aa3 e43d
00000010: d3e4 733f d5b4 90be a039 0fbe 49e1 973e
00000020: 46d7 713f
0.98385644 -0.06593384 0.16637066 0.111639336 0.95271033 -0.28262964 -0.13986826 0.29664066
0.94469106

beta f4 [3]
00000000: 94a7 8141 e038 0240 1c5d 3a41
16.206825 2.0347214 11.647732

rotation f4 [3, 3]
00000000: 71f7 7c3f 0f65 71bd 771f 113e fe31 cd3d
00000010: cc78 723f bf04 9cbe e220 eebd b170 a13e
00000020: 421c 713f
0.98815066 -0.058934268 0.14172159 0.10019301 0.9471557 -0.3047237 -0.11627366 0.3153129
0.94183743

beta f4 [3]
00000000: d7a3 7441 d2c5 2140 dc52 3e41
15.29 2.527699 11.895229

rotation f4 [3, 3]
00000000: 2889 7d3f e04d 6abd 2011 013e 32e9 c33d
00000010: 0de6 703f ba2e a6be cee1 ccbd 90c1 aa3e
00000020: 09fb 6f3f
0.9903741 -0.057203174 0.12604189 0.09565963 0.9410103 -0.32457525 -0.10004006 0.333508
0.93742424

beta f4 [3]
00000000: 9e83 6741 3480 3f40 f9ed 4341
14.469633 2.9922 12.245599

rotation f4 [3, 3]
00000000: 67d9 7d3f 38da 7abd fa56 e93d 0cc3 c53d
00000010: 48c1 6f3f fb89 acbe ea43 b0bd f5b8 b03e
00000020: 3441 6f3f
0.99159855 -0.061243266 0.113935426 0.09656343 0.936543 -0.3369902 -0.086067036 0.3451611
0.9345887

beta f4 [3]
00000000: 8442 5a41 eefb 6040 654a 4a41
13.641239 3.5153766 12.643163

rotation f4 [3, 3]
00000000: 4af8 7d3f 2242 83bd 0d6d dd3d e802 c83d
00000010: a33f 6f3f 452b afbe a007 a2bd ab2f b33e
00000020: 24f4 6e3f
0.99206984 -0.06409098 0.108118154 0.09766179 0.93456477 -0.342127 -0.079116106 0.34997305
0.9334128

beta f4 [3]
00000000: 70c7 4f41 e873 7e40 64c6 4f41
12.986191 3.9758244 12.985935

rotation f4 [3, 3]
00000000: 0653 7e3f 684b 7dbd 79b3 c43d 465b ba3d
00000010: 68cb 6f3f bb1c adbe cc6d 8dbd 2174 b03e
00000020: 59aa 6f3f
0.99345434 -0.06183949 0.09604544 0.0909944 0.9366975 -0.33810982 -0.06905708 0.344636
0.93619305

beta f4 [3]
00000000: 9cc1 4541 61fc 8f40 38a6 5441
12.359768 4.499558 13.290581

rotation f4 [3, 3]
00000000: e4a2 7e3f bedf 8cbd 2e3b 9d3d ec80 b83d
00000010: d229 713f eb75 a5be b82f 4dbd dc1e a83e
00000020: 1177 713f
0.994673 -0.06878613 0.07677303 0.09008965 0.9420444 -0.32316527 -0.050094336 0.32836044
0.94322306

beta f4 [3]
00000000: da84 3c41 b5a8 9e40 d213 5841
11.782434 4.958094 13.504839

rotation f4 [3, 3]
00000000: 149f 7e3f 6604 b6bd 4463 5a3d 7aac ce3d
00000010: 829c 723f 0707 9bbe 987b c1bc 7ef2 9c3e
00000020: d499 733f
0.99461484 -0.08887558 0.053317323 0.10091491 0.9477006 -0.302788 -0.023618504 0.30653757
0.951566

beta f4 [3]
00000000: 4b39 3341 70c9 ab40 ce30 5b41
11.201488 5.3683395 13.699415

rotation f4 [3, 3]
00000000: de5d 7e3f 663e dcbd 9831 0b3d bcf5 e63d
00000010: 2684 733f b200 93be 80f7 bdba da06 943e
00000020: 3211 753f
0.9936198 -0.10754089 0.033982843 0.11277339 0.9512352 -0.28711468 -0.0014493316 0.28911477
0.9572936

beta f4 [3]
00000000: 62bd 2b41 75f4 b540 051b 5e41
10.733736 5.686091 13.881597

rotation f4 [3, 3]
00000000: 9bfc 7d3f 1cfd fabd 7881 d03c 88ea ff3d
00000010: 6e41 753f e218 84be 4012 ed3b c6af 843e
00000020: 483f 773f
0.9921357 -0.12255308 0.02545236 0.12495905 0.9580296 -0.25800234 0.0072348416 0.25915354
0.96580935

beta f4 [3]
00000000: 66ce 2541 e8f1 be40 8099 6041
10.36289 5.9670296 14.037476

rotation f4 [3, 3]
00000000: 8260 7d3f 82d3 10be d8a0 a03c d46f 113e
00000010: ac08 763f 3cb2 72be e072 703c b00f 733e
00000020: bfa7 783f
0.98975384 -0.14143184 0.019607946 0.14202815 0.9610698 -0.23700804 0.014675826 0.23736453
0.9713096

beta f4 [3]
00000000: f8e3 1f41 467f c540 2d60 6341
9.993156 6.1717863 14.21098

rotation f4 [3, 3]
00000000: ce91 7c3f c733 26be b079 883c dfdd 253e
00000010: e04a 763f aebb 60be 4081 a03c 167c 603e
00000020: f0b8 793f
0.9865998 -0.16230689 0.016659588 0.16197918 0.96208 -0.21946594 0.019592881 0.21922335
0.9754782

beta f4 [3]
00000000: 4724 1b41 c89b ca40 2c93 6541
9.696357 6.3315163 14.348431

rotation f4 [3, 3]
00000000: 862e 7c3f aa89 2dbe c025 f43c 0518 303e
00000010: a7ac 763f 34c0 51be 0077 c43b b8de 533e
00000020: b374 7a3f
0.9850849 -0.16947046 0.029803157 0.17196663 0.96357197 -0.20483476 0.005995631 0.20690429
0.9783432

beta f4 [3]
00000000: f934 1841 8ca5 d040 d2f0 6741
9.512933 6.5202084 14.496294

rotation f4 [3, 3]
00000000: feec 7b3f 49d2 2ebe 78ea 493d 8d47 353e
00000010: a847 773f 4c47 41be c032 7cbc 8623 473e
00000020: e414 7b3f
0.98408496 -0.17072405 0.049295872 0.17703076 0.96593714 -0.18874854 -0.015392959 0.19447145
0.9807875

beta f4 [3]
00000000: 9106 1641 6fcd d640 4c10 6a41
9.376603 6.7125773 14.628979

rotation f4 [3, 3]
00000000: 718e 7b3f 439e 2cbe 389a 9e3d c80a 383e
00000010: deef 773f d277 30be 5039 3cbd 5aa8 3b3e
00000020: ae63 7b3f
0.98264223 -0.16857247 0.07744259 0.17972863 0.96850383 -0.17233208 -0.045953095 0.1832594
0.98198974

beta f4 [3]
00000000: 6b23 1441 0d6f dd40 3157 6c41
9.258647 6.919806 14.771287

rotation f4 [3, 3]
00000000: 80f1 7a3f dcbc 27be b8f7 e23d f139 383e
00000010: 4ea6 783f c067 1fbe 343a a8bd 6eac 303e
00000020: 5848 7b3f
0.9802475 -0.16380638 0.11082405 0.17990853 0.9712876 -0.15566921 -0.08214226 0.17253277
0.9815726

beta f4 [3]
00000000: 3a3d 1241 169b e440 6ed7 6e41
9.139948 7.1439314 14.927595

rotation f4 [3, 3]
00000000: 1410 7a3f e76f 21be f95c 143e 52c7 353e
00000010: ae81 793f d28f 0bbe 1432 f5bd 70a9 223e
00000020: 66e2 7a3f
0.97680783 -0.15765344 0.14488591 0.17751816 0.974635 -0.13629082 -0.11972442 0.15884948
0.98001707

beta f4 [3]
00000000: ac9d 1041 2f1b eb40 df0d 7141
9.038494 7.3470683 15.0658865

rotation f4 [3, 3]
00000000: e895 793f c039 11be 607e 2f3e 2889 263e
00000010: 42e5 7a3f ecc9 e9bd 826a 1bbe b881 0e3e
00000020: 7c83 7a3f
0.97494364 -0.14182186 0.17138052 0.16263258 0.9800607 -0.11415467 -0.15177348 0.13916671
0.9785688

beta f4 [3]
00000000: ce63 0f41 f954 f140 eab4 7241
8.961866 7.5416226 15.169168

rotation f4 [3, 3]
00000000: 4408 793f 3a3e 09be c990 413e e187 1d3e
00000010: 42cc 7b3f 4420 c1bd 3772 31be 086d f73d
00000020: 0e39 7a3f
0.9727824 -0.13402644 0.18902887 0.15383865 0.9835855 -0.09429982 -0.17328726 0.12081343
0.9774331

beta f4 [3]
00000000: c824 0e41 aa27 f640 69ef 7341
8.88398 7.692342 15.24595

rotation f4 [3, 3]
00000000: b8db 783f 09ea 03be c5b7 483e 27a0 163e
00000010: d259 7c3f ec3b a7bd ae15 3bbe 4c9e dd3d
00000020: 7329 7a3f
0.97210264 -0.12882246 0.19601353 0.14709531 0.98574555 -0.08165726 -0.18269989 0.10821208
0.97719496

beta f4 [3]
00000000: 5191 0c41 e356 fa40 33fa 7441
8.785478 7.8231063 15.311084

rotation f4 [3, 3]
00000000: a088 783f 88e2 f2bd c35c 553e 3073 093e
00000010: 8c2d 7d3f fc05 80bd 286b 4bbe a491 b53d
00000020: 8ade 793f
0.97083473 -0.11859614 0.20836167 0.13422847 0.98897624 -0.062511414 -0.19865096 0.08865669
0.9760519

beta f4 [3]
00000000: 3a41 0b41 810b ff40 0025 7641
8.703424 7.9701543 15.384033

rotation f4 [3, 3]
00000000: e7af 783f 3e9c c3bd 7674 5e3e b002 dc3d
00000010: d645 7e3f e0eb 32bd a2ae 58be 20b3 863d
00000020: cba2 793f
0.97143406 -0.09551285 0.21724114 0.107427 0.9932531 -0.04368198 -0.21160367 0.06577134
0.9751403

beta f4 [3]
00000000: 30e6 0941 ba7e 0241 d971 7741
8.618698 8.155939 15.465295

rotation f4 [3, 3]
00000000: 02c1 783f f80a 95bd ec24 663e 383a a33d
00000010: c61f 7f3f 304d b3bc c8b9 63be c87b 203d
00000020: 3e63 793f
0.97169507 -0.07277483 0.22475022 0.07970089 0.9965786 -0.021887392 -0.22238839 0.039180547
0.97417057

beta f4 [3]
00000000: 093a 0841 0d97 0541 fdce 7841
8.514169 8.349378 15.550534

rotation f4 [3, 3]
00000000: de28 783f 807c 3dbd b4fb 763e d0e3 433d
00000010: ffb4 7f3f 0090 24ba c3ab 76be 60f6 463c
00000020: 2c71 783f
0.9693736 -0.04626131 0.24119455 0.04782468 0.99885553 -0.0006277561 -0.2408896 0.012143701
0.97047687

beta f4 [3]
00000000: c67c 0641 25c1 0841 3877 7a41
8.405462 8.547154 15.654106

rotation f4 [3, 3]
00000000: eee7 763f e038 fabc e458 863e 109a e63c
00000010: 95e0 7f3f 4012 533c f87b 86be 801a a5bb
00000020: fb01 773f
0.96447647 -0.030544698 0.26239693 0.028149635 0.9995206 0.012882769 -0.26266456 -0.0050385594
0.96487397

beta f4 [3]
00000000: f354 0441 6389 0b41 a817 7c41
8.27074 8.721042 15.755775

rotation f4 [3, 3]
00000000: ad42 753f 8056 16bd b988 913e f030 013d
00000010: 7ece 7f3f 5021 ba3c e1d9 91be a0c1 51bc
00000020: 185f 753f
0.95804864 -0.036703587 0.28424624 0.03154081 0.9992446 0.022720963 -0.2848654 -0.012802511
0.95848227

beta f4 [3]
00000000: df74 0141 0007 0e41 be74 7d41
8.091033 8.876709 15.8410015

rotation f4 [3, 3]
00000000: 7a7f 733f fcf7 65bd 4869 9b3e 800b 4b3d
00000010: 3293 7f3f d037 f03c 04ff 9bbe 2071 52bc
00000020: 64ce 733f
0.9511639 -0.0561447 0.3035376 0.049571514 0.9983398 0.029323488 -0.30468 -0.012844354
0.952368

beta f4 [3]
00000000: 15a4 fc40 03b7 0f41 d04a 7e41
7.8950295 8.982181 15.893265

rotation f4 [3, 3]
00000000: 9a18 713f 1432 5bbd f7f3 a93e 2012 3e3d
00000010: 389d 7f3f 302a f03c 0480 aabe 8000 48bc
00000020: 4c5e 713f
0.94178164 -0.053514555 0.33193943 0.046404004 0.9984927 0.029316992 -0.33300793 -0.01220715
0.9428451

beta f4 [3]
00000000: 3673 f840 f86d 1041 2559 7e41
7.764064 9.026848 15.896764

rotation f4 [3, 3]
00000000: 11fa 693f 20d3 18bc 00b4 cf3e 80ad c23b
00000010: d2fb 7f3f 8064 1d3c 54bc cfbe 00ba d0bb
00000020: dff9 693f
0.91397196 -0.00932768 0.40567017 0.005941093 0.9999362 0.009606481 -0.4057337 -0.006369829
0.913969

beta f4 [3]
00000000: 06a5 f440 d11e 1141 d09c 7e41
7.6451445 9.070024 15.913284

rotation f4 [3, 3]
00000000: 4c4b 523f 97cb b53d 4d35 103f 50b6 8bbd
00000010: c6fa 7e3f ec66 6bbd 7ef0 10bf 20df 0f3c
00000020: 9201 533f
0.82146144 0.08876722 0.5633133 -0.06821883 0.996014 -0.0574712 -0.5661696 0.0087812245
0.8242427

beta f4 [3]
00000000: 44ac ec40 e71f 1241 016d 7e41
7.3960285 9.132789 15.901612

rotation f4 [3, 3]
00000000: 11e0 4c3f 79a2 8b3d 0481 183f 28cc a1bc
00000010: 0ff8 7e3f e01c b3bd 8e6a 19bf 607e 6e3d
00000020: 1965 4c3f
0.800294 0.068180986 0.5957186 -0.01975067 0.9959726 -0.08745742 -0.59928215 0.05822599
0.7984176

beta f4 [3]
00000000: 592e e440 6f91 1241 edf0 7d41
7.1306577 9.160506 15.87132

rotation f4 [3, 3]
00000000: 98a2 3f3f 6cf8 62bd ab25 293f 8804 063e
00000010: 263f 7d3f 8cc2 85bd c566 26bf 469d 0a3e
00000020: 446e 3f3f
0.74857473 -0.055412695 0.660731 0.13087666 0.9892448 -0.065312475 -0.65000564 0.13536558
0.74777627

beta f4 [3]
00000000: 0a8f de40 93c0 1241 cc64 7e41
6.954961 9.172015 15.899609

rotation f4 [3, 3]
00000000: 7de2 363f c4f3 43be 514e 2c3f 1061 903e
00000010: 1e84 753f c037 dabc d0f1 23bf 68d7 553e
00000020: 9335 3d3f
0.71439344 -0.19135958 0.67307 0.28199053 0.9590472 -0.026637912 -0.6404085 0.20882952
0.7390987

beta f4 [3]
00000000: f638 da40 675e 1341 4389 7e41
6.8194532 9.210547 15.908511

rotation f4 [3, 3]
00000000: d434 4e3f fae7 8dbe 7c17 063f 6e54 bb3e
00000010: ce8a 6d3f 44c3 92bd 92ad eebe 905a 7f3e
00000020: 894c 593f
0.8054936 -0.27716047 0.52379584 0.36587852 0.92789924 -0.0716615 -0.466168 0.2493689
0.8488241

beta f4 [3]
00000000: 3a62 d740 5e31 1441 686f 7e41
6.7307405 9.262053 15.902199

rotation f4 [3, 3]
00000000: 8447 6d3f 772e bfbe 687f 1d3d be8c be3e
00000010: 626f 6d3f b803 123d 3099 48bd 7871 99bc
00000020: d9a5 7f3f
0.9268725 -0.37340137 0.038451582 0.37216753 0.9274808 0.035648078 -0.048974216 -0.018730864
0.9986244

beta f4 [3]
00000000: 215c d640 d7a1 1441 10d9 7e41
6.698746 9.289512 15.927994

rotation f4 [3, 3]
00000000: f59e 293f bbb3 3f3f e0ac 78bc 601c 253f
00000010: 8fab 14bf e355 febe f9f7 c2be 8281 a33e
00000020: a725 5ebf
0.66258174 0.7488362 -0.015177935 0.6449642 -0.5807428 -0.496749 -0.38079813 0.31934744
-0.867762

beta f4 [3]
00000000: ef2f d640 9fc4 1441 d309 7f41
6.6933513 9.298003 15.9398985

rotation f4 [3, 3]
00000000: f59e 293f bbb3 3f3f e0ac 78bc 601c 253f
00000010: 8fab 14bf e355 febe f9f7 c2be 8281 a33e
00000020: a725 5ebf
0.66258174 0.7488362 -0.015177935 0.6449642 -0.5807428 -0.496749 -0.38079813 0.31934744
-0.867762

beta f4 [3]
00000000: ef2f d640 9fc4 1441 d309 7f41
6.6933513 9.298003 15.9398985

rotation f4 [3, 3]
00000000: f59e 293f bbb3 3f3f e0ac 78bc 601c 253f
00000010: 8fab 14bf e355 febe f9f7 c2be 8281 a33e
00000020: a725 5ebf
0.66258174 0.7488362 -0.015177935 0.6449642 -0.5807428 -0.496749 -0.38079813 0.31934744
-0.867762

beta f4 [3]
00000000: ef2f d640 9fc4 1441 d309 7f41
6.6933513 9.298003 15.9398985

rotation f4 [3, 3]
00000000: f59e 293f bbb3 3f3f e0ac 78bc 601c 253f
00000010: 8fab 14bf e355 febe f9f7 c2be 8281 a33e
00000020: a725 5ebf
0.66258174 0.7488362 -0.015177935 0.6449642 -0.5807428 -0.496749 -0.38079813 0.31934744
-0.867762

beta f4 [3]
00000000: ef2f d640 9fc4 1441 d309 7f41
6.6933513 9.298003 15.9398985

rotation f4 [3, 3]
00000000: f59e 293f bbb3 3f3f e0ac 78bc 601c 253f
00000010: 8fab 14bf e355 febe f9f7 c2be 8281 a33e
00000020: a725 5ebf
0.66258174 0.7488362 -0.015177935 0.6449642 -0.5807428 -0.496749 -0.38079813 0.31934744
-0.867762

beta f4 [3]
00000000: ef2f d640 9fc4 1441 d309 7f41
6.6933513 9.298003 15.9398985

rotation f4 [3, 3]
00000000: f59e 293f bbb3 3f3f e0ac 78bc 601c 253f
00000010: 8fab 14bf e355 febe f9f7 c2be 8281 a33e
00000020: a725 5ebf
0.66258174 0.7488362 -0.015177935 0.6449642 -0.5807428 -0.496749 -0.38079813 0.31934744
-0.867762

beta f4 [3]
00000000: ef2f d640 9fc4 1441 d309 7f41
6.6933513 9.298003 15.9398985

rotation f4 [3, 3]
00000000: f59e 293f bbb3 3f3f e0ac 78bc 601c 253f
00000010: 8fab 14bf e355 febe f9f7 c2be 8281 a33e
00000020: a725 5ebf
0.66258174 0.7488362 -0.015177935 0.6449642 -0.5807428 -0.496749 -0.38079813 0.31934744
-0.867762

beta f4 [3]
00000000: ef2f d640 9fc4 1441 d309 7f41
6.6933513 9.298003 15.9398985

rotation f4 [3, 3]
00000000: f59e 293f bbb3 3f3f e0ac 78bc 601c 253f
00000010: 8fab 14bf e355 febe f9f7 c2be 8281 a33e
00000020: a725 5ebf
0.66258174 0.7488362 -0.015177935 0.6449642 -0.5807428 -0.496749 -0.38079813 0.31934744
-0.867762

beta f4 [3]
00000000: ef2f d640 9fc4 1441 d309 7f41
6.6933513 9.298003 15.9398985

rotation f4 [3, 3]
00000000: f59e 293f bbb3 3f3f e0ac 78bc 601c 253f
00000010: 8fab 14bf e355 febe f9f7 c2be 8281 a33e
00000020: a725 5ebf
0.66258174 0.7488362 -0.015177935 0.6449642 -0.5807428 -0.496749 -0.38079813 0.31934744
-0.867762

beta f4 [3]
00000000: ef2f d640 9fc4 1441 d309 7f41
6.6933513 9.298003 15.9398985

rotation f4 [3, 3]
00000000: f59e 293f bbb3 3f3f e0ac 78bc 601c 253f
00000010: 8fab 14bf e355 febe f9f7 c2be 8281 a33e
00000020: a725 5ebf
0.66258174 0.7488362 -0.015177935 0.6449642 -0.5807428 -0.496749 -0.38079813 0.31934744
-0.867762

beta f4 [3]
00000000: ef2f d640 9fc4 1441 d309 7f41
6.6933513 9.298003 15.9398985

rotation f4 [3, 3]
00000000: f59e 293f bbb3 3f3f e0ac 78bc 601c 253f
00000010: 8fab 14bf e355 febe f9f7 c2be 8281 a33e
00000020: a725 5ebf
0.66258174 0.7488362 -0.015177935 0.6449642 -0.5807428 -0.496749 -0.38079813 0.31934744
-0.867762

beta f4 [3]
00000000: ef2f d640 9fc4 1441 d309 7f41
6.6933513 9.298003 15.9398985

rotation f4 [3, 3]
00000000: f59e 293f bbb3 3f3f e0ac 78bc 601c 253f
00000010: 8fab 14bf e355 febe f9f7 c2be 8281 a33e
00000020: a725 5ebf
0.66258174 0.7488362 -0.015177935 0.6449642 -0.5807428 -0.496749 -0.38079813 0.31934744
-0.867762

beta f4 [3]
00000000: ef2f d640 9fc4 1441 d309 7f41
6.6933513 9.298003 15.9398985

rotation f4 [3, 3]
00000000: f59e 293f bbb3 3f3f e0ac 78bc 601c 253f
00000010: 8fab 14bf e355 febe f9f7 c2be 8281 a33e
00000020: a725 5ebf
0.66258174 0.7488362 -0.015177935 0.6449642 -0.5807428 -0.496749 -0.38079813 0.31934744
-0.867762

beta f4 [3]
00000000: ef2f d640 9fc4 1441 d309 7f41
6.6933513 9.298003 15.9398985

rotation f4 [3, 3]
00000000: f59e 293f bbb3 3f3f e0ac 78bc 601c 253f
00000010: 8fab 14bf e355 febe f9f7 c2be 8281 a33e
00000020: a725 5ebf
0.66258174 0.7488362 -0.015177935 0.6449642 -0.5807428 -0.496749 -0.38079813 0.31934744
-0.867762

beta f4 [3]
00000000: ef2f d640 9fc4 1441 d309 7f41
6.6933513 9.298003 15.9398985

rotation f4 [3, 3]
00000000: f59e 293f bbb3 3f3f e0ac 78bc 601c 253f
00000010: 8fab 14bf e355 febe f9f7 c2be 8281 a33e
00000020: a725 5ebf
0.66258174 0.7488362 -0.015177935 0.6449642 -0.5807428 -0.496749 -0.38079813 0.31934744
-0.867762

beta f4 [3]
00000000: ef2f d640 9fc4 1441 d309 7f41
6.6933513 9.298003 15.9398985

rotation f4 [3, 3]
00000000: f59e 293f bbb3 3f3f e0ac 78bc 601c 253f
00000010: 8fab 14bf e355 febe f9f7 c2be 8281 a33e
00000020: a725 5ebf
0.66258174 0.7488362 -0.015177935 0.6449642 -0.5807428 -0.496749 -0.38079813 0.31934744
-0.867762

beta f4 [3]
00000000: ef2f d640 9fc4 1441 d309 7f41
6.6933513 9.298003 15.9398985

rotation f4 [3, 3]
00000000: f59e 293f bbb3 3f3f e0ac 78bc 601c 253f
00000010: 8fab 14bf e355 febe f9f7 c2be 8281 a33e
00000020: a725 5ebf
0.66258174 0.7488362 -0.015177935 0.6449642 -0.5807428 -0.496749 -0.38079813 0.31934744
-0.867762

beta f4 [3]
00000000: ef2f d640 9fc4 1441 d309 7f41
6.6933513 9.298003 15.9398985

rotation f4 [3, 3]
00000000: f59e 293f bbb3 3f3f e0ac 78bc 601c 253f
00000010: 8fab 14bf e355 febe f9f7 c2be 8281 a33e
00000020: a725 5ebf
0.66258174 0.7488362 -0.015177935 0.6449642 -0.5807428 -0.496749 -0.38079813 0.31934744
-0.867762

beta f4 [3]
00000000: ef2f d640 9fc4 1441 d309 7f41
6.6933513 9.298003 15.9398985

rotation f4 [3, 3]
00000000: f59e 293f bbb3 3f3f e0ac 78bc 601c 253f
00000010: 8fab 14bf e355 febe f9f7 c2be 8281 a33e
00000020: a725 5ebf
0.66258174 0.7488362 -0.015177935 0.6449642 -0.5807428 -0.496749 -0.38079813 0.31934744
-0.867762

beta f4 [3]
00000000: ef2f d640 9fc4 1441 d309 7f41
6.6933513 9.298003 15.9398985

rotation f4 [3, 3]
00000000: f59e 293f bbb3 3f3f e0ac 78bc 601c 253f
00000010: 8fab 14bf e355 febe f9f7 c2be 8281 a33e
00000020: a725 5ebf
0.66258174 0.7488362 -0.015177935 0.6449642 -0.5807428 -0.496749 -0.38079813 0.31934744
-0.867762

beta f4 [3]
00000000: ef2f d640 9fc4 1441 d309 7f41
6.6933513 9.298003 15.9398985

rotation f4 [3, 3]
00000000: f59e 293f bbb3 3f3f e0ac 78bc 601c 253f
00000010: 8fab 14bf e355 febe f9f7 c2be 8281 a33e
00000020: a725 5ebf
0.66258174 0.7488362 -0.015177935 0.6449642 -0.5807428 -0.496749 -0.38079813 0.31934744
-0.867762

beta f4 [3]
00000000: ef2f d640 9fc4 1441 d309 7f41
6.6933513 9.298003 15.9398985

rotation f4 [3, 3]
00000000: f59e 293f bbb3 3f3f e0ac 78bc 601c 253f
00000010: 8fab 14bf e355 febe f9f7 c2be 8281 a33e
00000020: a725 5ebf
0.66258174 0.7488362 -0.015177935 0.6449642 -0.5807428 -0.496749 -0.38079813 0.31934744
-0.867762

beta f4 [3]
00000000: ef2f d640 9fc4 1441 d309 7f41
6.6933513 9.298003 15.9398985

rotation f4 [3, 3]
00000000: f59e 293f bbb3 3f3f e0ac 78bc 601c 253f
00000010: 8fab 14bf e355 febe f9f7 c2be 8281 a33e
00000020: a725 5ebf
0.66258174 0.7488362 -0.015177935 0.6449642 -0.5807428 -0.496749 -0.38079813 0.31934744
-0.867762

beta f4 [3]
00000000: ef2f d640 9fc4 1441 d309 7f41
6.6933513 9.298003 15.9398985

rotation f4 [3, 3]
00000000: f59e 293f bbb3 3f3f e0ac 78bc 601c 253f
00000010: 8fab 14bf e355 febe f9f7 c2be 8281 a33e
00000020: a725 5ebf
0.66258174 0.7488362 -0.015177935 0.6449642 -0.5807428 -0.496749 -0.38079813 0.31934744
-0.867762

beta f4 [3]
00000000: ef2f d640 9fc4 1441 d309 7f41
6.6933513 9.298003 15.9398985

rotation f4 [3, 3]
00000000: f59e 293f bbb3 3f3f e0ac 78bc 601c 253f
00000010: 8fab 14bf e355 febe f9f7 c2be 8281 a33e
00000020: a725 5ebf
0.66258174 0.7488362 -0.015177935 0.6449642 -0.5807428 -0.496749 -0.38079813 0.31934744
-0.867762

beta f4 [3]
00000000: ef2f d640 9fc4 1441 d309 7f41
6.6933513 9.298003 15.9398985

rotation f4 [3, 3]
00000000: f59e 293f bbb3 3f3f e0ac 78bc 601c 253f
00000010: 8fab 14bf e355 febe f9f7 c2be 8281 a33e
00000020: a725 5ebf
0.66258174 0.7488362 -0.015177935 0.6449642 -0.5807428 -0.496749 -0.38079813 0.31934744
-0.867762

beta f4 [3]
00000000: ef2f d640 9fc4 1441 d309 7f41
6.6933513 9.298003 15.9398985
