code/experiment/shape_registration/result/saved/mumble_sitting/9k-5p/icp_du_param.pt (torch, 315945 bytes, 800 tensors)

rotation f4 [3, 3]
00000000: fffe 7f3f c160 ac3b e683 d63a f0f4 acbb
00000010: 34fb 7f3f cd42 323c c000 cfba f264 32bc
00000020: 07fc 7f3f
0.9999847 0.0052605574 0.0016366213 -0.0052782223 0.9999268 0.010880184 -0.001579307 -0.010888325
0.9999394

beta f4 [3]
00000000: 6950 a241 56ac 6bc1 ac22 a2c0
20.289263 -14.729574 -5.0667324

rotation f4 [3, 3]
00000000: 45fc 7f3f ef38 2c3c 8733 e03a efcc 2cbc
00000010: 5cec 7f3f 9bdc b43c 61b3 c1ba 69ff b4bc
00000020: ebef 7f3f
0.9999431 0.010511621 0.00171052 -0.010546907 0.9997003 0.02207785 -0.001477819 -0.022094445
0.9997546

beta f4 [3]
00000000: d289 a041 8cd4 5ec1 68dd a2c0
20.067295 -13.926891 -5.089527

rotation f4 [3, 3]
00000000: 30f5 7f3f 211d 923c 27f1 593b aafa 92bc
00000010: 69cd 7f3f 8411 0f3d 00f2 30bb a849 0fbd
00000020: a0d7 7f3f
0.999835 0.017836155 0.003325531 -0.017941792 0.99922806 0.034928814 -0.0026999712 -0.034982353
0.9993839

beta f4 [3]
00000000: 8a21 9f41 7884 4fc1 c835 a1c0
19.891376 -12.969841 -5.037815

rotation f4 [3, 3]
00000000: b4f1 7f3f 2828 aa3c b0c6 123b 5fd4 aabc
00000010: 93a9 7f3f 3f2c 403d 666e a5ba d652 40bd
00000020: aeb7 7f3f
0.99978185 0.020771101 0.002239626 -0.02085322 0.99868125 0.046917196 -0.0012621402 -0.046954
0.9988965

beta f4 [3]
00000000: 726a 9d41 d442 44c1 681a a3c0
19.676975 -12.266315 -5.0969734

rotation f4 [3, 3]
00000000: a4ef 7f3f dadc b63c e487 7bba 2b1a b6bc
00000010: 1c82 7f3f 62db 6c3d d25c 133b d1b5 6cbd
00000020: 5092 7f3f
0.9997504 0.022322107 -0.00095951394 -0.022229275 0.99807906 0.057826407 0.0022485745 -0.05779058
0.9983263

beta f4 [3]
00000000: abc9 9b41 49a2 3ac1 3ccb a7c0
19.47347 -11.66462 -5.243559

rotation f4 [3, 3]
00000000: 47ee 7f3f 7c3c bc3c f668 67bb 34d9 b9bc
00000010: b558 7f3f 12a7 8a3d 8163 a63b 8273 8abd
00000020: 3769 7f3f
0.9997296 0.02297806 -0.0035310364 -0.022686578 0.9974473 0.067701474 0.0050777798 -0.067603126
0.9976992

beta f4 [3]
00000000: 3a89 9941 b129 31c1 d80a a8c0
19.192005 -11.072679 -5.2513237

rotation f4 [3, 3]
00000000: a3ea 7f3f 9422 cb3c 6878 c6bb beeb c6bc
00000010: 9c39 7f3f 3f43 973d 44f1 003c 55e9 96bd
00000020: ca4b 7f3f
0.999674 0.024796762 -0.006056834 -0.024282333 0.9969728 0.07385873 0.007870022 -0.07368723
0.9972502

beta f4 [3]
00000000: c492 9741 2b0b 29c1 08c6 a6c0
18.946663 -10.565227 -5.2116737

rotation f4 [3, 3]
00000000: 78e0 7f3f 6f25 ef3c 90eb 2bbc 93a0 e7bc
00000010: 3119 7f3f 52ae a13d 0513 513c 03ff a0bd
00000020: d92f 7f3f
0.9995189 0.029192654 -0.010493174 -0.02827481 0.99647814 0.07894577 0.012760882 -0.078611396
0.99682385

beta f4 [3]
00000000: 97d7 9541 9fdd 20c1 9c18 a8c0
18.730268 -10.054107 -5.253004

rotation f4 [3, 3]
00000000: 64d7 7f3f bfc0 033d 5d5c 6abc 08fb fcbc
00000010: b001 7f3f cccb a83d 9971 8a3c 76c9 a7bd
00000020: 501a 7f3f
0.99938035 0.03216624 -0.014304248 -0.03088142 0.9961195 0.08241996 0.01689987 -0.081927225
0.99649525

beta f4 [3]
00000000: 7360 9441 269b 1ac1 e8dd a8c0
18.547094 -9.662878 -5.277088

rotation f4 [3, 3]
00000000: 70c3 7f3f fb4a 203d c9a6 91bc c538 19bd
00000010: 13cf 7e3f afdb b53d ac70 ad3c f753 b4bd
00000020: b8f2 7e3f
0.9990759 0.039134007 -0.017779725 -0.037407655 0.9953472 0.08879792 0.02117189 -0.088050775
0.9958911

beta f4 [3]
00000000: f70a 9241 de46 10c1 881a a5c0
18.255354 -9.017302 -5.1594887

rotation f4 [3, 3]
00000000: 7fb8 7f3f 92ca 303d 8010 92bc 1445 29bd
00000010: f4ab 7e3f 1263 be3d 3b2d b23c 76ab bcbd
00000020: bbd9 7e3f
0.99890894 0.043161936 -0.017830133 -0.041325644 0.9948113 0.0929624 0.021750083 -0.09212391
0.9955098

beta f4 [3]
00000000: 3a65 9241 55e3 0ac1 4454 a6c0
18.299427 -8.680501 -5.1977863

rotation f4 [3, 3]
00000000: 15a7 7f3f 66a7 463d d154 9bbc 3312 3ebd
00000010: ad79 7e3f 26f0 c93d fe94 c13c b2dc c7bd
00000020: cab4 7e3f
0.9986432 0.048499487 -0.018961342 -0.046404075 0.9940441 0.09860258 0.023630615 -0.09758891
0.9949461

beta f4 [3]
00000000: 2952 9341 42ec 04c1 5cfc abc0
18.415117 -8.30768 -5.3745556

rotation f4 [3, 3]
00000000: 289d 7f3f 87f0 523d f7f0 9bbc 5eb8 49bd
00000010: bc4b 7e3f dc44 d53d d0d5 c63c 0507 d3bd
00000020: c18f 7e3f
0.99849176 0.051498916 -0.0190358 -0.049248092 0.9933431 0.104135245 0.024271876 -0.10304073
0.994381

beta f4 [3]
00000000: 058e 9341 de83 ffc0 b459 adc0
18.444345 -7.984847 -5.4172

rotation f4 [3, 3]
00000000: dc9d 7f3f 0903 543d 7512 91bc 4fb7 4abd
00000010: 0c1c 7e3f f8d0 e23d 14f6 be3c 9bae e0bd
00000020: 8062 7e3f
0.9985025 0.051760707 -0.017708996 -0.049491223 0.99261546 0.11075014 0.023310699 -0.10970803
0.9936905

beta f4 [3]
00000000: 08d4 9341 d4f6 f6c0 a807 aec0
18.47853 -7.7176304 -5.4384346

rotation f4 [3, 3]
00000000: 9ba0 7f3f 0a82 523d b631 86bc 0357 49bd
00000010: b0f5 7d3f 0d9a ed3d f3f7 b53c 709b ebbd
00000020: 9c3c 7e3f
0.9985444 0.051393546 -0.016381126 -0.049155246 0.99203014 0.116016485 0.022212958 -0.11504257
0.9931123

beta f4 [3]
00000000: 3721 9541 5a65 f2c0 5079 b2c0
18.641218 -7.574872 -5.5773087

rotation f4 [3, 3]
00000000: 219e 7f3f fa98 563d 17e5 7dbc db54 4dbd
00000010: 9ac7 7d3f 63cd f83d 96fc b13c 05d7 f6bd
00000020: ae12 7e3f
0.9985066 0.052391984 -0.015496514 -0.050129753 0.9913269 0.121485494 0.021726888 -0.120527305
0.9924725

beta f4 [3]
00000000: b7b5 9541 1693 ebc0 ecf4 b3c0
18.713728 -7.361705 -5.6236477

rotation f4 [3, 3]
00000000: 7c9d 7f3f 392b 593d 22b1 63bc 8a32 50bd
00000010: 9896 7d3f c835 023e be00 a83c 804a 01be
00000020: 9ee5 7d3f
0.9984968 0.053019736 -0.013897212 -0.050829448 0.9905791 0.12715828 0.020508166 -0.12626076
0.99178493

beta f4 [3]
00000000: 8a33 9641 4bba e3c0 4099 b3c0
18.775166 -7.116491 -5.6124573

rotation f4 [3, 3]
00000000: 9496 7f3f e493 623d 29d2 4bbc 7ce5 59bd
00000010: f264 7d3f 3e2a 073e 3ab0 a03c 1245 06be
00000020: 74bd 7d3f
0.9983914 0.05531682 -0.012440243 -0.05319737 0.98982155 0.13199708 0.019615281 -0.13112286
0.9911721

beta f4 [3]
00000000: b715 9741 9a11 dcc0 9450 b4c0
18.885603 -6.8771486 -5.634836

rotation f4 [3, 3]
00000000: 5a93 7f3f 73f9 663d f640 3dbc be78 5ebd
00000010: 8a43 7d3f dc91 0a3e a720 9c3c a1b2 09be
00000020: c4a0 7d3f
0.99834216 0.056390237 -0.011551132 -0.054314367 0.9893118 0.13532203 0.019058539 -0.13447048
0.99073434

beta f4 [3]
00000000: 0fb3 9741 1806 d7c0 cc94 b4c0
18.962431 -6.719494 -5.6431637

rotation f4 [3, 3]
00000000: a58a 7f3f cb7c 703d bc9f 3bbc 10ba 67bd
00000010: 8d21 7d3f 1379 0d3e ca35 9f3c 658e 0cbe
00000020: 3187 7d3f
0.9982093 0.05871276 -0.011451658 -0.056573927 0.9887932 0.13815717 0.019434828 -0.13726194
0.9903441

beta f4 [3]
00000000: be4d 9841 2794 d1c0 2491 b5c0
19.03796 -6.549335 -5.6739674

rotation f4 [3, 3]
00000000: 8d80 7f3f 9d4b 793d 3e67 5cbc bf28 6fbd
00000010: 6e09 7d3f 0b62 0f3e bcbd b23c bf4c 0ebe
00000020: 5e74 7d3f
0.9980553 0.060863126 -0.013452349 -0.058388468 0.98842514 0.14002244 0.021818988 -0.13896464
0.9900569

beta f4 [3]
00000000: 605c 9841 e41b cdc0 f088 b7c0
19.045105 -6.4096546 -5.735466

rotation f4 [3, 3]
00000000: 6e78 7f3f a97a 803d 2698 66bc a939 76bd
00000010: f1f1 7c3f e137 113e 2dcd ba3c 480d 10be
00000020: 1a63 7d3f
0.99793136 0.062733956 -0.014074361 -0.060113583 0.98806673 0.14181472 0.022802914 -0.14067566
0.9897934

beta f4 [3]
00000000: 0791 9841 82c4 c8c0 3cd9 b7c0
19.070814 -6.273988 -5.745268

rotation f4 [3, 3]
00000000: c165 7f3f 1bc4 883d 0adc 7ebc 0fd3 82bd
00000010: 1fd6 7c3f 068d 123e 1226 cc3c 3b30 11be
00000020: 5a55 7d3f
0.9976464 0.06678029 -0.015555391 -0.063879125 0.9876422 0.14311609 0.024920497 -0.14178555
0.9895836

beta f4 [3]
00000000: d00d 9941 bf8f c3c0 b874 b9c0
19.131744 -6.111297 -5.795498

rotation f4 [3, 3]
00000000: e753 7f3f 3420 903d 5d1b 8cbc 7485 89bd
00000010: e5af 7c3f bb1d 153e a23e de3c 4f8c 13be
00000020: b93b 7d3f
0.997374 0.07037392 -0.017102892 -0.06714907 0.98705894 0.14562123 0.027129475 -0.14408992
0.98919255

beta f4 [3]
00000000: da77 9941 cb4e bdc0 7082 bbc0
19.183521 -5.9158683 -5.8596725

rotation f4 [3, 3]
00000000: 2743 7f3f 1b0e 973d 0b40 91bc 3afa 8fbd
00000010: 7e7d 7c3f 7ee1 183e c477 e93c fc29 17be
00000020: 1317 7d3f
0.9971184 0.07375737 -0.017730733 -0.07030149 0.98628986 0.14929768 0.028499492 -0.1476211
0.98863333

beta f4 [3]
00000000: 5613 9a41 c084 b6c0 7884 bdc0
19.259441 -5.703705 -5.9224205

rotation f4 [3, 3]
00000000: 8930 7f3f f587 9e3d 62b4 94bc 7118 97bd
00000010: 7754 7c3f fb60 1b3e 1acb f23c fd83 19be
00000020: 3cfe 7c3f
0.99683434 0.077407755 -0.01815242 -0.07377709 0.98566383 0.15173714 0.029637862 -0.14991756
0.9882543

beta f4 [3]
00000000: e9c6 9a41 547b b0c0 68ce bec0
19.347124 -5.5150547 -5.962696

rotation f4 [3, 3]
00000000: cd19 7f3f 2908 a73d 4aa8 9bbc 8526 9fbd
00000010: 8132 7c3f b1ce 1c3e 29a8 ff3c a8be 1abe
00000020: 14ef 7c3f
0.99648744 0.08155853 -0.019001145 -0.07771019 0.9851456 0.15313222 0.031208115 -0.15111792
0.98802304

beta f4 [3]
00000000: 7d27 9e41 555e afc0 d414 ccc0
19.769281 -5.480265 -6.3775425

rotation f4 [3, 3]
00000000: 30fe 7e3f 3bff af3d 0c2a b1bc 0a0e a7bd
00000010: 0509 7c3f aae8 1e3e 84d5 0d3d 307a 1cbe
00000020: 91d6 7c3f
0.9960661 0.08593603 -0.021626495 -0.081569746 0.9845126 0.15518442 0.034627452 -0.15280986
0.987649

beta f4 [3]
00000000: cb6b a541 64fe b4c0 bcef eec0
20.677633 -5.6560535 -7.4667645

rotation f4 [3, 3]
00000000: 4faf 7e3f b768 c73d 5e0b e3bc bf03 bcbd
00000010: 71ac 7b3f 7730 223e 63c5 2e3d 31c0 1ebe
00000020: 3eab 7c3f
0.9948625 0.0973677 -0.027715381 -0.09180402 0.9831 0.158388 0.04266871 -0.15503003
0.98698795

beta f4 [3]
00000000: 2026 a641 4eb4 a9c0 28f0 fac0
20.768616 -5.30326 -7.841816

rotation f4 [3, 3]
00000000: ab53 7e3f d1fb df3d 2de3 05bd 7662 d2bd
00000010: 2842 7b3f 4c96 253e b3d8 4b3d 1511 21be
00000020: 057e 7c3f
0.9934642 0.10936702 -0.032687355 -0.10272686 0.9814782 0.16170615 0.049767207 -0.15729173
0.9862979

beta f4 [3]
00000000: 296a a641 dde7 9bc0 308d 01c1
20.801836 -4.8720536 -8.09697

rotation f4 [3, 3]
00000000: 97eb 7d3f a0d8 f83d 3545 1abd 04cc e8bd
00000010: 87bf 7a3f 8e64 2a3e cceb 693d e79f 24be
00000020: 2f3f 7c3f
0.99187607 0.12150693 -0.037663657 -0.11367038 0.979485 0.16639921 0.05710964 -0.16076623
0.9853391

beta f4 [3]
00000000: 5462 a741 dde1 8dc0 f82d 08c1
20.923012 -4.433821 -8.511223

rotation f4 [3, 3]
00000000: c74e 7d3f c1b0 0c3e 1542 39bd baed 02be
00000010: cf1c 7a3f adbc 2e3e a483 8a3d 3cfa 26be
00000020: b8fa 7b3f
0.9894833 0.13739301 -0.045229036 -0.12785998 0.9770021 0.17064162 0.0676339 -0.16306394
0.9842944

beta f4 [3]
00000000: 1657 a841 aa97 7cc0 7abe 10c1
21.042522 -3.9467568 -9.046503

rotation f4 [3, 3]
00000000: b0b0 7c3f e5f4 1a3e 406e 58bd 11b7 0fbe
00000010: 33a7 793f eb33 2f3e b88e 9e3d 1558 25be
00000020: b8dc 7b3f
0.98707104 0.15132482 -0.052839518 -0.14034678 0.9752075 0.17109649 0.07742065 -0.16146882
0.98383665

beta f4 [3]
00000000: 52b6 ab41 3693 70c0 d25a 1ec1
21.464024 -3.758985 -9.897173

rotation f4 [3, 3]
00000000: 06ff 7b3f 5ca3 283e 7c20 80bd 7e69 1bbe
00000010: 1c1b 793f 95a9 313e 8a31 b73d 4329 25be
00000020: c09b 7b3f
0.9843601 0.16468567 -0.06256196 -0.15176961 0.9730699 0.17349847 0.08944996 -0.16129021
0.9828453

beta f4 [3]
00000000: 8324 ac41 56dd 5cc0 bad3 28c1
21.517828 -3.4510093 -10.551691

rotation f4 [3, 3]
00000000: bd70 7b3f 6781 323e 339b 8fbd d7a1 23be
00000010: 81a5 783f 5e8d 343e f06d ca3d dddc 25be
00000020: 5659 7b3f
0.982189 0.17432176 -0.07012024 -0.15979706 0.9712754 0.17632052 0.0988425 -0.16197534
0.9818319

beta f4 [3]
00000000: 5ea0 af41 b6b0 56c0 0cca 39c1
21.953304 -3.3545356 -11.611828

rotation f4 [3, 3]
00000000: 5bc7 7a3f 2242 3d3e d275 a1bd 8352 2cbe
00000010: 6812 783f 7b0e 393e 7edd e03d 5eb2 27be
00000020: 83f9 7a3f
0.9796044 0.18482259 -0.078838006 -0.1682835 0.96903086 0.1807193 0.10979746 -0.16376635
0.98036975

beta f4 [3]
00000000: aa4a b141 227c 4dc0 f236 49c1
22.161457 -3.2107015 -12.575914

rotation f4 [3, 3]
00000000: ff20 7a3f 419e 463e e5f2 b3bd d061 33be
00000010: 827e 773f 1ba4 3e3e abec f73d df81 2abe
00000020: 3a84 7a3f
0.977066 0.19396307 -0.08786563 -0.17517781 0.9667741 0.18617289 0.12105688 -0.16651104
0.9785801

beta f4 [3]
00000000: ac63 b341 c8f8 4ac0 ba24 5cc1
22.423668 -3.1714344 -13.758966

rotation f4 [3, 3]
00000000: 3889 793f e802 4e3e de6e c6bd ca45 38be
00000010: a6f2 763f 4e33 453e ae61 073e e45d 2ebe
00000020: 05fb 793f
0.97475004 0.20118296 -0.09689115 -0.17995372 0.96464 0.19257852 0.13220856 -0.17028004
0.9764865

beta f4 [3]
00000000: 8c99 b241 5222 47c0 96d8 69c1
22.324974 -3.1114697 -14.615377

rotation f4 [3, 3]
00000000: 8cff 783f b2bb 543e 8ec6 d4bd 6ad4 3cbe
00000010: 656d 763f 7737 4b3e 9ca0 103e 3c0a 32be
00000020: 9f7e 793f
0.97264934 0.20774725 -0.10389434 -0.18440405 0.9626067 0.19845377 0.14123768 -0.17386717
0.97458833

beta f4 [3]
00000000: 44f4 b441 b662 4bc0 0ed2 7dc1
22.61927 -3.1778998 -15.863783

rotation f4 [3, 3]
00000000: f75d 783f 5344 5c3e 70b9 e4bd b408 42be
00000010: 69e2 753f 30c2 503e 8dbf 1a3e 24dd 34be
00000020: d0fc 783f
0.9701838 0.21510439 -0.11168182 -0.18948632 0.960486 0.20386577 0.15112133 -0.17662483
0.9726076

beta f4 [3]
00000000: 4861 b941 80b9 52c0 3529 8cc1
23.1725 -3.292572 -17.52012

rotation f4 [3, 3]
00000000: 79b0 773f 4226 643e b053 f4bd 738c 47be
00000010: 9150 753f 1237 563e bfca 243e 8774 37be
00000020: 4077 783f
0.9675365 0.22280219 -0.119300246 -0.19487171 0.9582606 0.20919445 0.16092966 -0.17915545
0.9705696

beta f4 [3]
00000000: 21ca bb41 3535 54c0 c5ee 96c1
23.473696 -3.3157475 -18.866587

rotation f4 [3, 3]
00000000: 402f 773f 5122 6a3e 4b32 febd 8563 4bbe
00000010: e1bb 743f d91e 5d3e 2f10 2c3e 0543 3cbe
00000020: b4ee 773f
0.9655647 0.22864653 -0.12411936 -0.19862182 0.9559918 0.21593799 0.16803049 -0.18384941
0.9684861

beta f4 [3]
00000000: 3fc4 bb41 539b 49c0 d632 9dc1
23.470823 -3.1501052 -19.649822

rotation f4 [3, 3]
00000000: b6ec 763f 5844 6b3e 8df4 04be 72de 4abe
00000010: c296 743f 3625 603e dc86 323e e1db 3dbe
00000020: 0992 773f
0.9645494 0.2297529 -0.12983914 -0.19811419 0.9554254 0.21889195 0.17434257 -0.18540908
0.96707207

beta f4 [3]
00000000: 801d bd41 1af0 51c0 7644 a5c1
23.639404 -3.2802796 -20.658428

rotation f4 [3, 3]
00000000: d998 763f 0b29 6e3e e174 09be 1ef2 4bbe
00000010: 8e3d 743f c630 653e 7972 383e 5f65 41be
00000020: b120 773f
0.96326977 0.23257844 -0.13423492 -0.19916579 0.95406425 0.22381887 0.18012418 -0.18886326
0.9653426

beta f4 [3]
00000000: 55eb ba41 b4ff 49c0 a6c0 a7c1
23.364908 -3.1562319 -20.969067

rotation f4 [3, 3]
00000000: 7156 763f 1317 703e 5d7b 0dbe 2e4f 4cbe
00000010: b1fb 733f ec36 693e 5485 3d3e 052f 44be
00000020: 0ac0 763f
0.9622565 0.23446302 -0.1381659 -0.1995208 0.95305926 0.22774857 0.18507892 -0.19158562
0.9638678

beta f4 [3]
00000000: 9d9c b941 7b66 45c0 6fd7 aac1
23.201471 -3.08438 -21.355192

rotation f4 [3, 3]
00000000: f23c 763f 101a 713e dd86 0ebe ba7d 4cbe
00000010: 4fc8 733f 8263 6c3e f861 3f3e 69e9 46be
00000020: 0386 763f
0.96186745 0.23545098 -0.13918634 -0.19969836 0.9522752 0.23084834 0.18689716 -0.19424976
0.96298236

beta f4 [3]
00000000: 9630 b941 90e6 42c0 64e8 acc1
23.148724 -3.0453224 -21.613472

rotation f4 [3, 3]
00000000: b21d 763f 87aa 723e 2d3f 0fbe 8675 4dbe
00000010: 7998 733f 38a0 6e3e dcda 403e c5ab 48be
00000020: e25c 763f
0.9613906 0.23697864 -0.13988943 -0.20064363 0.9515453 0.23303306 0.18833488 -0.19596775
0.9623548

beta f4 [3]
00000000: b002 b841 dad4 3ec0 6e0e adc1
23.001312 -2.9817414 -21.632046

rotation f4 [3, 3]
00000000: 2611 763f a2e8 723e ab2d 10be 1106 4dbe
00000010: 4277 733f 601a 713e 0350 423e 5fe1 4abe
00000020: 902d 763f
0.96119916 0.23721555 -0.14079921 -0.20021845 0.9510385 0.23545218 0.18975835 -0.19812535
0.9616327

beta f4 [3]
00000000: 5057 b741 20f9 3cc0 9202 aec1
22.917633 -2.9527054 -21.751255

rotation f4 [3, 3]
00000000: 5a0b 763f 456a 723e b49f 11be 2eec 4bbe
00000010: af6c 733f 5bb3 723e 01ed 433e 2343 4cbe
00000020: d606 763f
0.9611107 0.23673351 -0.14221078 -0.19914314 0.95087713 0.23701231 0.19133379 -0.19947486
0.9610418

beta f4 [3]
00000000: 88b6 b541 5a6b 3cc0 e2ce adc1
22.714127 -2.9440522 -21.726017

rotation f4 [3, 3]
00000000: 45ee 753f 9f1d 733e 2283 13be 18f4 4bbe
00000010: 6456 733f 3611 743e 6c29 463e 3316 4dbe
00000020: 31df 753f
0.96066695 0.23741768 -0.14405492 -0.19917333 0.95053697 0.2383469 0.19351739 -0.20028
0.9604369

beta f4 [3]
00000000: ec04 b541 ecbb 3bc0 9f25 afc1
22.627403 -2.9333448 -21.89337

rotation f4 [3, 3]
00000000: aece 753f 63aa 733e 03e1 15be 187f 4bbe
00000010: 0134 733f 8194 763e ce0f 493e 60fa 4ebe
00000020: 29a0 753f
0.96018493 0.23795466 -0.14636616 -0.19872701 0.95001227 0.24080087 0.19634935 -0.20212698
0.9594751

beta f4 [3]
00000000: 077c b341 b14c 37c0 1fca afc1
22.43556 -2.8640559 -21.973692

rotation f4 [3, 3]
00000000: 3aae 753f d8c3 743e 3267 17be fb59 4bbe
00000010: 72ed 723f 0b01 7b3e 3cab 4b3e d0d1 52be
00000020: 6e49 753f
0.95968974 0.23902833 -0.1478546 -0.19858544 0.9489356 0.24512117 0.1988954 -0.2058785
0.9581517

beta f4 [3]
00000000: d8b2 b141 7808 2cc0 22de afc1
22.212326 -2.688017 -21.983463

rotation f4 [3, 3]
00000000: ab8b 753f d7da 753e c721 19be 119f 4bbe
00000010: f3c6 723f 021b 7d3e b5fd 4d3e b451 54be
00000020: af15 753f
0.9591624 0.24009262 -0.14954291 -0.19884898 0.9483482 0.24717334 0.20116313 -0.20734292
0.9573621

beta f4 [3]
00000000: 299d b041 e667 26c0 8264 b0c1
22.076738 -2.6000915 -22.049076

rotation f4 [3, 3]
00000000: 307b 753f f556 763e 8900 1abe 42a8 4bbe
00000010: 24b2 723f b752 7e3e 1c2e 4f3e a03e 55be
00000020: d0f8 743f
0.95891094 0.24056609 -0.15039267 -0.19888404 0.9480307 0.2483624 0.20232433 -0.20824671
0.9569216

beta f4 [3]
00000000: 84d3 af41 3710 23c0 6885 b0c1
21.97828 -2.5478647 -22.06514

rotation f4 [3, 3]
00000000: ee4c 753f 3e04 783e bbe7 1bbe 8f9d 4cbe
00000010: 508e 723f 1baf 7f3e 35a5 513e 45d8 55be
00000020: d7ce 743f
0.9582051 0.24220368 -0.15225117 -0.19981979 0.947484 0.24969141 0.20473178 -0.20883282
0.9562811

beta f4 [3]
00000000: 073f af41 616a 1ec0 82a8 b1c1
21.905775 -2.4752429 -22.20728

rotation f4 [3, 3]
00000000: 0421 753f 7a30 793e af55 1ebe 9205 4dbe
00000010: f576 723f 095f 803e f670 543e 9e23 56be
00000020: 2ea4 743f
0.957535 0.24334899 -0.15462373 -0.20021656 0.94712764 0.25072506 0.20746216 -0.20912024
0.9556302

beta f4 [3]
00000000: 16cd ad41 6087 1ac0 d1df b1c1
21.72514 -2.4145126 -22.234285

rotation f4 [3, 3]
00000000: 28ff 743f 21dd 793e 6d87 20be 9f4d 4dbe
00000010: f179 723f 632b 803e f198 563e e722 55be
00000020: 0b94 743f
0.9570184 0.2440076 -0.15676661 -0.20049141 0.9471732 0.250331 0.2095678 -0.20814095
0.95538396

beta f4 [3]
00000000: 1e83 ac41 4373 1bc0 7adc b1c1
21.564022 -2.42891 -22.232655

rotation f4 [3, 3]
00000000: 91e1 743f ef6d 7a3e bf75 22be 0043 4dbe
00000010: 5d6c 723f 8996 803e 2bbd 583e f470 55be
00000020: 9771 743f
0.9565669 0.24455999 -0.15865229 -0.2004509 0.946966 0.2511485 0.21165912 -0.2084387
0.95485824

beta f4 [3]
00000000: 466e a941 82a6 16c0 3e34 afc1
21.178844 -2.3539128 -21.900509

rotation f4 [3, 3]
00000000: 0bdf 743f e1e1 783e fc0d 25be 84e3 4abe
00000010: 1077 723f 9236 813e 6b23 5b3e 587d 56be
00000020: aa40 743f
0.95652837 0.24304916 -0.16118616 -0.19813353 0.94712925 0.25236946 0.2140023 -0.20946252
0.9541117

beta f4 [3]
00000000: 7e04 a841 8c20 18c0 b3d7 afc1
21.002193 -2.3769865 -21.980322

rotation f4 [3, 3]
00000000: dbce 743f 5232 783e 0091 27be 7290 49be
00000010: 2981 723f c16e 813e fd79 5d3e 6090 56be
00000020: ce1d 743f
0.95628136 0.24237946 -0.16363907 -0.19684008 0.9472833 0.2527981 0.21628566 -0.20953512
0.9535798

beta f4 [3]
00000000: a6c4 a641 8830 1ac0 d751 b0c1
20.84602 -2.409212 -22.03996

rotation f4 [3, 3]
00000000: a1c7 743f 6ae3 773e 7dae 28be 99eb 48be
00000010: 9382 723f 97a4 813e 798f 5e3e 15d3 56be
00000020: 6b0a 743f
0.9561711 0.24207845 -0.16472812 -0.19621123 0.9473049 0.25320885 0.21734418 -0.20978959
0.95328397

beta f4 [3]
00000000: 7e21 a641 41ca 1ac0 bcb6 b0c1
20.766354 -2.4185946 -22.089226

rotation f4 [3, 3]
00000000: 4ec3 743f 5d6f 773e e0bb 29be a229 48be
00000010: b786 723f cad0 813e 5689 5f3e 850e 57be
00000020: def8 733f
0.9561051 0.24163575 -0.16575575 -0.19547132 0.9473681 0.25354606 0.21829733 -0.21001633
0.95301616

beta f4 [3]
00000000: 6e6c a541 3d9a 1bc0 bd00 b1c1
20.677944 -2.431289 -22.12536

rotation f4 [3, 3]
00000000: 9bad 743f 2e77 773e d7a2 2bbe 7ea8 47be
00000010: 7b84 723f f212 823e 3577 613e 7f2d 57be
00000020: c0da 733f
0.955774 0.24166557 -0.16761337 -0.19497868 0.947334 0.2540508 0.2201813 -0.21013449
0.9525566

beta f4 [3]
00000000: b07e a441 6d73 1bc0 a868 b1c1
20.56186 -2.42892 -22.176102

rotation f4 [3, 3]
00000000: 3f9c 743f 7fb5 773e 89d3 2cbe 8b7b 47be
00000010: 357b 723f 5069 823e 2bcb 623e 068d 57be
00000020: c5c1 733f
0.9555091 0.24190329 -0.1687757 -0.19480722 0.9471925 0.25470972 0.22147815 -0.2104989
0.95217544

beta f4 [3]
00000000: 11e0 a341 7d0a 1ac0 64c7 b1c1
20.484407 -2.4068902 -22.222359

rotation f4 [3, 3]
00000000: bd8e 743f ad0c 783e ce87 2dbe b7a4 47be
00000010: 5c77 723f c175 823e 8a8f 633e e06c 57be
00000020: 11b8 733f
0.955303 0.24223585 -0.16946337 -0.19496427 0.9471338 0.25480464 0.22222725 -0.21037626
0.9520274

beta f4 [3]
00000000: ba7b a341 e06b 19c0 99f5 b1c1
20.435413 -2.3972092 -22.24492

rotation f4 [3, 3]
00000000: 758d 743f b209 783e 11a9 2dbe 5995 47be
00000010: bd76 723f 9d80 823e 23b3 633e 7e7c 57be
00000020: 29b5 733f
0.95528346 0.24222448 -0.16959025 -0.19490565 0.9471243 0.2548875 0.22236304 -0.21043584
0.95198303

beta f4 [3]
00000000: 264a a341 3e62 19c0 87fa b1c1
20.411205 -2.3966212 -22.247328

rotation f4 [3, 3]
00000000: 2e8e 743f 80ff 773e 61a7 2dbe ba8a 47be
00000010: 0777 723f 7882 823e 0cb0 633e e482 57be
00000020: fab4 733f
0.9552945 0.2421856 -0.16958381 -0.19486514 0.9471287 0.25490165 0.22235125 -0.21046025
0.95198023

beta f4 [3]
00000000: 1c2a a341 f690 19c0 b1f6 b1c1
20.395561 -2.3994727 -22.245455

rotation f4 [3, 3]
00000000: 368e 743f 2809 783e e498 2dbe 5c97 47be
00000010: 5576 723f c382 823e 79a4 633e 2384 57be
00000020: 96b5 733f
0.95529497 0.24222243 -0.16952854 -0.19491333 0.9471181 0.25490388 0.2223071 -0.210465
0.95198953

beta f4 [3]
00000000: d020 a341 01a9 19c0 2702 b2c1
20.391022 -2.4009402 -22.25105

rotation f4 [3, 3]
00000000: 328d 743f 6b20 783e c38e 2dbe ccae 47be
00000010: 9774 723f cd86 823e 85a1 633e d688 57be
00000020: 81b5 733f
0.95527947 0.24231116 -0.1694899 -0.19500273 0.9470915 0.2549347 0.22229584 -0.21048293
0.9519883

beta f4 [3]
00000000: e81e a341 f79e 19c0 490d b2c1
20.39009 -2.4003274 -22.256487

rotation f4 [3, 3]
00000000: d38c 743f 672c 783e cc85 2dbe cdba 47be
00000010: 7c73 723f a68a 823e 439d 633e 918f 57be
00000020: 66b5 733f
0.9552738 0.24235688 -0.1694557 -0.19504853 0.94707465 0.25496405 0.2222796 -0.2105086
0.9519867

beta f4 [3]
00000000: 0b16 a341 c3a7 19c0 5b11 b2c1
20.385763 -2.4008644 -22.258474

rotation f4 [3, 3]
00000000: e18c 743f 4f2f 783e 8880 2dbe a5bd 47be
00000010: fc72 723f 3c8d 823e e399 633e 1995 57be
00000020: 4ab5 733f
0.95527464 0.24236797 -0.16943562 -0.19505937 0.947067 0.25498378 0.22226672 -0.2105297
0.951985

beta f4 [3]
00000000: 5606 a341 4fbb 19c0 840c b2c1
20.378094 -2.4020574 -22.256111

rotation f4 [3, 3]
00000000: a68c 743f 4838 783e af78 2dbe a8c8 47be
00000010: 7e72 723f 608c 823e 0594 633e e992 57be
00000020: b7b5 733f
0.9552711 0.2424022 -0.16940568 -0.19510138 0.9470595 0.25497723 0.22224434 -0.21052136
0.9519915

beta f4 [3]
00000000: aa02 a341 66d3 19c0 6010 b2c1
20.3763 -2.4035277 -22.257996

rotation f4 [3, 3]
00000000: e88b 743f 9940 783e 477d 2dbe f8ce 47be
00000010: e771 723f 688e 823e 0b9b 633e fa93 57be
00000020: 41b5 733f
0.9552598 0.24243392 -0.16942321 -0.19512546 0.9470505 0.25499272 0.22227113 -0.21052542
0.95198447

beta f4 [3]
00000000: 90f7 a241 50ed 19c0 cd14 b2c1
20.37088 -2.4051094 -22.260157

rotation f4 [3, 3]
00000000: 298d 743f e8ba 773e 5b20 2ebe 5927 47be
00000010: bd7a 723f e28c 823e b218 643e 1a8f 57be
00000020: 32ae 733f
0.95527893 0.24192393 -0.1700453 -0.19448604 0.94718534 0.2549811 0.22275046 -0.21050683
0.95187676

beta f4 [3]
00000000: b49e a241 4a7d 1bc0 1023 b2c1
20.327492 -2.429522 -22.26712

rotation f4 [3, 3]
00000000: 208e 743f f98f 773e c347 2ebe aaf3 46be
00000010: 4d7d 723f e58d 823e 4c35 643e 2a93 57be
00000020: 55ac 733f
0.95529366 0.24176015 -0.17019562 -0.19428888 0.94722444 0.25498882 0.22285956 -0.21052232
0.9518483

beta f4 [3]
00000000: 8482 a241 a3de 1bc0 7e21 b2c1
20.313728 -2.4354637 -22.266354

rotation f4 [3, 3]
00000000: dc94 743f 810f 773e 5b66 2ebe f75d 46be
00000010: 6480 723f 3daf 823e bb43 643e 37ed 57be
00000020: 71a6 733f
0.9553964 0.24127008 -0.17031233 -0.19371782 0.9472716 0.2552432 0.22291462 -0.21086584
0.95175844

beta f4 [3]
00000000: da59 a241 1358 1cc0 2125 b2c1
20.293873 -2.4428756 -22.26813

rotation f4 [3, 3]
00000000: 7399 743f acc3 763e 866a 2ebe 760c 46be
00000010: f882 723f d3ba 823e a13b 643e 0315 58be
00000020: ada4 733f
0.95546645 0.2409808 -0.17032823 -0.19340691 0.9473109 0.2553316 0.22288372 -0.21101765
0.9517315

beta f4 [3]
00000000: ff3b a241 e5f9 1cc0 4d1d b2c1
20.279295 -2.4527524 -22.264307

rotation f4 [3, 3]
00000000: c89c 743f e08c 763e 436d 2ebe eed5 45be
00000010: e885 723f e4b9 823e cf31 643e 6b1f 58be
00000020: b5a4 733f
0.9555173 0.24077177 -0.17033868 -0.19319889 0.94735575 0.25532448 0.22284625 -0.21105735
0.951732

beta f4 [3]
00000000: 0415 a241 389d 1dc0 8d09 b2c1
20.260262 -2.4627209 -22.254663

rotation f4 [3, 3]
00000000: 699e 743f 9878 763e c965 2ebe 23c3 45be
00000010: c986 723f adba 823e 8826 643e 4e27 58be
00000020: f5a4 733f
0.95554215 0.2406944 -0.17031015 -0.1931272 0.94736916 0.25533047 0.22280324 -0.21108744
0.9517358

beta f4 [3]
00000000: 31f3 a141 89d4 1dc0 3aed b1c1
20.243746 -2.466097 -22.240833

rotation f4 [3, 3]
00000000: d89d 743f 7d82 763e 5d64 2ebe 0bcb 45be
00000010: bf85 723f 5bbf 823e 4029 643e a02e 58be
00000020: 62a4 733f
0.9555335 0.24073215 -0.17030473 -0.19315736 0.9473533 0.25536618 0.2228136 -0.21111536
0.95172703

beta f4 [3]
00000000: b6d9 a141 56c4 1dc0 98dc b1c1
20.231304 -2.4651084 -22.232712

rotation f4 [3, 3]
00000000: e69d 743f f38d 763e 9352 2ebe c9d8 45be
00000010: 9284 723f a8c2 823e 251c 643e 0136 58be
00000020: b8a4 733f
0.95553434 0.24077587 -0.17023687 -0.19320978 0.94733536 0.25539136 0.22276361 -0.21114351
0.95173216

beta f4 [3]
00000000: a3c3 a141 f0ad 1dc0 afc7 b1c1
20.220526 -2.4637413 -22.222502

rotation f4 [3, 3]
00000000: 349e 743f 6690 763e 7148 2ebe 2fdc 45be
00000010: 1084 723f 4bc5 823e 1014 643e b13c 58be
00000020: d4a4 733f
0.955539 0.24078521 -0.17019822 -0.19322275 0.9473276 0.25541148 0.22273278 -0.21116902
0.9517338

beta f4 [3]
00000000: 70b1 a141 41c3 1dc0 25bc b1c1
20.21164 -2.4650424 -22.216867

rotation f4 [3, 3]
00000000: 4998 743f 607c 763e b6e9 2ebe c5a1 45be
00000010: 2f86 723f dfcb 823e 50ac 643e 2f2e 58be
00000020: bd9c 733f
0.9554487 0.24070883 -0.17081341 -0.19299991 0.94736 0.25546166 0.22331357 -0.21111368
0.9516104

beta f4 [3]
00000000: 6b58 a141 2c05 1ec0 94bf b1c1
20.168173 -2.4690657 -22.218544

rotation f4 [3, 3]
00000000: b898 743f 1f39 763e 6f3e 2fbe f747 45be
00000010: 6f89 723f 65d5 823e 3ff2 643e c93f 58be
00000020: a297 733f
0.9554553 0.24045227 -0.1711366 -0.19265734 0.9474096 0.25553432 0.22358035 -0.21118082
0.9515325

beta f4 [3]
00000000: 0e03 a141 15f0 1dc0 c699 b1c1
20.126492 -2.4677784 -22.200085

rotation f4 [3, 3]
00000000: 8393 743f 8543 763e 1ca4 2fbe 7f49 45be
00000010: 3e8d 723f 9ab8 823e fa49 653e 90ef 57be
00000020: ee96 733f
0.95537585 0.24049194 -0.17152447 -0.19266318 0.9474677 0.25531465 0.22391501 -0.2108748
0.95152175

beta f4 [3]
00000000: f3c3 a041 143c 1ec0 a475 b1c1
20.095678 -2.4724169 -22.182442

rotation f4 [3, 3]
00000000: 5893 743f d32a 763e 8fca 2fbe 762e 45be
00000010: 5c90 723f ffab 823e 2c64 653e a1d4 57be
00000020: ea96 733f
0.9553733 0.24039774 -0.17167114 -0.19256005 0.94751525 0.25521848 0.22401494 -0.21077205
0.9515215

beta f4 [3]
00000000: 21a0 a041 a851 1ec0 3552 b1c1
20.078188 -2.473734 -22.16514

rotation f4 [3, 3]
00000000: d488 743f 3275 763e 254c 30be bc42 45be
00000010: 2888 723f 07e1 823e cc05 663e c912 58be
00000020: ea89 733f
0.95521283 0.24068144 -0.17216547 -0.19263738 0.9473901 0.25562307 0.22463149 -0.21100916
0.95132315

beta f4 [3]
00000000: d46c a041 cbcb 1cc0 1175 b1c1
20.053139 -2.4499385 -22.182161

rotation f4 [3, 3]
00000000: 1483 743f 1097 763e 099c 30be 2a3c 45be
00000010: 0382 723f c210 833e f36c 663e c559 58be
00000020: dd7f 733f
0.9551251 0.24081063 -0.17247023 -0.19261232 0.9472963 0.25598723 0.22502498 -0.21127994
0.9511698

beta f4 [3]
00000000: f046 a041 3a82 1bc0 068f b1c1
20.034637 -2.4298234 -22.194836

rotation f4 [3, 3]
00000000: 8d82 743f 5592 763e 8dae 30be 9a2d 45be
00000010: 2881 723f ef1c 833e 8882 663e 906f 58be
00000020: 6c7d 733f
0.95511705 0.24079259 -0.17254086 -0.19255677 0.94728327 0.25608012 0.22510731 -0.21136308
0.95113254

beta f4 [3]
00000000: 7839 a041 880c 1bc0 2a91 b1c1
20.02806 -2.4226398 -22.19588

rotation f4 [3, 3]
00000000: e782 743f a88a 763e 80b1 30be 6024 45be
00000010: 4f81 723f 1a1f 833e 8084 663e e774 58be
00000020: fc7c 733f
0.9551224 0.2407633 -0.17255211 -0.19252157 0.9472856 0.25609666 0.22511482 -0.21138345
0.95112586

beta f4 [3]
00000000: d734 a041 2eec 1ac0 1291 b1c1
20.0258 -2.4206653 -22.195835

rotation f4 [3, 3]
00000000: 6583 743f b982 763e 95b1 30be 491c 45be
00000010: aa81 723f 7f1f 833e fa82 663e 9177 58be
00000020: eb7c 733f
0.9551299 0.24073304 -0.17255242 -0.19249071 0.947291 0.25609967 0.22510901 -0.21139361
0.95112485

beta f4 [3]
00000000: 3d32 a041 dfdd 1ac0 a291 b1c1
20.02453 -2.419792 -22.19611

rotation f4 [3, 3]
00000000: 7183 743f 9382 763e bdb0 30be 8e1c 45be
00000010: b081 723f 021f 833e f181 663e d276 58be
00000020: 047d 733f
0.95513064 0.24073248 -0.1725492 -0.19249174 0.9472914 0.25609595 0.22510506 -0.21139076
0.95112634

beta f4 [3]
00000000: 7e31 a041 60da 1ac0 e991 b1c1
20.024166 -2.4195786 -22.196245

rotation f4 [3, 3]
00000000: 6883 743f 1d83 763e 57b0 30be 231d 45be
00000010: a381 723f 251f 833e b281 663e f276 58be
00000020: 017d 733f
0.9551301 0.24073453 -0.17254768 -0.19249396 0.9472906 0.256097 0.22510412 -0.21139124
0.95112616

beta f4 [3]
00000000: a231 a041 3bd9 1ac0 cf92 b1c1
20.024235 -2.4195087 -22.196684

rotation f4 [3, 3]
00000000: 6283 743f 2285 763e e6ae 30be bd1f 45be
00000010: ab81 723f 721e 833e 8780 663e 9675 58be
00000020: 357d 733f
0.95512974 0.24074224 -0.17254218 -0.19250388 0.9472911 0.25609165 0.22509967 -0.21138605
0.95112926

beta f4 [3]
00000000: 0a33 a041 86dc 1ac0 9c95 b1c1
20.024921 -2.4197097 -22.198051

rotation f4 [3, 3]
00000000: 6283 743f 2285 763e e6ae 30be bd1f 45be
00000010: ab81 723f 721e 833e 8780 663e 9675 58be
00000020: 357d 733f
0.95512974 0.24074224 -0.17254218 -0.19250388 0.9472911 0.25609165 0.22509967 -0.21138605
0.95112926

beta f4 [3]
00000000: 0a33 a041 86dc 1ac0 9c95 b1c1
20.024921 -2.4197097 -22.198051

rotation f4 [3, 3]
00000000: 6283 743f 2285 763e e6ae 30be bd1f 45be
00000010: ab81 723f 721e 833e 8780 663e 9675 58be
00000020: 357d 733f
0.95512974 0.24074224 -0.17254218 -0.19250388 0.9472911 0.25609165 0.22509967 -0.21138605
0.95112926

beta f4 [3]
00000000: 0a33 a041 86dc 1ac0 9c95 b1c1
20.024921 -2.4197097 -22.198051

rotation f4 [3, 3]
00000000: 6283 743f 2285 763e e6ae 30be bd1f 45be
00000010: ab81 723f 721e 833e 8780 663e 9675 58be
00000020: 357d 733f
0.95512974 0.24074224 -0.17254218 -0.19250388 0.9472911 0.25609165 0.22509967 -0.21138605
0.95112926

beta f4 [3]
00000000: 0a33 a041 86dc 1ac0 9c95 b1c1
20.024921 -2.4197097 -22.198051

rotation f4 [3, 3]
00000000: 6283 743f 2285 763e e6ae 30be bd1f 45be
00000010: ab81 723f 721e 833e 8780 663e 9675 58be
00000020: 357d 733f
0.95512974 0.24074224 -0.17254218 -0.19250388 0.9472911 0.25609165 0.22509967 -0.21138605
0.95112926

beta f4 [3]
00000000: 0a33 a041 86dc 1ac0 9c95 b1c1
20.024921 -2.4197097 -22.198051

rotation f4 [3, 3]
00000000: 6283 743f 2285 763e e6ae 30be bd1f 45be
00000010: ab81 723f 721e 833e 8780 663e 9675 58be
00000020: 357d 733f
0.95512974 0.24074224 -0.17254218 -0.19250388 0.9472911 0.25609165 0.22509967 -0.21138605
0.95112926

beta f4 [3]
00000000: 0a33 a041 86dc 1ac0 9c95 b1c1
20.024921 -2.4197097 -22.198051

rotation f4 [3, 3]
00000000: 6283 743f 2285 763e e6ae 30be bd1f 45be
00000010: ab81 723f 721e 833e 8780 663e 9675 58be
00000020: 357d 733f
0.95512974 0.24074224 -0.17254218 -0.19250388 0.9472911 0.25609165 0.22509967 -0.21138605
0.95112926

beta f4 [3]
00000000: 0a33 a041 86dc 1ac0 9c95 b1c1
20.024921 -2.4197097 -22.198051

rotation f4 [3, 3]
00000000: 6283 743f 2285 763e e6ae 30be bd1f 45be
00000010: ab81 723f 721e 833e 8780 663e 9675 58be
00000020: 357d 733f
0.95512974 0.24074224 -0.17254218 -0.19250388 0.9472911 0.25609165 0.22509967 -0.21138605
0.95112926

beta f4 [3]
00000000: 0a33 a041 86dc 1ac0 9c95 b1c1
20.024921 -2.4197097 -22.198051

rotation f4 [3, 3]
00000000: 6283 743f 2285 763e e6ae 30be bd1f 45be
00000010: ab81 723f 721e 833e 8780 663e 9675 58be
00000020: 357d 733f
0.95512974 0.24074224 -0.17254218 -0.19250388 0.9472911 0.25609165 0.22509967 -0.21138605
0.95112926

beta f4 [3]
00000000: 0a33 a041 86dc 1ac0 9c95 b1c1
20.024921 -2.4197097 -22.198051

rotation f4 [3, 3]
00000000: 6283 743f 2285 763e e6ae 30be bd1f 45be
00000010: ab81 723f 721e 833e 8780 663e 9675 58be
00000020: 357d 733f
0.95512974 0.24074224 -0.17254218 -0.19250388 0.9472911 0.25609165 0.22509967 -0.21138605
0.95112926

beta f4 [3]
00000000: 0a33 a041 86dc 1ac0 9c95 b1c1
20.024921 -2.4197097 -22.198051

rotation f4 [3, 3]
00000000: 6283 743f 2285 763e e6ae 30be bd1f 45be
00000010: ab81 723f 721e 833e 8780 663e 9675 58be
00000020: 357d 733f
0.95512974 0.24074224 -0.17254218 -0.19250388 0.9472911 0.25609165 0.22509967 -0.21138605
0.95112926

beta f4 [3]
00000000: 0a33 a041 86dc 1ac0 9c95 b1c1
20.024921 -2.4197097 -22.198051

rotation f4 [3, 3]
00000000: 6283 743f 2285 763e e6ae 30be bd1f 45be
00000010: ab81 723f 721e 833e 8780 663e 9675 58be
00000020: 357d 733f
0.95512974 0.24074224 -0.17254218 -0.19250388 0.9472911 0.25609165 0.22509967 -0.21138605
0.95112926

beta f4 [3]
00000000: 0a33 a041 86dc 1ac0 9c95 b1c1
20.024921 -2.4197097 -22.198051

rotation f4 [3, 3]
00000000: 6283 743f 2285 763e e6ae 30be bd1f 45be
00000010: ab81 723f 721e 833e 8780 663e 9675 58be
00000020: 357d 733f
0.95512974 0.24074224 -0.17254218 -0.19250388 0.9472911 0.25609165 0.22509967 -0.21138605
0.95112926

beta f4 [3]
00000000: 0a33 a041 86dc 1ac0 9c95 b1c1
20.024921 -2.4197097 -22.198051

rotation f4 [3, 3]
00000000: 6283 743f 2285 763e e6ae 30be bd1f 45be
00000010: ab81 723f 721e 833e 8780 663e 9675 58be
00000020: 357d 733f
0.95512974 0.24074224 -0.17254218 -0.19250388 0.9472911 0.25609165 0.22509967 -0.21138605
0.95112926

beta f4 [3]
00000000: 0a33 a041 86dc 1ac0 9c95 b1c1
20.024921 -2.4197097 -22.198051

rotation f4 [3, 3]
00000000: 6283 743f 2285 763e e6ae 30be bd1f 45be
00000010: ab81 723f 721e 833e 8780 663e 9675 58be
00000020: 357d 733f
0.95512974 0.24074224 -0.17254218 -0.19250388 0.9472911 0.25609165 0.22509967 -0.21138605
0.95112926

beta f4 [3]
00000000: 0a33 a041 86dc 1ac0 9c95 b1c1
20.024921 -2.4197097 -22.198051

rotation f4 [3, 3]
00000000: 6283 743f 2285 763e e6ae 30be bd1f 45be
00000010: ab81 723f 721e 833e 8780 663e 9675 58be
00000020: 357d 733f
0.95512974 0.24074224 -0.17254218 -0.19250388 0.9472911 0.25609165 0.22509967 -0.21138605
0.95112926

beta f4 [3]
00000000: 0a33 a041 86dc 1ac0 9c95 b1c1
20.024921 -2.4197097 -22.198051

rotation f4 [3, 3]
00000000: 6283 743f 2285 763e e6ae 30be bd1f 45be
00000010: ab81 723f 721e 833e 8780 663e 9675 58be
00000020: 357d 733f
0.95512974 0.24074224 -0.17254218 -0.19250388 0.9472911 0.25609165 0.22509967 -0.21138605
0.95112926

beta f4 [3]
00000000: 0a33 a041 86dc 1ac0 9c95 b1c1
20.024921 -2.4197097 -22.198051

rotation f4 [3, 3]
00000000: 6283 743f 2285 763e e6ae 30be bd1f 45be
00000010: ab81 723f 721e 833e 8780 663e 9675 58be
00000020: 357d 733f
0.95512974 0.24074224 -0.17254218 -0.19250388 0.9472911 0.25609165 0.22509967 -0.21138605
0.95112926

beta f4 [3]
00000000: 0a33 a041 86dc 1ac0 9c95 b1c1
20.024921 -2.4197097 -22.198051

rotation f4 [3, 3]
00000000: 6283 743f 2285 763e e6ae 30be bd1f 45be
00000010: ab81 723f 721e 833e 8780 663e 9675 58be
00000020: 357d 733f
0.95512974 0.24074224 -0.17254218 -0.19250388 0.9472911 0.25609165 0.22509967 -0.21138605
0.95112926

beta f4 [3]
00000000: 0a33 a041 86dc 1ac0 9c95 b1c1
20.024921 -2.4197097 -22.198051

rotation f4 [3, 3]
00000000: 6283 743f 2285 763e e6ae 30be bd1f 45be
00000010: ab81 723f 721e 833e 8780 663e 9675 58be
00000020: 357d 733f
0.95512974 0.24074224 -0.17254218 -0.19250388 0.9472911 0.25609165 0.22509967 -0.21138605
0.95112926

beta f4 [3]
00000000: 0a33 a041 86dc 1ac0 9c95 b1c1
20.024921 -2.4197097 -22.198051

rotation f4 [3, 3]
00000000: 6283 743f 2285 763e e6ae 30be bd1f 45be
00000010: ab81 723f 721e 833e 8780 663e 9675 58be
00000020: 357d 733f
0.95512974 0.24074224 -0.17254218 -0.19250388 0.9472911 0.25609165 0.22509967 -0.21138605
0.95112926

beta f4 [3]
00000000: 0a33 a041 86dc 1ac0 9c95 b1c1
20.024921 -2.4197097 -22.198051

rotation f4 [3, 3]
00000000: 6283 743f 2285 763e e6ae 30be bd1f 45be
00000010: ab81 723f 721e 833e 8780 663e 9675 58be
00000020: 357d 733f
0.95512974 0.24074224 -0.17254218 -0.19250388 0.9472911 0.25609165 0.22509967 -0.21138605
0.95112926

beta f4 [3]
00000000: 0a33 a041 86dc 1ac0 9c95 b1c1
20.024921 -2.4197097 -22.198051

rotation f4 [3, 3]
00000000: 6283 743f 2285 763e e6ae 30be bd1f 45be
00000010: ab81 723f 721e 833e 8780 663e 9675 58be
00000020: 357d 733f
0.95512974 0.24074224 -0.17254218 -0.19250388 0.9472911 0.25609165 0.22509967 -0.21138605
0.95112926

beta f4 [3]
00000000: 0a33 a041 86dc 1ac0 9c95 b1c1
20.024921 -2.4197097 -22.198051

rotation f4 [3, 3]
00000000: 6283 743f 2285 763e e6ae 30be bd1f 45be
00000010: ab81 723f 721e 833e 8780 663e 9675 58be
00000020: 357d 733f
0.95512974 0.24074224 -0.17254218 -0.19250388 0.9472911 0.25609165 0.22509967 -0.21138605
0.95112926

beta f4 [3]
00000000: 0a33 a041 86dc 1ac0 9c95 b1c1
20.024921 -2.4197097 -22.198051

rotation f4 [3, 3]
00000000: 6283 743f 2285 763e e6ae 30be bd1f 45be
00000010: ab81 723f 721e 833e 8780 663e 9675 58be
00000020: 357d 733f
0.95512974 0.24074224 -0.17254218 -0.19250388 0.9472911 0.25609165 0.22509967 -0.21138605
0.95112926

beta f4 [3]
00000000: 0a33 a041 86dc 1ac0 9c95 b1c1
20.024921 -2.4197097 -22.198051

rotation f4 [3, 3]
00000000: 6283 743f 2285 763e e6ae 30be bd1f 45be
00000010: ab81 723f 721e 833e 8780 663e 9675 58be
00000020: 357d 733f
0.95512974 0.24074224 -0.17254218 -0.19250388 0.9472911 0.25609165 0.22509967 -0.21138605
0.95112926

beta f4 [3]
00000000: 0a33 a041 86dc 1ac0 9c95 b1c1
20.024921 -2.4197097 -22.198051

rotation f4 [3, 3]
00000000: 6283 743f 2285 763e e6ae 30be bd1f 45be
00000010: ab81 723f 721e 833e 8780 663e 9675 58be
00000020: 357d 733f
0.95512974 0.24074224 -0.17254218 -0.19250388 0.9472911 0.25609165 0.22509967 -0.21138605
0.95112926

beta f4 [3]
00000000: 0a33 a041 86dc 1ac0 9c95 b1c1
20.024921 -2.4197097 -22.198051

rotation f4 [3, 3]
00000000: 6283 743f 2285 763e e6ae 30be bd1f 45be
00000010: ab81 723f 721e 833e 8780 663e 9675 58be
00000020: 357d 733f
0.95512974 0.24074224 -0.17254218 -0.19250388 0.9472911 0.25609165 0.22509967 -0.21138605
0.95112926

beta f4 [3]
00000000: 0a33 a041 86dc 1ac0 9c95 b1c1
20.024921 -2.4197097 -22.198051

rotation f4 [3, 3]
00000000: 6283 743f 2285 763e e6ae 30be bd1f 45be
00000010: ab81 723f 721e 833e 8780 663e 9675 58be
00000020: 357d 733f
0.95512974 0.24074224 -0.17254218 -0.19250388 0.9472911 0.25609165 0.22509967 -0.21138605
0.95112926

beta f4 [3]
00000000: 0a33 a041 86dc 1ac0 9c95 b1c1
20.024921 -2.4197097 -22.198051

rotation f4 [3, 3]
00000000: 6283 743f 2285 763e e6ae 30be bd1f 45be
00000010: ab81 723f 721e 833e 8780 663e 9675 58be
00000020: 357d 733f
0.95512974 0.24074224 -0.17254218 -0.19250388 0.9472911 0.25609165 0.22509967 -0.21138605
0.95112926

beta f4 [3]
00000000: 0a33 a041 86dc 1ac0 9c95 b1c1
20.024921 -2.4197097 -22.198051

rotation f4 [3, 3]
00000000: 6283 743f 2285 763e e6ae 30be bd1f 45be
00000010: ab81 723f 721e 833e 8780 663e 9675 58be
00000020: 357d 733f
0.95512974 0.24074224 -0.17254218 -0.19250388 0.9472911 0.25609165 0.22509967 -0.21138605
0.95112926

beta f4 [3]
00000000: 0a33 a041 86dc 1ac0 9c95 b1c1
20.024921 -2.4197097 -22.198051

rotation f4 [3, 3]
00000000: 6283 743f 2285 763e e6ae 30be bd1f 45be
00000010: ab81 723f 721e 833e 8780 663e 9675 58be
00000020: 357d 733f
0.95512974 0.24074224 -0.17254218 -0.19250388 0.9472911 0.25609165 0.22509967 -0.21138605
0.95112926

beta f4 [3]
00000000: 0a33 a041 86dc 1ac0 9c95 b1c1
20.024921 -2.4197097 -22.198051

rotation f4 [3, 3]
00000000: 6283 743f 2285 763e e6ae 30be bd1f 45be
00000010: ab81 723f 721e 833e 8780 663e 9675 58be
00000020: 357d 733f
0.95512974 0.24074224 -0.17254218 -0.19250388 0.9472911 0.25609165 0.22509967 -0.21138605
0.95112926

beta f4 [3]
00000000: 0a33 a041 86dc 1ac0 9c95 b1c1
20.024921 -2.4197097 -22.198051

rotation f4 [3, 3]
00000000: 6283 743f 2285 763e e6ae 30be bd1f 45be
00000010: ab81 723f 721e 833e 8780 663e 9675 58be
00000020: 357d 733f
0.95512974 0.24074224 -0.17254218 -0.19250388 0.9472911 0.25609165 0.22509967 -0.21138605
0.95112926

beta f4 [3]
00000000: 0a33 a041 86dc 1ac0 9c95 b1c1
20.024921 -2.4197097 -22.198051

rotation f4 [3, 3]
00000000: 6283 743f 2285 763e e6ae 30be bd1f 45be
00000010: ab81 723f 721e 833e 8780 663e 9675 58be
00000020: 357d 733f
0.95512974 0.24074224 -0.17254218 -0.19250388 0.9472911 0.25609165 0.22509967 -0.21138605
0.95112926

beta f4 [3]
00000000: 0a33 a041 86dc 1ac0 9c95 b1c1
20.024921 -2.4197097 -22.198051

rotation f4 [3, 3]
00000000: 6283 743f 2285 763e e6ae 30be bd1f 45be
00000010: ab81 723f 721e 833e 8780 663e 9675 58be
00000020: 357d 733f
0.95512974 0.24074224 -0.17254218 -0.19250388 0.9472911 0.25609165 0.22509967 -0.21138605
0.95112926

beta f4 [3]
00000000: 0a33 a041 86dc 1ac0 9c95 b1c1
20.024921 -2.4197097 -22.198051

rotation f4 [3, 3]
00000000: 6283 743f 2285 763e e6ae 30be bd1f 45be
00000010: ab81 723f 721e 833e 8780 663e 9675 58be
00000020: 357d 733f
0.95512974 0.24074224 -0.17254218 -0.19250388 0.9472911 0.25609165 0.22509967 -0.21138605
0.95112926

beta f4 [3]
00000000: 0a33 a041 86dc 1ac0 9c95 b1c1
20.024921 -2.4197097 -22.198051

rotation f4 [3, 3]
00000000: 6283 743f 2285 763e e6ae 30be bd1f 45be
00000010: ab81 723f 721e 833e 8780 663e 9675 58be
00000020: 357d 733f
0.95512974 0.24074224 -0.17254218 -0.19250388 0.9472911 0.25609165 0.22509967 -0.21138605
0.95112926

beta f4 [3]
00000000: 0a33 a041 86dc 1ac0 9c95 b1c1
20.024921 -2.4197097 -22.198051

rotation f4 [3, 3]
00000000: 6283 743f 2285 763e e6ae 30be bd1f 45be
00000010: ab81 723f 721e 833e 8780 663e 9675 58be
00000020: 357d 733f
0.95512974 0.24074224 -0.17254218 -0.19250388 0.9472911 0.25609165 0.22509967 -0.21138605
0.95112926

beta f4 [3]
00000000: 0a33 a041 86dc 1ac0 9c95 b1c1
20.024921 -2.4197097 -22.198051

rotation f4 [3, 3]
00000000: 6283 743f 2285 763e e6ae 30be bd1f 45be
00000010: ab81 723f 721e 833e 8780 663e 9675 58be
00000020: 357d 733f
0.95512974 0.24074224 -0.17254218 -0.19250388 0.9472911 0.25609165 0.22509967 -0.21138605
0.95112926

beta f4 [3]
00000000: 0a33 a041 86dc 1ac0 9c95 b1c1
20.024921 -2.4197097 -22.198051

rotation f4 [3, 3]
00000000: 6283 743f 2285 763e e6ae 30be bd1f 45be
00000010: ab81 723f 721e 833e 8780 663e 9675 58be
00000020: 357d 733f
0.95512974 0.24074224 -0.17254218 -0.19250388 0.9472911 0.25609165 0.22509967 -0.21138605
0.95112926

beta f4 [3]
00000000: 0a33 a041 86dc 1ac0 9c95 b1c1
20.024921 -2.4197097 -22.198051

rotation f4 [3, 3]
00000000: 6283 743f 2285 763e e6ae 30be bd1f 45be
00000010: ab81 723f 721e 833e 8780 663e 9675 58be
00000020: 357d 733f
0.95512974 0.24074224 -0.17254218 -0.19250388 0.9472911 0.25609165 0.22509967 -0.21138605
0.95112926

beta f4 [3]
00000000: 0a33 a041 86dc 1ac0 9c95 b1c1
20.024921 -2.4197097 -22.198051

rotation f4 [3, 3]
00000000: 6283 743f 2285 763e e6ae 30be bd1f 45be
00000010: ab81 723f 721e 833e 8780 663e 9675 58be
00000020: 357d 733f
0.95512974 0.24074224 -0.17254218 -0.19250388 0.9472911 0.25609165 0.22509967 -0.21138605
0.95112926

beta f4 [3]
00000000: 0a33 a041 86dc 1ac0 9c95 b1c1
20.024921 -2.4197097 -22.198051

rotation f4 [3, 3]
00000000: 6283 743f 2285 763e e6ae 30be bd1f 45be
00000010: ab81 723f 721e 833e 8780 663e 9675 58be
00000020: 357d 733f
0.95512974 0.24074224 -0.17254218 -0.19250388 0.9472911 0.25609165 0.22509967 -0.21138605
0.95112926

beta f4 [3]
00000000: 0a33 a041 86dc 1ac0 9c95 b1c1
20.024921 -2.4197097 -22.198051

rotation f4 [3, 3]
00000000: 6283 743f 2285 763e e6ae 30be bd1f 45be
00000010: ab81 723f 721e 833e 8780 663e 9675 58be
00000020: 357d 733f
0.95512974 0.24074224 -0.17254218 -0.19250388 0.9472911 0.25609165 0.22509967 -0.21138605
0.95112926

beta f4 [3]
00000000: 0a33 a041 86dc 1ac0 9c95 b1c1
20.024921 -2.4197097 -22.198051

rotation f4 [3, 3]
00000000: 6283 743f 2285 763e e6ae 30be bd1f 45be
00000010: ab81 723f 721e 833e 8780 663e 9675 58be
00000020: 357d 733f
0.95512974 0.24074224 -0.17254218 -0.19250388 0.9472911 0.25609165 0.22509967 -0.21138605
0.95112926

beta f4 [3]
00000000: 0a33 a041 86dc 1ac0 9c95 b1c1
20.024921 -2.4197097 -22.198051

rotation f4 [3, 3]
00000000: 6283 743f 2285 763e e6ae 30be bd1f 45be
00000010: ab81 723f 721e 833e 8780 663e 9675 58be
00000020: 357d 733f
0.95512974 0.24074224 -0.17254218 -0.19250388 0.9472911 0.25609165 0.22509967 -0.21138605
0.95112926

beta f4 [3]
00000000: 0a33 a041 86dc 1ac0 9c95 b1c1
20.024921 -2.4197097 -22.198051

rotation f4 [3, 3]
00000000: 6283 743f 2285 763e e6ae 30be bd1f 45be
00000010: ab81 723f 721e 833e 8780 663e 9675 58be
00000020: 357d 733f
0.95512974 0.24074224 -0.17254218 -0.19250388 0.9472911 0.25609165 0.22509967 -0.21138605
0.95112926

beta f4 [3]
00000000: 0a33 a041 86dc 1ac0 9c95 b1c1
20.024921 -2.4197097 -22.198051

rotation f4 [3, 3]
00000000: 6283 743f 2285 763e e6ae 30be bd1f 45be
00000010: ab81 723f 721e 833e 8780 663e 9675 58be
00000020: 357d 733f
0.95512974 0.24074224 -0.17254218 -0.19250388 0.9472911 0.25609165 0.22509967 -0.21138605
0.95112926

beta f4 [3]
00000000: 0a33 a041 86dc 1ac0 9c95 b1c1
20.024921 -2.4197097 -22.198051

rotation f4 [3, 3]
00000000: 6283 743f 2285 763e e6ae 30be bd1f 45be
00000010: ab81 723f 721e 833e 8780 663e 9675 58be
00000020: 357d 733f
0.95512974 0.24074224 -0.17254218 -0.19250388 0.9472911 0.25609165 0.22509967 -0.21138605
0.95112926

beta f4 [3]
00000000: 0a33 a041 86dc 1ac0 9c95 b1c1
20.024921 -2.4197097 -22.198051

rotation f4 [3, 3]
00000000: 6283 743f 2285 763e e6ae 30be bd1f 45be
00000010: ab81 723f 721e 833e 8780 663e 9675 58be
00000020: 357d 733f
0.95512974 0.24074224 -0.17254218 -0.19250388 0.9472911 0.25609165 0.22509967 -0.21138605
0.95112926

beta f4 [3]
00000000: 0a33 a041 86dc 1ac0 9c95 b1c1
20.024921 -2.4197097 -22.198051

rotation f4 [3, 3]
00000000: 6283 743f 2285 763e e6ae 30be bd1f 45be
00000010: ab81 723f 721e 833e 8780 663e 9675 58be
00000020: 357d 733f
0.95512974 0.24074224 -0.17254218 -0.19250388 0.9472911 0.25609165 0.22509967 -0.21138605
0.95112926

beta f4 [3]
00000000: 0a33 a041 86dc 1ac0 9c95 b1c1
20.024921 -2.4197097 -22.198051

rotation f4 [3, 3]
00000000: 6283 743f 2285 763e e6ae 30be bd1f 45be
00000010: ab81 723f 721e 833e 8780 663e 9675 58be
00000020: 357d 733f
0.95512974 0.24074224 -0.17254218 -0.19250388 0.9472911 0.25609165 0.22509967 -0.21138605
0.95112926

beta f4 [3]
00000000: 0a33 a041 86dc 1ac0 9c95 b1c1
20.024921 -2.4197097 -22.198051

rotation f4 [3, 3]
00000000: 6283 743f 2285 763e e6ae 30be bd1f 45be
00000010: ab81 723f 721e 833e 8780 663e 9675 58be
00000020: 357d 733f
0.95512974 0.24074224 -0.17254218 -0.19250388 0.9472911 0.25609165 0.22509967 -0.21138605
0.95112926

beta f4 [3]
00000000: 0a33 a041 86dc 1ac0 9c95 b1c1
20.024921 -2.4197097 -22.198051

rotation f4 [3, 3]
00000000: 6283 743f 2285 763e e6ae 30be bd1f 45be
00000010: ab81 723f 721e 833e 8780 663e 9675 58be
00000020: 357d 733f
0.95512974 0.24074224 -0.17254218 -0.19250388 0.9472911 0.25609165 0.22509967 -0.21138605
0.95112926

beta f4 [3]
00000000: 0a33 a041 86dc 1ac0 9c95 b1c1
20.024921 -2.4197097 -22.198051

rotation f4 [3, 3]
00000000: 6283 743f 2285 763e e6ae 30be bd1f 45be
00000010: ab81 723f 721e 833e 8780 663e 9675 58be
00000020: 357d 733f
0.95512974 0.24074224 -0.17254218 -0.19250388 0.9472911 0.25609165 0.22509967 -0.21138605
0.95112926

beta f4 [3]
00000000: 0a33 a041 86dc 1ac0 9c95 b1c1
20.024921 -2.4197097 -22.198051

rotation f4 [3, 3]
00000000: 6283 743f 2285 763e e6ae 30be bd1f 45be
00000010: ab81 723f 721e 833e 8780 663e 9675 58be
00000020: 357d 733f
0.95512974 0.24074224 -0.17254218 -0.19250388 0.9472911 0.25609165 0.22509967 -0.21138605
0.95112926

beta f4 [3]
00000000: 0a33 a041 86dc 1ac0 9c95 b1c1
20.024921 -2.4197097 -22.198051

rotation f4 [3, 3]
00000000: 6283 743f 2285 763e e6ae 30be bd1f 45be
00000010: ab81 723f 721e 833e 8780 663e 9675 58be
00000020: 357d 733f
0.95512974 0.24074224 -0.17254218 -0.19250388 0.9472911 0.25609165 0.22509967 -0.21138605
0.95112926

beta f4 [3]
00000000: 0a33 a041 86dc 1ac0 9c95 b1c1
20.024921 -2.4197097 -22.198051

rotation f4 [3, 3]
00000000: 6283 743f 2285 763e e6ae 30be bd1f 45be
00000010: ab81 723f 721e 833e 8780 663e 9675 58be
00000020: 357d 733f
0.95512974 0.24074224 -0.17254218 -0.19250388 0.9472911 0.25609165 0.22509967 -0.21138605
0.95112926

beta f4 [3]
00000000: 0a33 a041 86dc 1ac0 9c95 b1c1
20.024921 -2.4197097 -22.198051

rotation f4 [3, 3]
00000000: 6283 743f 2285 763e e6ae 30be bd1f 45be
00000010: ab81 723f 721e 833e 8780 663e 9675 58be
00000020: 357d 733f
0.95512974 0.24074224 -0.17254218 -0.19250388 0.9472911 0.25609165 0.22509967 -0.21138605
0.95112926

beta f4 [3]
00000000: 0a33 a041 86dc 1ac0 9c95 b1c1
20.024921 -2.4197097 -22.198051

rotation f4 [3, 3]
00000000: 6283 743f 2285 763e e6ae 30be bd1f 45be
00000010: ab81 723f 721e 833e 8780 663e 9675 58be
00000020: 357d 733f
0.95512974 0.24074224 -0.17254218 -0.19250388 0.9472911 0.25609165 0.22509967 -0.21138605
0.95112926

beta f4 [3]
00000000: 0a33 a041 86dc 1ac0 9c95 b1c1
20.024921 -2.4197097 -22.198051

rotation f4 [3, 3]
00000000: 6283 743f 2285 763e e6ae 30be bd1f 45be
00000010: ab81 723f 721e 833e 8780 663e 9675 58be
00000020: 357d 733f
0.95512974 0.24074224 -0.17254218 -0.19250388 0.9472911 0.25609165 0.22509967 -0.21138605
0.95112926

beta f4 [3]
00000000: 0a33 a041 86dc 1ac0 9c95 b1c1
20.024921 -2.4197097 -22.198051

rotation f4 [3, 3]
00000000: 6283 743f 2285 763e e6ae 30be bd1f 45be
00000010: ab81 723f 721e 833e 8780 663e 9675 58be
00000020: 357d 733f
0.95512974 0.24074224 -0.17254218 -0.19250388 0.9472911 0.25609165 0.22509967 -0.21138605
0.95112926

beta f4 [3]
00000000: 0a33 a041 86dc 1ac0 9c95 b1c1
20.024921 -2.4197097 -22.198051

rotation f4 [3, 3]
00000000: 6283 743f 2285 763e e6ae 30be bd1f 45be
00000010: ab81 723f 721e 833e 8780 663e 9675 58be
00000020: 357d 733f
0.95512974 0.24074224 -0.17254218 -0.19250388 0.9472911 0.25609165 0.22509967 -0.21138605
0.95112926

beta f4 [3]
00000000: 0a33 a041 86dc 1ac0 9c95 b1c1
20.024921 -2.4197097 -22.198051

rotation f4 [3, 3]
00000000: 6283 743f 2285 763e e6ae 30be bd1f 45be
00000010: ab81 723f 721e 833e 8780 663e 9675 58be
00000020: 357d 733f
0.95512974 0.24074224 -0.17254218 -0.19250388 0.9472911 0.25609165 0.22509967 -0.21138605
0.95112926

beta f4 [3]
00000000: 0a33 a041 86dc 1ac0 9c95 b1c1
20.024921 -2.4197097 -22.198051

rotation f4 [3, 3]
00000000: 6283 743f 2285 763e e6ae 30be bd1f 45be
00000010: ab81 723f 721e 833e 8780 663e 9675 58be
00000020: 357d 733f
0.95512974 0.24074224 -0.17254218 -0.19250388 0.9472911 0.25609165 0.22509967 -0.21138605
0.95112926

beta f4 [3]
00000000: 0a33 a041 86dc 1ac0 9c95 b1c1
20.024921 -2.4197097 -22.198051

rotation f4 [3, 3]
00000000: 6283 743f 2285 763e e6ae 30be bd1f 45be
00000010: ab81 723f 721e 833e 8780 663e 9675 58be
00000020: 357d 733f
0.95512974 0.24074224 -0.17254218 -0.19250388 0.9472911 0.25609165 0.22509967 -0.21138605
0.95112926

beta f4 [3]
00000000: 0a33 a041 86dc 1ac0 9c95 b1c1
20.024921 -2.4197097 -22.198051

rotation f4 [3, 3]
00000000: 6283 743f 2285 763e e6ae 30be bd1f 45be
00000010: ab81 723f 721e 833e 8780 663e 9675 58be
00000020: 357d 733f
0.95512974 0.24074224 -0.17254218 -0.19250388 0.9472911 0.25609165 0.22509967 -0.21138605
0.95112926

beta f4 [3]
00000000: 0a33 a041 86dc 1ac0 9c95 b1c1
20.024921 -2.4197097 -22.198051

rotation f4 [3, 3]
00000000: 6283 743f 2285 763e e6ae 30be bd1f 45be
00000010: ab81 723f 721e 833e 8780 663e 9675 58be
00000020: 357d 733f
0.95512974 0.24074224 -0.17254218 -0.19250388 0.9472911 0.25609165 0.22509967 -0.21138605
0.95112926

beta f4 [3]
00000000: 0a33 a041 86dc 1ac0 9c95 b1c1
20.024921 -2.4197097 -22.198051

rotation f4 [3, 3]
00000000: 6283 743f 2285 763e e6ae 30be bd1f 45be
00000010: ab81 723f 721e 833e 8780 663e 9675 58be
00000020: 357d 733f
0.95512974 0.24074224 -0.17254218 -0.19250388 0.9472911 0.25609165 0.22509967 -0.21138605
0.95112926

beta f4 [3]
00000000: 0a33 a041 86dc 1ac0 9c95 b1c1
20.024921 -2.4197097 -22.198051

rotation f4 [3, 3]
00000000: 6283 743f 2285 763e e6ae 30be bd1f 45be
00000010: ab81 723f 721e 833e 8780 663e 9675 58be
00000020: 357d 733f
0.95512974 0.24074224 -0.17254218 -0.19250388 0.9472911 0.25609165 0.22509967 -0.21138605
0.95112926

beta f4 [3]
00000000: 0a33 a041 86dc 1ac0 9c95 b1c1
20.024921 -2.4197097 -22.198051

rotation f4 [3, 3]
00000000: 6283 743f 2285 763e e6ae 30be bd1f 45be
00000010: ab81 723f 721e 833e 8780 663e 9675 58be
00000020: 357d 733f
0.95512974 0.24074224 -0.17254218 -0.19250388 0.9472911 0.25609165 0.22509967 -0.21138605
0.95112926

beta f4 [3]
00000000: 0a33 a041 86dc 1ac0 9c95 b1c1
20.024921 -2.4197097 -22.198051

rotation f4 [3, 3]
00000000: 6283 743f 2285 763e e6ae 30be bd1f 45be
00000010: ab81 723f 721e 833e 8780 663e 9675 58be
00000020: 357d 733f
0.95512974 0.24074224 -0.17254218 -0.19250388 0.9472911 0.25609165 0.22509967 -0.21138605
0.95112926

beta f4 [3]
00000000: 0a33 a041 86dc 1ac0 9c95 b1c1
20.024921 -2.4197097 -22.198051

rotation f4 [3, 3]
00000000: 6283 743f 2285 763e e6ae 30be bd1f 45be
00000010: ab81 723f 721e 833e 8780 663e 9675 58be
00000020: 357d 733f
0.95512974 0.24074224 -0.17254218 -0.19250388 0.9472911 0.25609165 0.22509967 -0.21138605
0.95112926

beta f4 [3]
00000000: 0a33 a041 86dc 1ac0 9c95 b1c1
20.024921 -2.4197097 -22.198051

rotation f4 [3, 3]
00000000: 6283 743f 2285 763e e6ae 30be bd1f 45be
00000010: ab81 723f 721e 833e 8780 663e 9675 58be
00000020: 357d 733f
0.95512974 0.24074224 -0.17254218 -0.19250388 0.9472911 0.25609165 0.22509967 -0.21138605
0.95112926

beta f4 [3]
00000000: 0a33 a041 86dc 1ac0 9c95 b1c1
20.024921 -2.4197097 -22.198051

rotation f4 [3, 3]
00000000: 6283 743f 2285 763e e6ae 30be bd1f 45be
00000010: ab81 723f 721e 833e 8780 663e 9675 58be
00000020: 357d 733f
0.95512974 0.24074224 -0.17254218 -0.19250388 0.9472911 0.25609165 0.22509967 -0.21138605
0.95112926

beta f4 [3]
00000000: 0a33 a041 86dc 1ac0 9c95 b1c1
20.024921 -2.4197097 -22.198051

rotation f4 [3, 3]
00000000: 6283 743f 2285 763e e6ae 30be bd1f 45be
00000010: ab81 723f 721e 833e 8780 663e 9675 58be
00000020: 357d 733f
0.95512974 0.24074224 -0.17254218 -0.19250388 0.9472911 0.25609165 0.22509967 -0.21138605
0.95112926

beta f4 [3]
00000000: 0a33 a041 86dc 1ac0 9c95 b1c1
20.024921 -2.4197097 -22.198051

rotation f4 [3, 3]
00000000: 6283 743f 2285 763e e6ae 30be bd1f 45be
00000010: ab81 723f 721e 833e 8780 663e 9675 58be
00000020: 357d 733f
0.95512974 0.24074224 -0.17254218 -0.19250388 0.9472911 0.25609165 0.22509967 -0.21138605
0.95112926

beta f4 [3]
00000000: 0a33 a041 86dc 1ac0 9c95 b1c1
20.024921 -2.4197097 -22.198051
