code/experiment/shape_registration/data/test/data_noise105.pt (torch, 105111 bytes, 6 tensors)

X0 f4 [2048, 3]
00000000: 8a4f cd3e 604f 413e 80be dbbe 898a 75be
00000010: 1c38 4cbf 0068 6b3e f4c1 38be fc30 223f
00000020: 480c e33e 0675 c73e 2048 44bf c049 eebe
00000030: 0b6f d2be 1081 76be 20bb f8be d065 4c3d
00000040: b8cf a7bd c086 503e 6718 cdbe 10b8 7d3e
00000050: 2087 b0bd 569d b9be de39 4dbf 8060 e3be
00000060: 4cff 9e3e 6a50 cc3e a882 9a3e 0817 7d3e
00000070: 9eed 16bf a03f 4d3e 84b9 d03d 2843 6ebe
00000080: a8a6 abbe 2c34 bebe 7064 69be 80d5 cf3c
00000090: 1d5c 6fbe d440 5b3e 90c0 a23e f8c1 c33e
000000a0: 30dc eebd 40df 2dbd 9c0e 46be c0d6 6bbc
000000b0: c099 8fbe f011 b43e 2488 7d3e a078 91bd
000000c0: 406f ce3e 785f cebe b883 e6be 9ba8 5dbe
000000d0: 6830 eabe e0b9 633e 5443 d1be 244d 4a3e
000000e0: d837 d6be ac01 143e 228a 253f a08c e13e
000000f0: 74dc ab3d 00c6 aabb 20d0 debd 5e2a c23e
00000100: a07b d5bd 401c b5be 0cc6 983d fcb0 5a3e
00000110: 4822 8c3e 3268 783e b810 9abe d000 293e
00000120: 2a43 f6bd 785f 34be b4a5 03bf 1ad9 debd
00000130: 2843 6ebe 8040 c4bd 02dc bebe 5a4a 04bf
00000140: b0c7 d6be 536e 86be 70ec 5dbd b0a9 643e
00000150: 3ee6 b23e c06f 203e 60ad 363e a0bd b9bc
00000160: 9b31 e73e 3036 ac3e 6807 d1be d885 34be
00000170: 3060 6dbe 0362 97be f5a7 ed3e 98e0 923e
00000180: 578e 66be 00a0 d4bc 0034 afbc e218 173e
00000190: 2843 6ebe 4059 44bd f07f 01be 2043 6ebe
000001a0: c096 113e 4307 b2be 9439 193e 1073 003e
000001b0: c0b1 1e3c 604d d2bc 303f c9be 3909 babe
000001c0: c0ad 9ebc 9032 ebbe 6ce6 823e d88b 6bbe
000001d0: 20aa fcbe a0d7 abbd 2068 633d 284c a43e
000001e0: 846e 823e c0f6 02bd 90e4 783e d043 6a3e
000001f0: e609 4dbf e0db 5b3e 4c2b 8f3e 2843 6ebe
00000200: e0d4 5abe 608c 483e 007f 8ebc b0bf 97be
00000210: f3f2 83be 2073 6ebe 3064 b5be 143f 5d3e
00000220: 70a7 18bd 0029 213d e6ec c73e f0d8 1b3e
00000230: 109e 75be ccc0 20bd 0093 d6bc 404d 103d
00000240: 9a72 b13e 26e4 14bf 9818 e3be c4b0 873d
00000250: 5851 23be e003 03bf 1c63 0e3e 4c00 bd3e
00000260: 7007 b73e 0c77 da3d c054 323d a09c a23e
00000270: b0e7 443d 2073 6ebe 00df dd3d 43ef b1be
00000280: 00a3 523e a83d 80be dc49 c7be 38fe adbd
00000290: 8006 a0bd ebe2 803e f8c8 5a3e 48e5 9f3e
000002a0: 54d2 56be fc58 21bf 30f2 423e 16c0 a3bd
000002b0: 06a6 963e 60b8 933e 62ea b3bd 00aa 63bb
000002c0: 500f 12be 50e9 72bc 3674 153f 6870 e23e
000002d0: a7e5 853e 1ef6 0d3f f0f2 b83e f453 9c3e
000002e0: c01a 19bd 50b0 2dbe 60ab 9e3e 18d0 1ebe
000002f0: c0d9 f23d 42ca 503e 988e 99bd 20ee ecbe
00000300: 61ff 91be 8015 65be 00de 333e e6e0 3cbe
00000310: 7093 4fbd 0845 e1be 042a a7be 5814 afbd
00000320: 205c aa3d 00cc bb3e 1000 053d 5836 dcbe
00000330: aec6 d03e b8ad 44be 48ef f7be e702 35be
00000340: 16a0 cd3e 68f6 ba3e 3815 453e 302a e3be
00000350: 5070 4a3e b68b d4bd d040 97bd e052 403e
00000360: b483 2b3e 2019 37be c061 643e af68 acbe
00000370: 003b 31bd 400a 65be 94e2 eb3d 77b6 043f
00000380: 3814 b43e 8cc0 8ebd 2843 6ebe 48cc c4be
00000390: c878 8cbe c010 2cbe c046 fabe 3ecc 6ebe
000003a0: 6021 bb3d a0b7 6c3e cece b3be acb3 bdbe
000003b0: 5042 dcbe 1645 c73e f0e2 133e 00b7 e23c
000003c0: fed6 c2be 6a99 27bf 10f5 f0be aaac 9cbe
000003d0: 7aa6 a43e 400b 7e3e 202f 17bc 18a3 6ebe
000003e0: 50a4 793e 6a00 cdbe 7882 02be 2872 bdbe
000003f0: 3626 b6be 2018 a13d 58a4 b4be c80c 993e
0.40099746 0.18877935 -0.42918777 -0.23978628 -0.79773116 0.22988892 -0.18042737 0.63355994
0.44345307 0.3895647 -0.76672554 -0.46540642 -0.41100344 -0.24072671 -0.48580265 0.049901783
-0.08193916 0.20363903 -0.4005768 0.24777246 -0.08619523 -0.3625285 -0.80166423 -0.4440956
0.3105415 0.399051 0.30177808 0.24715817 -0.58956325 0.20043802 0.10191634 -0.23267806
-0.33525586 -0.3714918 -0.2279222 0.02537036 -0.23374982 0.21411449 0.3178754 0.38233924
-0.11663091 -0.042449236 -0.1934151 -0.014394462 -0.2804699 0.35169935 0.24758965 -0.071030855
0.40319252 -0.40307212 -0.45022368 -0.21646349 -0.45740056 0.22238874 -0.4087168 0.1975599
-0.4183948 0.14453763 0.646639 0.440526 0.083916575 -0.0052115917 -0.108795404 0.3792295
-0.1042397 -0.35373116 0.074596494 0.21356577 0.27369905 0.24258497 -0.3009088 0.16504216
-0.12024529 -0.17614543 -0.5142472 -0.108812526 -0.23267806 -0.09582615 -0.37277228 -0.5167595
-0.41949224 -0.26256046 -0.054180562 0.22330356 0.34941286 0.15667629 0.17839575 -0.022673428
0.45155033 0.33635092 -0.40825963 -0.17629182 -0.23181224 -0.29566965 0.46417204 0.28686976
-0.22515236 -0.0259552 -0.0213871 0.14755586 -0.23267806 -0.047936678 -0.1264646 -0.23267794
0.14217663 -0.34771165 0.1496337 0.12543893 0.009685934 -0.02567166 -0.3930602 -0.3633516
-0.01936996 -0.45937014 0.25566423 -0.23002565 -0.49348545 -0.083907366 0.055519223 0.32089353
0.25474942 -0.0319736 0.2430594 0.22877431 -0.8009323 0.21470594 0.2796272 -0.23267806
-0.21370268 0.19584799 -0.017394543 -0.29638433 -0.25771293 -0.23286104 -0.35428 0.21606094
-0.037269056 0.03934574 0.39047927 0.15219474 -0.23986077 -0.039246365 -0.026193142 0.03522992
0.34657747 -0.58160627 -0.443547 0.06625512 -0.15948999 -0.5117779 0.13904995 0.3691429
0.35747862 0.10667238 0.043537855 0.3176012 0.048072517 -0.23286104 0.108335495 -0.34752855
0.20569992 -0.2504704 -0.38923538 -0.08495754 -0.0781374 0.25173125 0.21365726 0.31229615
-0.20978671 -0.63026404 0.190377 -0.07995622 0.2942354 0.28851604 -0.08784939 -0.003473878
-0.14263654 -0.014826134 0.5838045 0.44226384 0.26151773 0.5545367 0.36122847 0.305328
-0.037379026 -0.16961789 0.30990124 -0.15509069 0.11857939 0.20389655 -0.07497901 -0.46275425
-0.2851515 -0.22371483 0.17565155 -0.18445167 -0.050677717 -0.4399798 -0.32649243 -0.08548802
0.08318353 0.36679077 0.032470763 -0.4301021 0.4077658 -0.19206893 -0.48424745 -0.17676888
0.40161198 0.36516118 0.19246376 -0.44368124 0.19769406 -0.1037821 -0.07385409 0.18781614
0.1674946 -0.17880678 0.22302914 -0.33673617 -0.043269157 -0.22367191 0.11517826 0.5184092
0.35171676 -0.06970319 -0.23267806 -0.38437104 -0.274359 -0.16803265 -0.48882103 -0.233201
0.09137225 0.23116922 -0.35118717 -0.3705114 -0.43019342 0.38919896 0.14442039 0.027675152
-0.3805465 -0.65468466 -0.47061968 -0.30600482 0.32158262 0.24808979 -0.009227544 -0.23304403
0.24379086 -0.40039378 -0.12745082 -0.37001157 -0.35576028 0.078659296 -0.35281634 0.29892564

Y0 f4 [2048, 3]
00000000: f966 903f 38ba ce3f c796 4bbf 7a63 d53f
00000010: c201 703f f1a7 d6be 095d 393f 067f 6d3f
00000020: 7d99 4abf 2065 dc3f 4f55 cb3f 7074 f9be
00000030: bc70 c83f 2c7e 983f f898 80bf 924b 973f
00000040: 56d0 903f e52e 0fbf c795 933f c37b 843f
00000050: 4eeb 7cbf a25c f13f d49e 963f 78d6 45bf
00000060: 3f5d 4f3f 1449 9f3f 60f9 12bf 8ef0 b93f
00000070: 04f4 9b3f 6154 9cbe 7b5a b53f 57cf b23f
00000080: 76d5 3abf aed0 b33f 8a54 7b3f e604 43bf
00000090: 7d42 833f 399f 703f a9ba 39bf 338e 9a3f
000000a0: 9590 b53f d2d7 05bf 8ed5 a93f 5e91 9c3f
000000b0: 3fa0 66bf b904 803f a8ec b63f 7a78 2cbf
000000c0: 0030 bf3f 4c2d cd3f ee9b 19bf fe93 ba3f
000000d0: ac69 773f d7c3 07bf 73ce a33f 78e8 963f
000000e0: 27e6 8fbf d819 273f 9a26 8d3f e41a 2abf
000000f0: 18d9 9b3f 9598 a53f dc8e 36bf 8403 a53f
00000100: 366e c73f 614b 2bbf dc39 7a3f 78e6 8f3f
00000110: ca8b 1ebf d1df a43f ea1c 9f3f 5262 d8be
00000120: 5218 bd3f f94a ae3f ebc5 6bbf 3ef5 b13f
00000130: 8093 963f 2c28 35bf 938b da3f f3e6 953f
00000140: 982e 5dbf 3352 9c3f 45fe 743f 8c08 30bf
00000150: 9820 7c3f 35e2 a73f 04d2 07bf fa86 553f
00000160: c6cf 863f 5073 36bf 3919 ba3f 034c 8a3f
00000170: 2030 69bf a6fa 643f 7b3a 6e3f b4d7 59bf
00000180: 5418 a23f a859 8b3f 4eef 4abf 64ba a93f
00000190: 284b a53f 0acd 14bf 15bb a93f b698 873f
000001a0: c473 1bbf cf2c 923f aeb6 763f 123d 56bf
000001b0: 92ad a93f 5de2 b03f 6a6c 5dbf 290a b53f
000001c0: 144e 9b3f ac55 86bf 4506 b73f 4278 c63f
000001d0: ea4d 3dbf b1b4 8b3f 9893 813f 7eb9 1bbf
000001e0: 95c9 8c3f c8c0 9c3f fc33 f3be d956 ca3f
000001f0: c9d4 983f ea31 6fbe b66d ac3f d5e5 b73f
00000200: 532d 1abf 37cd a03f 8207 b83f 147e 3fbf
00000210: 5328 bf3f 6560 9b3f bfa1 62bf 329a 953f
00000220: e2e0 a53f 30c3 14bf d89d 8c3f 16df c23f
00000230: 0a8c 33bf 0e59 9b3f 23c1 943f baea 30bf
00000240: 4e46 ce3f 500c c83f f003 0fbf b6fd b63f
00000250: 76f4 ba3f 5a73 59bf eca2 583f 1237 903f
00000260: 21d3 1bbf 20f0 873f 8fb5 8e3f 121e 07bf
00000270: 4590 a63f 0a76 953f 7619 0dbf 5a81 9b3f
00000280: 2f67 913f bf56 83bf 20e8 ac3f 8226 833f
00000290: 5f76 5dbf 0670 6e3f 2fc0 993f 7c8f 07bf
000002a0: 6708 c93f 3153 7a3f 950f f7be 9f67 743f
000002b0: 9de5 843f 921b 34bf 6c4a a13f 78d8 9b3f
000002c0: c597 4cbf bad1 383f 69de 813f d807 35bf
000002d0: 824d 353f 4644 993f d7ed 1ebf e4f7 9a3f
000002e0: f20f b83f 289b 23bf 6683 993f 021d a73f
000002f0: 62c6 eebe db24 ab3f 83ec c13f 00d5 4cbf
00000300: b1d3 ab3f 66c1 753f bcf6 28bf c13e b23f
00000310: 973b a63f 38f4 74bf 5d7b a53f 8f2e 7c3f
00000320: e92d 44bf 1378 9d3f 1cad cb3f 7a7d 41bf
00000330: bee2 af3f 997f d03f 98ac 2fbf 78ff 623f
00000340: 73c5 743f 0ad4 3ebf 0b11 b03f 9919 993f
00000350: 8e21 c2be 3721 9b3f 0b49 873f 01cd 21bf
00000360: b127 9b3f 6e3c 973f b232 f0be 24a3 ad3f
00000370: 5f5c 8f3f 927e 6cbf 2606 433f efa7 8f3f
00000380: 4e26 2cbf ff7b bb3f e8f1 a93f dd77 52bf
00000390: 5c6f bf3f 0259 a23f c4a9 79bf fdf5 8f3f
000003a0: 0a86 793f dbe2 38bf 1201 cf3f 0cb7 983f
000003b0: f50e 69bf 1381 833f cf42 b33f a006 14bf
000003c0: 9c57 e73f aba6 973f 92c0 57bf 6987 7e3f
000003d0: cae6 6f3f 0dd7 52bf 3617 a33f 0fb6 893f
000003e0: 5c65 03bf 4822 bb3f bc12 933f 68ab 7cbf
000003f0: 4a55 a93f 9023 963f 9c17 84bf ff8a a63f
1.1281425 1.615058 -0.7952694 1.6670983 0.9375268 -0.41925004 0.72407585 0.9277195
-0.79140455 1.7218361 1.5885409 -0.48721647 1.5659404 1.1913505 -1.0046682 1.1819937
1.1313579 -0.5593093 1.1530083 1.0350269 -0.98796546 1.8856394 1.176722 -0.7728038
0.8100166 1.2444177 -0.57411766 1.4526536 1.2183843 -0.30533126 1.4168237 1.3969525
-0.72981966 1.4048059 0.9817587 -0.7617935 1.0254666 0.93992954 -0.72550446 1.2074646
1.4184748 -0.5228244 1.3268297 1.2231863 -0.90088266 1.0001441 1.4290972 -0.6737133
1.4936523 1.6029449 -0.60003555 1.4576414 0.9664562 -0.530332 1.2797378 1.1789694
-1.1242112 0.6527381 1.1027405 -0.6644728 1.2175627 1.2937189 -0.71311736 1.2891698
1.5580509 -0.66911894 0.97744536 1.1242208 -0.6193205 1.2880803 1.2430699 -0.42262512
1.4773047 1.361663 -0.92098874 1.3902967 1.1763763 -0.7076442 1.7073845 1.1711105
-0.8639922 1.2212585 0.95700485 -0.6876304 0.98487234 1.3115908 -0.53054833 0.8340908
1.0532157 -0.712697 1.4538947 1.0804447 -0.9108906 0.8944496 0.93057984 -0.8509476
1.2663674 1.0886736 -0.792714 1.3260007 1.2913561 -0.58125365 1.3260218 1.0593479
-0.6072352 1.1419924 0.963725 -0.83686936 1.3256094 1.381908 -0.8649355 1.4143726
1.2133203 -1.0494895 1.4298788 1.550545 -0.7394701 1.0914518 1.0123167 -0.60829914
1.0999018 1.2246332 -0.47500598 1.5807754 1.1939937 -0.23358884 1.3470981 1.4367014
-0.6022541 1.2562627 1.4377291 -0.74801755 1.4934181 1.2138792 -0.88528055 1.1687682
1.2959254 -0.5811033 1.098567 1.522433 -0.7013556 1.2136552 1.1621441 -0.69108164
1.6115205 1.5628757 -0.55865383 1.4296176 1.4605854 -0.8494164 0.846236 1.1266806
-0.6086903 1.0620155 1.1149157 -0.5278026 1.3012778 1.1676648 -0.55116975 1.214885
1.1359614 -1.0260848 1.3508339 1.0246127 -0.86508745 0.93139684 1.2011775 -0.52953315
1.5705689 0.9778319 -0.48254076 0.95470613 1.0382572 -0.7035457 1.2600837 1.2175436
-0.7991908 0.7219502 1.0145999 -0.70715094 0.7082139 1.197396 -0.62081665 1.21069
1.4379866 -0.63908625 1.1993225 1.3055727 -0.4663573 1.3370622 1.5150303 -0.8001251
1.3423978 0.9599823 -0.66001487 1.3925401 1.2986935 -0.9568515 1.2928272 0.9850854
-0.76632553 1.2302269 1.5912204 -0.7558209 1.3741071 1.628894 -0.6862273 0.88671064
0.95613784 -0.74542296 1.3755201 1.1960937 -0.37916225 1.2119511 1.0569166 -0.63203436
1.2121488 1.1815317 -0.46913677 1.3565412 1.1200064 -0.9238063 0.76181257 1.1223124
-0.6724595 1.4647216 1.3276949 -0.82214147 1.4955859 1.2683413 -0.97524667 1.1246945
0.9747015 -0.72221154 1.6172202 1.1930861 -0.9103845 1.0273765 1.4004763 -0.5782261
1.8073611 1.1847738 -0.84278214 0.9942537 0.9371153 -0.8235939 1.2741458 1.0758685
-0.5132654 1.4619837 1.1490092 -0.98699045 1.3229153 1.1729603 -1.0319705 1.3011168

X1 f4 [2252, 3]
00000000: 8a4f cd3e 604f 413e 80be dbbe 898a 75be
00000010: 1c38 4cbf 0068 6b3e f4c1 38be fc30 223f
00000020: 480c e33e 0675 c73e 2048 44bf c049 eebe
00000030: 0b6f d2be 1081 76be 20bb f8be d065 4c3d
00000040: b8cf a7bd c086 503e 6718 cdbe 10b8 7d3e
00000050: 2087 b0bd 569d b9be de39 4dbf 8060 e3be
00000060: 4cff 9e3e 6a50 cc3e a882 9a3e 0817 7d3e
00000070: 9eed 16bf a03f 4d3e 84b9 d03d 2843 6ebe
00000080: a8a6 abbe 2c34 bebe 7064 69be 80d5 cf3c
00000090: 1d5c 6fbe d440 5b3e 90c0 a23e f8c1 c33e
000000a0: 30dc eebd 40df 2dbd 9c0e 46be c0d6 6bbc
000000b0: c099 8fbe f011 b43e 2488 7d3e a078 91bd
000000c0: 406f ce3e 785f cebe b883 e6be 9ba8 5dbe
000000d0: 6830 eabe e0b9 633e 5443 d1be 244d 4a3e
000000e0: d837 d6be ac01 143e 228a 253f a08c e13e
000000f0: 74dc ab3d 00c6 aabb 20d0 debd 5e2a c23e
00000100: a07b d5bd 401c b5be 0cc6 983d fcb0 5a3e
00000110: 4822 8c3e 3268 783e b810 9abe d000 293e
00000120: 2a43 f6bd 785f 34be b4a5 03bf 1ad9 debd
00000130: 2843 6ebe 8040 c4bd 02dc bebe 5a4a 04bf
00000140: b0c7 d6be 536e 86be 70ec 5dbd b0a9 643e
00000150: 3ee6 b23e c06f 203e 60ad 363e a0bd b9bc
00000160: 9b31 e73e 3036 ac3e 6807 d1be d885 34be
00000170: 3060 6dbe 0362 97be f5a7 ed3e 98e0 923e
00000180: 578e 66be 00a0 d4bc 0034 afbc e218 173e
00000190: 2843 6ebe 4059 44bd f07f 01be 2043 6ebe
000001a0: c096 113e 4307 b2be 9439 193e 1073 003e
000001b0: c0b1 1e3c 604d d2bc 303f c9be 3909 babe
000001c0: c0ad 9ebc 9032 ebbe 6ce6 823e d88b 6bbe
000001d0: 20aa fcbe a0d7 abbd 2068 633d 284c a43e
000001e0: 846e 823e c0f6 02bd 90e4 783e d043 6a3e
000001f0: e609 4dbf e0db 5b3e 4c2b 8f3e 2843 6ebe
00000200: e0d4 5abe 608c 483e 007f 8ebc b0bf 97be
00000210: f3f2 83be 2073 6ebe 3064 b5be 143f 5d3e
00000220: 70a7 18bd 0029 213d e6ec c73e f0d8 1b3e
00000230: 109e 75be ccc0 20bd 0093 d6bc 404d 103d
00000240: 9a72 b13e 26e4 14bf 9818 e3be c4b0 873d
00000250: 5851 23be e003 03bf 1c63 0e3e 4c00 bd3e
00000260: 7007 b73e 0c77 da3d c054 323d a09c a23e
00000270: b0e7 443d 2073 6ebe 00df dd3d 43ef b1be
00000280: 00a3 523e a83d 80be dc49 c7be 38fe adbd
00000290: 8006 a0bd ebe2 803e f8c8 5a3e 48e5 9f3e
000002a0: 54d2 56be fc58 21bf 30f2 423e 16c0 a3bd
000002b0: 06a6 963e 60b8 933e 62ea b3bd 00aa 63bb
000002c0: 500f 12be 50e9 72bc 3674 153f 6870 e23e
000002d0: a7e5 853e 1ef6 0d3f f0f2 b83e f453 9c3e
000002e0: c01a 19bd 50b0 2dbe 60ab 9e3e 18d0 1ebe
000002f0: c0d9 f23d 42ca 503e 988e 99bd 20ee ecbe
00000300: 61ff 91be 8015 65be 00de 333e e6e0 3cbe
00000310: 7093 4fbd 0845 e1be 042a a7be 5814 afbd
00000320: 205c aa3d 00cc bb3e 1000 053d 5836 dcbe
00000330: aec6 d03e b8ad 44be 48ef f7be e702 35be
00000340: 16a0 cd3e 68f6 ba3e 3815 453e 302a e3be
00000350: 5070 4a3e b68b d4bd d040 97bd e052 403e
00000360: b483 2b3e 2019 37be c061 643e af68 acbe
00000370: 003b 31bd 400a 65be 94e2 eb3d 77b6 043f
00000380: 3814 b43e 8cc0 8ebd 2843 6ebe 48cc c4be
00000390: c878 8cbe c010 2cbe c046 fabe 3ecc 6ebe
000003a0: 6021 bb3d a0b7 6c3e cece b3be acb3 bdbe
000003b0: 5042 dcbe 1645 c73e f0e2 133e 00b7 e23c
000003c0: fed6 c2be 6a99 27bf 10f5 f0be aaac 9cbe
000003d0: 7aa6 a43e 400b 7e3e 202f 17bc 18a3 6ebe
000003e0: 50a4 793e 6a00 cdbe 7882 02be 2872 bdbe
000003f0: 3626 b6be 2018 a13d 58a4 b4be c80c 993e
0.40099746 0.18877935 -0.42918777 -0.23978628 -0.79773116 0.22988892 -0.18042737 0.63355994
0.44345307 0.3895647 -0.76672554 -0.46540642 -0.41100344 -0.24072671 -0.48580265 0.049901783
-0.08193916 0.20363903 -0.4005768 0.24777246 -0.08619523 -0.3625285 -0.80166423 -0.4440956
0.3105415 0.399051 0.30177808 0.24715817 -0.58956325 0.20043802 0.10191634 -0.23267806
-0.33525586 -0.3714918 -0.2279222 0.02537036 -0.23374982 0.21411449 0.3178754 0.38233924
-0.11663091 -0.042449236 -0.1934151 -0.014394462 -0.2804699 0.35169935 0.24758965 -0.071030855
0.40319252 -0.40307212 -0.45022368 -0.21646349 -0.45740056 0.22238874 -0.4087168 0.1975599
-0.4183948 0.14453763 0.646639 0.440526 0.083916575 -0.0052115917 -0.108795404 0.3792295
-0.1042397 -0.35373116 0.074596494 0.21356577 0.27369905 0.24258497 -0.3009088 0.16504216
-0.12024529 -0.17614543 -0.5142472 -0.108812526 -0.23267806 -0.09582615 -0.37277228 -0.5167595
-0.41949224 -0.26256046 -0.054180562 0.22330356 0.34941286 0.15667629 0.17839575 -0.022673428
0.45155033 0.33635092 -0.40825963 -0.17629182 -0.23181224 -0.29566965 0.46417204 0.28686976
-0.22515236 -0.0259552 -0.0213871 0.14755586 -0.23267806 -0.047936678 -0.1264646 -0.23267794
0.14217663 -0.34771165 0.1496337 0.12543893 0.009685934 -0.02567166 -0.3930602 -0.3633516
-0.01936996 -0.45937014 0.25566423 -0.23002565 -0.49348545 -0.083907366 0.055519223 0.32089353
0.25474942 -0.0319736 0.2430594 0.22877431 -0.8009323 0.21470594 0.2796272 -0.23267806
-0.21370268 0.19584799 -0.017394543 -0.29638433 -0.25771293 -0.23286104 -0.35428 0.21606094
-0.037269056 0.03934574 0.39047927 0.15219474 -0.23986077 -0.039246365 -0.026193142 0.03522992
0.34657747 -0.58160627 -0.443547 0.06625512 -0.15948999 -0.5117779 0.13904995 0.3691429
0.35747862 0.10667238 0.043537855 0.3176012 0.048072517 -0.23286104 0.108335495 -0.34752855
0.20569992 -0.2504704 -0.38923538 -0.08495754 -0.0781374 0.25173125 0.21365726 0.31229615
-0.20978671 -0.63026404 0.190377 -0.07995622 0.2942354 0.28851604 -0.08784939 -0.003473878
-0.14263654 -0.014826134 0.5838045 0.44226384 0.26151773 0.5545367 0.36122847 0.305328
-0.037379026 -0.16961789 0.30990124 -0.15509069 0.11857939 0.20389655 -0.07497901 -0.46275425
-0.2851515 -0.22371483 0.17565155 -0.18445167 -0.050677717 -0.4399798 -0.32649243 -0.08548802
0.08318353 0.36679077 0.032470763 -0.4301021 0.4077658 -0.19206893 -0.48424745 -0.17676888
0.40161198 0.36516118 0.19246376 -0.44368124 0.19769406 -0.1037821 -0.07385409 0.18781614
0.1674946 -0.17880678 0.22302914 -0.33673617 -0.043269157 -0.22367191 0.11517826 0.5184092
0.35171676 -0.06970319 -0.23267806 -0.38437104 -0.274359 -0.16803265 -0.48882103 -0.233201
0.09137225 0.23116922 -0.35118717 -0.3705114 -0.43019342 0.38919896 0.14442039 0.027675152
-0.3805465 -0.65468466 -0.47061968 -0.30600482 0.32158262 0.24808979 -0.009227544 -0.23304403
0.24379086 -0.40039378 -0.12745082 -0.37001157 -0.35576028 0.078659296 -0.35281634 0.29892564

Y1 f4 [2252, 3]
00000000: f966 903f 38ba ce3f c796 4bbf 7a63 d53f
00000010: c201 703f f1a7 d6be 095d 393f 067f 6d3f
00000020: 7d99 4abf 2065 dc3f 4f55 cb3f 7074 f9be
00000030: bc70 c83f 2c7e 983f f898 80bf 924b 973f
00000040: 56d0 903f e52e 0fbf c795 933f c37b 843f
00000050: 4eeb 7cbf a25c f13f d49e 963f 78d6 45bf
00000060: 3f5d 4f3f 1449 9f3f 60f9 12bf 8ef0 b93f
00000070: 04f4 9b3f 6154 9cbe 7b5a b53f 57cf b23f
00000080: 76d5 3abf aed0 b33f 8a54 7b3f e604 43bf
00000090: 7d42 833f 399f 703f a9ba 39bf 338e 9a3f
000000a0: 9590 b53f d2d7 05bf 8ed5 a93f 5e91 9c3f
000000b0: 3fa0 66bf b904 803f a8ec b63f 7a78 2cbf
000000c0: 0030 bf3f 4c2d cd3f ee9b 19bf fe93 ba3f
000000d0: ac69 773f d7c3 07bf 73ce a33f 78e8 963f
000000e0: 27e6 8fbf d819 273f 9a26 8d3f e41a 2abf
000000f0: 18d9 9b3f 9598 a53f dc8e 36bf 8403 a53f
00000100: 366e c73f 614b 2bbf dc39 7a3f 78e6 8f3f
00000110: ca8b 1ebf d1df a43f ea1c 9f3f 5262 d8be
00000120: 5218 bd3f f94a ae3f ebc5 6bbf 3ef5 b13f
00000130: 8093 963f 2c28 35bf 938b da3f f3e6 953f
00000140: 982e 5dbf 3352 9c3f 45fe 743f 8c08 30bf
00000150: 9820 7c3f 35e2 a73f 04d2 07bf fa86 553f
00000160: c6cf 863f 5073 36bf 3919 ba3f 034c 8a3f
00000170: 2030 69bf a6fa 643f 7b3a 6e3f b4d7 59bf
00000180: 5418 a23f a859 8b3f 4eef 4abf 64ba a93f
00000190: 284b a53f 0acd 14bf 15bb a93f b698 873f
000001a0: c473 1bbf cf2c 923f aeb6 763f 123d 56bf
000001b0: 92ad a93f 5de2 b03f 6a6c 5dbf 290a b53f
000001c0: 144e 9b3f ac55 86bf 4506 b73f 4278 c63f
000001d0: ea4d 3dbf b1b4 8b3f 9893 813f 7eb9 1bbf
000001e0: 95c9 8c3f c8c0 9c3f fc33 f3be d956 ca3f
000001f0: c9d4 983f ea31 6fbe b66d ac3f d5e5 b73f
00000200: 532d 1abf 37cd a03f 8207 b83f 147e 3fbf
00000210: 5328 bf3f 6560 9b3f bfa1 62bf 329a 953f
00000220: e2e0 a53f 30c3 14bf d89d 8c3f 16df c23f
00000230: 0a8c 33bf 0e59 9b3f 23c1 943f baea 30bf
00000240: 4e46 ce3f 500c c83f f003 0fbf b6fd b63f
00000250: 76f4 ba3f 5a73 59bf eca2 583f 1237 903f
00000260: 21d3 1bbf 20f0 873f 8fb5 8e3f 121e 07bf
00000270: 4590 a63f 0a76 953f 7619 0dbf 5a81 9b3f
00000280: 2f67 913f bf56 83bf 20e8 ac3f 8226 833f
00000290: 5f76 5dbf 0670 6e3f 2fc0 993f 7c8f 07bf
000002a0: 6708 c93f 3153 7a3f 950f f7be 9f67 743f
000002b0: 9de5 843f 921b 34bf 6c4a a13f 78d8 9b3f
000002c0: c597 4cbf bad1 383f 69de 813f d807 35bf
000002d0: 824d 353f 4644 993f d7ed 1ebf e4f7 9a3f
000002e0: f20f b83f 289b 23bf 6683 993f 021d a73f
000002f0: 62c6 eebe db24 ab3f 83ec c13f 00d5 4cbf
00000300: b1d3 ab3f 66c1 753f bcf6 28bf c13e b23f
00000310: 973b a63f 38f4 74bf 5d7b a53f 8f2e 7c3f
00000320: e92d 44bf 1378 9d3f 1cad cb3f 7a7d 41bf
00000330: bee2 af3f 997f d03f 98ac 2fbf 78ff 623f
00000340: 73c5 743f 0ad4 3ebf 0b11 b03f 9919 993f
00000350: 8e21 c2be 3721 9b3f 0b49 873f 01cd 21bf
00000360: b127 9b3f 6e3c 973f b232 f0be 24a3 ad3f
00000370: 5f5c 8f3f 927e 6cbf 2606 433f efa7 8f3f
00000380: 4e26 2cbf ff7b bb3f e8f1 a93f dd77 52bf
00000390: 5c6f bf3f 0259 a23f c4a9 79bf fdf5 8f3f
000003a0: 0a86 793f dbe2 38bf 1201 cf3f 0cb7 983f
000003b0: f50e 69bf 1381 833f cf42 b33f a006 14bf
000003c0: 9c57 e73f aba6 973f 92c0 57bf 6987 7e3f
000003d0: cae6 6f3f 0dd7 52bf 3617 a33f 0fb6 893f
000003e0: 5c65 03bf 4822 bb3f bc12 933f 68ab 7cbf
000003f0: 4a55 a93f 9023 963f 9c17 84bf ff8a a63f
1.1281425 1.615058 -0.7952694 1.6670983 0.9375268 -0.41925004 0.72407585 0.9277195
-0.79140455 1.7218361 1.5885409 -0.48721647 1.5659404 1.1913505 -1.0046682 1.1819937
1.1313579 -0.5593093 1.1530083 1.0350269 -0.98796546 1.8856394 1.176722 -0.7728038
0.8100166 1.2444177 -0.57411766 1.4526536 1.2183843 -0.30533126 1.4168237 1.3969525
-0.72981966 1.4048059 0.9817587 -0.7617935 1.0254666 0.93992954 -0.72550446 1.2074646
1.4184748 -0.5228244 1.3268297 1.2231863 -0.90088266 1.0001441 1.4290972 -0.6737133
1.4936523 1.6029449 -0.60003555 1.4576414 0.9664562 -0.530332 1.2797378 1.1789694
-1.1242112 0.6527381 1.1027405 -0.6644728 1.2175627 1.2937189 -0.71311736 1.2891698
1.5580509 -0.66911894 0.97744536 1.1242208 -0.6193205 1.2880803 1.2430699 -0.42262512
1.4773047 1.361663 -0.92098874 1.3902967 1.1763763 -0.7076442 1.7073845 1.1711105
-0.8639922 1.2212585 0.95700485 -0.6876304 0.98487234 1.3115908 -0.53054833 0.8340908
1.0532157 -0.712697 1.4538947 1.0804447 -0.9108906 0.8944496 0.93057984 -0.8509476
1.2663674 1.0886736 -0.792714 1.3260007 1.2913561 -0.58125365 1.3260218 1.0593479
-0.6072352 1.1419924 0.963725 -0.83686936 1.3256094 1.381908 -0.8649355 1.4143726
1.2133203 -1.0494895 1.4298788 1.550545 -0.7394701 1.0914518 1.0123167 -0.60829914
1.0999018 1.2246332 -0.47500598 1.5807754 1.1939937 -0.23358884 1.3470981 1.4367014
-0.6022541 1.2562627 1.4377291 -0.74801755 1.4934181 1.2138792 -0.88528055 1.1687682
1.2959254 -0.5811033 1.098567 1.522433 -0.7013556 1.2136552 1.1621441 -0.69108164
1.6115205 1.5628757 -0.55865383 1.4296176 1.4605854 -0.8494164 0.846236 1.1266806
-0.6086903 1.0620155 1.1149157 -0.5278026 1.3012778 1.1676648 -0.55116975 1.214885
1.1359614 -1.0260848 1.3508339 1.0246127 -0.86508745 0.93139684 1.2011775 -0.52953315
1.5705689 0.9778319 -0.48254076 0.95470613 1.0382572 -0.7035457 1.2600837 1.2175436
-0.7991908 0.7219502 1.0145999 -0.70715094 0.7082139 1.197396 -0.62081665 1.21069
1.4379866 -0.63908625 1.1993225 1.3055727 -0.4663573 1.3370622 1.5150303 -0.8001251
1.3423978 0.9599823 -0.66001487 1.3925401 1.2986935 -0.9568515 1.2928272 0.9850854
-0.76632553 1.2302269 1.5912204 -0.7558209 1.3741071 1.628894 -0.6862273 0.88671064
0.95613784 -0.74542296 1.3755201 1.1960937 -0.37916225 1.2119511 1.0569166 -0.63203436
1.2121488 1.1815317 -0.46913677 1.3565412 1.1200064 -0.9238063 0.76181257 1.1223124
-0.6724595 1.4647216 1.3276949 -0.82214147 1.4955859 1.2683413 -0.97524667 1.1246945
0.9747015 -0.72221154 1.6172202 1.1930861 -0.9103845 1.0273765 1.4004763 -0.5782261
1.8073611 1.1847738 -0.84278214 0.9942537 0.9371153 -0.8235939 1.2741458 1.0758685
-0.5132654 1.4619837 1.1490092 -0.98699045 1.3229153 1.1729603 -1.0319705 1.3011168

theta_op f4 [3]
00000000: db0f 493f 5077 d6be 3a46 f13f
0.7853982 -0.41887903 1.8849556

beta_op f4 [3]
00000000: fc58 73be 742f 673f fbd6 1c40
-0.23764414 0.9030678 2.4506214
