code/experiment/shape_registration/result/exp1/sot_param.pt (torch, 180659 bytes, 646 tensors)

theta f4 [3]
0	0x3f888b26	1.0667465
1	0xbf88bec5	-1.0683218
2	0xc073a076	-3.8066688

beta f4 [3]
0	0xbeb21d6c	-0.34788072
1	0xbe4d47e5	-0.20046957
2	0x3fe35978	1.7761679

beta f4 [3]
0	0xbf0a50a3	-0.5402929
1	0xbe92a4e3	-0.28641424
2	0x3fc2a08e	1.5205247

beta f4 [3]
0	0xbe4a7cfb	-0.19774239
1	0xbeef10ea	-0.46692592
2	0x3fb10613	1.3829979

beta f4 [3]
0	0x3ddab0d8	0.106782615
1	0xbefba8c9	-0.4915221
2	0x3fa0dfe7	1.256833

beta f4 [3]
0	0x3e3a3e69	0.1818787
1	0xbee1ae6f	-0.44078395
2	0x3f9aa444	1.208138

beta f4 [3]
0	0x3df7eef2	0.12106122
1	0xbecd0f5a	-0.40050775
2	0x3f9d7e37	1.2304143

beta f4 [3]
0	0xbac2bb79	-0.0014856897
1	0xbebd3ee6	-0.3696205
2	0x3fa4c7b6	1.2873447

beta f4 [3]
0	0xbdfdeb5e	-0.12398408
1	0xbead3862	-0.3383208
2	0x3fad7a19	1.3552886

beta f4 [3]
0	0xbe68581c	-0.22689861
1	0xbe937419	-0.28799513
2	0x3fb6f2b1	1.4292814

beta f4 [3]
0	0xbe81e7bf	-0.2537212
1	0xbe5e007a	-0.2167987
2	0x3fc1560f	1.5104388

beta f4 [3]
0	0xbe55ec60	-0.20890951
1	0xbe151f0c	-0.14562625
2	0x3fcae3b5	1.5850741

beta f4 [3]
0	0xbdf40f6e	-0.119170055
1	0xbdb2f05d	-0.08737252
2	0x3fd1724d	1.6363007

beta f4 [3]
0	0xbc6aab4c	-0.014323067
1	0xbce3cb90	-0.027807027
2	0x3fd40785	1.6564795

beta f4 [3]
0	0x3d94e426	0.07270078
1	0x3d04f163	0.032456767
2	0x3fd2c84f	1.6467379

beta f4 [3]
0	0x3e07fb40	0.13279438
1	0x3de391ba	0.111117795
2	0x3fce9656	1.6139629

beta f4 [3]
0	0x3e1f517b	0.15558426
1	0x3e43f22a	0.19135347
2	0x3fc89488	1.5670328

beta f4 [3]
0	0x3e093259	0.13398112
1	0x3e807ed8	0.25096774
2	0x3fc24aaa	1.5179036

beta f4 [3]
0	0x3dab9bbe	0.08379315
1	0x3e8d75db	0.2762898
2	0x3fbce68f	1.4757861

beta f4 [3]
0	0x3cb33c10	0.021879226
1	0x3e8b7fc3	0.27245912
2	0x3fb8f605	1.4450079

beta f4 [3]
0	0xbd0caccc	-0.03434448
1	0x3e85b78f	0.26116607
2	0x3fb67537	1.4254521

beta f4 [3]
0	0xbdbe1bb8	-0.09282631
1	0x3e730e2c	0.23735875
2	0x3fb5c63e	1.4201124

beta f4 [3]
0	0xbe13b03a	-0.14422694
1	0x3e57c268	0.21070254
2	0x3fb6b15d	1.4272877

beta f4 [3]
0	0xbe403c61	-0.18773033
1	0x3e46f548	0.19429505
2	0x3fb8c1c4	1.4434133

beta f4 [3]
0	0xbe609295	-0.21930917
1	0x3e420557	0.1894735
2	0x3fbba799	1.4660522

beta f4 [3]
0	0xbe7f9440	-0.24958897
1	0x3e3b3fb4	0.1828602
2	0x3fbee56a	1.4913762

beta f4 [3]
0	0xbe89e358	-0.26931262
1	0x3e34019c	0.17578739
2	0x3fc20f05	1.5160834

beta f4 [3]
0	0xbe8b868c	-0.2725109
1	0x3e316dfe	0.17327115
2	0x3fc4b2e3	1.5367092

beta f4 [3]
0	0xbe859b71	-0.26095155
1	0x3e39d761	0.18148567
2	0x3fc65315	1.5494105

beta f4 [3]
0	0xbe780f83	-0.24224667
1	0x3e4ca692	0.19985417
2	0x3fc696db	1.5514787

beta f4 [3]
0	0xbe648fcf	-0.22320484
1	0x3e5ce885	0.21573074
2	0x3fc59c9d	1.543842

beta f4 [3]
0	0xbe57d3d2	-0.21076897
1	0x3e62245c	0.22084183
2	0x3fc3b7d4	1.5290475

beta f4 [3]
0	0xbe48fad9	-0.19626941
1	0x3e60cc58	0.21952951
2	0x3fc16ea1	1.5111886

beta f4 [3]
0	0xbe3cd8b4	-0.1844204
1	0x3e52bfc0	0.2058096
2	0x3fbf43a7	1.4942521

beta f4 [3]
0	0xbe336330	-0.17518306
1	0x3e3e00bf	0.18554972
2	0x3fbd8e6c	1.4809089

beta f4 [3]
0	0xbe28992b	-0.16464679
1	0x3e2bbb33	0.1677063
2	0x3fbc9160	1.4731865

beta f4 [3]
0	0xbe197317	-0.1498531
1	0x3e1c0678	0.15236843
2	0x3fbc8a06	1.4729621

beta f4 [3]
0	0xbe020ad5	-0.12699445
1	0x3e128ce8	0.14311564
2	0x3fbd78f0	1.4802532

beta f4 [3]
0	0xbdce8e7f	-0.10085773
1	0x3e13d3ae	0.14436218
2	0x3fbf1300	1.4927673

beta f4 [3]
0	0xbd9bf694	-0.076153904
1	0x3e0ef435	0.13960345
2	0x3fc13732	1.5094969

beta f4 [3]
0	0xbd6e25a9	-0.058141384
1	0x3df16898	0.11787528
2	0x3fc39997	1.5281247

beta f4 [3]
0	0xbd505329	-0.050860558
1	0x3da55b89	0.080740996
2	0x3fc5beeb	1.5448889

beta f4 [3]
0	0xbd6f0fcb	-0.05836467
1	0x3d1726bc	0.036902174
2	0x3fc72dd9	1.5560867

beta f4 [3]
0	0xbd925602	-0.07145311
1	0x3c03048d	0.00799669
2	0x3fc7aa67	1.5598878

beta f4 [3]
0	0xbda1ba14	-0.0789682
1	0x3b232146	0.0024891659
2	0x3fc75360	1.5572319

beta f4 [3]
0	0xbd93adc6	-0.07210879
1	0x3c56ca99	0.0131098265
2	0x3fc662fa	1.5498955

beta f4 [3]
0	0xbd597871	-0.053093378
1	0x3cd0751a	0.025446463
2	0x3fc50d68	1.5394716

beta f4 [3]
0	0xbd0f4151	-0.0349744
1	0x3d097855	0.033562023
2	0x3fc3908e	1.527849

beta f4 [3]
0	0xbd04bf05	-0.032408733
1	0x3d1d2317	0.038363542
2	0x3fc2398c	1.5173812

beta f4 [3]
0	0xbd45819c	-0.04821931
1	0x3d38d4cf	0.045124825
2	0x3fc1453e	1.5099256

beta f4 [3]
0	0xbd966e33	-0.073452376
1	0x3d6068c2	0.054787405
2	0x3fc0d49b	1.5064882

beta f4 [3]
0	0xbdc1362b	-0.0943416
1	0x3d8ad61c	0.06779119
2	0x3fc0f80f	1.5075701

beta f4 [3]
0	0xbdd2289c	-0.10261652
1	0x3da51996	0.08061521
2	0x3fc1ac0f	1.5130633

beta f4 [3]
0	0xbdcb7d04	-0.09935954
1	0x3dbdb19e	0.092623934
2	0x3fc2be84	1.5214391

beta f4 [3]
0	0xbdbe74c7	-0.09299617
1	0x3dd632f4	0.10458937
2	0x3fc3d953	1.5300697

beta f4 [3]
0	0xbdbcf66f	-0.09226691
1	0x3deedb6f	0.116629474
2	0x3fc4a9a4	1.536427

beta f4 [3]
0	0xbdcbd6ab	-0.09953054
1	0x3dfd0ad8	0.12355584
2	0x3fc50a26	1.5393722

beta f4 [3]
0	0xbde192a8	-0.110143006
1	0x3df47c3d	0.11937759
2	0x3fc5012c	1.5390983

beta f4 [3]
0	0xbdedc68d	-0.11610136
1	0x3dd81c40	0.10552263
2	0x3fc4a42b	1.53626

beta f4 [3]
0	0xbde5bc20	-0.112175226
1	0x3dbc6b18	0.09200114
2	0x3fc40a03	1.5315555

beta f4 [3]
0	0xbdcc0ee0	-0.09963775
1	0x3db3f263	0.08786466
2	0x3fc35004	1.5258794

beta f4 [3]
0	0xbdadb72e	-0.084822044
1	0x3dba9b5a	0.09111662
2	0x3fc29fb5	1.5204989

beta f4 [3]
0	0xbd987055	-0.07443301
1	0x3dbb5d4f	0.091486566
2	0x3fc22c68	1.5169802

beta f4 [3]
0	0xbd92aa6a	-0.0716141
1	0x3dab7191	0.083712704
2	0x3fc21664	1.5163083

beta f4 [3]
0	0xbd9911de	-0.07474111
1	0x3d8e453f	0.069468014
2	0x3fc25c89	1.518449

beta f4 [3]
0	0xbda08170	-0.07837188
1	0x3d698c0b	0.05701832
2	0x3fc2e3f1	1.5225812

beta f4 [3]
0	0xbda06c3e	-0.078331456
1	0x3d5ca701	0.053870205
2	0x3fc38943	1.5276264

beta f4 [3]
0	0xbd970954	-0.07374826
1	0x3d71db6c	0.059047148
2	0x3fc427b1	1.5324613

beta f4 [3]
0	0xbd8a6d10	-0.06759083
1	0x3d85c47f	0.06531619
2	0x3fc49cca	1.5360348

beta f4 [3]
0	0xbd84ba32	-0.064808264
1	0x3d8a185b	0.06742927
2	0x3fc4d079	1.5376121

beta f4 [3]
0	0xbd8bd22a	-0.06827195
1	0x3d8858e6	0.06657581
2	0x3fc4b7d2	1.5368598

beta f4 [3]
0	0xbd9c3532	-0.07627334
1	0x3d89a09b	0.06720086
2	0x3fc4596a	1.5339787

beta f4 [3]
0	0xbdab4f9e	-0.08364795
1	0x3d92164d	0.0713316
2	0x3fc3d299	1.5298644

beta f4 [3]
0	0xbdb1eba4	-0.08687523
1	0x3d9e37ed	0.07725511
2	0x3fc34c0c	1.5257583

beta f4 [3]
0	0xbdaf7b5a	-0.08568449
1	0x3da92e8a	0.0826083
2	0x3fc2e894	1.5227227

beta f4 [3]
0	0xbdab16bc	-0.083539456
1	0x3db24079	0.087037034
2	0x3fc2b7a2	1.521229

beta f4 [3]
0	0xbdace496	-0.08442037
1	0x3db71e1e	0.08941291
2	0x3fc2bb80	1.521347

beta f4 [3]
0	0xbdb6512c	-0.08902201
1	0x3dbac018	0.0911867
2	0x3fc2e8a3	1.5227245

beta f4 [3]
0	0xbdc1337c	-0.09433648
1	0x3dbc3bff	0.09191131
2	0x3fc33277	1.5249776

beta f4 [3]
0	0xbdc59174	-0.096468836
1	0x3db99cea	0.09063132
2	0x3fc38a51	1.5276586

beta f4 [3]
0	0xbdc07084	-0.09396461
1	0x3db54c5b	0.08852454
2	0x3fc3d99d	1.5300785

beta f4 [3]
0	0xbdb6270d	-0.08894167
1	0x3db3dae3	0.08781984
2	0x3fc40705	1.5314642

beta f4 [3]
0	0xbdade268	-0.08490449
1	0x3db4b40c	0.08823404
2	0x3fc40663	1.5314449

beta f4 [3]
0	0xbdab8308	-0.083746016
1	0x3db1a3a2	0.086737886
2	0x3fc3e010	1.5302753

beta f4 [3]
0	0xbdace3c6	-0.08441882
1	0x3dab3ed4	0.08361593
2	0x3fc3a425	1.5284468

beta f4 [3]
0	0xbdad3fe9	-0.084594555
1	0x3da0f522	0.078592554
2	0x3fc369fd	1.526672

beta f4 [3]
0	0xbda9cb12	-0.08290686
1	0x3d98bce8	0.07457906
2	0x3fc340ed	1.5254189

beta f4 [3]
0	0xbda423cd	-0.08014641
1	0x3d9832ac	0.0743154
2	0x3fc32f8a	1.5248883

beta f4 [3]
0	0xbda0071d	-0.07813857
1	0x3d9d2855	0.07673708
2	0x3fc33808	1.5251474

beta f4 [3]
0	0xbda01796	-0.07816999
1	0x3da03acb	0.07823714
2	0x3fc358de	1.5261495

beta f4 [3]
0	0xbda3fb7f	-0.080069534
1	0x3d9eeb4e	0.077597246
2	0x3fc38866	1.5276

beta f4 [3]
0	0xbda928ec	-0.08259758
1	0x3d9c95e1	0.07645775
2	0x3fc3b6e9	1.5290195

beta f4 [3]
0	0xbdacc0d3	-0.08435216
1	0x3d9f8bae	0.07790314
2	0x3fc3d444	1.5299153

beta f4 [3]
0	0xbdae063c	-0.08497283
1	0x3da389f2	0.07985295
2	0x3fc3dc1f	1.5301551

beta f4 [3]
0	0xbdae5027	-0.085113816
1	0x3da8c1a5	0.0824006
2	0x3fc3cbb7	1.5296544

beta f4 [3]
0	0xbdaf8344	-0.08569959
1	0x3daded42	0.08492519
2	0x3fc3a7e2	1.5285609

beta f4 [3]
0	0xbdb22d4e	-0.087000474
1	0x3db0aa59	0.08626241
2	0x3fc37c7e	1.5272367

beta f4 [3]
0	0xbdb504c6	-0.08838801
1	0x3db04dca	0.08608587
2	0x3fc3571f	1.5260962

beta f4 [3]
0	0xbdb63f76	-0.08898823
1	0x3daedf2c	0.085386604
2	0x3fc3415d	1.5254322

beta f4 [3]
0	0xbdb521aa	-0.088443115
1	0x3dae832a	0.08521111
2	0x3fc33f21	1.525364

beta f4 [3]
0	0xbdb2749a	-0.08713646
1	0x3daed50f	0.085367315
2	0x3fc34f6f	1.5258616

beta f4 [3]
0	0xbdafd575	-0.085856356
1	0x3dad9d00	0.08477211
2	0x3fc36d09	1.526765

beta f4 [3]
0	0xbdae729d	-0.085179545
1	0x3daa1448	0.083046496
2	0x3fc38ece	1.5277956

beta f4 [3]
0	0xbdae2808	-0.08503729
1	0x3da605ca	0.08106573
2	0x3fc3aa47	1.528634

beta f4 [3]
0	0xbdade000	-0.0848999
1	0x3da373fa	0.07981105
2	0x3fc3b83a	1.5290596

beta f4 [3]
0	0xbdaca28a	-0.08429439
1	0x3da28f2a	0.07937463
2	0x3fc3b713	1.5290245

beta f4 [3]
0	0xbdaab277	-0.08334821
1	0x3da26863	0.079300664
2	0x3fc3a993	1.5286125

beta f4 [3]
0	0xbda982f4	-0.082769305
1	0x3da26b8a	0.07930668
2	0x3fc394ac	1.5279746

beta f4 [3]
0	0xbdaa24c9	-0.083077975
1	0x3da2d927	0.07951575
2	0x3fc37e7a	1.5272973

beta f4 [3]
0	0xbdac26cc	-0.084058374
1	0x3da3d21c	0.079990596
2	0x3fc36da9	1.5267841

beta f4 [3]
0	0xbdae12f2	-0.08499707
1	0x3da517ba	0.08061166
2	0x3fc3676a	1.5265934

beta f4 [3]
0	0xbdaefeba	-0.08544679
1	0x3da69662	0.08134152
2	0x3fc36cb4	1.5267549

beta f4 [3]
0	0xbdaf2bb1	-0.08553255
1	0x3da8a5c4	0.08234742
2	0x3fc379c5	1.5271536

beta f4 [3]
0	0xbdaf6f94	-0.08566204
1	0x3daae3e4	0.08344248
2	0x3fc388d4	1.5276132

beta f4 [3]
0	0xbdb04819	-0.086075015
1	0x3dac0dc7	0.08401065
2	0x3fc394fb	1.527984

beta f4 [3]
0	0xbdb14d94	-0.08657375
1	0x3daba086	0.08380227
2	0x3fc39af9	1.5281669

beta f4 [3]
0	0xbdb1b20d	-0.086765386
1	0x3daa9eaa	0.08331044
2	0x3fc39947	1.5281152

beta f4 [3]
0	0xbdb10a04	-0.086444885
1	0x3daa2a57	0.08308857
2	0x3fc390cd	1.5278565

beta f4 [3]
0	0xbdafab20	-0.085775614
1	0x3daa0108	0.08300978
2	0x3fc38520	1.5275002

beta f4 [3]
0	0xbdae655e	-0.08515428
1	0x3da91f8e	0.08257972
2	0x3fc37ae2	1.5271876

beta f4 [3]
0	0xbdadcc59	-0.08486242
1	0x3da77314	0.08176246
2	0x3fc3756d	1.527021

beta f4 [3]
0	0xbdadd580	-0.084879875
1	0x3da5e744	0.08100751
2	0x3fc375f3	1.527037

beta f4 [3]
0	0xbdadd5e0	-0.08488059
1	0x3da5363a	0.080669835
2	0x3fc37c12	1.5272238

beta f4 [3]
0	0xbdad5e1e	-0.08465217
1	0x3da52f0e	0.080656156
2	0x3fc385f9	1.527526

beta f4 [3]
0	0xbdacc1bf	-0.08435392
1	0x3da5673a	0.080763295
2	0x3fc39043	1.52784

beta f4 [3]
0	0xbdacb539	-0.08433003
1	0x3da5cf44	0.080961734
2	0x3fc39716	1.5280483

beta f4 [3]
0	0xbdad7428	-0.08469421
1	0x3da662d1	0.081243165
2	0x3fc39829	1.528081

beta f4 [3]
0	0xbdae7904	-0.08519176
1	0x3da6ed95	0.08150784
2	0x3fc393d7	1.5279492

beta f4 [3]
0	0xbdaf14e7	-0.08548909
1	0x3da76ecd	0.081754304
2	0x3fc38c34	1.5277162

beta f4 [3]
0	0xbdaf271b	-0.08552381
1	0x3da82a60	0.082112074
2	0x3fc383af	1.5274562

beta f4 [3]
0	0xbdaf14f0	-0.085489154
1	0x3da91295	0.08255497
2	0x3fc37cb6	1.5272434

beta f4 [3]
0	0xbdaf3006	-0.085540816
1	0x3da99d0f	0.0828191
2	0x3fc37967	1.5271424

beta f4 [3]
0	0xbdaf7f94	-0.085692555
1	0x3da96585	0.082713164
2	0x3fc37ab0	1.5271816

beta f4 [3]
0	0xbdafb49f	-0.085793726
1	0x3da8d5f2	0.08243932
2	0x3fc37f9f	1.5273322

beta f4 [3]
0	0xbdaf93fd	-0.085731484
1	0x3da87ba6	0.08226709
2	0x3fc38612	1.527529

beta f4 [3]
0	0xbdaf117c	-0.08548257
1	0x3da85505	0.08219341
2	0x3fc38be6	1.5277069

beta f4 [3]
0	0xbdae7677	-0.08518689
1	0x3da7f84a	0.08201654
2	0x3fc38f7a	1.527816

beta f4 [3]
0	0xbdae1afe	-0.08501242
1	0x3da75ad3	0.0817162
2	0x3fc38fd6	1.527827

beta f4 [3]
0	0xbdae1510	-0.08500111
1	0x3da6d362	0.08145787
2	0x3fc38d12	1.5277426

beta f4 [3]
0	0xbdae2482	-0.08503057
1	0x3da693b4	0.08133641
2	0x3fc3889f	1.5276068

beta f4 [3]
0	0xbdae0b76	-0.0849828
1	0x3da68972	0.08131684
2	0x3fc3847e	1.5274808

beta f4 [3]
0	0xbdadde77	-0.084896974
1	0x3da6aca1	0.08138395
2	0x3fc38216	1.5274074

beta f4 [3]
0	0xbdade570	-0.08491027
1	0x3da701cc	0.081546396
2	0x3fc381d4	1.5273995

beta f4 [3]
0	0xbdae3ae7	-0.085073285
1	0x3da76152	0.08172859
2	0x3fc38382	1.5274508

beta f4 [3]
0	0xbdaeaa74	-0.08528605
1	0x3da79d5b	0.0818431
2	0x3fc38671	1.5275403

beta f4 [3]
0	0xbdaef332	-0.085424796
1	0x3da7ccb0	0.08193338
2	0x3fc3896d	1.5276314

beta f4 [3]
0	0xbdaf0100	-0.085451126
1	0x3da821e9	0.08209593
2	0x3fc38b24	1.5276837

beta f4 [3]
0	0xbdaef4ba	-0.08542772
1	0x3da87b0d	0.08226595
2	0x3fc38b03	1.5276798

beta f4 [3]
0	0xbdaef4a7	-0.085427575
1	0x3da8864a	0.082287386
2	0x3fc3894b	1.5276273

beta f4 [3]
0	0xbdaf033f	-0.08545541
1	0x3da8430a	0.08215912
2	0x3fc386be	1.5275495

beta f4 [3]
0	0xbdaf01a6	-0.08545236
1	0x3da7ff66	0.0820301
2	0x3fc38451	1.5274755

beta f4 [3]
0	0xbdaed56e	-0.08536802
1	0x3da7ddd8	0.0819661
2	0x3fc382ed	1.527433

beta f4 [3]
0	0xbdae8ce6	-0.08522968
1	0x3da7b963	0.081896566
2	0x3fc3832a	1.5274403

beta f4 [3]
0	0xbdae5318	-0.085119426
1	0x3da780b6	0.081788465
2	0x3fc384d6	1.5274913

beta f4 [3]
0	0xbdae48b5	-0.085099615
1	0x3da74d96	0.08169095
2	0x3fc38727	1.527562

beta f4 [3]
0	0xbdae5b94	-0.08513561
1	0x3da7330e	0.08164035
2	0x3fc38942	1.5276263

beta f4 [3]
0	0xbdae6344	-0.08515027
1	0x3da72c93	0.08162799
2	0x3fc38a89	1.5276653

beta f4 [3]
0	0xbdae571b	-0.08512708
1	0x3da73e3f	0.081661694
2	0x3fc38a9b	1.5276674

beta f4 [3]
0	0xbdae5457	-0.0851218
1	0x3da76cd6	0.08175056
2	0x3fc3896f	1.5276316

beta f4 [3]
0	0xbdae7189	-0.08517749
1	0x3da79d94	0.081843525
2	0x3fc38784	1.5275731

beta f4 [3]
0	0xbdaea0d7	-0.085267715
1	0x3da7b42c	0.08188662
2	0x3fc385ab	1.5275167

beta f4 [3]
0	0xbdaec67a	-0.0853395
1	0x3da7bfd9	0.08190889
2	0x3fc38489	1.5274822

beta f4 [3]
0	0xbdaecf4f	-0.08535635
1	0x3da7e164	0.08197287
2	0x3fc38462	1.5274775

beta f4 [3]
0	0xbdaec492	-0.085335866
1	0x3da8078a	0.08204563
2	0x3fc38525	1.5275007

beta f4 [3]
0	0xbdaebcc0	-0.08532095
1	0x3da808f3	0.08204832
2	0x3fc3867a	1.5275414

beta f4 [3]
0	0xbdaec128	-0.085329354
1	0x3da7e8e8	0.0819872
2	0x3fc387cb	1.5275816

beta f4 [3]
0	0xbdaec399	-0.08533401
1	0x3da7ca68	0.08192903
2	0x3fc38892	1.5276053

beta f4 [3]
0	0xbdaeb14b	-0.0852991
1	0x3da7b78f	0.08189308
2	0x3fc388a2	1.5276072

beta f4 [3]
0	0xbdae8e5b	-0.08523246
1	0x3da7a28b	0.081852995
2	0x3fc3881a	1.527591

beta f4 [3]
0	0xbdae7064	-0.085175306
1	0x3da78e45	0.08181433
2	0x3fc3873d	1.5275646

beta f4 [3]
0	0xbdae6c25	-0.08516721
1	0x3da77f98	0.081786335
2	0x3fc38661	1.5275384

beta f4 [3]
0	0xbdae78e7	-0.08519154
1	0x3da773ae	0.08176361
2	0x3fc385e8	1.527524

beta f4 [3]
0	0xbdae8084	-0.08520606
1	0x3da76f16	0.08175485
2	0x3fc38609	1.5275279

beta f4 [3]
0	0xbdae7d8e	-0.085200414
1	0x3da77f94	0.081786305
2	0x3fc3869d	1.5275456

beta f4 [3]
0	0xbdae7e4a	-0.085201815
1	0x3da79edf	0.08184599
2	0x3fc38753	1.5275673

beta f4 [3]
0	0xbdae8d75	-0.085230745
1	0x3da7b3b0	0.081885695
2	0x3fc387e2	1.5275843

beta f4 [3]
0	0xbdaea467	-0.08527451
1	0x3da7b801	0.08189393
2	0x3fc38814	1.5275903

beta f4 [3]
0	0xbdaeb6e6	-0.08530979
1	0x3da7bc9e	0.08190273
2	0x3fc387cd	1.5275818

beta f4 [3]
0	0xbdaeb7dc	-0.08531162
1	0x3da7cbc6	0.081931636
2	0x3fc38735	1.5275637

beta f4 [3]
0	0xbdaeac13	-0.08528914
1	0x3da7d54b	0.08194979
2	0x3fc38693	1.5275444

beta f4 [3]
0	0xbdaea3fe	-0.08527373
1	0x3da7cddc	0.081935614
2	0x3fc38625	1.5275313

beta f4 [3]
0	0xbdaea614	-0.08527771
1	0x3da7be6a	0.081906155
2	0x3fc3860d	1.5275284

beta f4 [3]
0	0xbdaea798	-0.0852806
1	0x3da7b055	0.081879295
2	0x3fc38653	1.5275367

beta f4 [3]
0	0xbdae9d5e	-0.08526109
1	0x3da7a44f	0.08185636
2	0x3fc386db	1.527553

beta f4 [3]
0	0xbdae8ce1	-0.08522964
1	0x3da79d19	0.08184261
2	0x3fc3876d	1.5275704

beta f4 [3]
0	0xbdae80ea	-0.08520682
1	0x3da79da8	0.081843674
2	0x3fc387cb	1.5275816

beta f4 [3]
0	0xbdae82d4	-0.08521047
1	0x3da79a54	0.08183733
2	0x3fc387d5	1.5275828

beta f4 [3]
0	0xbdae8c1f	-0.0852282
1	0x3da791df	0.081821196
2	0x3fc38795	1.5275751

beta f4 [3]
0	0xbdae910a	-0.08523758
1	0x3da79349	0.08182389
2	0x3fc3872c	1.5275626

beta f4 [3]
0	0xbdae8eee	-0.085233554
1	0x3da7a222	0.08185221
2	0x3fc386c5	1.5275503

beta f4 [3]
0	0xbdae8e12	-0.085231915
1	0x3da7af76	0.081877634
2	0x3fc38689	1.5275432

beta f4 [3]
0	0xbdae9576	-0.08524601
1	0x3da7b2ce	0.08188401
2	0x3fc3868a	1.5275433

beta f4 [3]
0	0xbdaea0f0	-0.0852679
1	0x3da7b44b	0.08188685
2	0x3fc386bb	1.5275491

beta f4 [3]
0	0xbdaeaa08	-0.08528525
1	0x3da7b5fa	0.08189006
2	0x3fc38701	1.5275575

beta f4 [3]
0	0xbdaea7a1	-0.085280664
1	0x3da7b870	0.081894755
2	0x3fc38742	1.5275652

beta f4 [3]
0	0xbdae9ef7	-0.08526414
1	0x3da7ba4c	0.0818983
2	0x3fc38761	1.5275689

beta f4 [3]
0	0xbdae9b2d	-0.08525691
1	0x3da7b866	0.08189468
2	0x3fc38751	1.527567

beta f4 [3]
0	0xbdae9932	-0.085253134
1	0x3da7b32c	0.08188471
2	0x3fc3871f	1.5275611

beta f4 [3]
0	0xbdae9702	-0.08524896
1	0x3da7a9e4	0.08186701
2	0x3fc386eb	1.5275549

beta f4 [3]
0	0xbdae92fe	-0.0852413
1	0x3da7a3b4	0.08185521
2	0x3fc386c8	1.5275507

beta f4 [3]
0	0xbdae8ec0	-0.08523321
1	0x3da7a300	0.08185387
2	0x3fc386c6	1.5275505

beta f4 [3]
0	0xbdae8cca	-0.08522947
1	0x3da7a253	0.08185258
2	0x3fc386e5	1.5275542

beta f4 [3]
0	0xbdae8e72	-0.08523263
1	0x3da7a047	0.08184867
2	0x3fc38717	1.5275601

beta f4 [3]
0	0xbdae91b0	-0.085238814
1	0x3da7a210	0.08185208
2	0x3fc38742	1.5275652

beta f4 [3]
0	0xbdae93f8	-0.085243165
1	0x3da7a77c	0.08186242
2	0x3fc38751	1.527567

beta f4 [3]
0	0xbdae94e7	-0.085244946
1	0x3da7abe6	0.08187084
2	0x3fc38747	1.5275658

beta f4 [3]
0	0xbdae969e	-0.08524822
1	0x3da7aef4	0.081876665
2	0x3fc38724	1.5275617

beta f4 [3]
0	0xbdae99b7	-0.085254125
1	0x3da7b201	0.081882484
2	0x3fc386f4	1.527556

beta f4 [3]
0	0xbdae9bc3	-0.08525803
1	0x3da7b32f	0.081884734
2	0x3fc386d4	1.5275521

beta f4 [3]
0	0xbdae9af8	-0.08525652
1	0x3da7b22d	0.08188281
2	0x3fc386cd	1.5275513

beta f4 [3]
0	0xbdae9d77	-0.08526128
1	0x3da7ae81	0.08187581
2	0x3fc386dc	1.5275531

beta f4 [3]
0	0xbdae9ea5	-0.08526353
1	0x3da7acac	0.081872314
2	0x3fc386fa	1.5275567

beta f4 [3]
0	0xbdae96f9	-0.085248895
1	0x3da7af18	0.08187693
2	0x3fc3871d	1.5275608

beta f4 [3]
0	0xbdae902a	-0.08523591
1	0x3da7ae96	0.081875965
2	0x3fc38736	1.5275638

beta f4 [3]
0	0xbdae91b6	-0.08523886
1	0x3da7aa5f	0.081867926
2	0x3fc38738	1.527564

beta f4 [3]
0	0xbdae96ca	-0.085248545
1	0x3da7a5ac	0.08185896
2	0x3fc38724	1.5275617

beta f4 [3]
0	0xbdae967a	-0.08524795
1	0x3da7a410	0.08185589
2	0x3fc3870a	1.5275586

beta f4 [3]
0	0xbdae913d	-0.08523796
1	0x3da7a753	0.081862114
2	0x3fc386f8	1.5275564

beta f4 [3]
0	0xbdae8f42	-0.08523418
1	0x3da7ab55	0.08186976
2	0x3fc386ef	1.5275553

beta f4 [3]
0	0xbdae93da	-0.08524294
1	0x3da7ab03	0.08186915
2	0x3fc386f5	1.5275561

beta f4 [3]
0	0xbdae9934	-0.08525315
1	0x3da7a916	0.081865475
2	0x3fc38705	1.527558

beta f4 [3]
0	0xbdae9940	-0.08525324
1	0x3da7aba3	0.08187034
2	0x3fc38715	1.5275599

beta f4 [3]
0	0xbdae95d4	-0.08524671
1	0x3da7b08a	0.08187969
2	0x3fc38720	1.5275612

beta f4 [3]
0	0xbdae950c	-0.08524522
1	0x3da7b145	0.08188108
2	0x3fc38720	1.5275612

beta f4 [3]
0	0xbdae982a	-0.08525117
1	0x3da7ae4a	0.0818754
2	0x3fc38713	1.5275596

beta f4 [3]
0	0xbdae9a32	-0.08525504
1	0x3da7ac47	0.08187156
2	0x3fc38703	1.5275577

beta f4 [3]
0	0xbdae977f	-0.08524989
1	0x3da7ac73	0.08187189
2	0x3fc386f8	1.5275564

beta f4 [3]
0	0xbdae937a	-0.08524223
1	0x3da7aca3	0.08187225
2	0x3fc386f7	1.5275563

beta f4 [3]
0	0xbdae92fd	-0.085241295
1	0x3da7abb0	0.08187044
2	0x3fc386fd	1.527557

beta f4 [3]
0	0xbdae958f	-0.0852462
1	0x3da7a93f	0.08186578
2	0x3fc3870a	1.5275586

beta f4 [3]
0	0xbdae9671	-0.08524788
1	0x3da7a7ba	0.08186288
2	0x3fc38718	1.5275602

beta f4 [3]
0	0xbdae9456	-0.085243866
1	0x3da7a970	0.081866145
2	0x3fc38720	1.5275612

beta f4 [3]
0	0xbdae92ca	-0.085240915
1	0x3da7abbc	0.081870526
2	0x3fc3871e	1.527561

beta f4 [3]
0	0xbdae9477	-0.08524411
1	0x3da7ab85	0.08187012
2	0x3fc38713	1.5275596

beta f4 [3]
0	0xbdae9744	-0.085249454
1	0x3da7aa83	0.081868194
2	0x3fc38706	1.5275581

beta f4 [3]
0	0xbdae97a0	-0.08525014
1	0x3da7abbf	0.08187055
2	0x3fc386fd	1.527557

beta f4 [3]
0	0xbdae95ee	-0.085246906
1	0x3da7adc0	0.08187437
2	0x3fc386fc	1.5275569

beta f4 [3]
0	0xbdae9532	-0.085245505
1	0x3da7ae39	0.08187527
2	0x3fc38700	1.5275574

beta f4 [3]
0	0xbdae96d4	-0.08524862
1	0x3da7ad1c	0.08187315
2	0x3fc38709	1.5275584

beta f4 [3]
0	0xbdae97f3	-0.08525076
1	0x3da7abfe	0.08187102
2	0x3fc3870f	1.5275592

beta f4 [3]
0	0xbdae9697	-0.085248165
1	0x3da7abe4	0.081870824
2	0x3fc38715	1.5275599

beta f4 [3]
0	0xbdae94ab	-0.0852445
1	0x3da7ac49	0.08187158
2	0x3fc38715	1.5275599

beta f4 [3]
0	0xbdae9488	-0.08524424
1	0x3da7abd8	0.081870735
2	0x3fc3870f	1.5275592

beta f4 [3]
0	0xbdae95b4	-0.08524647
1	0x3da7aa29	0.08186752
2	0x3fc38709	1.5275584

beta f4 [3]
0	0xbdae95f0	-0.08524692
1	0x3da7a9bd	0.08186672
2	0x3fc38703	1.5275577

beta f4 [3]
0	0xbdae94fb	-0.085245095
1	0x3da7aad4	0.0818688
2	0x3fc38704	1.5275578

beta f4 [3]
0	0xbdae9454	-0.08524385
1	0x3da7ab9a	0.08187027
2	0x3fc38708	1.5275583

beta f4 [3]
0	0xbdae9545	-0.08524565
1	0x3da7ab94	0.08187023
2	0x3fc3870c	1.5275588

beta f4 [3]
0	0xbdae96a3	-0.085248254
1	0x3da7ab60	0.08186984
2	0x3fc3870f	1.5275592

beta f4 [3]
0	0xbdae96aa	-0.08524831
1	0x3da7abdf	0.08187079
2	0x3fc38711	1.5275594

beta f4 [3]
0	0xbdae95d6	-0.08524673
1	0x3da7acc7	0.081872515
2	0x3fc3870f	1.5275592

beta f4 [3]
0	0xbdae9598	-0.085246265
1	0x3da7acf9	0.08187289
2	0x3fc3870c	1.5275588

beta f4 [3]
0	0xbdae965a	-0.08524771
1	0x3da7ac42	0.081871524
2	0x3fc38708	1.5275583

beta f4 [3]
0	0xbdae96b8	-0.08524841
1	0x3da7aba7	0.08187037
2	0x3fc38706	1.5275581

beta f4 [3]
0	0xbdae95e3	-0.085246824
1	0x3da7abd0	0.081870675
2	0x3fc38705	1.527558

beta f4 [3]
0	0xbdae9515	-0.08524529
1	0x3da7abfe	0.08187102
2	0x3fc38709	1.5275584

beta f4 [3]
0	0xbdae9548	-0.08524567
1	0x3da7ab6f	0.08186995
2	0x3fc3870c	1.5275588

beta f4 [3]
0	0xbdae95c4	-0.08524659
1	0x3da7aae4	0.08186892
2	0x3fc3870f	1.5275592

beta f4 [3]
0	0xbdae95c4	-0.08524659
1	0x3da7aae5	0.081868924
2	0x3fc3870f	1.5275592

beta f4 [3]
0	0xbdae9542	-0.085245624
1	0x3da7ab74	0.08186999
2	0x3fc3870f	1.5275592

beta f4 [3]
0	0xbdae9528	-0.08524543
1	0x3da7abca	0.08187063
2	0x3fc3870c	1.5275588

beta f4 [3]
0	0xbdae95d3	-0.085246705
1	0x3da7ab90	0.0818702
2	0x3fc38709	1.5275584

beta f4 [3]
0	0xbdae964b	-0.0852476
1	0x3da7ab8a	0.08187015
2	0x3fc38708	1.5275583

beta f4 [3]
0	0xbdae960a	-0.085247114
1	0x3da7ac18	0.08187121
2	0x3fc38708	1.5275583

beta f4 [3]
0	0xbdae959a	-0.08524628
1	0x3da7ac60	0.08187175
2	0x3fc3870b	1.5275587

beta f4 [3]
0	0xbdae95d3	-0.085246705
1	0x3da7ac24	0.0818713
2	0x3fc3870d	1.5275589

beta f4 [3]
0	0xbdae963e	-0.0852475
1	0x3da7abe2	0.08187081
2	0x3fc3870d	1.5275589

beta f4 [3]
0	0xbdae9621	-0.085247286
1	0x3da7ab9e	0.0818703
2	0x3fc3870d	1.5275589

beta f4 [3]
0	0xbdae957c	-0.08524606
1	0x3da7abb1	0.081870444
2	0x3fc3870c	1.5275588

beta f4 [3]
0	0xbdae9552	-0.08524574
1	0x3da7abd3	0.0818707
2	0x3fc38709	1.5275584

beta f4 [3]
0	0xbdae95a8	-0.085246384
1	0x3da7ab5d	0.08186982
2	0x3fc38709	1.5275584

beta f4 [3]
0	0xbdae95e5	-0.08524684
1	0x3da7aafe	0.08186911
2	0x3fc38709	1.5275584

beta f4 [3]
0	0xbdae95a6	-0.08524637
1	0x3da7ab8a	0.08187015
2	0x3fc3870b	1.5275587

beta f4 [3]
0	0xbdae9556	-0.08524577
1	0x3da7abd2	0.08187069
2	0x3fc3870d	1.5275589

beta f4 [3]
0	0xbdae95aa	-0.0852464
1	0x3da7abb7	0.08187049
2	0x3fc3870d	1.5275589

beta f4 [3]
0	0xbdae9613	-0.08524718
1	0x3da7abca	0.08187063
2	0x3fc3870c	1.5275588

beta f4 [3]
0	0xbdae9620	-0.08524728
1	0x3da7abd1	0.08187068
2	0x3fc3870b	1.5275587

beta f4 [3]
0	0xbdae95c4	-0.08524659
1	0x3da7abe2	0.08187081
2	0x3fc3870b	1.5275587

beta f4 [3]
0	0xbdae958e	-0.08524619
1	0x3da7ac2b	0.08187135
2	0x3fc38709	1.5275584

beta f4 [3]
0	0xbdae95ed	-0.0852469
1	0x3da7abdb	0.08187076
2	0x3fc38709	1.5275584

beta f4 [3]
0	0xbdae9605	-0.08524708
1	0x3da7ab7a	0.081870034
2	0x3fc3870b	1.5275587

beta f4 [3]
0	0xbdae95cb	-0.085246645
1	0x3da7abaa	0.08187039
2	0x3fc3870c	1.5275588

beta f4 [3]
0	0xbdae9564	-0.08524588
1	0x3da7abcd	0.08187065
2	0x3fc3870c	1.5275588

beta f4 [3]
0	0xbdae958b	-0.08524617
1	0x3da7ab70	0.08186996
2	0x3fc3870d	1.5275589

beta f4 [3]
0	0xbdae95d9	-0.08524675
1	0x3da7ab76	0.081870005
2	0x3fc3870b	1.5275587

beta f4 [3]
0	0xbdae95d1	-0.08524669
1	0x3da7ab9a	0.08187027
2	0x3fc3870b	1.5275587

beta f4 [3]
0	0xbdae9591	-0.08524621
1	0x3da7ab9b	0.08187028
2	0x3fc3870b	1.5275587

beta f4 [3]
0	0xbdae9590	-0.085246205
1	0x3da7abd1	0.08187068
2	0x3fc3870b	1.5275587

beta f4 [3]
0	0xbdae95f6	-0.085246965
1	0x3da7abd0	0.081870675
2	0x3fc3870b	1.5275587

beta f4 [3]
0	0xbdae960d	-0.08524714
1	0x3da7aba2	0.08187033
2	0x3fc38709	1.5275584

beta f4 [3]
0	0xbdae95c4	-0.08524659
1	0x3da7abf6	0.08187096
2	0x3fc3870b	1.5275587

beta f4 [3]
0	0xbdae95b2	-0.08524646
1	0x3da7ac10	0.08187115
2	0x3fc3870c	1.5275588

beta f4 [3]
0	0xbdae95df	-0.085246794
1	0x3da7abbc	0.081870526
2	0x3fc3870c	1.5275588

beta f4 [3]
0	0xbdae95f8	-0.08524698
1	0x3da7ab98	0.08187026
2	0x3fc3870c	1.5275588

beta f4 [3]
0	0xbdae95ca	-0.08524664
1	0x3da7aba9	0.081870385
2	0x3fc3870b	1.5275587

beta f4 [3]
0	0xbdae9582	-0.0852461
1	0x3da7abb1	0.081870444
2	0x3fc3870b	1.5275587

beta f4 [3]
0	0xbdae9589	-0.08524615
1	0x3da7ab94	0.08187023
2	0x3fc3870b	1.5275587

beta f4 [3]
0	0xbdae95d2	-0.0852467
1	0x3da7aba2	0.08187033
2	0x3fc3870b	1.5275587

beta f4 [3]
0	0xbdae95ec	-0.08524689
1	0x3da7ab82	0.081870094
2	0x3fc3870b	1.5275587

beta f4 [3]
0	0xbdae959e	-0.08524631
1	0x3da7abaa	0.08187039
2	0x3fc3870b	1.5275587

beta f4 [3]
0	0xbdae95a6	-0.08524637
1	0x3da7ac02	0.08187105
2	0x3fc3870b	1.5275587

beta f4 [3]
0	0xbdae95ea	-0.085246876
1	0x3da7aba9	0.081870385
2	0x3fc38709	1.5275584

beta f4 [3]
0	0xbdae8afa	-0.085226014
1	0x3da7b20e	0.08188258
2	0x3fc387cc	1.5275817

beta f4 [3]
0	0xbdae7f72	-0.08520402
1	0x3da7b5c4	0.08188966
2	0x3fc38913	1.5276207

beta f4 [3]
0	0xbdae6f48	-0.08517319
1	0x3da7b9b0	0.08189714
2	0x3fc38b2d	1.5276848

beta f4 [3]
0	0xbdae5da6	-0.08513956
1	0x3da7bfff	0.08190917
2	0x3fc38da0	1.5277596

beta f4 [3]
0	0xbdae4aac	-0.08510336
1	0x3da7c628	0.08192092
2	0x3fc390e1	1.5278589

beta f4 [3]
0	0xbdae3328	-0.08505851
1	0x3da7cd54	0.0819346
2	0x3fc39496	1.527972

beta f4 [3]
0	0xbdae1d1f	-0.08501648
1	0x3da7cb64	0.081930906
2	0x3fc398dc	1.5281024

beta f4 [3]
0	0xbdae02db	-0.084966384
1	0x3da7c78e	0.08192359
2	0x3fc39dab	1.5282491

beta f4 [3]
0	0xbdade59e	-0.08491062
1	0x3da7c49c	0.08191797
2	0x3fc3a2e6	1.5284088

beta f4 [3]
0	0xbdadc964	-0.08485678
1	0x3da7c417	0.08191698
2	0x3fc3a833	1.5285705

beta f4 [3]
0	0xbdadaddf	-0.08480429
1	0x3da7c4b8	0.08191818
2	0x3fc3adc2	1.5287402

beta f4 [3]
0	0xbdad91bb	-0.084750615
1	0x3da7c683	0.0819216
2	0x3fc3b375	1.5289141

beta f4 [3]
0	0xbdad75ea	-0.08469756
1	0x3da7c677	0.08192151
2	0x3fc3b96a	1.5290959

beta f4 [3]
0	0xbdad5594	-0.08463588
1	0x3da7ca52	0.081928864
2	0x3fc3bf99	1.5292846

beta f4 [3]
0	0xbdad338c	-0.084570974
1	0x3da7cf6f	0.08193862
2	0x3fc3c608	1.5294809

beta f4 [3]
0	0xbdad0df8	-0.0844993
1	0x3da7d5d4	0.08195081
2	0x3fc3ccc1	1.5296861

beta f4 [3]
0	0xbdace645	-0.08442358
1	0x3da7dcc2	0.08196403
2	0x3fc3d3b5	1.5298983

beta f4 [3]
0	0xbdacc2f3	-0.08435621
1	0x3da7df0b	0.08196839
2	0x3fc3dae7	1.5301179

beta f4 [3]
0	0xbdaca324	-0.08429554
1	0x3da7de3f	0.08196687
2	0x3fc3e25e	1.5303457

beta f4 [3]
0	0xbdac8702	-0.08424188
1	0x3da7dcc6	0.08196406
2	0x3fc3ea1e	1.5305822

beta f4 [3]
0	0xbdac6bda	-0.084190086
1	0x3da7da88	0.081959784
2	0x3fc3f1fe	1.5308225

beta f4 [3]
0	0xbdac49ac	-0.08412489
1	0x3da7deb6	0.081967756
2	0x3fc3f9d5	1.5310618

beta f4 [3]
0	0xbdac2b42	-0.08406688
1	0x3da7e36a	0.08197673
2	0x3fc40189	1.5312968

beta f4 [3]
0	0xbdac0c08	-0.08400732
1	0x3da7e68d	0.08198271
2	0x3fc4093f	1.5315322

beta f4 [3]
0	0xbdabe7d7	-0.08393829
1	0x3da7ecd0	0.08199465
2	0x3fc4112e	1.5317743

beta f4 [3]
0	0xbdabc253	-0.08386674
1	0x3da7f58a	0.0820113
2	0x3fc41913	1.5320152

beta f4 [3]
0	0xbdab9bf3	-0.08379354
1	0x3da7fbca	0.08202322
2	0x3fc42141	1.5322648

beta f4 [3]
0	0xbdab7668	-0.083721936
1	0x3da8010b	0.08203324
2	0x3fc4297a	1.5325158

beta f4 [3]
0	0xbdab4cd9	-0.08364267
1	0x3da80838	0.082046926
2	0x3fc431b8	1.5327673

beta f4 [3]
0	0xbdab254e	-0.08356725
1	0x3da80ebf	0.082059376
2	0x3fc43a2a	1.533025

beta f4 [3]
0	0xbdab0096	-0.08349721
1	0x3da8144c	0.08206996
2	0x3fc442ca	1.5332882

beta f4 [3]
0	0xbdaad8b1	-0.08342112
1	0x3da81c07	0.08208471
2	0x3fc44b6f	1.533552

beta f4 [3]
0	0xbdaaac6c	-0.08333668
1	0x3da827b6	0.08210699
2	0x3fc45445	1.5338217

beta f4 [3]
0	0xbdaa7ae4	-0.08324221
1	0x3da8353e	0.0821328
2	0x3fc45d2d	1.5340935

beta f4 [3]
0	0xbdaa4a8b	-0.08314999
1	0x3da840cc	0.08215484
2	0x3fc465f1	1.534361

beta f4 [3]
0	0xbdaa1869	-0.08305437
1	0x3da84f07	0.08218198
2	0x3fc46eae	1.5346277

beta f4 [3]
0	0xbda9e81b	-0.08296224
1	0x3da85ebe	0.08221196
2	0x3fc47777	1.5348958

beta f4 [3]
0	0xbda9b535	-0.082865156
1	0x3da86de4	0.08224085
2	0x3fc4808b	1.5351728

beta f4 [3]
0	0xbda9849b	-0.082772456
1	0x3da87b9c	0.082267016
2	0x3fc4898c	1.5354476

beta f4 [3]
0	0xbda9569e	-0.08268474
1	0x3da88539	0.08228535
2	0x3fc4926d	1.5357186

beta f4 [3]
0	0xbda92706	-0.08259396
1	0x3da89115	0.08230797
2	0x3fc49b75	1.5359942

beta f4 [3]
0	0xbda8fbee	-0.08251177
1	0x3da89cc4	0.08233026
2	0x3fc4a439	1.5362617

beta f4 [3]
0	0xbda8ce43	-0.08242466
1	0x3da8a6ca	0.082349375
2	0x3fc4ad26	1.5365341

beta f4 [3]
0	0xbda89ea2	-0.08233382
1	0x3da8b2be	0.08237217
2	0x3fc4b5d7	1.5367993

beta f4 [3]
0	0xbda868fd	-0.0822315
1	0x3da8c28c	0.08240232
2	0x3fc4be6a	1.537061

beta f4 [3]
0	0xbda83008	-0.08212286
1	0x3da8d2bc	0.082433194
2	0x3fc4c701	1.5373231

beta f4 [3]
0	0xbda7f636	-0.08201258
1	0x3da8e531	0.0824684
2	0x3fc4cf7f	1.5375823

beta f4 [3]
0	0xbda7c090	-0.08191025
1	0x3da8f602	0.08250047
2	0x3fc4d7fb	1.5378412

beta f4 [3]
0	0xbda78a36	-0.081806585
1	0x3da90a68	0.08253938
2	0x3fc4e044	1.538094

beta f4 [3]
0	0xbda7597a	-0.08171363
1	0x3da91aa8	0.082570374
2	0x3fc4e86e	1.5383432

beta f4 [3]
0	0xbda728bd	-0.08162067
1	0x3da92a7d	0.08260057
2	0x3fc4f07f	1.5385894

beta f4 [3]
0	0xbda6fe24	-0.08153942
1	0x3da9347f	0.08261966
2	0x3fc4f874	1.5388322

beta f4 [3]
0	0xbda6ce70	-0.081448436
1	0x3da9404e	0.08264218
2	0x3fc5007e	1.5390775

beta f4 [3]
0	0xbda69dbc	-0.08135554
1	0x3da94efe	0.0826702
2	0x3fc5086d	1.5393196

beta f4 [3]
0	0xbda66ff5	-0.08126823
1	0x3da95d80	0.08269787
2	0x3fc51091	1.5395681

beta f4 [3]
0	0xbda642c4	-0.08118203
1	0x3da96cc0	0.082726955
2	0x3fc5186b	1.5398077

beta f4 [3]
0	0xbda61814	-0.08110061
1	0x3da975f6	0.082744524
2	0x3fc5205e	1.5400503

beta f4 [3]
0	0xbda5ec4e	-0.08101712
1	0x3da98083	0.08276465
2	0x3fc52839	1.54029

beta f4 [3]
0	0xbda5bed0	-0.08093035
1	0x3da98d9a	0.082789615
2	0x3fc5307a	1.5405419

beta f4 [3]
0	0xbda58fe8	-0.080840886
1	0x3da99d93	0.08282008
2	0x3fc538d8	1.5407972

beta f4 [3]
0	0xbda55d2f	-0.08074414
1	0x3da9ae2e	0.08285175
2	0x3fc540d5	1.541041

beta f4 [3]
0	0xbda52a4d	-0.08064709
1	0x3da9bc2e	0.082878456
2	0x3fc548c2	1.5412829

beta f4 [3]
0	0xbda4f1f3	-0.08053961
1	0x3da9ce1a	0.08291264
2	0x3fc550bd	1.5415264

beta f4 [3]
0	0xbda4b9bc	-0.080432385
1	0x3da9e22d	0.08295093
2	0x3fc558a7	1.541768

beta f4 [3]
0	0xbda47f62	-0.08032109
1	0x3da9f91c	0.08299467
2	0x3fc56083	1.5420078

beta f4 [3]
0	0xbda44146	-0.080202624
1	0x3daa1558	0.08304852
2	0x3fc56864	1.5422482

beta f4 [3]
0	0xbda40245	-0.080082454
1	0x3daa32ee	0.08310495
2	0x3fc57069	1.542493

beta f4 [3]
0	0xbda3c886	-0.07997231
1	0x3daa489c	0.083146304
2	0x3fc57851	1.5427343

beta f4 [3]
0	0xbda38fe4	-0.07986429
1	0x3daa5c56	0.08318393
2	0x3fc5807c	1.5429835

beta f4 [3]
0	0xbda3553e	-0.07975243
1	0x3daa716c	0.08322415
2	0x3fc588c9	1.5432369

beta f4 [3]
0	0xbda31e82	-0.07964803
1	0x3daa862d	0.08326373
2	0x3fc59131	1.5434934

beta f4 [3]
0	0xbda2ea74	-0.07954875
1	0x3daa9fc8	0.08331257
2	0x3fc59970	1.543745

beta f4 [3]
0	0xbda2bef6	-0.07946579
1	0x3daab25c	0.083348006
2	0x3fc5a17e	1.5439909

beta f4 [3]
0	0xbda28c6e	-0.07936941
1	0x3daacac9	0.083394594
2	0x3fc5a96b	1.5442327

beta f4 [3]
0	0xbda256da	-0.07926722
1	0x3daae34d	0.083441354
2	0x3fc5b174	1.5444779

beta f4 [3]
0	0xbda21c61	-0.07915569
1	0x3dab03b6	0.08350317
2	0x3fc5b979	1.5447227

beta f4 [3]
0	0xbda1e152	-0.079043046
1	0x3dab1ea1	0.083554514
2	0x3fc5c1b9	1.5449744

beta f4 [3]
0	0xbda1a015	-0.07891861
1	0x3dab3a4e	0.0836073
2	0x3fc5ca56	1.5452373

beta f4 [3]
0	0xbda15ef3	-0.07879438
1	0x3dab5386	0.0836554
2	0x3fc5d305	1.5455023

beta f4 [3]
0	0xbda11904	-0.078660995
1	0x3dab6ed5	0.08370749
2	0x3fc5dbc7	1.5457696

beta f4 [3]
0	0xbda0d4f6	-0.07853119
1	0x3dab87de	0.08375524
2	0x3fc5e45b	1.5460314

beta f4 [3]
0	0xbda095dd	-0.07841084
1	0x3dab9ba4	0.083792955
2	0x3fc5ed00	1.5462952

beta f4 [3]
0	0xbda056a6	-0.07829027
1	0x3dabae98	0.083829105
2	0x3fc5f579	1.5465537

beta f4 [3]
0	0xbda019f6	-0.07817452
1	0x3dabc176	0.08386509
2	0x3fc5fddd	1.5468098

beta f4 [3]
0	0xbd9fda96	-0.07805364
1	0x3dabd8ef	0.08390986
2	0x3fc60653	1.547068

beta f4 [3]
0	0xbd9fa10e	-0.077943906
1	0x3dabebbe	0.08394574
2	0x3fc60ec5	1.5473257

beta f4 [3]
0	0xbd9f679c	-0.07783434
1	0x3dabfe9e	0.08398174
2	0x3fc61719	1.5475799

beta f4 [3]
0	0xbd9f2b5f	-0.07771944
1	0x3dac16cc	0.08402786
2	0x3fc61f39	1.5478278

beta f4 [3]
0	0xbd9eebe5	-0.07759837
1	0x3dac3092	0.084077016
2	0x3fc62727	1.5480698

beta f4 [3]
0	0xbd9eb054	-0.07748476
1	0x3dac49c1	0.08412505
2	0x3fc62f00	1.5483093

beta f4 [3]
0	0xbd9e7aef	-0.077382915
1	0x3dac6612	0.08417906
2	0x3fc63638	1.5485296

beta f4 [3]
0	0xbd9e3908	-0.077257216
1	0x3dac88f2	0.08424558
2	0x3fc63da7	1.5487565

beta f4 [3]
0	0xbd9dfa10	-0.07713711
1	0x3dacad42	0.08431484
2	0x3fc644e1	1.548977

beta f4 [3]
0	0xbd9dbf4a	-0.07702501
1	0x3dacd378	0.08438772
2	0x3fc64bf0	1.5491924

beta f4 [3]
0	0xbd9d8336	-0.07691042
1	0x3dacf6f6	0.084455416
2	0x3fc652e5	1.5494047

beta f4 [3]
0	0xbd9d4227	-0.07678633
1	0x3dad1c09	0.08452613
2	0x3fc65a11	1.5496236

beta f4 [3]
0	0xbd9d0502	-0.07666971
1	0x3dad41c0	0.084598064
2	0x3fc66127	1.5498399

beta f4 [3]
0	0xbd9ccc51	-0.07656158
1	0x3dad6832	0.08467139
2	0x3fc66846	1.5500572
