code/experiment/shape_registration/data/test2/saved/witchcastle.pt3.pt (torch, 749575 bytes, 10 tensors)

X0 f4 [10000, 3]
0	0x4163a43d	14.227597
1	0xc04b3ff4	-3.1757784
2	0x416673e8	14.403297
3	0xc15fe701	-13.993897
4	0x404413a8	3.0636997
5	0x40e6fd88	7.2184486
6	0xc11f5657	-9.958579
7	0x40b37c9c	5.608961
8	0x402c5b10	2.693058
9	0xc118c1e9	-9.547341
10	0xc0e2ae7a	-7.0837984
11	0x41646dc8	14.276802
12	0xc13acccc	-11.674999
13	0xc0bcd04e	-5.900428
14	0x3acb0000	0.0015487671
15	0xbf93e570	-1.1554394
16	0xc0dd7bca	-6.921361
17	0x4126be78	10.421501
18	0x40eb2c7c	7.34918
19	0xc0d8346e	-6.7564
20	0x41c4cac0	24.598999
21	0x40cca4da	6.3951235
22	0x40a5b6ac	5.178549
23	0x409493a0	4.6430206
24	0xc186cac0	-16.848999
25	0x3fb14f20	1.3852272
26	0x413f0ff8	11.941399
27	0x41687177	14.527701
28	0xc1039fd1	-8.226518
29	0x417e3190	15.8871
30	0x415523a2	13.321199
31	0xc0a11b9a	-5.0346193
32	0x41bb1bda	23.3886
33	0x3fbedc60	1.4911003
34	0x40eb6d0a	7.3570604
35	0x40ba4130	5.8204575
36	0xc198872a	-19.065998
37	0xc11bef29	-9.745889
38	0x3ad00000	0.0015869141
39	0xc15dfd8a	-13.874399
40	0x40474084	3.1133127
41	0x41686040	14.523499
42	0x3fb53890	1.4157887
43	0x40e592f8	7.1741905
44	0x418a902e	17.3204
45	0xc17c8c7b	-15.784297
46	0xbf2a3dc0	-0.66500473
47	0x40db3f00	6.8514404
48	0x417bc6aa	15.736002
49	0x3fe6bea0	1.8026924
50	0x3acb8000	0.0015525818
51	0x41298f5b	10.597499
52	0xc1070509	-8.438729
53	0x4172d0e8	15.1760025
54	0x4187288d	16.8948
55	0x400663fc	2.0998526
56	0x41544d68	13.268898
57	0x4177d0e4	15.488499
58	0xc0fbfa32	-7.8742914
59	0x41c670a4	24.805
60	0x3f9f74b8	1.2457495
61	0xc0dc7f52	-6.890542
62	0x40dcfe98	6.9060783
63	0x40e80014	7.2500095
64	0xc0dabe22	-6.8357096
65	0x41b9315c	23.149101
66	0x3f9951d0	1.1978092
67	0x40d4c0bc	6.648527
68	0x4192896c	18.3171
69	0xc1871ad3	-16.888098
70	0x40974d02	4.7281504
71	0x406b09e0	3.6724777
72	0x4115086f	9.314559
73	0xc119e52b	-9.618449
74	0x414924dc	12.571499
75	0x41865a86	16.7942
76	0x4003cf80	2.0595398
77	0x406c33e0	3.6906662
78	0xc0af5ce6	-5.48009
79	0x3f12d530	0.5735655
80	0x3fe43700	1.7829285
81	0x41261e4e	10.382399
82	0xbfa95b90	-1.3231068
83	0x41b16354	22.1735
84	0x41931c78	18.3889
85	0xc0e7013a	-7.2188997
86	0x41a64d9e	20.787899
87	0x416424de	14.259001
88	0x404d7474	3.2102327
89	0x41278d50	10.472
90	0x4034e7b0	2.826641
91	0x410526b5	8.32195
92	0x41c35598	24.416794
93	0x40f03b74	7.5072575
94	0xbffe85d8	-1.9884596
95	0x41cf69ac	25.926598
96	0x414d6dc4	12.839298
97	0x3ff47e28	1.9101
98	0x4097a9e0	4.7394867
99	0x4143a786	12.228399
100	0x4112fba8	9.1864395
101	0x40759990	3.8374977
102	0x4112cc8d	9.174939
103	0xc118ffd5	-9.562459
104	0x416623a4	14.383701
105	0xc100bb79	-8.04577
106	0x411b98bd	9.72479
107	0x402cd4d0	2.700489
108	0xc1969a36	-18.825298
109	0x40a20b92	5.0639124
110	0x404016a0	3.001381
111	0x4162e9de	14.1820965
112	0xc036e2a0	-2.857582
113	0x41b3d70a	22.48
114	0x40886c8e	4.2632513
115	0xc1302d77	-11.0111
116	0x3ad20000	0.0016021729
117	0xc17fbe0c	-15.983898
118	0xc0f86d32	-7.7633295
119	0x3acb0000	0.0015487671
120	0x412e5dcc	10.8979
121	0x40918534	4.54751
122	0x4118b8c0	9.545105
123	0x417d22cc	15.820995
124	0x408e8718	4.453991
125	0x4152f96c	13.185894
126	0xc095c0c0	-4.679779
127	0x3fc92b80	1.57164
128	0x41a928c0	21.144897
129	0xc01b5274	-2.4269075
130	0x40a8d458	5.275921
131	0x404f82d0	3.2423592
132	0xc17ac152	-15.672197
133	0xc13be6ff	-11.743896
134	0x3eaa0d00	0.33213043
135	0x40a58f46	5.1737394
136	0x409333da	4.6000795
137	0x3fc1f440	1.5152664
138	0xc10b773c	-8.71661
139	0xc130be0d	-11.046399
140	0x3fc74da0	1.5570564
141	0x40ca27a4	6.317339
142	0x40cc6488	6.387272
143	0x411979bc	9.59222
144	0x40c6f2b8	6.2171288
145	0x40cf23d0	6.4731216
146	0x41c7ef00	24.9917
147	0xc16fc91d	-14.9866
148	0xbf0b3a50	-0.5438585
149	0x418dfc84	17.748299
150	0x4144be75	12.296498
151	0x40c07524	6.0142994
152	0x3acc0000	0.0015563965
153	0xc1889446	-17.0724
154	0xc028422c	-2.6290388
155	0x415bb230	13.731003
156	0x41895568	17.166702
157	0x409c8ca8	4.89217
158	0x3acb8000	0.0015525818
159	0xc0892f58	-4.2870293
160	0xc069b1a4	-3.6514673
161	0x41a41444	20.509895
162	0x416c2eb0	14.761398
163	0x4080a9d4	4.020731
164	0x4047d990	3.122654
165	0x3f677e10	0.9042673
166	0x411c8a26	9.783728
167	0x3d063800	0.03276825
168	0x415ceecd	13.808301
169	0xc02567ec	-2.584468
170	0x409518f0	4.659294
171	0xc0bc3054	-5.8808994
172	0xc0debb16	-6.9603376
173	0x3acc0000	0.0015563965
174	0xc193f3b5	-18.493998
175	0xc0add81e	-5.4326315
176	0x3ad40000	0.0016174316
177	0xc048e244	-3.1388102
178	0x40cdb1ee	6.42797
179	0x3acd8000	0.0015678406
180	0x401edf50	2.48238
181	0x3f568890	0.8380213
182	0x3fccc940	1.5998917
183	0x418ced91	17.616
184	0x3ce27000	0.027641296
185	0x40aa5090	5.3223343
186	0xc1302681	-11.0094
187	0xc0da2e1a	-6.8181276
188	0x417d1478	15.817497
189	0x416c0d1c	14.753201
190	0x3ff2de50	1.8974094
191	0x417cd220	15.8013
192	0xc131cf40	-11.113098
193	0xc1366a7d	-11.400998
194	0x3f473940	0.7782173
195	0x40f3e284	7.621401
196	0x4102a37a	8.164911
197	0x3ace0000	0.0015716553
198	0xc17248e8	-15.142799
199	0x41445327	12.270301
200	0x40064400	2.0979004
201	0xc083c070	-4.117241
202	0xc08f4492	-4.4771204
203	0x419c896c	19.5671
204	0x41578586	13.4700985
205	0xc096de46	-4.714633
206	0x40df7dd0	6.984108
207	0x40be72ee	5.9515295
208	0x40e38bc2	7.1108103
209	0x40d3fa58	6.6243095
210	0x418caca4	17.584297
211	0x40fbaea8	7.8650703
212	0x40338950	2.805256
213	0xc096d3ac	-4.713339
214	0xc0503d6c	-3.253749
215	0x41a80ec0	21.007202
216	0xc028c908	-2.63727
217	0xbf5de140	-0.8667183
218	0x41ccf764	25.620796
219	0xc118a325	-9.53983
220	0xc0f44852	-7.633828
221	0x413e34d8	11.887901
222	0x40fae074	7.839899
223	0xc1037f85	-8.218633
224	0x40f43220	7.631119
225	0xc1355117	-11.332297
226	0x3fcd0c18	1.6019316
227	0x3acd0000	0.0015640259
228	0x3fc25270	1.5181408
229	0x40ef55b0	7.47921
230	0x4180db56	16.107098
231	0x41754a24	15.330601
232	0xc104066d	-8.251569
233	0x40de49f0	6.9465256
234	0x415858e2	13.5217
235	0xc06f44a4	-3.7385645
236	0x419716bc	18.8861
237	0xc08086ec	-4.01647
238	0xc0d16a96	-6.544261
239	0x3ad50000	0.001625061
240	0x3f40e630	0.7535124
241	0xc09005ba	-4.500699
242	0x3fe202c0	1.7657089
243	0x40c10902	6.0323496
244	0x40e325d6	7.0983686
245	0x4102fd04	8.186771
246	0xbf9f9b20	-1.2469215
247	0x40a6d36c	5.2133083
248	0x417f2408	15.946297
249	0x3fb60670	1.4220715
250	0x4093d67a	4.619931
251	0x419cf008	19.617203
252	0x40291908	2.6421528
253	0x3f4e6490	0.80622196
254	0x41b12d10	22.147003
255	0x412869ad	10.5258

theta f4 [3]
0	0xbf20d97c	-0.62831855
1	0xbf20d97c	-0.62831855
2	0x3ec90fdb	0.3926991

beta f4 [3]
0	0x41200000	10.0
1	0xc1700000	-15.0
2	0x41200000	10.0

rotation_op f4 [3, 3]
0	0x3f3f57d9	0.7474342
1	0x3e9e838e	0.30959743
2	0x3f167918	0.58778524
3	0x3c1d34c0	0.009595096
4	0x3f61309e	0.8796481
5	0xbef37871	-0.47552827
6	0xbf2a0d5f	-0.6642665
7	0x3eb8dda2	0.36106592
8	0x3f278ddf	0.65450853

beta_op f4 [3]
0	0xbfb01060	-1.3754997
1	0x414f9e6b	12.976176
2	0xc21c7268	-39.111725

Y00 f4 [10000, 3]
0	0x419877d6	19.058514
1	0xc19e0661	-19.753115
2	0x4116a2d0	9.414749
3	0x40ebb5d6	7.365947
4	0xc176f998	-15.435936
5	0x418c8172	17.563206
6	0x40fe046a	7.938039
7	0xc15389c4	-13.221134
8	0x41733951	15.201493
9	0x4118801e	9.531279
10	0xc1ac7291	-21.55594
11	0x418483a2	16.564274
12	0x40972a70	4.7239304
13	0xc18d3656	-17.651531
14	0x414d01d0	12.8129425
15	0x4138f407	11.559577
16	0xc1a4387e	-20.527584
17	0x4148b71e	12.544706
18	0x419770d7	18.930098
19	0xc1be47f2	-23.78513
20	0x41663b42	14.389467
21	0x4168e5fc	14.556149
22	0xc15cbad4	-13.795612
23	0x412548f8	10.330315
24	0x40edab4e	7.427161
25	0xc18a7c8c	-17.310814
26	0x419e0854	19.754066
27	0x41969964	18.824898
28	0xc1b29b75	-22.325907
29	0x410e38a7	8.888831
30	0x41a894fb	21.072744
31	0xc1b5b0f7	-22.711409
32	0x4145218c	12.32069
33	0x415681db	13.406703
34	0xc1524141	-13.140931
35	0x414bcdb2	12.737719
36	0x3faeea50	1.3665257
37	0xc19b06cf	-19.378325
38	0x41692d22	14.573519
39	0x41190b00	9.565186
40	0xc1893410	-17.150421
41	0x419f6279	19.923082
42	0x4185d709	16.729998
43	0xc17f4bc3	-15.9559965
44	0x4183f1ea	16.493122
45	0x40c06086	6.0117826
46	0xc187fa58	-16.997238
47	0x418aeab2	17.364597
48	0x41814858	16.160324
49	0xc1621cb5	-14.132009
50	0x40a32f25	5.099505
51	0x4188ea0a	17.114277
52	0xc1b226f6	-22.269024
53	0x411ec543	9.92316
54	0x41a44efa	20.538563
55	0xc18933b6	-17.15025
56	0x4111c2da	9.110071
57	0x41aee00a	21.859394
58	0xc1c24b3c	-24.286736
59	0x4138d3e0	11.551727
60	0x4136db5f	11.428557
61	0xc19d5556	-19.666668
62	0x4129a31a	10.60232
63	0x4193a31c	18.454643
64	0xc1bbce58	-23.475754
65	0x415ef008	13.933601
66	0x4186e175	16.860086
67	0xc18366da	-16.42522
68	0x41865fd6	16.796795
69	0x40affecf	5.4998546
70	0xc15dfe92	-13.874651
71	0x418d50f0	17.66452
72	0x417afcf6	15.686758
73	0xc1b165f8	-22.17479
74	0x41148b14	9.283955
75	0x418d7023	17.679754
76	0xc16e41f5	-14.891103
77	0x40c00dd7	6.0016894
78	0x41090950	8.564774
79	0xc1732ac2	-15.197939
80	0x41481d3e	12.507139
81	0x41a188ff	20.191893
82	0xc1a66efa	-20.804188
83	0x41591b4f	13.569167
84	0x41aee9d8	21.864182
85	0xc1b83c4c	-23.029442
86	0x4116461a	9.392115
87	0x41973a32	18.903416
88	0xc1801380	-16.009521
89	0x411454ab	9.270671
90	0x419c2a00	19.520508
91	0xc1890db0	-17.131683
92	0x41946eba	18.554066
93	0x41a0f078	20.117416
94	0xc1b00616	-22.002972
95	0x417a1d7b	15.632197
96	0x4183e510	16.486847
97	0xc1739a52	-15.225176
98	0x40f43537	7.631496
99	0x4188f566	17.119823
100	0xc13d036d	-11.813336
101	0x410da536	8.852835
102	0x4181681e	16.175838
103	0xc1b4a758	-22.58171
104	0x411eef8e	9.933485
105	0x4114acd7	9.292197
106	0xc13674ab	-11.403483
107	0x4174fc8f	15.31166
108	0x40942e27	4.630634
109	0xc1593a30	-13.576706
110	0x41913100	18.148926
111	0x41abb731	21.464449
112	0xc1ac4515	-21.533731
113	0x4142164a	12.130442
114	0x411e3a3b	9.889216
115	0xc19e9540	-19.822876
116	0x40d31818	6.596691
117	0x4034d0d0	2.825245
118	0xc193eeb2	-18.49155
119	0x415e862a	13.907755
120	0x418ca7c4	17.581917
121	0xc173793b	-15.217097
122	0x4125339a	10.325098
123	0x41a3d17c	20.477287
124	0xc180cd55	-16.10026
125	0x411dd536	9.864553
126	0x416b56da	14.708704
127	0xc19adea1	-19.358706
128	0x41960ffa	18.757801
129	0x412dcd59	10.862634
130	0xc15764b2	-13.462084
131	0x414d1d20	12.819611
132	0x401b0d88	2.422701
133	0xc1a28e25	-20.319407
134	0x415319c2	13.193789
135	0x41517471	13.090928
136	0xc154fee5	-13.31223
137	0x4119ba42	9.607973
138	0x40afaed8	5.490093
139	0xc1a229fe	-20.270504
140	0x413690f6	11.410391
141	0x4181598b	16.168722
142	0xc1670ec2	-14.441103
143	0x41431aaa	12.19401
144	0x41a55ce3	20.670355
145	0xc19085ac	-18.06527
146	0x418a423a	17.282337
147	0x41187f9e	9.531157
148	0xc19c3f83	-19.531012
149	0x41a58025	20.68757
150	0x41786e16	15.526876
151	0xc144bd02	-12.2961445
152	0x40e01222	7.0022135
153	0x40e7f16b	7.24822
154	0xc19c0610	-19.50296
155	0x419d8381	19.68921
156	0x418962d0	17.173248
157	0xc14c42d6	-12.766317
158	0x40a5d38d	5.182074
159	0x415dc3e8	13.860329
160	0xc1ac0654	-21.50309
161	0x418bd017	17.476606
162	0x41887428	17.056717
163	0xc15e739b	-13.903224
164	0x40db0a74	6.845026
165	0x413dcb14	11.86208
166	0xc12b3492	-10.700335
167	0x4137a074	11.476673
168	0x4181098b	16.12966
169	0xc1896d1e	-17.17828
170	0x40cf1a9c	6.471998
171	0x40d734f2	6.725213
172	0xc190b822	-18.089909
173	0x412b27a8	10.697182
174	0x400fdf04	2.2479868
175	0xc18bd3fe	-17.478512
176	0x41729881	15.162232
177	0x411d28dc	9.822475
178	0xc1430319	-12.188256
179	0x41434172	12.203478
180	0x4138712a	11.527628
181	0xc16fff9d	-14.999906
182	0x411d9b28	9.85038
183	0x4191370a	18.151875
184	0xc18159af	-16.16879
185	0x40bcab20	5.8958893
186	0x4117a932	9.478807
187	0xc1ae7fdb	-21.81243
188	0x418cd0f8	17.602036
189	0x41a39be8	20.451126
190	0xc18ed03c	-17.851677
191	0x4129d124	10.61356
192	0x4089f13c	4.3106976
193	0xc1a205b2	-20.25278
194	0x413e32fe	11.887449
195	0x4161cd53	14.112628
196	0xc135f686	-11.372686
197	0x410f1778	8.94323
198	0x40db6b67	6.8568606
199	0xc122cb7e	-10.174681
200	0x418f7308	17.931168
201	0x41584d61	13.518891
202	0xc1ad2149	-21.641253
203	0x4187b373	16.962622
204	0x4182daa8	16.356766
205	0xc1955b40	-18.669556
206	0x40debcf3	6.960565
207	0x4174592a	15.271769
208	0xc156b415	-13.418965
209	0x41379910	11.474869
210	0x4194e873	18.6135
211	0xc141f95f	-12.123382
212	0x40cfec66	6.497607
213	0x415e8a28	13.90873
214	0xc1ab966c	-21.448448
215	0x418ed26b	17.852743
216	0x418347b0	16.410004
217	0xc1abe26f	-21.485563
218	0x4198d4ee	19.10397
219	0x410bf325	8.746861
220	0xc1a9d6af	-21.229826
221	0x417ae429	15.680703
222	0x415e680b	13.900401
223	0xc1a321e3	-20.391546
224	0x41068e19	8.409692
225	0x40c06d78	6.013363
226	0xc1659a4e	-14.350172
227	0x4160db54	14.053547
228	0x4183abcc	16.458885
229	0xc17886a4	-15.532871
230	0x4180efe5	16.117136
231	0x4183f2b5	16.49351
232	0xc1a1a89a	-20.207325
233	0x40b62338	5.691799
234	0x41a0334e	20.025051
235	0xc1a88f1d	-21.06988
236	0x41303bde	11.014616
237	0x40ef90ae	7.486411
238	0xc18f2f10	-17.89798
239	0x41227305	10.153081
240	0x4121a946	10.1038265
241	0xc18b2a71	-17.395723
242	0x41183da0	9.515045
243	0x417c25db	15.759242
244	0xc15cba8f	-13.795547
245	0x413f5049	11.957101
246	0x417070b6	15.027517
247	0xc1840938	-16.504501
248	0x4184972b	16.573812
249	0x41881880	17.011963
250	0xc18d0100	-17.625488
251	0x4186409b	16.781546
252	0x418cf7ee	17.62106
253	0xc19f301c	-19.89849
254	0x41842029	16.515703
255	0x41421fcb	12.132762

X1-7p f4 [10555, 3]
0	0x4163a43d	14.227597
1	0xc04b3ff4	-3.1757784
2	0x416673e8	14.403297
3	0xc15fe701	-13.993897
4	0x404413a8	3.0636997
5	0x40e6fd88	7.2184486
6	0xc11f5657	-9.958579
7	0x40b37c9c	5.608961
8	0x402c5b10	2.693058
9	0xc118c1e9	-9.547341
10	0xc0e2ae7a	-7.0837984
11	0x41646dc8	14.276802
12	0xc13acccc	-11.674999
13	0xc0bcd04e	-5.900428
14	0x3acb0000	0.0015487671
15	0xbf93e570	-1.1554394
16	0xc0dd7bca	-6.921361
17	0x4126be78	10.421501
18	0x40eb2c7c	7.34918
19	0xc0d8346e	-6.7564
20	0x41c4cac0	24.598999
21	0x40cca4da	6.3951235
22	0x40a5b6ac	5.178549
23	0x409493a0	4.6430206
24	0xc186cac0	-16.848999
25	0x3fb14f20	1.3852272
26	0x413f0ff8	11.941399
27	0x41687177	14.527701
28	0xc1039fd1	-8.226518
29	0x417e3190	15.8871
30	0x415523a2	13.321199
31	0xc0a11b9a	-5.0346193
32	0x41bb1bda	23.3886
33	0x3fbedc60	1.4911003
34	0x40eb6d0a	7.3570604
35	0x40ba4130	5.8204575
36	0xc198872a	-19.065998
37	0xc11bef29	-9.745889
38	0x3ad00000	0.0015869141
39	0xc15dfd8a	-13.874399
40	0x40474084	3.1133127
41	0x41686040	14.523499
42	0x3fb53890	1.4157887
43	0x40e592f8	7.1741905
44	0x418a902e	17.3204
45	0xc17c8c7b	-15.784297
46	0xbf2a3dc0	-0.66500473
47	0x40db3f00	6.8514404
48	0x417bc6aa	15.736002
49	0x3fe6bea0	1.8026924
50	0x3acb8000	0.0015525818
51	0x41298f5b	10.597499
52	0xc1070509	-8.438729
53	0x4172d0e8	15.1760025
54	0x4187288d	16.8948
55	0x400663fc	2.0998526
56	0x41544d68	13.268898
57	0x4177d0e4	15.488499
58	0xc0fbfa32	-7.8742914
59	0x41c670a4	24.805
60	0x3f9f74b8	1.2457495
61	0xc0dc7f52	-6.890542
62	0x40dcfe98	6.9060783
63	0x40e80014	7.2500095
64	0xc0dabe22	-6.8357096
65	0x41b9315c	23.149101
66	0x3f9951d0	1.1978092
67	0x40d4c0bc	6.648527
68	0x4192896c	18.3171
69	0xc1871ad3	-16.888098
70	0x40974d02	4.7281504
71	0x406b09e0	3.6724777
72	0x4115086f	9.314559
73	0xc119e52b	-9.618449
74	0x414924dc	12.571499
75	0x41865a86	16.7942
76	0x4003cf80	2.0595398
77	0x406c33e0	3.6906662
78	0xc0af5ce6	-5.48009
79	0x3f12d530	0.5735655
80	0x3fe43700	1.7829285
81	0x41261e4e	10.382399
82	0xbfa95b90	-1.3231068
83	0x41b16354	22.1735
84	0x41931c78	18.3889
85	0xc0e7013a	-7.2188997
86	0x41a64d9e	20.787899
87	0x416424de	14.259001
88	0x404d7474	3.2102327
89	0x41278d50	10.472
90	0x4034e7b0	2.826641
91	0x410526b5	8.32195
92	0x41c35598	24.416794
93	0x40f03b74	7.5072575
94	0xbffe85d8	-1.9884596
95	0x41cf69ac	25.926598
96	0x414d6dc4	12.839298
97	0x3ff47e28	1.9101
98	0x4097a9e0	4.7394867
99	0x4143a786	12.228399
100	0x4112fba8	9.1864395
101	0x40759990	3.8374977
102	0x4112cc8d	9.174939
103	0xc118ffd5	-9.562459
104	0x416623a4	14.383701
105	0xc100bb79	-8.04577
106	0x411b98bd	9.72479
107	0x402cd4d0	2.700489
108	0xc1969a36	-18.825298
109	0x40a20b92	5.0639124
110	0x404016a0	3.001381
111	0x4162e9de	14.1820965
112	0xc036e2a0	-2.857582
113	0x41b3d70a	22.48
114	0x40886c8e	4.2632513
115	0xc1302d77	-11.0111
116	0x3ad20000	0.0016021729
117	0xc17fbe0c	-15.983898
118	0xc0f86d32	-7.7633295
119	0x3acb0000	0.0015487671
120	0x412e5dcc	10.8979
121	0x40918534	4.54751
122	0x4118b8c0	9.545105
123	0x417d22cc	15.820995
124	0x408e8718	4.453991
125	0x4152f96c	13.185894
126	0xc095c0c0	-4.679779
127	0x3fc92b80	1.57164
128	0x41a928c0	21.144897
129	0xc01b5274	-2.4269075
130	0x40a8d458	5.275921
131	0x404f82d0	3.2423592
132	0xc17ac152	-15.672197
133	0xc13be6ff	-11.743896
134	0x3eaa0d00	0.33213043
135	0x40a58f46	5.1737394
136	0x409333da	4.6000795
137	0x3fc1f440	1.5152664
138	0xc10b773c	-8.71661
139	0xc130be0d	-11.046399
140	0x3fc74da0	1.5570564
141	0x40ca27a4	6.317339
142	0x40cc6488	6.387272
143	0x411979bc	9.59222
144	0x40c6f2b8	6.2171288
145	0x40cf23d0	6.4731216
146	0x41c7ef00	24.9917
147	0xc16fc91d	-14.9866
148	0xbf0b3a50	-0.5438585
149	0x418dfc84	17.748299
150	0x4144be75	12.296498
151	0x40c07524	6.0142994
152	0x3acc0000	0.0015563965
153	0xc1889446	-17.0724
154	0xc028422c	-2.6290388
155	0x415bb230	13.731003
156	0x41895568	17.166702
157	0x409c8ca8	4.89217
158	0x3acb8000	0.0015525818
159	0xc0892f58	-4.2870293
160	0xc069b1a4	-3.6514673
161	0x41a41444	20.509895
162	0x416c2eb0	14.761398
163	0x4080a9d4	4.020731
164	0x4047d990	3.122654
165	0x3f677e10	0.9042673
166	0x411c8a26	9.783728
167	0x3d063800	0.03276825
168	0x415ceecd	13.808301
169	0xc02567ec	-2.584468
170	0x409518f0	4.659294
171	0xc0bc3054	-5.8808994
172	0xc0debb16	-6.9603376
173	0x3acc0000	0.0015563965
174	0xc193f3b5	-18.493998
175	0xc0add81e	-5.4326315
176	0x3ad40000	0.0016174316
177	0xc048e244	-3.1388102
178	0x40cdb1ee	6.42797
179	0x3acd8000	0.0015678406
180	0x401edf50	2.48238
181	0x3f568890	0.8380213
182	0x3fccc940	1.5998917
183	0x418ced91	17.616
184	0x3ce27000	0.027641296
185	0x40aa5090	5.3223343
186	0xc1302681	-11.0094
187	0xc0da2e1a	-6.8181276
188	0x417d1478	15.817497
189	0x416c0d1c	14.753201
190	0x3ff2de50	1.8974094
191	0x417cd220	15.8013
192	0xc131cf40	-11.113098
193	0xc1366a7d	-11.400998
194	0x3f473940	0.7782173
195	0x40f3e284	7.621401
196	0x4102a37a	8.164911
197	0x3ace0000	0.0015716553
198	0xc17248e8	-15.142799
199	0x41445327	12.270301
200	0x40064400	2.0979004
201	0xc083c070	-4.117241
202	0xc08f4492	-4.4771204
203	0x419c896c	19.5671
204	0x41578586	13.4700985
205	0xc096de46	-4.714633
206	0x40df7dd0	6.984108
207	0x40be72ee	5.9515295
208	0x40e38bc2	7.1108103
209	0x40d3fa58	6.6243095
210	0x418caca4	17.584297
211	0x40fbaea8	7.8650703
212	0x40338950	2.805256
213	0xc096d3ac	-4.713339
214	0xc0503d6c	-3.253749
215	0x41a80ec0	21.007202
216	0xc028c908	-2.63727
217	0xbf5de140	-0.8667183
218	0x41ccf764	25.620796
219	0xc118a325	-9.53983
220	0xc0f44852	-7.633828
221	0x413e34d8	11.887901
222	0x40fae074	7.839899
223	0xc1037f85	-8.218633
224	0x40f43220	7.631119
225	0xc1355117	-11.332297
226	0x3fcd0c18	1.6019316
227	0x3acd0000	0.0015640259
228	0x3fc25270	1.5181408
229	0x40ef55b0	7.47921
230	0x4180db56	16.107098
231	0x41754a24	15.330601
232	0xc104066d	-8.251569
233	0x40de49f0	6.9465256
234	0x415858e2	13.5217
235	0xc06f44a4	-3.7385645
236	0x419716bc	18.8861
237	0xc08086ec	-4.01647
238	0xc0d16a96	-6.544261
239	0x3ad50000	0.001625061
240	0x3f40e630	0.7535124
241	0xc09005ba	-4.500699
242	0x3fe202c0	1.7657089
243	0x40c10902	6.0323496
244	0x40e325d6	7.0983686
245	0x4102fd04	8.186771
246	0xbf9f9b20	-1.2469215
247	0x40a6d36c	5.2133083
248	0x417f2408	15.946297
249	0x3fb60670	1.4220715
250	0x4093d67a	4.619931
251	0x419cf008	19.617203
252	0x40291908	2.6421528
253	0x3f4e6490	0.80622196
254	0x41b12d10	22.147003
255	0x412869ad	10.5258

Y10-7p f4 [10555, 3]
0	0x416b4711	14.70485
1	0xc19f4243	-19.907354
2	0x41989f92	19.077915
3	0x418fb72e	17.964443
4	0xc16a9d6f	-14.663436
5	0x40bf3ee8	5.976429
6	0x418fb07e	17.961178
7	0xc1462ac4	-12.385441
8	0x41004c02	8.018557
9	0x4183618e	16.422634
10	0xc17d2072	-15.820421
11	0x4068c864	3.6372309
12	0x3f4242e0	0.75883293
13	0xc1a33e71	-20.405489
14	0x41664af2	14.393297
15	0x413cbc15	11.795918
16	0xc1aea1e5	-21.82905
17	0x4189a2bc	17.20446
18	0x414d2580	12.821655
19	0xc1633a5a	-14.201746
20	0x410fd19e	8.988676
21	0x416fb9b5	14.982839
22	0xc156b0e0	-13.418182
23	0x41108020	9.0312805
24	0x415ac9ce	13.674269
25	0xc19996a4	-19.198555
26	0x419c8209	19.563494
27	0x419ff87a	19.996326
28	0xc18c2f82	-17.523197
29	0x41045795	8.271382
30	0x41a7f46b	20.994345
31	0xc1b1ec2c	-22.240318
32	0x41071b6a	8.444193
33	0x4137463c	11.454647
34	0xc1905040	-18.039185
35	0x40cf9369	6.4867444
36	0x417e076c	15.876812
37	0xc1893b06	-17.15382
38	0x404a2728	3.15864
39	0x40565f3e	3.3495631
40	0xc13ae07a	-11.679804
41	0x41973409	18.900408
42	0x4193aecc	18.46035
43	0xc1a95d8b	-21.170675
44	0x41762c8b	15.385875
45	0x410ee928	8.931923
46	0xc14238b1	-12.138841
47	0x4150a054	13.039143
48	0x40ac354c	5.381506
49	0xc1991e62	-19.139835
50	0x413241e6	11.1410885
51	0x410789c8	8.471138
52	0xc162926a	-14.160746
53	0x41402af4	12.010487
54	0xbd9ece1a	-0.077541545
55	0x3da09b67	0.07842141
56	0xbec672e3	-0.38759527
57	0x41612679	14.071893
58	0xc1a2ba7d	-20.341059
59	0x419e9e8d	19.827417
60	0x4197c187	18.969496
61	0xc18cf7f9	-17.62108
62	0x416269e0	14.150848
63	0x41821592	16.260532
64	0xc18c2e0a	-17.52248
65	0x418373ee	16.431606
66	0x418d21f0	17.641571
67	0xc1952899	-18.644823
68	0x40fec5f0	7.9616623
69	0x418f5d0a	17.92043
70	0xc1424320	-12.141388
71	0x4101198f	8.06874
72	0x41894fe7	17.164015
73	0xc1919272	-18.196507
74	0x405483c4	3.3205423
75	0x41836678	16.425034
76	0xc1a2ffcf	-20.374907
77	0x418e5363	17.790716
78	0x418afcfa	17.373524
79	0xc1793966	-15.576513
80	0x41575a4f	13.459548
81	0x40aa79c1	5.3273625
82	0xc18f419c	-17.907036
83	0x41415dc6	12.085394
84	0x4199eae9	19.239702
85	0xc19d2b58	-19.646164
86	0x41906490	18.049103
87	0x4143aae8	12.229225
88	0xc184d071	-16.601778
89	0x4199376e	19.152065
90	0x417d8cfe	15.846922
91	0xc19bfdd2	-19.498936
92	0x40f5aac4	7.6770954
93	0x405399dc	3.3062658
94	0xc1a381f5	-20.438456
95	0x415cc947	13.79914
96	0x4177f318	15.496849
97	0xc19d7de2	-19.686466
98	0x41921b5a	18.263355
99	0x419dfcb9	19.7484
100	0xc186a8e6	-16.83247
101	0x41470bc1	12.44037
102	0x41a0fdbc	20.123894
103	0xc194c297	-18.595015
104	0x413886bd	11.532895
105	0x40d9127a	6.7835054
106	0xc13eff14	-11.937275
107	0x418f460c	17.909203
108	0x41a2f028	20.367264
109	0xc1a42e8a	-20.522724
110	0x415ca775	13.790883
111	0x4052e64e	3.2953067
112	0xc19056e8	-18.042435
113	0x417e5a7c	15.897091
114	0x412b532c	10.707806
115	0xc1994bdd	-19.162043
116	0x40caeec4	6.341646
117	0x4147eded	12.495587
118	0xc1738c8c	-15.221813
119	0x4183e49c	16.486626
120	0x41165c18	9.397484
121	0xc174e67b	-15.30627
122	0x41251e0b	10.319835
123	0x413ca87c	11.791134
124	0xc18ec40f	-17.845732
125	0x41a43895	20.527628
126	0x40b3bfdd	5.617171
127	0xc175707c	-15.339962
128	0x4181d8ae	16.2308
129	0x4169964c	14.599194
130	0xc1a151c8	-20.164932
131	0x4119326e	9.574812
132	0x4164b927	14.295203
133	0xc1a82106	-21.016125
134	0x419f0de0	19.881775
135	0x41534dd6	13.206503
136	0xc19b3ef6	-19.405743
137	0x41a0e408	20.111343
138	0x4167a38c	14.477428
139	0xc192772e	-18.308193
140	0x4064e804	3.576661
141	0x418c4d78	17.537827
142	0xc1922f92	-18.273228
143	0x4189b756	17.21452
144	0x414fc6ba	12.986017
145	0xc1594053	-13.578204
146	0x41498b15	12.596456
147	0x412bda89	10.740853
148	0xc18083fb	-16.064444
149	0x411ef1d5	9.934041
150	0x40cd47d2	6.415017
151	0xc19303e9	-18.37691
152	0x412c469a	10.767237
153	0x418c6792	17.550571
154	0xc18d27b1	-17.64438
155	0x408fd570	4.4948044
156	0x417b981a	15.724634
157	0xc122e743	-10.18146
158	0x4110b1b3	9.043384
159	0x416d3854	14.826252
160	0xc14674b6	-12.403494
161	0x40f1b5a0	7.553421
162	0x419f8838	19.941513
163	0xc1803b38	-16.028915
164	0x410b99e2	8.725069
165	0x40981ad9	4.7532773
166	0xc160f8b6	-14.06072
167	0x417653dc	15.3954735
168	0x4196e6ae	18.862637
169	0xc1886390	-17.048615
170	0x40db72fa	6.857785
171	0x4134311a	11.261988
172	0xc14d819a	-12.844141
173	0x413ebd58	11.9212265
174	0x40602b82	3.5026555
175	0xc16a6fa3	-14.652255
176	0x4180b5e7	16.08882
177	0x416a1ff4	14.632801
178	0xc1a6c09a	-20.844044
179	0x4119f72f	9.622848
180	0x402f229c	2.7364874
181	0xc1a37919	-20.43413
182	0x41548a17	13.283713
183	0x41b95322	23.165592
184	0xc1b13ea4	-22.155586
185	0x413682f8	11.406975
186	0x40c41c1b	6.128431
187	0xc186c47c	-16.84594
188	0x418b2364	17.39228
189	0x41a763dc	20.92376
190	0xc1b814ae	-23.010098
191	0x41089c86	8.538214
192	0x417e6db4	15.901783
193	0xc159186d	-13.568463
194	0x41466696	12.400045
195	0x41718524	15.095005
196	0xc1ac28fc	-21.520012
197	0x41429cc6	12.163275
198	0x414f4bba	12.955988
199	0xc19a0f8a	-19.257587
200	0x40ff9fa9	7.98824
201	0x4197128a	18.884052
202	0xc1883220	-17.024475
203	0x4109ab22	8.60428
204	0x413f4588	11.954475
205	0xc169ada6	-14.604895
206	0x4110b521	9.044221
207	0x41909637	18.073347
208	0xc192e782	-18.36304
209	0x40a34a6e	5.1028357
210	0x40bc7c63	5.890184
211	0xc19bd14a	-19.477192
212	0x41712c3d	15.0733
213	0x40dddbf0	6.933098
214	0xc14198ed	-12.099835
215	0x416dccf2	14.862535
216	0x410957f2	8.583971
217	0xc1ad589b	-21.668264
218	0x41875803	16.917974
219	0x411c3fbc	9.76556
220	0xc1ac6f5d	-21.554377
221	0x418765e5	16.924753
222	0x418a7e1c	17.311577
223	0xc16adab8	-14.678398
224	0x40f10348	7.5316505
225	0x417e2bb2	15.885668
226	0xc18e75ca	-17.807514
227	0x40dc2275	6.879206
228	0x41722136	15.133108
229	0xc150de32	-13.054247
230	0x4148ef4e	12.558424
231	0x417627b4	15.384693
232	0xc18082e4	-16.063911
233	0x408c8efd	4.3924546
234	0x418bc2ae	17.470058
235	0xc1721481	-15.130006
236	0x415f37c6	13.951117
237	0x4181dc1b	16.232473
238	0xc173f485	-15.247197
239	0x413ab25a	11.668543
240	0x41038688	8.220345
241	0xc13f9bf4	-11.9755745
242	0x417e2a6a	15.885355
243	0x419482e8	18.56392
244	0xc1b1fc97	-22.248335
245	0x410f9b66	8.975439
246	0x410afd0e	8.686781
247	0xc17f39cd	-15.9516115
248	0x41317c80	11.0928955
249	0x416d6193	14.836322
250	0xc195ce0c	-18.725609
251	0x40aa8011	5.328133
252	0x4132bce0	11.171112
253	0xc1ae4685	-21.784433
254	0x4191d203	18.227545
255	0x4179ad3d	15.6047945

Y10-5p f4 [10555, 3]
0	0x416b4711	14.70485
1	0xc19f4243	-19.907354
2	0x41989f92	19.077915
3	0x418fb72e	17.964443
4	0xc16a9d6f	-14.663436
5	0x40bf3ee8	5.976429
6	0x418fb07e	17.961178
7	0xc1462ac4	-12.385441
8	0x41004c02	8.018557
9	0x4183618e	16.422634
10	0xc17d2072	-15.820421
11	0x4068c864	3.6372309
12	0x3f4242e0	0.75883293
13	0xc1a33e71	-20.405489
14	0x41664af2	14.393297
15	0x413cbc15	11.795918
16	0xc1aea1e5	-21.82905
17	0x4189a2bc	17.20446
18	0x414d2580	12.821655
19	0xc1633a5a	-14.201746
20	0x410fd19e	8.988676
21	0x416fb9b5	14.982839
22	0xc156b0e0	-13.418182
23	0x41108020	9.0312805
24	0x415ac9ce	13.674269
25	0xc19996a4	-19.198555
26	0x419c8209	19.563494
27	0x419ff87a	19.996326
28	0xc18c2f82	-17.523197
29	0x41045795	8.271382
30	0x41a7f46b	20.994345
31	0xc1b1ec2c	-22.240318
32	0x41071b6a	8.444193
33	0x4137463c	11.454647
34	0xc1905040	-18.039185
35	0x40cf9369	6.4867444
36	0x417e076c	15.876812
37	0xc1893b06	-17.15382
38	0x404a2728	3.15864
39	0x40565f3e	3.3495631
40	0xc13ae07a	-11.679804
41	0x41973409	18.900408
42	0x4193aecc	18.46035
43	0xc1a95d8b	-21.170675
44	0x41762c8b	15.385875
45	0x410ee928	8.931923
46	0xc14238b1	-12.138841
47	0x4150a054	13.039143
48	0x40ac354c	5.381506
49	0xc1991e62	-19.139835
50	0x413241e6	11.1410885
51	0x410789c8	8.471138
52	0xc162926a	-14.160746
53	0x41402af4	12.010487
54	0xc12a9766	-10.6619625
55	0x412c86ef	10.782943
56	0xc2552d6a	-53.29435
57	0x41612679	14.071893
58	0xc1a2ba7d	-20.341059
59	0x419e9e8d	19.827417
60	0x4197c187	18.969496
61	0xc18cf7f9	-17.62108
62	0x416269e0	14.150848
63	0x41821592	16.260532
64	0xc18c2e0a	-17.52248
65	0x418373ee	16.431606
66	0x418d21f0	17.641571
67	0xc1952899	-18.644823
68	0x40fec5f0	7.9616623
69	0x418f5d0a	17.92043
70	0xc1424320	-12.141388
71	0x4101198f	8.06874
72	0x41894fe7	17.164015
73	0xc1919272	-18.196507
74	0x405483c4	3.3205423
75	0x41836678	16.425034
76	0xc1a2ffcf	-20.374907
77	0x418e5363	17.790716
78	0x418afcfa	17.373524
79	0xc1793966	-15.576513
80	0x41575a4f	13.459548
81	0x40aa79c1	5.3273625
82	0xc18f419c	-17.907036
83	0x41415dc6	12.085394
84	0x4199eae9	19.239702
85	0xc19d2b58	-19.646164
86	0x41906490	18.049103
87	0x4143aae8	12.229225
88	0xc184d071	-16.601778
89	0x4199376e	19.152065
90	0x417d8cfe	15.846922
91	0xc19bfdd2	-19.498936
92	0x40f5aac4	7.6770954
93	0x405399dc	3.3062658
94	0xc1a381f5	-20.438456
95	0x415cc947	13.79914
96	0x4177f318	15.496849
97	0xc19d7de2	-19.686466
98	0x41921b5a	18.263355
99	0x419dfcb9	19.7484
100	0xc186a8e6	-16.83247
101	0x41470bc1	12.44037
102	0x41a0fdbc	20.123894
103	0xc194c297	-18.595015
104	0x413886bd	11.532895
105	0x40d9127a	6.7835054
106	0xc13eff14	-11.937275
107	0x418f460c	17.909203
108	0x41a2f028	20.367264
109	0xc1a42e8a	-20.522724
110	0x415ca775	13.790883
111	0x4052e64e	3.2953067
112	0xc19056e8	-18.042435
113	0x417e5a7c	15.897091
114	0x412b532c	10.707806
115	0xc1994bdd	-19.162043
116	0x40caeec4	6.341646
117	0x4147eded	12.495587
118	0xc1738c8c	-15.221813
119	0x4183e49c	16.486626
120	0x41165c18	9.397484
121	0xc174e67b	-15.30627
122	0x41251e0b	10.319835
123	0x413ca87c	11.791134
124	0xc18ec40f	-17.845732
125	0x41a43895	20.527628
126	0x40b3bfdd	5.617171
127	0xc175707c	-15.339962
128	0x4181d8ae	16.2308
129	0x4169964c	14.599194
130	0xc1a151c8	-20.164932
131	0x4119326e	9.574812
132	0x4164b927	14.295203
133	0xc1a82106	-21.016125
134	0x419f0de0	19.881775
135	0x41534dd6	13.206503
136	0xc19b3ef6	-19.405743
137	0x41a0e408	20.111343
138	0x4167a38c	14.477428
139	0xc192772e	-18.308193
140	0x4064e804	3.576661
141	0x418c4d78	17.537827
142	0xc1922f92	-18.273228
143	0x4189b756	17.21452
144	0x414fc6ba	12.986017
145	0xc1594053	-13.578204
146	0x41498b15	12.596456
147	0x412bda89	10.740853
148	0xc18083fb	-16.064444
149	0x411ef1d5	9.934041
150	0x40cd47d2	6.415017
151	0xc19303e9	-18.37691
152	0x412c469a	10.767237
153	0x418c6792	17.550571
154	0xc18d27b1	-17.64438
155	0x408fd570	4.4948044
156	0x417b981a	15.724634
157	0xc122e743	-10.18146
158	0x4110b1b3	9.043384
159	0x416d3854	14.826252
160	0xc14674b6	-12.403494
161	0x40f1b5a0	7.553421
162	0x419f8838	19.941513
163	0xc1803b38	-16.028915
164	0x410b99e2	8.725069
165	0x40981ad9	4.7532773
166	0xc160f8b6	-14.06072
167	0x417653dc	15.3954735
168	0x4196e6ae	18.862637
169	0xc1886390	-17.048615
170	0x40db72fa	6.857785
171	0x4134311a	11.261988
172	0xc14d819a	-12.844141
173	0x413ebd58	11.9212265
174	0x40602b82	3.5026555
175	0xc16a6fa3	-14.652255
176	0x4180b5e7	16.08882
177	0x416a1ff4	14.632801
178	0xc1a6c09a	-20.844044
179	0x4119f72f	9.622848
180	0x402f229c	2.7364874
181	0xc1a37919	-20.43413
182	0x41548a17	13.283713
183	0x41b95322	23.165592
184	0xc1b13ea4	-22.155586
185	0x413682f8	11.406975
186	0x40c41c1b	6.128431
187	0xc186c47c	-16.84594
188	0x418b2364	17.39228
189	0x41a763dc	20.92376
190	0xc1b814ae	-23.010098
191	0x41089c86	8.538214
192	0x417e6db4	15.901783
193	0xc159186d	-13.568463
194	0x41466696	12.400045
195	0x41718524	15.095005
196	0xc1ac28fc	-21.520012
197	0x41429cc6	12.163275
198	0x414f4bba	12.955988
199	0xc19a0f8a	-19.257587
200	0x40ff9fa9	7.98824
201	0x4197128a	18.884052
202	0xc1883220	-17.024475
203	0x4109ab22	8.60428
204	0x413f4588	11.954475
205	0xc169ada6	-14.604895
206	0x4110b521	9.044221
207	0x41909637	18.073347
208	0xc192e782	-18.36304
209	0x40a34a6e	5.1028357
210	0x40bc7c63	5.890184
211	0xc19bd14a	-19.477192
212	0x41712c3d	15.0733
213	0x40dddbf0	6.933098
214	0xc14198ed	-12.099835
215	0x416dccf2	14.862535
216	0x410957f2	8.583971
217	0xc1ad589b	-21.668264
218	0x41875803	16.917974
219	0x411c3fbc	9.76556
220	0xc1ac6f5d	-21.554377
221	0x418765e5	16.924753
222	0x418a7e1c	17.311577
223	0xc16adab8	-14.678398
224	0x40f10348	7.5316505
225	0x417e2bb2	15.885668
226	0xc18e75ca	-17.807514
227	0x40dc2275	6.879206
228	0x41722136	15.133108
229	0xc150de32	-13.054247
230	0x4148ef4e	12.558424
231	0x417627b4	15.384693
232	0xc18082e4	-16.063911
233	0x408c8efd	4.3924546
234	0x418bc2ae	17.470058
235	0xc1721481	-15.130006
236	0x415f37c6	13.951117
237	0x4181dc1b	16.232473
238	0xc173f485	-15.247197
239	0x413ab25a	11.668543
240	0x41038688	8.220345
241	0xc13f9bf4	-11.9755745
242	0x417e2a6a	15.885355
243	0x419482e8	18.56392
244	0xc1b1fc97	-22.248335
245	0x410f9b66	8.975439
246	0x410afd0e	8.686781
247	0xc17f39cd	-15.9516115
248	0x41317c80	11.0928955
249	0x416d6193	14.836322
250	0xc195ce0c	-18.725609
251	0x40aa8011	5.328133
252	0x4132bce0	11.171112
253	0xc1ae4685	-21.784433
254	0x4191d203	18.227545
255	0x4179ad3d	15.6047945

X1-5p f4 [10555, 3]
0	0x4163a43d	14.227597
1	0xc04b3ff4	-3.1757784
2	0x416673e8	14.403297
3	0xc15fe701	-13.993897
4	0x404413a8	3.0636997
5	0x40e6fd88	7.2184486
6	0xc11f5657	-9.958579
7	0x40b37c9c	5.608961
8	0x402c5b10	2.693058
9	0xc118c1e9	-9.547341
10	0xc0e2ae7a	-7.0837984
11	0x41646dc8	14.276802
12	0xc13acccc	-11.674999
13	0xc0bcd04e	-5.900428
14	0x3acb0000	0.0015487671
15	0xbf93e570	-1.1554394
16	0xc0dd7bca	-6.921361
17	0x4126be78	10.421501
18	0x40eb2c7c	7.34918
19	0xc0d8346e	-6.7564
20	0x41c4cac0	24.598999
21	0x40cca4da	6.3951235
22	0x40a5b6ac	5.178549
23	0x409493a0	4.6430206
24	0xc186cac0	-16.848999
25	0x3fb14f20	1.3852272
26	0x413f0ff8	11.941399
27	0x41687177	14.527701
28	0xc1039fd1	-8.226518
29	0x417e3190	15.8871
30	0x415523a2	13.321199
31	0xc0a11b9a	-5.0346193
32	0x41bb1bda	23.3886
33	0x3fbedc60	1.4911003
34	0x40eb6d0a	7.3570604
35	0x40ba4130	5.8204575
36	0xc198872a	-19.065998
37	0xc11bef29	-9.745889
38	0x3ad00000	0.0015869141
39	0xc15dfd8a	-13.874399
40	0x40474084	3.1133127
41	0x41686040	14.523499
42	0x3fb53890	1.4157887
43	0x40e592f8	7.1741905
44	0x418a902e	17.3204
45	0xc17c8c7b	-15.784297
46	0xbf2a3dc0	-0.66500473
47	0x40db3f00	6.8514404
48	0x417bc6aa	15.736002
49	0x3fe6bea0	1.8026924
50	0x3acb8000	0.0015525818
51	0x41298f5b	10.597499
52	0xc1070509	-8.438729
53	0x4172d0e8	15.1760025
54	0x4187288d	16.8948
55	0x400663fc	2.0998526
56	0x41544d68	13.268898
57	0x4177d0e4	15.488499
58	0xc0fbfa32	-7.8742914
59	0x41c670a4	24.805
60	0x3f9f74b8	1.2457495
61	0xc0dc7f52	-6.890542
62	0x40dcfe98	6.9060783
63	0x40e80014	7.2500095
64	0xc0dabe22	-6.8357096
65	0x41b9315c	23.149101
66	0x3f9951d0	1.1978092
67	0x40d4c0bc	6.648527
68	0x4192896c	18.3171
69	0xc1871ad3	-16.888098
70	0x40974d02	4.7281504
71	0x406b09e0	3.6724777
72	0x4115086f	9.314559
73	0xc119e52b	-9.618449
74	0x414924dc	12.571499
75	0x41865a86	16.7942
76	0x4003cf80	2.0595398
77	0x406c33e0	3.6906662
78	0xc0af5ce6	-5.48009
79	0x3f12d530	0.5735655
80	0x3fe43700	1.7829285
81	0x41261e4e	10.382399
82	0xbfa95b90	-1.3231068
83	0x41b16354	22.1735
84	0x41931c78	18.3889
85	0xc0e7013a	-7.2188997
86	0x41a64d9e	20.787899
87	0x416424de	14.259001
88	0x404d7474	3.2102327
89	0x41278d50	10.472
90	0x4034e7b0	2.826641
91	0x410526b5	8.32195
92	0x41c35598	24.416794
93	0x40f03b74	7.5072575
94	0xbffe85d8	-1.9884596
95	0x41cf69ac	25.926598
96	0x414d6dc4	12.839298
97	0x3ff47e28	1.9101
98	0x4097a9e0	4.7394867
99	0x4143a786	12.228399
100	0x4112fba8	9.1864395
101	0x40759990	3.8374977
102	0x4112cc8d	9.174939
103	0xc118ffd5	-9.562459
104	0x416623a4	14.383701
105	0xc100bb79	-8.04577
106	0x411b98bd	9.72479
107	0x402cd4d0	2.700489
108	0xc1969a36	-18.825298
109	0x40a20b92	5.0639124
110	0x404016a0	3.001381
111	0x4162e9de	14.1820965
112	0xc036e2a0	-2.857582
113	0x41b3d70a	22.48
114	0x40886c8e	4.2632513
115	0xc1302d77	-11.0111
116	0x3ad20000	0.0016021729
117	0xc17fbe0c	-15.983898
118	0xc0f86d32	-7.7633295
119	0x3acb0000	0.0015487671
120	0x412e5dcc	10.8979
121	0x40918534	4.54751
122	0x4118b8c0	9.545105
123	0x417d22cc	15.820995
124	0x408e8718	4.453991
125	0x4152f96c	13.185894
126	0xc095c0c0	-4.679779
127	0x3fc92b80	1.57164
128	0x41a928c0	21.144897
129	0xc01b5274	-2.4269075
130	0x40a8d458	5.275921
131	0x404f82d0	3.2423592
132	0xc17ac152	-15.672197
133	0xc13be6ff	-11.743896
134	0x3eaa0d00	0.33213043
135	0x40a58f46	5.1737394
136	0x409333da	4.6000795
137	0x3fc1f440	1.5152664
138	0xc10b773c	-8.71661
139	0xc130be0d	-11.046399
140	0x3fc74da0	1.5570564
141	0x40ca27a4	6.317339
142	0x40cc6488	6.387272
143	0x411979bc	9.59222
144	0x40c6f2b8	6.2171288
145	0x40cf23d0	6.4731216
146	0x41c7ef00	24.9917
147	0xc16fc91d	-14.9866
148	0xbf0b3a50	-0.5438585
149	0x418dfc84	17.748299
150	0x4144be75	12.296498
151	0x40c07524	6.0142994
152	0x3acc0000	0.0015563965
153	0xc1889446	-17.0724
154	0xc028422c	-2.6290388
155	0x415bb230	13.731003
156	0x41895568	17.166702
157	0x409c8ca8	4.89217
158	0x3acb8000	0.0015525818
159	0xc0892f58	-4.2870293
160	0xc069b1a4	-3.6514673
161	0x41a41444	20.509895
162	0x416c2eb0	14.761398
163	0x4080a9d4	4.020731
164	0x4047d990	3.122654
165	0x3f677e10	0.9042673
166	0x411c8a26	9.783728
167	0x3d063800	0.03276825
168	0x415ceecd	13.808301
169	0xc02567ec	-2.584468
170	0x409518f0	4.659294
171	0xc0bc3054	-5.8808994
172	0xc0debb16	-6.9603376
173	0x3acc0000	0.0015563965
174	0xc193f3b5	-18.493998
175	0xc0add81e	-5.4326315
176	0x3ad40000	0.0016174316
177	0xc048e244	-3.1388102
178	0x40cdb1ee	6.42797
179	0x3acd8000	0.0015678406
180	0x401edf50	2.48238
181	0x3f568890	0.8380213
182	0x3fccc940	1.5998917
183	0x418ced91	17.616
184	0x3ce27000	0.027641296
185	0x40aa5090	5.3223343
186	0xc1302681	-11.0094
187	0xc0da2e1a	-6.8181276
188	0x417d1478	15.817497
189	0x416c0d1c	14.753201
190	0x3ff2de50	1.8974094
191	0x417cd220	15.8013
192	0xc131cf40	-11.113098
193	0xc1366a7d	-11.400998
194	0x3f473940	0.7782173
195	0x40f3e284	7.621401
196	0x4102a37a	8.164911
197	0x3ace0000	0.0015716553
198	0xc17248e8	-15.142799
199	0x41445327	12.270301
200	0x40064400	2.0979004
201	0xc083c070	-4.117241
202	0xc08f4492	-4.4771204
203	0x419c896c	19.5671
204	0x41578586	13.4700985
205	0xc096de46	-4.714633
206	0x40df7dd0	6.984108
207	0x40be72ee	5.9515295
208	0x40e38bc2	7.1108103
209	0x40d3fa58	6.6243095
210	0x418caca4	17.584297
211	0x40fbaea8	7.8650703
212	0x40338950	2.805256
213	0xc096d3ac	-4.713339
214	0xc0503d6c	-3.253749
215	0x41a80ec0	21.007202
216	0xc028c908	-2.63727
217	0xbf5de140	-0.8667183
218	0x41ccf764	25.620796
219	0xc118a325	-9.53983
220	0xc0f44852	-7.633828
221	0x413e34d8	11.887901
222	0x40fae074	7.839899
223	0xc1037f85	-8.218633
224	0x40f43220	7.631119
225	0xc1355117	-11.332297
226	0x3fcd0c18	1.6019316
227	0x3acd0000	0.0015640259
228	0x3fc25270	1.5181408
229	0x40ef55b0	7.47921
230	0x4180db56	16.107098
231	0x41754a24	15.330601
232	0xc104066d	-8.251569
233	0x40de49f0	6.9465256
234	0x415858e2	13.5217
235	0xc06f44a4	-3.7385645
236	0x419716bc	18.8861
237	0xc08086ec	-4.01647
238	0xc0d16a96	-6.544261
239	0x3ad50000	0.001625061
240	0x3f40e630	0.7535124
241	0xc09005ba	-4.500699
242	0x3fe202c0	1.7657089
243	0x40c10902	6.0323496
244	0x40e325d6	7.0983686
245	0x4102fd04	8.186771
246	0xbf9f9b20	-1.2469215
247	0x40a6d36c	5.2133083
248	0x417f2408	15.946297
249	0x3fb60670	1.4220715
250	0x4093d67a	4.619931
251	0x419cf008	19.617203
252	0x40291908	2.6421528
253	0x3f4e6490	0.80622196
254	0x41b12d10	22.147003
255	0x412869ad	10.5258
