code/experiment/shape_registration/result/plane/ot_param.pt (torch, 236601 bytes, 600 tensors)

rotation f4 [3, 3]
0.16506916 -0.7429102 0.6487189 -0.64323014 -0.57970226 -0.50020015 0.7476678 -0.3347079
-0.5735535
00000000: e407 293e 5d2f 3ebf 7112 263f bbaa 24bf
00000010: 5e67 14bf 1e0d 00bf 2867 3f3f d55e abbe
00000020: 67d4 12bf

beta f4 [3]
0.41220477 1.4409972 0.13229617
00000000: 810c d33e 9972 b83f a678 073e

rotation f4 [3, 3]
0.16506931 -0.74291056 0.648719 -0.64323014 -0.5797024 -0.5002002 0.74766773 -0.33470783
-0.57355356
00000000: ee07 293e 632f 3ebf 7312 263f bbaa 24bf
00000010: 6067 14bf 1f0d 00bf 2767 3f3f d35e abbe
00000020: 68d4 12bf

beta f4 [3]
0.41220465 1.4409976 0.13229616
00000000: 7d0c d33e 9c72 b83f a578 073e

rotation f4 [3, 3]
0.16506931 -0.74291056 0.648719 -0.64323014 -0.5797024 -0.5002002 0.74766773 -0.33470783
-0.57355356
00000000: ee07 293e 632f 3ebf 7312 263f bbaa 24bf
00000010: 6067 14bf 1f0d 00bf 2767 3f3f d35e abbe
00000020: 68d4 12bf

beta f4 [3]
0.41220465 1.4409976 0.13229616
00000000: 7d0c d33e 9c72 b83f a578 073e

rotation f4 [3, 3]
0.16506931 -0.74291056 0.648719 -0.64323014 -0.5797024 -0.5002002 0.74766773 -0.33470783
-0.57355356
00000000: ee07 293e 632f 3ebf 7312 263f bbaa 24bf
00000010: 6067 14bf 1f0d 00bf 2767 3f3f d35e abbe
00000020: 68d4 12bf

beta f4 [3]
0.41220465 1.4409976 0.13229616
00000000: 7d0c d33e 9c72 b83f a578 073e

rotation f4 [3, 3]
0.16506931 -0.74291056 0.648719 -0.64323014 -0.5797024 -0.5002002 0.74766773 -0.33470783
-0.57355356
00000000: ee07 293e 632f 3ebf 7312 263f bbaa 24bf
00000010: 6067 14bf 1f0d 00bf 2767 3f3f d35e abbe
00000020: 68d4 12bf

beta f4 [3]
0.41220465 1.4409976 0.13229616
00000000: 7d0c d33e 9c72 b83f a578 073e

rotation f4 [3, 3]
0.16506931 -0.74291056 0.648719 -0.64323014 -0.5797024 -0.5002002 0.74766773 -0.33470783
-0.57355356
00000000: ee07 293e 632f 3ebf 7312 263f bbaa 24bf
00000010: 6067 14bf 1f0d 00bf 2767 3f3f d35e abbe
00000020: 68d4 12bf

beta f4 [3]
0.41220465 1.4409976 0.13229616
00000000: 7d0c d33e 9c72 b83f a578 073e

rotation f4 [3, 3]
0.16506931 -0.74291056 0.648719 -0.64323014 -0.5797024 -0.5002002 0.74766773 -0.33470783
-0.57355356
00000000: ee07 293e 632f 3ebf 7312 263f bbaa 24bf
00000010: 6067 14bf 1f0d 00bf 2767 3f3f d35e abbe
00000020: 68d4 12bf

beta f4 [3]
0.41220465 1.4409976 0.13229616
00000000: 7d0c d33e 9c72 b83f a578 073e

rotation f4 [3, 3]
0.16506931 -0.74291056 0.648719 -0.64323014 -0.5797024 -0.5002002 0.74766773 -0.33470783
-0.57355356
00000000: ee07 293e 632f 3ebf 7312 263f bbaa 24bf
00000010: 6067 14bf 1f0d 00bf 2767 3f3f d35e abbe
00000020: 68d4 12bf

beta f4 [3]
0.41220465 1.4409976 0.13229616
00000000: 7d0c d33e 9c72 b83f a578 073e

rotation f4 [3, 3]
0.16506931 -0.74291056 0.648719 -0.64323014 -0.5797024 -0.5002002 0.74766773 -0.33470783
-0.57355356
00000000: ee07 293e 632f 3ebf 7312 263f bbaa 24bf
00000010: 6067 14bf 1f0d 00bf 2767 3f3f d35e abbe
00000020: 68d4 12bf

beta f4 [3]
0.41220465 1.4409976 0.13229616
00000000: 7d0c d33e 9c72 b83f a578 073e

rotation f4 [3, 3]
0.16506931 -0.74291056 0.648719 -0.64323014 -0.5797024 -0.5002002 0.74766773 -0.33470783
-0.57355356
00000000: ee07 293e 632f 3ebf 7312 263f bbaa 24bf
00000010: 6067 14bf 1f0d 00bf 2767 3f3f d35e abbe
00000020: 68d4 12bf

beta f4 [3]
0.41220465 1.4409976 0.13229616
00000000: 7d0c d33e 9c72 b83f a578 073e

rotation f4 [3, 3]
0.16506931 -0.74291056 0.648719 -0.64323014 -0.5797024 -0.5002002 0.74766773 -0.33470783
-0.57355356
00000000: ee07 293e 632f 3ebf 7312 263f bbaa 24bf
00000010: 6067 14bf 1f0d 00bf 2767 3f3f d35e abbe
00000020: 68d4 12bf

beta f4 [3]
0.41220465 1.4409976 0.13229616
00000000: 7d0c d33e 9c72 b83f a578 073e

rotation f4 [3, 3]
0.16506931 -0.74291056 0.648719 -0.64323014 -0.5797024 -0.5002002 0.74766773 -0.33470783
-0.57355356
00000000: ee07 293e 632f 3ebf 7312 263f bbaa 24bf
00000010: 6067 14bf 1f0d 00bf 2767 3f3f d35e abbe
00000020: 68d4 12bf

beta f4 [3]
0.41220465 1.4409976 0.13229616
00000000: 7d0c d33e 9c72 b83f a578 073e

rotation f4 [3, 3]
0.16506931 -0.74291056 0.648719 -0.64323014 -0.5797024 -0.5002002 0.74766773 -0.33470783
-0.57355356
00000000: ee07 293e 632f 3ebf 7312 263f bbaa 24bf
00000010: 6067 14bf 1f0d 00bf 2767 3f3f d35e abbe
00000020: 68d4 12bf

beta f4 [3]
0.41220465 1.4409976 0.13229616
00000000: 7d0c d33e 9c72 b83f a578 073e

rotation f4 [3, 3]
0.16506931 -0.74291056 0.648719 -0.64323014 -0.5797024 -0.5002002 0.74766773 -0.33470783
-0.57355356
00000000: ee07 293e 632f 3ebf 7312 263f bbaa 24bf
00000010: 6067 14bf 1f0d 00bf 2767 3f3f d35e abbe
00000020: 68d4 12bf

beta f4 [3]
0.41220465 1.4409976 0.13229616
00000000: 7d0c d33e 9c72 b83f a578 073e

rotation f4 [3, 3]
0.16506931 -0.74291056 0.648719 -0.64323014 -0.5797024 -0.5002002 0.74766773 -0.33470783
-0.57355356
00000000: ee07 293e 632f 3ebf 7312 263f bbaa 24bf
00000010: 6067 14bf 1f0d 00bf 2767 3f3f d35e abbe
00000020: 68d4 12bf

beta f4 [3]
0.41220465 1.4409976 0.13229616
00000000: 7d0c d33e 9c72 b83f a578 073e

rotation f4 [3, 3]
0.16506931 -0.74291056 0.648719 -0.64323014 -0.5797024 -0.5002002 0.74766773 -0.33470783
-0.57355356
00000000: ee07 293e 632f 3ebf 7312 263f bbaa 24bf
00000010: 6067 14bf 1f0d 00bf 2767 3f3f d35e abbe
00000020: 68d4 12bf

beta f4 [3]
0.41220465 1.4409976 0.13229616
00000000: 7d0c d33e 9c72 b83f a578 073e

rotation f4 [3, 3]
0.16506931 -0.74291056 0.648719 -0.64323014 -0.5797024 -0.5002002 0.74766773 -0.33470783
-0.57355356
00000000: ee07 293e 632f 3ebf 7312 263f bbaa 24bf
00000010: 6067 14bf 1f0d 00bf 2767 3f3f d35e abbe
00000020: 68d4 12bf

beta f4 [3]
0.41220465 1.4409976 0.13229616
00000000: 7d0c d33e 9c72 b83f a578 073e

rotation f4 [3, 3]
0.16506931 -0.74291056 0.648719 -0.64323014 -0.5797024 -0.5002002 0.74766773 -0.33470783
-0.57355356
00000000: ee07 293e 632f 3ebf 7312 263f bbaa 24bf
00000010: 6067 14bf 1f0d 00bf 2767 3f3f d35e abbe
00000020: 68d4 12bf

beta f4 [3]
0.41220465 1.4409976 0.13229616
00000000: 7d0c d33e 9c72 b83f a578 073e

rotation f4 [3, 3]
0.16506931 -0.74291056 0.648719 -0.64323014 -0.5797024 -0.5002002 0.74766773 -0.33470783
-0.57355356
00000000: ee07 293e 632f 3ebf 7312 263f bbaa 24bf
00000010: 6067 14bf 1f0d 00bf 2767 3f3f d35e abbe
00000020: 68d4 12bf

beta f4 [3]
0.41220465 1.4409976 0.13229616
00000000: 7d0c d33e 9c72 b83f a578 073e

rotation f4 [3, 3]
0.16506931 -0.74291056 0.648719 -0.64323014 -0.5797024 -0.5002002 0.74766773 -0.33470783
-0.57355356
00000000: ee07 293e 632f 3ebf 7312 263f bbaa 24bf
00000010: 6067 14bf 1f0d 00bf 2767 3f3f d35e abbe
00000020: 68d4 12bf

beta f4 [3]
0.41220465 1.4409976 0.13229616
00000000: 7d0c d33e 9c72 b83f a578 073e

rotation f4 [3, 3]
0.16506931 -0.74291056 0.648719 -0.64323014 -0.5797024 -0.5002002 0.74766773 -0.33470783
-0.57355356
00000000: ee07 293e 632f 3ebf 7312 263f bbaa 24bf
00000010: 6067 14bf 1f0d 00bf 2767 3f3f d35e abbe
00000020: 68d4 12bf

beta f4 [3]
0.41220465 1.4409976 0.13229616
00000000: 7d0c d33e 9c72 b83f a578 073e

rotation f4 [3, 3]
0.16506931 -0.74291056 0.648719 -0.64323014 -0.5797024 -0.5002002 0.74766773 -0.33470783
-0.57355356
00000000: ee07 293e 632f 3ebf 7312 263f bbaa 24bf
00000010: 6067 14bf 1f0d 00bf 2767 3f3f d35e abbe
00000020: 68d4 12bf

beta f4 [3]
0.41220465 1.4409976 0.13229616
00000000: 7d0c d33e 9c72 b83f a578 073e

rotation f4 [3, 3]
0.16506931 -0.74291056 0.648719 -0.64323014 -0.5797024 -0.5002002 0.74766773 -0.33470783
-0.57355356
00000000: ee07 293e 632f 3ebf 7312 263f bbaa 24bf
00000010: 6067 14bf 1f0d 00bf 2767 3f3f d35e abbe
00000020: 68d4 12bf

beta f4 [3]
0.41220465 1.4409976 0.13229616
00000000: 7d0c d33e 9c72 b83f a578 073e

rotation f4 [3, 3]
0.16506931 -0.74291056 0.648719 -0.64323014 -0.5797024 -0.5002002 0.74766773 -0.33470783
-0.57355356
00000000: ee07 293e 632f 3ebf 7312 263f bbaa 24bf
00000010: 6067 14bf 1f0d 00bf 2767 3f3f d35e abbe
00000020: 68d4 12bf

beta f4 [3]
0.41220465 1.4409976 0.13229616
00000000: 7d0c d33e 9c72 b83f a578 073e

rotation f4 [3, 3]
0.16506931 -0.74291056 0.648719 -0.64323014 -0.5797024 -0.5002002 0.74766773 -0.33470783
-0.57355356
00000000: ee07 293e 632f 3ebf 7312 263f bbaa 24bf
00000010: 6067 14bf 1f0d 00bf 2767 3f3f d35e abbe
00000020: 68d4 12bf

beta f4 [3]
0.41220465 1.4409976 0.13229616
00000000: 7d0c d33e 9c72 b83f a578 073e

rotation f4 [3, 3]
0.16506931 -0.74291056 0.648719 -0.64323014 -0.5797024 -0.5002002 0.74766773 -0.33470783
-0.57355356
00000000: ee07 293e 632f 3ebf 7312 263f bbaa 24bf
00000010: 6067 14bf 1f0d 00bf 2767 3f3f d35e abbe
00000020: 68d4 12bf

beta f4 [3]
0.41220465 1.4409976 0.13229616
00000000: 7d0c d33e 9c72 b83f a578 073e

rotation f4 [3, 3]
0.16506931 -0.74291056 0.648719 -0.64323014 -0.5797024 -0.5002002 0.74766773 -0.33470783
-0.57355356
00000000: ee07 293e 632f 3ebf 7312 263f bbaa 24bf
00000010: 6067 14bf 1f0d 00bf 2767 3f3f d35e abbe
00000020: 68d4 12bf

beta f4 [3]
0.41220465 1.4409976 0.13229616
00000000: 7d0c d33e 9c72 b83f a578 073e

rotation f4 [3, 3]
0.16506931 -0.74291056 0.648719 -0.64323014 -0.5797024 -0.5002002 0.74766773 -0.33470783
-0.57355356
00000000: ee07 293e 632f 3ebf 7312 263f bbaa 24bf
00000010: 6067 14bf 1f0d 00bf 2767 3f3f d35e abbe
00000020: 68d4 12bf

beta f4 [3]
0.41220465 1.4409976 0.13229616
00000000: 7d0c d33e 9c72 b83f a578 073e

rotation f4 [3, 3]
0.16506931 -0.74291056 0.648719 -0.64323014 -0.5797024 -0.5002002 0.74766773 -0.33470783
-0.57355356
00000000: ee07 293e 632f 3ebf 7312 263f bbaa 24bf
00000010: 6067 14bf 1f0d 00bf 2767 3f3f d35e abbe
00000020: 68d4 12bf

beta f4 [3]
0.41220465 1.4409976 0.13229616
00000000: 7d0c d33e 9c72 b83f a578 073e

rotation f4 [3, 3]
0.16506931 -0.74291056 0.648719 -0.64323014 -0.5797024 -0.5002002 0.74766773 -0.33470783
-0.57355356
00000000: ee07 293e 632f 3ebf 7312 263f bbaa 24bf
00000010: 6067 14bf 1f0d 00bf 2767 3f3f d35e abbe
00000020: 68d4 12bf

beta f4 [3]
0.41220465 1.4409976 0.13229616
00000000: 7d0c d33e 9c72 b83f a578 073e

rotation f4 [3, 3]
0.16506931 -0.74291056 0.648719 -0.64323014 -0.5797024 -0.5002002 0.74766773 -0.33470783
-0.57355356
00000000: ee07 293e 632f 3ebf 7312 263f bbaa 24bf
00000010: 6067 14bf 1f0d 00bf 2767 3f3f d35e abbe
00000020: 68d4 12bf

beta f4 [3]
0.41220465 1.4409976 0.13229616
00000000: 7d0c d33e 9c72 b83f a578 073e

rotation f4 [3, 3]
0.16506931 -0.74291056 0.648719 -0.64323014 -0.5797024 -0.5002002 0.74766773 -0.33470783
-0.57355356
00000000: ee07 293e 632f 3ebf 7312 263f bbaa 24bf
00000010: 6067 14bf 1f0d 00bf 2767 3f3f d35e abbe
00000020: 68d4 12bf

beta f4 [3]
0.41220465 1.4409976 0.13229616
00000000: 7d0c d33e 9c72 b83f a578 073e

rotation f4 [3, 3]
0.16506931 -0.74291056 0.648719 -0.64323014 -0.5797024 -0.5002002 0.74766773 -0.33470783
-0.57355356
00000000: ee07 293e 632f 3ebf 7312 263f bbaa 24bf
00000010: 6067 14bf 1f0d 00bf 2767 3f3f d35e abbe
00000020: 68d4 12bf

beta f4 [3]
0.41220465 1.4409976 0.13229616
00000000: 7d0c d33e 9c72 b83f a578 073e

rotation f4 [3, 3]
0.16506931 -0.74291056 0.648719 -0.64323014 -0.5797024 -0.5002002 0.74766773 -0.33470783
-0.57355356
00000000: ee07 293e 632f 3ebf 7312 263f bbaa 24bf
00000010: 6067 14bf 1f0d 00bf 2767 3f3f d35e abbe
00000020: 68d4 12bf

beta f4 [3]
0.41220465 1.4409976 0.13229616
00000000: 7d0c d33e 9c72 b83f a578 073e

rotation f4 [3, 3]
0.16506931 -0.74291056 0.648719 -0.64323014 -0.5797024 -0.5002002 0.74766773 -0.33470783
-0.57355356
00000000: ee07 293e 632f 3ebf 7312 263f bbaa 24bf
00000010: 6067 14bf 1f0d 00bf 2767 3f3f d35e abbe
00000020: 68d4 12bf

beta f4 [3]
0.41220465 1.4409976 0.13229616
00000000: 7d0c d33e 9c72 b83f a578 073e

rotation f4 [3, 3]
0.16506931 -0.74291056 0.648719 -0.64323014 -0.5797024 -0.5002002 0.74766773 -0.33470783
-0.57355356
00000000: ee07 293e 632f 3ebf 7312 263f bbaa 24bf
00000010: 6067 14bf 1f0d 00bf 2767 3f3f d35e abbe
00000020: 68d4 12bf

beta f4 [3]
0.41220465 1.4409976 0.13229616
00000000: 7d0c d33e 9c72 b83f a578 073e

rotation f4 [3, 3]
0.16506931 -0.74291056 0.648719 -0.64323014 -0.5797024 -0.5002002 0.74766773 -0.33470783
-0.57355356
00000000: ee07 293e 632f 3ebf 7312 263f bbaa 24bf
00000010: 6067 14bf 1f0d 00bf 2767 3f3f d35e abbe
00000020: 68d4 12bf

beta f4 [3]
0.41220465 1.4409976 0.13229616
00000000: 7d0c d33e 9c72 b83f a578 073e

rotation f4 [3, 3]
0.16506931 -0.74291056 0.648719 -0.64323014 -0.5797024 -0.5002002 0.74766773 -0.33470783
-0.57355356
00000000: ee07 293e 632f 3ebf 7312 263f bbaa 24bf
00000010: 6067 14bf 1f0d 00bf 2767 3f3f d35e abbe
00000020: 68d4 12bf

beta f4 [3]
0.41220465 1.4409976 0.13229616
00000000: 7d0c d33e 9c72 b83f a578 073e

rotation f4 [3, 3]
0.16506931 -0.74291056 0.648719 -0.64323014 -0.5797024 -0.5002002 0.74766773 -0.33470783
-0.57355356
00000000: ee07 293e 632f 3ebf 7312 263f bbaa 24bf
00000010: 6067 14bf 1f0d 00bf 2767 3f3f d35e abbe
00000020: 68d4 12bf

beta f4 [3]
0.41220465 1.4409976 0.13229616
00000000: 7d0c d33e 9c72 b83f a578 073e

rotation f4 [3, 3]
0.16506931 -0.74291056 0.648719 -0.64323014 -0.5797024 -0.5002002 0.74766773 -0.33470783
-0.57355356
00000000: ee07 293e 632f 3ebf 7312 263f bbaa 24bf
00000010: 6067 14bf 1f0d 00bf 2767 3f3f d35e abbe
00000020: 68d4 12bf

beta f4 [3]
0.41220465 1.4409976 0.13229616
00000000: 7d0c d33e 9c72 b83f a578 073e

rotation f4 [3, 3]
0.16506931 -0.74291056 0.648719 -0.64323014 -0.5797024 -0.5002002 0.74766773 -0.33470783
-0.57355356
00000000: ee07 293e 632f 3ebf 7312 263f bbaa 24bf
00000010: 6067 14bf 1f0d 00bf 2767 3f3f d35e abbe
00000020: 68d4 12bf

beta f4 [3]
0.41220465 1.4409976 0.13229616
00000000: 7d0c d33e 9c72 b83f a578 073e

rotation f4 [3, 3]
0.16506931 -0.74291056 0.648719 -0.64323014 -0.5797024 -0.5002002 0.74766773 -0.33470783
-0.57355356
00000000: ee07 293e 632f 3ebf 7312 263f bbaa 24bf
00000010: 6067 14bf 1f0d 00bf 2767 3f3f d35e abbe
00000020: 68d4 12bf

beta f4 [3]
0.41220465 1.4409976 0.13229616
00000000: 7d0c d33e 9c72 b83f a578 073e

rotation f4 [3, 3]
0.16506931 -0.74291056 0.648719 -0.64323014 -0.5797024 -0.5002002 0.74766773 -0.33470783
-0.57355356
00000000: ee07 293e 632f 3ebf 7312 263f bbaa 24bf
00000010: 6067 14bf 1f0d 00bf 2767 3f3f d35e abbe
00000020: 68d4 12bf

beta f4 [3]
0.41220465 1.4409976 0.13229616
00000000: 7d0c d33e 9c72 b83f a578 073e

rotation f4 [3, 3]
0.16506931 -0.74291056 0.648719 -0.64323014 -0.5797024 -0.5002002 0.74766773 -0.33470783
-0.57355356
00000000: ee07 293e 632f 3ebf 7312 263f bbaa 24bf
00000010: 6067 14bf 1f0d 00bf 2767 3f3f d35e abbe
00000020: 68d4 12bf

beta f4 [3]
0.41220465 1.4409976 0.13229616
00000000: 7d0c d33e 9c72 b83f a578 073e

rotation f4 [3, 3]
0.16506931 -0.74291056 0.648719 -0.64323014 -0.5797024 -0.5002002 0.74766773 -0.33470783
-0.57355356
00000000: ee07 293e 632f 3ebf 7312 263f bbaa 24bf
00000010: 6067 14bf 1f0d 00bf 2767 3f3f d35e abbe
00000020: 68d4 12bf

beta f4 [3]
0.41220465 1.4409976 0.13229616
00000000: 7d0c d33e 9c72 b83f a578 073e

rotation f4 [3, 3]
0.16506931 -0.74291056 0.648719 -0.64323014 -0.5797024 -0.5002002 0.74766773 -0.33470783
-0.57355356
00000000: ee07 293e 632f 3ebf 7312 263f bbaa 24bf
00000010: 6067 14bf 1f0d 00bf 2767 3f3f d35e abbe
00000020: 68d4 12bf

beta f4 [3]
0.41220465 1.4409976 0.13229616
00000000: 7d0c d33e 9c72 b83f a578 073e

rotation f4 [3, 3]
0.16506931 -0.74291056 0.648719 -0.64323014 -0.5797024 -0.5002002 0.74766773 -0.33470783
-0.57355356
00000000: ee07 293e 632f 3ebf 7312 263f bbaa 24bf
00000010: 6067 14bf 1f0d 00bf 2767 3f3f d35e abbe
00000020: 68d4 12bf

beta f4 [3]
0.41220465 1.4409976 0.13229616
00000000: 7d0c d33e 9c72 b83f a578 073e

rotation f4 [3, 3]
0.16506931 -0.74291056 0.648719 -0.64323014 -0.5797024 -0.5002002 0.74766773 -0.33470783
-0.57355356
00000000: ee07 293e 632f 3ebf 7312 263f bbaa 24bf
00000010: 6067 14bf 1f0d 00bf 2767 3f3f d35e abbe
00000020: 68d4 12bf

beta f4 [3]
0.41220465 1.4409976 0.13229616
00000000: 7d0c d33e 9c72 b83f a578 073e

rotation f4 [3, 3]
0.16506931 -0.74291056 0.648719 -0.64323014 -0.5797024 -0.5002002 0.74766773 -0.33470783
-0.57355356
00000000: ee07 293e 632f 3ebf 7312 263f bbaa 24bf
00000010: 6067 14bf 1f0d 00bf 2767 3f3f d35e abbe
00000020: 68d4 12bf

beta f4 [3]
0.41220465 1.4409976 0.13229616
00000000: 7d0c d33e 9c72 b83f a578 073e

rotation f4 [3, 3]
0.16506931 -0.74291056 0.648719 -0.64323014 -0.5797024 -0.5002002 0.74766773 -0.33470783
-0.57355356
00000000: ee07 293e 632f 3ebf 7312 263f bbaa 24bf
00000010: 6067 14bf 1f0d 00bf 2767 3f3f d35e abbe
00000020: 68d4 12bf

beta f4 [3]
0.41220465 1.4409976 0.13229616
00000000: 7d0c d33e 9c72 b83f a578 073e

rotation f4 [3, 3]
0.16506931 -0.74291056 0.648719 -0.64323014 -0.5797024 -0.5002002 0.74766773 -0.33470783
-0.57355356
00000000: ee07 293e 632f 3ebf 7312 263f bbaa 24bf
00000010: 6067 14bf 1f0d 00bf 2767 3f3f d35e abbe
00000020: 68d4 12bf

beta f4 [3]
0.41220465 1.4409976 0.13229616
00000000: 7d0c d33e 9c72 b83f a578 073e

rotation f4 [3, 3]
0.16506931 -0.74291056 0.648719 -0.64323014 -0.5797024 -0.5002002 0.74766773 -0.33470783
-0.57355356
00000000: ee07 293e 632f 3ebf 7312 263f bbaa 24bf
00000010: 6067 14bf 1f0d 00bf 2767 3f3f d35e abbe
00000020: 68d4 12bf

beta f4 [3]
0.41220465 1.4409976 0.13229616
00000000: 7d0c d33e 9c72 b83f a578 073e

rotation f4 [3, 3]
0.16506931 -0.74291056 0.648719 -0.64323014 -0.5797024 -0.5002002 0.74766773 -0.33470783
-0.57355356
00000000: ee07 293e 632f 3ebf 7312 263f bbaa 24bf
00000010: 6067 14bf 1f0d 00bf 2767 3f3f d35e abbe
00000020: 68d4 12bf

beta f4 [3]
0.41220465 1.4409976 0.13229616
00000000: 7d0c d33e 9c72 b83f a578 073e

rotation f4 [3, 3]
0.16506931 -0.74291056 0.648719 -0.64323014 -0.5797024 -0.5002002 0.74766773 -0.33470783
-0.57355356
00000000: ee07 293e 632f 3ebf 7312 263f bbaa 24bf
00000010: 6067 14bf 1f0d 00bf 2767 3f3f d35e abbe
00000020: 68d4 12bf

beta f4 [3]
0.41220465 1.4409976 0.13229616
00000000: 7d0c d33e 9c72 b83f a578 073e

rotation f4 [3, 3]
0.16506931 -0.74291056 0.648719 -0.64323014 -0.5797024 -0.5002002 0.74766773 -0.33470783
-0.57355356
00000000: ee07 293e 632f 3ebf 7312 263f bbaa 24bf
00000010: 6067 14bf 1f0d 00bf 2767 3f3f d35e abbe
00000020: 68d4 12bf

beta f4 [3]
0.41220465 1.4409976 0.13229616
00000000: 7d0c d33e 9c72 b83f a578 073e

rotation f4 [3, 3]
0.16506931 -0.74291056 0.648719 -0.64323014 -0.5797024 -0.5002002 0.74766773 -0.33470783
-0.57355356
00000000: ee07 293e 632f 3ebf 7312 263f bbaa 24bf
00000010: 6067 14bf 1f0d 00bf 2767 3f3f d35e abbe
00000020: 68d4 12bf

beta f4 [3]
0.41220465 1.4409976 0.13229616
00000000: 7d0c d33e 9c72 b83f a578 073e

rotation f4 [3, 3]
0.16506931 -0.74291056 0.648719 -0.64323014 -0.5797024 -0.5002002 0.74766773 -0.33470783
-0.57355356
00000000: ee07 293e 632f 3ebf 7312 263f bbaa 24bf
00000010: 6067 14bf 1f0d 00bf 2767 3f3f d35e abbe
00000020: 68d4 12bf

beta f4 [3]
0.41220465 1.4409976 0.13229616
00000000: 7d0c d33e 9c72 b83f a578 073e

rotation f4 [3, 3]
0.16506931 -0.74291056 0.648719 -0.64323014 -0.5797024 -0.5002002 0.74766773 -0.33470783
-0.57355356
00000000: ee07 293e 632f 3ebf 7312 263f bbaa 24bf
00000010: 6067 14bf 1f0d 00bf 2767 3f3f d35e abbe
00000020: 68d4 12bf

beta f4 [3]
0.41220465 1.4409976 0.13229616
00000000: 7d0c d33e 9c72 b83f a578 073e

rotation f4 [3, 3]
0.16506931 -0.74291056 0.648719 -0.64323014 -0.5797024 -0.5002002 0.74766773 -0.33470783
-0.57355356
00000000: ee07 293e 632f 3ebf 7312 263f bbaa 24bf
00000010: 6067 14bf 1f0d 00bf 2767 3f3f d35e abbe
00000020: 68d4 12bf

beta f4 [3]
0.41220465 1.4409976 0.13229616
00000000: 7d0c d33e 9c72 b83f a578 073e

rotation f4 [3, 3]
0.16506931 -0.74291056 0.648719 -0.64323014 -0.5797024 -0.5002002 0.74766773 -0.33470783
-0.57355356
00000000: ee07 293e 632f 3ebf 7312 263f bbaa 24bf
00000010: 6067 14bf 1f0d 00bf 2767 3f3f d35e abbe
00000020: 68d4 12bf

beta f4 [3]
0.41220465 1.4409976 0.13229616
00000000: 7d0c d33e 9c72 b83f a578 073e

rotation f4 [3, 3]
0.16506931 -0.74291056 0.648719 -0.64323014 -0.5797024 -0.5002002 0.74766773 -0.33470783
-0.57355356
00000000: ee07 293e 632f 3ebf 7312 263f bbaa 24bf
00000010: 6067 14bf 1f0d 00bf 2767 3f3f d35e abbe
00000020: 68d4 12bf

beta f4 [3]
0.41220465 1.4409976 0.13229616
00000000: 7d0c d33e 9c72 b83f a578 073e

rotation f4 [3, 3]
0.16506931 -0.74291056 0.648719 -0.64323014 -0.5797024 -0.5002002 0.74766773 -0.33470783
-0.57355356
00000000: ee07 293e 632f 3ebf 7312 263f bbaa 24bf
00000010: 6067 14bf 1f0d 00bf 2767 3f3f d35e abbe
00000020: 68d4 12bf

beta f4 [3]
0.41220465 1.4409976 0.13229616
00000000: 7d0c d33e 9c72 b83f a578 073e

rotation f4 [3, 3]
0.16506931 -0.74291056 0.648719 -0.64323014 -0.5797024 -0.5002002 0.74766773 -0.33470783
-0.57355356
00000000: ee07 293e 632f 3ebf 7312 263f bbaa 24bf
00000010: 6067 14bf 1f0d 00bf 2767 3f3f d35e abbe
00000020: 68d4 12bf

beta f4 [3]
0.41220465 1.4409976 0.13229616
00000000: 7d0c d33e 9c72 b83f a578 073e

rotation f4 [3, 3]
0.16506931 -0.74291056 0.648719 -0.64323014 -0.5797024 -0.5002002 0.74766773 -0.33470783
-0.57355356
00000000: ee07 293e 632f 3ebf 7312 263f bbaa 24bf
00000010: 6067 14bf 1f0d 00bf 2767 3f3f d35e abbe
00000020: 68d4 12bf

beta f4 [3]
0.41220465 1.4409976 0.13229616
00000000: 7d0c d33e 9c72 b83f a578 073e

rotation f4 [3, 3]
0.16506931 -0.74291056 0.648719 -0.64323014 -0.5797024 -0.5002002 0.74766773 -0.33470783
-0.57355356
00000000: ee07 293e 632f 3ebf 7312 263f bbaa 24bf
00000010: 6067 14bf 1f0d 00bf 2767 3f3f d35e abbe
00000020: 68d4 12bf

beta f4 [3]
0.41220465 1.4409976 0.13229616
00000000: 7d0c d33e 9c72 b83f a578 073e

rotation f4 [3, 3]
0.16506931 -0.74291056 0.648719 -0.64323014 -0.5797024 -0.5002002 0.74766773 -0.33470783
-0.57355356
00000000: ee07 293e 632f 3ebf 7312 263f bbaa 24bf
00000010: 6067 14bf 1f0d 00bf 2767 3f3f d35e abbe
00000020: 68d4 12bf

beta f4 [3]
0.41220465 1.4409976 0.13229616
00000000: 7d0c d33e 9c72 b83f a578 073e

rotation f4 [3, 3]
0.16506931 -0.74291056 0.648719 -0.64323014 -0.5797024 -0.5002002 0.74766773 -0.33470783
-0.57355356
00000000: ee07 293e 632f 3ebf 7312 263f bbaa 24bf
00000010: 6067 14bf 1f0d 00bf 2767 3f3f d35e abbe
00000020: 68d4 12bf

beta f4 [3]
0.41220465 1.4409976 0.13229616
00000000: 7d0c d33e 9c72 b83f a578 073e

rotation f4 [3, 3]
0.16506931 -0.74291056 0.648719 -0.64323014 -0.5797024 -0.5002002 0.74766773 -0.33470783
-0.57355356
00000000: ee07 293e 632f 3ebf 7312 263f bbaa 24bf
00000010: 6067 14bf 1f0d 00bf 2767 3f3f d35e abbe
00000020: 68d4 12bf

beta f4 [3]
0.41220465 1.4409976 0.13229616
00000000: 7d0c d33e 9c72 b83f a578 073e

rotation f4 [3, 3]
0.16506931 -0.74291056 0.648719 -0.64323014 -0.5797024 -0.5002002 0.74766773 -0.33470783
-0.57355356
00000000: ee07 293e 632f 3ebf 7312 263f bbaa 24bf
00000010: 6067 14bf 1f0d 00bf 2767 3f3f d35e abbe
00000020: 68d4 12bf

beta f4 [3]
0.41220465 1.4409976 0.13229616
00000000: 7d0c d33e 9c72 b83f a578 073e

rotation f4 [3, 3]
0.16506931 -0.74291056 0.648719 -0.64323014 -0.5797024 -0.5002002 0.74766773 -0.33470783
-0.57355356
00000000: ee07 293e 632f 3ebf 7312 263f bbaa 24bf
00000010: 6067 14bf 1f0d 00bf 2767 3f3f d35e abbe
00000020: 68d4 12bf

beta f4 [3]
0.41220465 1.4409976 0.13229616
00000000: 7d0c d33e 9c72 b83f a578 073e

rotation f4 [3, 3]
0.16506931 -0.74291056 0.648719 -0.64323014 -0.5797024 -0.5002002 0.74766773 -0.33470783
-0.57355356
00000000: ee07 293e 632f 3ebf 7312 263f bbaa 24bf
00000010: 6067 14bf 1f0d 00bf 2767 3f3f d35e abbe
00000020: 68d4 12bf

beta f4 [3]
0.41220465 1.4409976 0.13229616
00000000: 7d0c d33e 9c72 b83f a578 073e

rotation f4 [3, 3]
0.16506931 -0.74291056 0.648719 -0.64323014 -0.5797024 -0.5002002 0.74766773 -0.33470783
-0.57355356
00000000: ee07 293e 632f 3ebf 7312 263f bbaa 24bf
00000010: 6067 14bf 1f0d 00bf 2767 3f3f d35e abbe
00000020: 68d4 12bf

beta f4 [3]
0.41220465 1.4409976 0.13229616
00000000: 7d0c d33e 9c72 b83f a578 073e

rotation f4 [3, 3]
0.16506931 -0.74291056 0.648719 -0.64323014 -0.5797024 -0.5002002 0.74766773 -0.33470783
-0.57355356
00000000: ee07 293e 632f 3ebf 7312 263f bbaa 24bf
00000010: 6067 14bf 1f0d 00bf 2767 3f3f d35e abbe
00000020: 68d4 12bf

beta f4 [3]
0.41220465 1.4409976 0.13229616
00000000: 7d0c d33e 9c72 b83f a578 073e

rotation f4 [3, 3]
0.16506931 -0.74291056 0.648719 -0.64323014 -0.5797024 -0.5002002 0.74766773 -0.33470783
-0.57355356
00000000: ee07 293e 632f 3ebf 7312 263f bbaa 24bf
00000010: 6067 14bf 1f0d 00bf 2767 3f3f d35e abbe
00000020: 68d4 12bf

beta f4 [3]
0.41220465 1.4409976 0.13229616
00000000: 7d0c d33e 9c72 b83f a578 073e

rotation f4 [3, 3]
0.16506931 -0.74291056 0.648719 -0.64323014 -0.5797024 -0.5002002 0.74766773 -0.33470783
-0.57355356
00000000: ee07 293e 632f 3ebf 7312 263f bbaa 24bf
00000010: 6067 14bf 1f0d 00bf 2767 3f3f d35e abbe
00000020: 68d4 12bf

beta f4 [3]
0.41220465 1.4409976 0.13229616
00000000: 7d0c d33e 9c72 b83f a578 073e

rotation f4 [3, 3]
0.16506931 -0.74291056 0.648719 -0.64323014 -0.5797024 -0.5002002 0.74766773 -0.33470783
-0.57355356
00000000: ee07 293e 632f 3ebf 7312 263f bbaa 24bf
00000010: 6067 14bf 1f0d 00bf 2767 3f3f d35e abbe
00000020: 68d4 12bf

beta f4 [3]
0.41220465 1.4409976 0.13229616
00000000: 7d0c d33e 9c72 b83f a578 073e

rotation f4 [3, 3]
0.16506931 -0.74291056 0.648719 -0.64323014 -0.5797024 -0.5002002 0.74766773 -0.33470783
-0.57355356
00000000: ee07 293e 632f 3ebf 7312 263f bbaa 24bf
00000010: 6067 14bf 1f0d 00bf 2767 3f3f d35e abbe
00000020: 68d4 12bf

beta f4 [3]
0.41220465 1.4409976 0.13229616
00000000: 7d0c d33e 9c72 b83f a578 073e

rotation f4 [3, 3]
0.16506931 -0.74291056 0.648719 -0.64323014 -0.5797024 -0.5002002 0.74766773 -0.33470783
-0.57355356
00000000: ee07 293e 632f 3ebf 7312 263f bbaa 24bf
00000010: 6067 14bf 1f0d 00bf 2767 3f3f d35e abbe
00000020: 68d4 12bf

beta f4 [3]
0.41220465 1.4409976 0.13229616
00000000: 7d0c d33e 9c72 b83f a578 073e

rotation f4 [3, 3]
0.16506931 -0.74291056 0.648719 -0.64323014 -0.5797024 -0.5002002 0.74766773 -0.33470783
-0.57355356
00000000: ee07 293e 632f 3ebf 7312 263f bbaa 24bf
00000010: 6067 14bf 1f0d 00bf 2767 3f3f d35e abbe
00000020: 68d4 12bf

beta f4 [3]
0.41220465 1.4409976 0.13229616
00000000: 7d0c d33e 9c72 b83f a578 073e

rotation f4 [3, 3]
0.16506931 -0.74291056 0.648719 -0.64323014 -0.5797024 -0.5002002 0.74766773 -0.33470783
-0.57355356
00000000: ee07 293e 632f 3ebf 7312 263f bbaa 24bf
00000010: 6067 14bf 1f0d 00bf 2767 3f3f d35e abbe
00000020: 68d4 12bf

beta f4 [3]
0.41220465 1.4409976 0.13229616
00000000: 7d0c d33e 9c72 b83f a578 073e

rotation f4 [3, 3]
0.16506931 -0.74291056 0.648719 -0.64323014 -0.5797024 -0.5002002 0.74766773 -0.33470783
-0.57355356
00000000: ee07 293e 632f 3ebf 7312 263f bbaa 24bf
00000010: 6067 14bf 1f0d 00bf 2767 3f3f d35e abbe
00000020: 68d4 12bf

beta f4 [3]
0.41220465 1.4409976 0.13229616
00000000: 7d0c d33e 9c72 b83f a578 073e

rotation f4 [3, 3]
0.16506931 -0.74291056 0.648719 -0.64323014 -0.5797024 -0.5002002 0.74766773 -0.33470783
-0.57355356
00000000: ee07 293e 632f 3ebf 7312 263f bbaa 24bf
00000010: 6067 14bf 1f0d 00bf 2767 3f3f d35e abbe
00000020: 68d4 12bf

beta f4 [3]
0.41220465 1.4409976 0.13229616
00000000: 7d0c d33e 9c72 b83f a578 073e

rotation f4 [3, 3]
0.16506931 -0.74291056 0.648719 -0.64323014 -0.5797024 -0.5002002 0.74766773 -0.33470783
-0.57355356
00000000: ee07 293e 632f 3ebf 7312 263f bbaa 24bf
00000010: 6067 14bf 1f0d 00bf 2767 3f3f d35e abbe
00000020: 68d4 12bf

beta f4 [3]
0.41220465 1.4409976 0.13229616
00000000: 7d0c d33e 9c72 b83f a578 073e

rotation f4 [3, 3]
0.16506931 -0.74291056 0.648719 -0.64323014 -0.5797024 -0.5002002 0.74766773 -0.33470783
-0.57355356
00000000: ee07 293e 632f 3ebf 7312 263f bbaa 24bf
00000010: 6067 14bf 1f0d 00bf 2767 3f3f d35e abbe
00000020: 68d4 12bf

beta f4 [3]
0.41220465 1.4409976 0.13229616
00000000: 7d0c d33e 9c72 b83f a578 073e

rotation f4 [3, 3]
0.16506931 -0.74291056 0.648719 -0.64323014 -0.5797024 -0.5002002 0.74766773 -0.33470783
-0.57355356
00000000: ee07 293e 632f 3ebf 7312 263f bbaa 24bf
00000010: 6067 14bf 1f0d 00bf 2767 3f3f d35e abbe
00000020: 68d4 12bf

beta f4 [3]
0.41220465 1.4409976 0.13229616
00000000: 7d0c d33e 9c72 b83f a578 073e

rotation f4 [3, 3]
0.16506931 -0.74291056 0.648719 -0.64323014 -0.5797024 -0.5002002 0.74766773 -0.33470783
-0.57355356
00000000: ee07 293e 632f 3ebf 7312 263f bbaa 24bf
00000010: 6067 14bf 1f0d 00bf 2767 3f3f d35e abbe
00000020: 68d4 12bf

beta f4 [3]
0.41220465 1.4409976 0.13229616
00000000: 7d0c d33e 9c72 b83f a578 073e

rotation f4 [3, 3]
0.16506931 -0.74291056 0.648719 -0.64323014 -0.5797024 -0.5002002 0.74766773 -0.33470783
-0.57355356
00000000: ee07 293e 632f 3ebf 7312 263f bbaa 24bf
00000010: 6067 14bf 1f0d 00bf 2767 3f3f d35e abbe
00000020: 68d4 12bf

beta f4 [3]
0.41220465 1.4409976 0.13229616
00000000: 7d0c d33e 9c72 b83f a578 073e

rotation f4 [3, 3]
0.16506931 -0.74291056 0.648719 -0.64323014 -0.5797024 -0.5002002 0.74766773 -0.33470783
-0.57355356
00000000: ee07 293e 632f 3ebf 7312 263f bbaa 24bf
00000010: 6067 14bf 1f0d 00bf 2767 3f3f d35e abbe
00000020: 68d4 12bf

beta f4 [3]
0.41220465 1.4409976 0.13229616
00000000: 7d0c d33e 9c72 b83f a578 073e

rotation f4 [3, 3]
0.16506931 -0.74291056 0.648719 -0.64323014 -0.5797024 -0.5002002 0.74766773 -0.33470783
-0.57355356
00000000: ee07 293e 632f 3ebf 7312 263f bbaa 24bf
00000010: 6067 14bf 1f0d 00bf 2767 3f3f d35e abbe
00000020: 68d4 12bf

beta f4 [3]
0.41220465 1.4409976 0.13229616
00000000: 7d0c d33e 9c72 b83f a578 073e

rotation f4 [3, 3]
0.16506931 -0.74291056 0.648719 -0.64323014 -0.5797024 -0.5002002 0.74766773 -0.33470783
-0.57355356
00000000: ee07 293e 632f 3ebf 7312 263f bbaa 24bf
00000010: 6067 14bf 1f0d 00bf 2767 3f3f d35e abbe
00000020: 68d4 12bf

beta f4 [3]
0.41220465 1.4409976 0.13229616
00000000: 7d0c d33e 9c72 b83f a578 073e

rotation f4 [3, 3]
0.16506931 -0.74291056 0.648719 -0.64323014 -0.5797024 -0.5002002 0.74766773 -0.33470783
-0.57355356
00000000: ee07 293e 632f 3ebf 7312 263f bbaa 24bf
00000010: 6067 14bf 1f0d 00bf 2767 3f3f d35e abbe
00000020: 68d4 12bf

beta f4 [3]
0.41220465 1.4409976 0.13229616
00000000: 7d0c d33e 9c72 b83f a578 073e

rotation f4 [3, 3]
0.16506931 -0.74291056 0.648719 -0.64323014 -0.5797024 -0.5002002 0.74766773 -0.33470783
-0.57355356
00000000: ee07 293e 632f 3ebf 7312 263f bbaa 24bf
00000010: 6067 14bf 1f0d 00bf 2767 3f3f d35e abbe
00000020: 68d4 12bf

beta f4 [3]
0.41220465 1.4409976 0.13229616
00000000: 7d0c d33e 9c72 b83f a578 073e

rotation f4 [3, 3]
0.16506931 -0.74291056 0.648719 -0.64323014 -0.5797024 -0.5002002 0.74766773 -0.33470783
-0.57355356
00000000: ee07 293e 632f 3ebf 7312 263f bbaa 24bf
00000010: 6067 14bf 1f0d 00bf 2767 3f3f d35e abbe
00000020: 68d4 12bf

beta f4 [3]
0.41220465 1.4409976 0.13229616
00000000: 7d0c d33e 9c72 b83f a578 073e

rotation f4 [3, 3]
0.16506931 -0.74291056 0.648719 -0.64323014 -0.5797024 -0.5002002 0.74766773 -0.33470783
-0.57355356
00000000: ee07 293e 632f 3ebf 7312 263f bbaa 24bf
00000010: 6067 14bf 1f0d 00bf 2767 3f3f d35e abbe
00000020: 68d4 12bf

beta f4 [3]
0.41220465 1.4409976 0.13229616
00000000: 7d0c d33e 9c72 b83f a578 073e

rotation f4 [3, 3]
0.16506931 -0.74291056 0.648719 -0.64323014 -0.5797024 -0.5002002 0.74766773 -0.33470783
-0.57355356
00000000: ee07 293e 632f 3ebf 7312 263f bbaa 24bf
00000010: 6067 14bf 1f0d 00bf 2767 3f3f d35e abbe
00000020: 68d4 12bf

beta f4 [3]
0.41220465 1.4409976 0.13229616
00000000: 7d0c d33e 9c72 b83f a578 073e

rotation f4 [3, 3]
0.16506931 -0.74291056 0.648719 -0.64323014 -0.5797024 -0.5002002 0.74766773 -0.33470783
-0.57355356
00000000: ee07 293e 632f 3ebf 7312 263f bbaa 24bf
00000010: 6067 14bf 1f0d 00bf 2767 3f3f d35e abbe
00000020: 68d4 12bf

beta f4 [3]
0.41220465 1.4409976 0.13229616
00000000: 7d0c d33e 9c72 b83f a578 073e

rotation f4 [3, 3]
0.16506931 -0.74291056 0.648719 -0.64323014 -0.5797024 -0.5002002 0.74766773 -0.33470783
-0.57355356
00000000: ee07 293e 632f 3ebf 7312 263f bbaa 24bf
00000010: 6067 14bf 1f0d 00bf 2767 3f3f d35e abbe
00000020: 68d4 12bf

beta f4 [3]
0.41220465 1.4409976 0.13229616
00000000: 7d0c d33e 9c72 b83f a578 073e

rotation f4 [3, 3]
0.16506931 -0.74291056 0.648719 -0.64323014 -0.5797024 -0.5002002 0.74766773 -0.33470783
-0.57355356
00000000: ee07 293e 632f 3ebf 7312 263f bbaa 24bf
00000010: 6067 14bf 1f0d 00bf 2767 3f3f d35e abbe
00000020: 68d4 12bf

beta f4 [3]
0.41220465 1.4409976 0.13229616
00000000: 7d0c d33e 9c72 b83f a578 073e

rotation f4 [3, 3]
0.16506931 -0.74291056 0.648719 -0.64323014 -0.5797024 -0.5002002 0.74766773 -0.33470783
-0.57355356
00000000: ee07 293e 632f 3ebf 7312 263f bbaa 24bf
00000010: 6067 14bf 1f0d 00bf 2767 3f3f d35e abbe
00000020: 68d4 12bf

beta f4 [3]
0.41220465 1.4409976 0.13229616
00000000: 7d0c d33e 9c72 b83f a578 073e

rotation f4 [3, 3]
0.16506931 -0.74291056 0.648719 -0.64323014 -0.5797024 -0.5002002 0.74766773 -0.33470783
-0.57355356
00000000: ee07 293e 632f 3ebf 7312 263f bbaa 24bf
00000010: 6067 14bf 1f0d 00bf 2767 3f3f d35e abbe
00000020: 68d4 12bf

beta f4 [3]
0.41220465 1.4409976 0.13229616
00000000: 7d0c d33e 9c72 b83f a578 073e

rotation f4 [3, 3]
0.16506931 -0.74291056 0.648719 -0.64323014 -0.5797024 -0.5002002 0.74766773 -0.33470783
-0.57355356
00000000: ee07 293e 632f 3ebf 7312 263f bbaa 24bf
00000010: 6067 14bf 1f0d 00bf 2767 3f3f d35e abbe
00000020: 68d4 12bf

beta f4 [3]
0.41220465 1.4409976 0.13229616
00000000: 7d0c d33e 9c72 b83f a578 073e

rotation f4 [3, 3]
0.16506931 -0.74291056 0.648719 -0.64323014 -0.5797024 -0.5002002 0.74766773 -0.33470783
-0.57355356
00000000: ee07 293e 632f 3ebf 7312 263f bbaa 24bf
00000010: 6067 14bf 1f0d 00bf 2767 3f3f d35e abbe
00000020: 68d4 12bf

beta f4 [3]
0.41220465 1.4409976 0.13229616
00000000: 7d0c d33e 9c72 b83f a578 073e

rotation f4 [3, 3]
0.16506931 -0.74291056 0.648719 -0.64323014 -0.5797024 -0.5002002 0.74766773 -0.33470783
-0.57355356
00000000: ee07 293e 632f 3ebf 7312 263f bbaa 24bf
00000010: 6067 14bf 1f0d 00bf 2767 3f3f d35e abbe
00000020: 68d4 12bf

beta f4 [3]
0.41220465 1.4409976 0.13229616
00000000: 7d0c d33e 9c72 b83f a578 073e

rotation f4 [3, 3]
0.16506931 -0.74291056 0.648719 -0.64323014 -0.5797024 -0.5002002 0.74766773 -0.33470783
-0.57355356
00000000: ee07 293e 632f 3ebf 7312 263f bbaa 24bf
00000010: 6067 14bf 1f0d 00bf 2767 3f3f d35e abbe
00000020: 68d4 12bf

beta f4 [3]
0.41220465 1.4409976 0.13229616
00000000: 7d0c d33e 9c72 b83f a578 073e

rotation f4 [3, 3]
0.16506931 -0.74291056 0.648719 -0.64323014 -0.5797024 -0.5002002 0.74766773 -0.33470783
-0.57355356
00000000: ee07 293e 632f 3ebf 7312 263f bbaa 24bf
00000010: 6067 14bf 1f0d 00bf 2767 3f3f d35e abbe
00000020: 68d4 12bf

beta f4 [3]
0.41220465 1.4409976 0.13229616
00000000: 7d0c d33e 9c72 b83f a578 073e

rotation f4 [3, 3]
0.16506931 -0.74291056 0.648719 -0.64323014 -0.5797024 -0.5002002 0.74766773 -0.33470783
-0.57355356
00000000: ee07 293e 632f 3ebf 7312 263f bbaa 24bf
00000010: 6067 14bf 1f0d 00bf 2767 3f3f d35e abbe
00000020: 68d4 12bf

beta f4 [3]
0.41220465 1.4409976 0.13229616
00000000: 7d0c d33e 9c72 b83f a578 073e

rotation f4 [3, 3]
0.16506931 -0.74291056 0.648719 -0.64323014 -0.5797024 -0.5002002 0.74766773 -0.33470783
-0.57355356
00000000: ee07 293e 632f 3ebf 7312 263f bbaa 24bf
00000010: 6067 14bf 1f0d 00bf 2767 3f3f d35e abbe
00000020: 68d4 12bf

beta f4 [3]
0.41220465 1.4409976 0.13229616
00000000: 7d0c d33e 9c72 b83f a578 073e

rotation f4 [3, 3]
0.16506931 -0.74291056 0.648719 -0.64323014 -0.5797024 -0.5002002 0.74766773 -0.33470783
-0.57355356
00000000: ee07 293e 632f 3ebf 7312 263f bbaa 24bf
00000010: 6067 14bf 1f0d 00bf 2767 3f3f d35e abbe
00000020: 68d4 12bf

beta f4 [3]
0.41220465 1.4409976 0.13229616
00000000: 7d0c d33e 9c72 b83f a578 073e

rotation f4 [3, 3]
0.16506931 -0.74291056 0.648719 -0.64323014 -0.5797024 -0.5002002 0.74766773 -0.33470783
-0.57355356
00000000: ee07 293e 632f 3ebf 7312 263f bbaa 24bf
00000010: 6067 14bf 1f0d 00bf 2767 3f3f d35e abbe
00000020: 68d4 12bf

beta f4 [3]
0.41220465 1.4409976 0.13229616
00000000: 7d0c d33e 9c72 b83f a578 073e

rotation f4 [3, 3]
0.16506931 -0.74291056 0.648719 -0.64323014 -0.5797024 -0.5002002 0.74766773 -0.33470783
-0.57355356
00000000: ee07 293e 632f 3ebf 7312 263f bbaa 24bf
00000010: 6067 14bf 1f0d 00bf 2767 3f3f d35e abbe
00000020: 68d4 12bf

beta f4 [3]
0.41220465 1.4409976 0.13229616
00000000: 7d0c d33e 9c72 b83f a578 073e

rotation f4 [3, 3]
0.16506931 -0.74291056 0.648719 -0.64323014 -0.5797024 -0.5002002 0.74766773 -0.33470783
-0.57355356
00000000: ee07 293e 632f 3ebf 7312 263f bbaa 24bf
00000010: 6067 14bf 1f0d 00bf 2767 3f3f d35e abbe
00000020: 68d4 12bf

beta f4 [3]
0.41220465 1.4409976 0.13229616
00000000: 7d0c d33e 9c72 b83f a578 073e

rotation f4 [3, 3]
0.16506931 -0.74291056 0.648719 -0.64323014 -0.5797024 -0.5002002 0.74766773 -0.33470783
-0.57355356
00000000: ee07 293e 632f 3ebf 7312 263f bbaa 24bf
00000010: 6067 14bf 1f0d 00bf 2767 3f3f d35e abbe
00000020: 68d4 12bf

beta f4 [3]
0.41220465 1.4409976 0.13229616
00000000: 7d0c d33e 9c72 b83f a578 073e

rotation f4 [3, 3]
0.16506931 -0.74291056 0.648719 -0.64323014 -0.5797024 -0.5002002 0.74766773 -0.33470783
-0.57355356
00000000: ee07 293e 632f 3ebf 7312 263f bbaa 24bf
00000010: 6067 14bf 1f0d 00bf 2767 3f3f d35e abbe
00000020: 68d4 12bf

beta f4 [3]
0.41220465 1.4409976 0.13229616
00000000: 7d0c d33e 9c72 b83f a578 073e

rotation f4 [3, 3]
0.16506931 -0.74291056 0.648719 -0.64323014 -0.5797024 -0.5002002 0.74766773 -0.33470783
-0.57355356
00000000: ee07 293e 632f 3ebf 7312 263f bbaa 24bf
00000010: 6067 14bf 1f0d 00bf 2767 3f3f d35e abbe
00000020: 68d4 12bf

beta f4 [3]
0.41220465 1.4409976 0.13229616
00000000: 7d0c d33e 9c72 b83f a578 073e

rotation f4 [3, 3]
0.16506931 -0.74291056 0.648719 -0.64323014 -0.5797024 -0.5002002 0.74766773 -0.33470783
-0.57355356
00000000: ee07 293e 632f 3ebf 7312 263f bbaa 24bf
00000010: 6067 14bf 1f0d 00bf 2767 3f3f d35e abbe
00000020: 68d4 12bf

beta f4 [3]
0.41220465 1.4409976 0.13229616
00000000: 7d0c d33e 9c72 b83f a578 073e

rotation f4 [3, 3]
0.16506931 -0.74291056 0.648719 -0.64323014 -0.5797024 -0.5002002 0.74766773 -0.33470783
-0.57355356
00000000: ee07 293e 632f 3ebf 7312 263f bbaa 24bf
00000010: 6067 14bf 1f0d 00bf 2767 3f3f d35e abbe
00000020: 68d4 12bf

beta f4 [3]
0.41220465 1.4409976 0.13229616
00000000: 7d0c d33e 9c72 b83f a578 073e

rotation f4 [3, 3]
0.16506931 -0.74291056 0.648719 -0.64323014 -0.5797024 -0.5002002 0.74766773 -0.33470783
-0.57355356
00000000: ee07 293e 632f 3ebf 7312 263f bbaa 24bf
00000010: 6067 14bf 1f0d 00bf 2767 3f3f d35e abbe
00000020: 68d4 12bf

beta f4 [3]
0.41220465 1.4409976 0.13229616
00000000: 7d0c d33e 9c72 b83f a578 073e

rotation f4 [3, 3]
0.16506931 -0.74291056 0.648719 -0.64323014 -0.5797024 -0.5002002 0.74766773 -0.33470783
-0.57355356
00000000: ee07 293e 632f 3ebf 7312 263f bbaa 24bf
00000010: 6067 14bf 1f0d 00bf 2767 3f3f d35e abbe
00000020: 68d4 12bf

beta f4 [3]
0.41220465 1.4409976 0.13229616
00000000: 7d0c d33e 9c72 b83f a578 073e

rotation f4 [3, 3]
0.16506931 -0.74291056 0.648719 -0.64323014 -0.5797024 -0.5002002 0.74766773 -0.33470783
-0.57355356
00000000: ee07 293e 632f 3ebf 7312 263f bbaa 24bf
00000010: 6067 14bf 1f0d 00bf 2767 3f3f d35e abbe
00000020: 68d4 12bf

beta f4 [3]
0.41220465 1.4409976 0.13229616
00000000: 7d0c d33e 9c72 b83f a578 073e

rotation f4 [3, 3]
0.16506931 -0.74291056 0.648719 -0.64323014 -0.5797024 -0.5002002 0.74766773 -0.33470783
-0.57355356
00000000: ee07 293e 632f 3ebf 7312 263f bbaa 24bf
00000010: 6067 14bf 1f0d 00bf 2767 3f3f d35e abbe
00000020: 68d4 12bf

beta f4 [3]
0.41220465 1.4409976 0.13229616
00000000: 7d0c d33e 9c72 b83f a578 073e

rotation f4 [3, 3]
0.16506931 -0.74291056 0.648719 -0.64323014 -0.5797024 -0.5002002 0.74766773 -0.33470783
-0.57355356
00000000: ee07 293e 632f 3ebf 7312 263f bbaa 24bf
00000010: 6067 14bf 1f0d 00bf 2767 3f3f d35e abbe
00000020: 68d4 12bf

beta f4 [3]
0.41220465 1.4409976 0.13229616
00000000: 7d0c d33e 9c72 b83f a578 073e

rotation f4 [3, 3]
0.16506931 -0.74291056 0.648719 -0.64323014 -0.5797024 -0.5002002 0.74766773 -0.33470783
-0.57355356
00000000: ee07 293e 632f 3ebf 7312 263f bbaa 24bf
00000010: 6067 14bf 1f0d 00bf 2767 3f3f d35e abbe
00000020: 68d4 12bf

beta f4 [3]
0.41220465 1.4409976 0.13229616
00000000: 7d0c d33e 9c72 b83f a578 073e

rotation f4 [3, 3]
0.16506931 -0.74291056 0.648719 -0.64323014 -0.5797024 -0.5002002 0.74766773 -0.33470783
-0.57355356
00000000: ee07 293e 632f 3ebf 7312 263f bbaa 24bf
00000010: 6067 14bf 1f0d 00bf 2767 3f3f d35e abbe
00000020: 68d4 12bf

beta f4 [3]
0.41220465 1.4409976 0.13229616
00000000: 7d0c d33e 9c72 b83f a578 073e

rotation f4 [3, 3]
0.16506931 -0.74291056 0.648719 -0.64323014 -0.5797024 -0.5002002 0.74766773 -0.33470783
-0.57355356
00000000: ee07 293e 632f 3ebf 7312 263f bbaa 24bf
00000010: 6067 14bf 1f0d 00bf 2767 3f3f d35e abbe
00000020: 68d4 12bf

beta f4 [3]
0.41220465 1.4409976 0.13229616
00000000: 7d0c d33e 9c72 b83f a578 073e

rotation f4 [3, 3]
0.16506931 -0.74291056 0.648719 -0.64323014 -0.5797024 -0.5002002 0.74766773 -0.33470783
-0.57355356
00000000: ee07 293e 632f 3ebf 7312 263f bbaa 24bf
00000010: 6067 14bf 1f0d 00bf 2767 3f3f d35e abbe
00000020: 68d4 12bf

beta f4 [3]
0.41220465 1.4409976 0.13229616
00000000: 7d0c d33e 9c72 b83f a578 073e

rotation f4 [3, 3]
0.16506931 -0.74291056 0.648719 -0.64323014 -0.5797024 -0.5002002 0.74766773 -0.33470783
-0.57355356
00000000: ee07 293e 632f 3ebf 7312 263f bbaa 24bf
00000010: 6067 14bf 1f0d 00bf 2767 3f3f d35e abbe
00000020: 68d4 12bf

beta f4 [3]
0.41220465 1.4409976 0.13229616
00000000: 7d0c d33e 9c72 b83f a578 073e

rotation f4 [3, 3]
0.16506931 -0.74291056 0.648719 -0.64323014 -0.5797024 -0.5002002 0.74766773 -0.33470783
-0.57355356
00000000: ee07 293e 632f 3ebf 7312 263f bbaa 24bf
00000010: 6067 14bf 1f0d 00bf 2767 3f3f d35e abbe
00000020: 68d4 12bf

beta f4 [3]
0.41220465 1.4409976 0.13229616
00000000: 7d0c d33e 9c72 b83f a578 073e

rotation f4 [3, 3]
0.16506931 -0.74291056 0.648719 -0.64323014 -0.5797024 -0.5002002 0.74766773 -0.33470783
-0.57355356
00000000: ee07 293e 632f 3ebf 7312 263f bbaa 24bf
00000010: 6067 14bf 1f0d 00bf 2767 3f3f d35e abbe
00000020: 68d4 12bf

beta f4 [3]
0.41220465 1.4409976 0.13229616
00000000: 7d0c d33e 9c72 b83f a578 073e

rotation f4 [3, 3]
0.16506931 -0.74291056 0.648719 -0.64323014 -0.5797024 -0.5002002 0.74766773 -0.33470783
-0.57355356
00000000: ee07 293e 632f 3ebf 7312 263f bbaa 24bf
00000010: 6067 14bf 1f0d 00bf 2767 3f3f d35e abbe
00000020: 68d4 12bf

beta f4 [3]
0.41220465 1.4409976 0.13229616
00000000: 7d0c d33e 9c72 b83f a578 073e

rotation f4 [3, 3]
0.16506931 -0.74291056 0.648719 -0.64323014 -0.5797024 -0.5002002 0.74766773 -0.33470783
-0.57355356
00000000: ee07 293e 632f 3ebf 7312 263f bbaa 24bf
00000010: 6067 14bf 1f0d 00bf 2767 3f3f d35e abbe
00000020: 68d4 12bf

beta f4 [3]
0.41220465 1.4409976 0.13229616
00000000: 7d0c d33e 9c72 b83f a578 073e

rotation f4 [3, 3]
0.16506931 -0.74291056 0.648719 -0.64323014 -0.5797024 -0.5002002 0.74766773 -0.33470783
-0.57355356
00000000: ee07 293e 632f 3ebf 7312 263f bbaa 24bf
00000010: 6067 14bf 1f0d 00bf 2767 3f3f d35e abbe
00000020: 68d4 12bf

beta f4 [3]
0.41220465 1.4409976 0.13229616
00000000: 7d0c d33e 9c72 b83f a578 073e

rotation f4 [3, 3]
0.16506931 -0.74291056 0.648719 -0.64323014 -0.5797024 -0.5002002 0.74766773 -0.33470783
-0.57355356
00000000: ee07 293e 632f 3ebf 7312 263f bbaa 24bf
00000010: 6067 14bf 1f0d 00bf 2767 3f3f d35e abbe
00000020: 68d4 12bf

beta f4 [3]
0.41220465 1.4409976 0.13229616
00000000: 7d0c d33e 9c72 b83f a578 073e

rotation f4 [3, 3]
0.16506931 -0.74291056 0.648719 -0.64323014 -0.5797024 -0.5002002 0.74766773 -0.33470783
-0.57355356
00000000: ee07 293e 632f 3ebf 7312 263f bbaa 24bf
00000010: 6067 14bf 1f0d 00bf 2767 3f3f d35e abbe
00000020: 68d4 12bf

beta f4 [3]
0.41220465 1.4409976 0.13229616
00000000: 7d0c d33e 9c72 b83f a578 073e

rotation f4 [3, 3]
0.16506931 -0.74291056 0.648719 -0.64323014 -0.5797024 -0.5002002 0.74766773 -0.33470783
-0.57355356
00000000: ee07 293e 632f 3ebf 7312 263f bbaa 24bf
00000010: 6067 14bf 1f0d 00bf 2767 3f3f d35e abbe
00000020: 68d4 12bf

beta f4 [3]
0.41220465 1.4409976 0.13229616
00000000: 7d0c d33e 9c72 b83f a578 073e

rotation f4 [3, 3]
0.16506931 -0.74291056 0.648719 -0.64323014 -0.5797024 -0.5002002 0.74766773 -0.33470783
-0.57355356
00000000: ee07 293e 632f 3ebf 7312 263f bbaa 24bf
00000010: 6067 14bf 1f0d 00bf 2767 3f3f d35e abbe
00000020: 68d4 12bf

beta f4 [3]
0.41220465 1.4409976 0.13229616
00000000: 7d0c d33e 9c72 b83f a578 073e

rotation f4 [3, 3]
0.16506931 -0.74291056 0.648719 -0.64323014 -0.5797024 -0.5002002 0.74766773 -0.33470783
-0.57355356
00000000: ee07 293e 632f 3ebf 7312 263f bbaa 24bf
00000010: 6067 14bf 1f0d 00bf 2767 3f3f d35e abbe
00000020: 68d4 12bf

beta f4 [3]
0.41220465 1.4409976 0.13229616
00000000: 7d0c d33e 9c72 b83f a578 073e

rotation f4 [3, 3]
0.16506931 -0.74291056 0.648719 -0.64323014 -0.5797024 -0.5002002 0.74766773 -0.33470783
-0.57355356
00000000: ee07 293e 632f 3ebf 7312 263f bbaa 24bf
00000010: 6067 14bf 1f0d 00bf 2767 3f3f d35e abbe
00000020: 68d4 12bf

beta f4 [3]
0.41220465 1.4409976 0.13229616
00000000: 7d0c d33e 9c72 b83f a578 073e

rotation f4 [3, 3]
0.16506931 -0.74291056 0.648719 -0.64323014 -0.5797024 -0.5002002 0.74766773 -0.33470783
-0.57355356
00000000: ee07 293e 632f 3ebf 7312 263f bbaa 24bf
00000010: 6067 14bf 1f0d 00bf 2767 3f3f d35e abbe
00000020: 68d4 12bf

beta f4 [3]
0.41220465 1.4409976 0.13229616
00000000: 7d0c d33e 9c72 b83f a578 073e

rotation f4 [3, 3]
0.16506931 -0.74291056 0.648719 -0.64323014 -0.5797024 -0.5002002 0.74766773 -0.33470783
-0.57355356
00000000: ee07 293e 632f 3ebf 7312 263f bbaa 24bf
00000010: 6067 14bf 1f0d 00bf 2767 3f3f d35e abbe
00000020: 68d4 12bf

beta f4 [3]
0.41220465 1.4409976 0.13229616
00000000: 7d0c d33e 9c72 b83f a578 073e

rotation f4 [3, 3]
0.16506931 -0.74291056 0.648719 -0.64323014 -0.5797024 -0.5002002 0.74766773 -0.33470783
-0.57355356
00000000: ee07 293e 632f 3ebf 7312 263f bbaa 24bf
00000010: 6067 14bf 1f0d 00bf 2767 3f3f d35e abbe
00000020: 68d4 12bf

beta f4 [3]
0.41220465 1.4409976 0.13229616
00000000: 7d0c d33e 9c72 b83f a578 073e

rotation f4 [3, 3]
0.16506931 -0.74291056 0.648719 -0.64323014 -0.5797024 -0.5002002 0.74766773 -0.33470783
-0.57355356
00000000: ee07 293e 632f 3ebf 7312 263f bbaa 24bf
00000010: 6067 14bf 1f0d 00bf 2767 3f3f d35e abbe
00000020: 68d4 12bf

beta f4 [3]
0.41220465 1.4409976 0.13229616
00000000: 7d0c d33e 9c72 b83f a578 073e

rotation f4 [3, 3]
0.16506931 -0.74291056 0.648719 -0.64323014 -0.5797024 -0.5002002 0.74766773 -0.33470783
-0.57355356
00000000: ee07 293e 632f 3ebf 7312 263f bbaa 24bf
00000010: 6067 14bf 1f0d 00bf 2767 3f3f d35e abbe
00000020: 68d4 12bf

beta f4 [3]
0.41220465 1.4409976 0.13229616
00000000: 7d0c d33e 9c72 b83f a578 073e

rotation f4 [3, 3]
0.16506931 -0.74291056 0.648719 -0.64323014 -0.5797024 -0.5002002 0.74766773 -0.33470783
-0.57355356
00000000: ee07 293e 632f 3ebf 7312 263f bbaa 24bf
00000010: 6067 14bf 1f0d 00bf 2767 3f3f d35e abbe
00000020: 68d4 12bf

beta f4 [3]
0.41220465 1.4409976 0.13229616
00000000: 7d0c d33e 9c72 b83f a578 073e

rotation f4 [3, 3]
0.16506931 -0.74291056 0.648719 -0.64323014 -0.5797024 -0.5002002 0.74766773 -0.33470783
-0.57355356
00000000: ee07 293e 632f 3ebf 7312 263f bbaa 24bf
00000010: 6067 14bf 1f0d 00bf 2767 3f3f d35e abbe
00000020: 68d4 12bf

beta f4 [3]
0.41220465 1.4409976 0.13229616
00000000: 7d0c d33e 9c72 b83f a578 073e

rotation f4 [3, 3]
0.16506931 -0.74291056 0.648719 -0.64323014 -0.5797024 -0.5002002 0.74766773 -0.33470783
-0.57355356
00000000: ee07 293e 632f 3ebf 7312 263f bbaa 24bf
00000010: 6067 14bf 1f0d 00bf 2767 3f3f d35e abbe
00000020: 68d4 12bf

beta f4 [3]
0.41220465 1.4409976 0.13229616
00000000: 7d0c d33e 9c72 b83f a578 073e

rotation f4 [3, 3]
0.16506931 -0.74291056 0.648719 -0.64323014 -0.5797024 -0.5002002 0.74766773 -0.33470783
-0.57355356
00000000: ee07 293e 632f 3ebf 7312 263f bbaa 24bf
00000010: 6067 14bf 1f0d 00bf 2767 3f3f d35e abbe
00000020: 68d4 12bf

beta f4 [3]
0.41220465 1.4409976 0.13229616
00000000: 7d0c d33e 9c72 b83f a578 073e

rotation f4 [3, 3]
0.16506931 -0.74291056 0.648719 -0.64323014 -0.5797024 -0.5002002 0.74766773 -0.33470783
-0.57355356
00000000: ee07 293e 632f 3ebf 7312 263f bbaa 24bf
00000010: 6067 14bf 1f0d 00bf 2767 3f3f d35e abbe
00000020: 68d4 12bf

beta f4 [3]
0.41220465 1.4409976 0.13229616
00000000: 7d0c d33e 9c72 b83f a578 073e

rotation f4 [3, 3]
0.16506931 -0.74291056 0.648719 -0.64323014 -0.5797024 -0.5002002 0.74766773 -0.33470783
-0.57355356
00000000: ee07 293e 632f 3ebf 7312 263f bbaa 24bf
00000010: 6067 14bf 1f0d 00bf 2767 3f3f d35e abbe
00000020: 68d4 12bf

beta f4 [3]
0.41220465 1.4409976 0.13229616
00000000: 7d0c d33e 9c72 b83f a578 073e

rotation f4 [3, 3]
0.16506931 -0.74291056 0.648719 -0.64323014 -0.5797024 -0.5002002 0.74766773 -0.33470783
-0.57355356
00000000: ee07 293e 632f 3ebf 7312 263f bbaa 24bf
00000010: 6067 14bf 1f0d 00bf 2767 3f3f d35e abbe
00000020: 68d4 12bf

beta f4 [3]
0.41220465 1.4409976 0.13229616
00000000: 7d0c d33e 9c72 b83f a578 073e

rotation f4 [3, 3]
0.16506931 -0.74291056 0.648719 -0.64323014 -0.5797024 -0.5002002 0.74766773 -0.33470783
-0.57355356
00000000: ee07 293e 632f 3ebf 7312 263f bbaa 24bf
00000010: 6067 14bf 1f0d 00bf 2767 3f3f d35e abbe
00000020: 68d4 12bf

beta f4 [3]
0.41220465 1.4409976 0.13229616
00000000: 7d0c d33e 9c72 b83f a578 073e

rotation f4 [3, 3]
0.16506931 -0.74291056 0.648719 -0.64323014 -0.5797024 -0.5002002 0.74766773 -0.33470783
-0.57355356
00000000: ee07 293e 632f 3ebf 7312 263f bbaa 24bf
00000010: 6067 14bf 1f0d 00bf 2767 3f3f d35e abbe
00000020: 68d4 12bf

beta f4 [3]
0.41220465 1.4409976 0.13229616
00000000: 7d0c d33e 9c72 b83f a578 073e

rotation f4 [3, 3]
0.16506931 -0.74291056 0.648719 -0.64323014 -0.5797024 -0.5002002 0.74766773 -0.33470783
-0.57355356
00000000: ee07 293e 632f 3ebf 7312 263f bbaa 24bf
00000010: 6067 14bf 1f0d 00bf 2767 3f3f d35e abbe
00000020: 68d4 12bf

beta f4 [3]
0.41220465 1.4409976 0.13229616
00000000: 7d0c d33e 9c72 b83f a578 073e

rotation f4 [3, 3]
0.16506931 -0.74291056 0.648719 -0.64323014 -0.5797024 -0.5002002 0.74766773 -0.33470783
-0.57355356
00000000: ee07 293e 632f 3ebf 7312 263f bbaa 24bf
00000010: 6067 14bf 1f0d 00bf 2767 3f3f d35e abbe
00000020: 68d4 12bf

beta f4 [3]
0.41220465 1.4409976 0.13229616
00000000: 7d0c d33e 9c72 b83f a578 073e

rotation f4 [3, 3]
0.16506931 -0.74291056 0.648719 -0.64323014 -0.5797024 -0.5002002 0.74766773 -0.33470783
-0.57355356
00000000: ee07 293e 632f 3ebf 7312 263f bbaa 24bf
00000010: 6067 14bf 1f0d 00bf 2767 3f3f d35e abbe
00000020: 68d4 12bf

beta f4 [3]
0.41220465 1.4409976 0.13229616
00000000: 7d0c d33e 9c72 b83f a578 073e

rotation f4 [3, 3]
0.16506931 -0.74291056 0.648719 -0.64323014 -0.5797024 -0.5002002 0.74766773 -0.33470783
-0.57355356
00000000: ee07 293e 632f 3ebf 7312 263f bbaa 24bf
00000010: 6067 14bf 1f0d 00bf 2767 3f3f d35e abbe
00000020: 68d4 12bf

beta f4 [3]
0.41220465 1.4409976 0.13229616
00000000: 7d0c d33e 9c72 b83f a578 073e

rotation f4 [3, 3]
0.16506931 -0.74291056 0.648719 -0.64323014 -0.5797024 -0.5002002 0.74766773 -0.33470783
-0.57355356
00000000: ee07 293e 632f 3ebf 7312 263f bbaa 24bf
00000010: 6067 14bf 1f0d 00bf 2767 3f3f d35e abbe
00000020: 68d4 12bf

beta f4 [3]
0.41220465 1.4409976 0.13229616
00000000: 7d0c d33e 9c72 b83f a578 073e

rotation f4 [3, 3]
0.16506931 -0.74291056 0.648719 -0.64323014 -0.5797024 -0.5002002 0.74766773 -0.33470783
-0.57355356
00000000: ee07 293e 632f 3ebf 7312 263f bbaa 24bf
00000010: 6067 14bf 1f0d 00bf 2767 3f3f d35e abbe
00000020: 68d4 12bf

beta f4 [3]
0.41220465 1.4409976 0.13229616
00000000: 7d0c d33e 9c72 b83f a578 073e

rotation f4 [3, 3]
0.16506931 -0.74291056 0.648719 -0.64323014 -0.5797024 -0.5002002 0.74766773 -0.33470783
-0.57355356
00000000: ee07 293e 632f 3ebf 7312 263f bbaa 24bf
00000010: 6067 14bf 1f0d 00bf 2767 3f3f d35e abbe
00000020: 68d4 12bf

beta f4 [3]
0.41220465 1.4409976 0.13229616
00000000: 7d0c d33e 9c72 b83f a578 073e

rotation f4 [3, 3]
0.16506931 -0.74291056 0.648719 -0.64323014 -0.5797024 -0.5002002 0.74766773 -0.33470783
-0.57355356
00000000: ee07 293e 632f 3ebf 7312 263f bbaa 24bf
00000010: 6067 14bf 1f0d 00bf 2767 3f3f d35e abbe
00000020: 68d4 12bf

beta f4 [3]
0.41220465 1.4409976 0.13229616
00000000: 7d0c d33e 9c72 b83f a578 073e

rotation f4 [3, 3]
0.16506931 -0.74291056 0.648719 -0.64323014 -0.5797024 -0.5002002 0.74766773 -0.33470783
-0.57355356
00000000: ee07 293e 632f 3ebf 7312 263f bbaa 24bf
00000010: 6067 14bf 1f0d 00bf 2767 3f3f d35e abbe
00000020: 68d4 12bf

beta f4 [3]
0.41220465 1.4409976 0.13229616
00000000: 7d0c d33e 9c72 b83f a578 073e

rotation f4 [3, 3]
0.16506931 -0.74291056 0.648719 -0.64323014 -0.5797024 -0.5002002 0.74766773 -0.33470783
-0.57355356
00000000: ee07 293e 632f 3ebf 7312 263f bbaa 24bf
00000010: 6067 14bf 1f0d 00bf 2767 3f3f d35e abbe
00000020: 68d4 12bf

beta f4 [3]
0.41220465 1.4409976 0.13229616
00000000: 7d0c d33e 9c72 b83f a578 073e

rotation f4 [3, 3]
0.16506931 -0.74291056 0.648719 -0.64323014 -0.5797024 -0.5002002 0.74766773 -0.33470783
-0.57355356
00000000: ee07 293e 632f 3ebf 7312 263f bbaa 24bf
00000010: 6067 14bf 1f0d 00bf 2767 3f3f d35e abbe
00000020: 68d4 12bf

beta f4 [3]
0.41220465 1.4409976 0.13229616
00000000: 7d0c d33e 9c72 b83f a578 073e

rotation f4 [3, 3]
0.16506931 -0.74291056 0.648719 -0.64323014 -0.5797024 -0.5002002 0.74766773 -0.33470783
-0.57355356
00000000: ee07 293e 632f 3ebf 7312 263f bbaa 24bf
00000010: 6067 14bf 1f0d 00bf 2767 3f3f d35e abbe
00000020: 68d4 12bf

beta f4 [3]
0.41220465 1.4409976 0.13229616
00000000: 7d0c d33e 9c72 b83f a578 073e

rotation f4 [3, 3]
0.16506931 -0.74291056 0.648719 -0.64323014 -0.5797024 -0.5002002 0.74766773 -0.33470783
-0.57355356
00000000: ee07 293e 632f 3ebf 7312 263f bbaa 24bf
00000010: 6067 14bf 1f0d 00bf 2767 3f3f d35e abbe
00000020: 68d4 12bf

beta f4 [3]
0.41220465 1.4409976 0.13229616
00000000: 7d0c d33e 9c72 b83f a578 073e

rotation f4 [3, 3]
0.16506931 -0.74291056 0.648719 -0.64323014 -0.5797024 -0.5002002 0.74766773 -0.33470783
-0.57355356
00000000: ee07 293e 632f 3ebf 7312 263f bbaa 24bf
00000010: 6067 14bf 1f0d 00bf 2767 3f3f d35e abbe
00000020: 68d4 12bf

beta f4 [3]
0.41220465 1.4409976 0.13229616
00000000: 7d0c d33e 9c72 b83f a578 073e

rotation f4 [3, 3]
0.16506931 -0.74291056 0.648719 -0.64323014 -0.5797024 -0.5002002 0.74766773 -0.33470783
-0.57355356
00000000: ee07 293e 632f 3ebf 7312 263f bbaa 24bf
00000010: 6067 14bf 1f0d 00bf 2767 3f3f d35e abbe
00000020: 68d4 12bf

beta f4 [3]
0.41220465 1.4409976 0.13229616
00000000: 7d0c d33e 9c72 b83f a578 073e

rotation f4 [3, 3]
0.16506931 -0.74291056 0.648719 -0.64323014 -0.5797024 -0.5002002 0.74766773 -0.33470783
-0.57355356
00000000: ee07 293e 632f 3ebf 7312 263f bbaa 24bf
00000010: 6067 14bf 1f0d 00bf 2767 3f3f d35e abbe
00000020: 68d4 12bf

beta f4 [3]
0.41220465 1.4409976 0.13229616
00000000: 7d0c d33e 9c72 b83f a578 073e

rotation f4 [3, 3]
0.16506931 -0.74291056 0.648719 -0.64323014 -0.5797024 -0.5002002 0.74766773 -0.33470783
-0.57355356
00000000: ee07 293e 632f 3ebf 7312 263f bbaa 24bf
00000010: 6067 14bf 1f0d 00bf 2767 3f3f d35e abbe
00000020: 68d4 12bf

beta f4 [3]
0.41220465 1.4409976 0.13229616
00000000: 7d0c d33e 9c72 b83f a578 073e

rotation f4 [3, 3]
0.16506931 -0.74291056 0.648719 -0.64323014 -0.5797024 -0.5002002 0.74766773 -0.33470783
-0.57355356
00000000: ee07 293e 632f 3ebf 7312 263f bbaa 24bf
00000010: 6067 14bf 1f0d 00bf 2767 3f3f d35e abbe
00000020: 68d4 12bf

beta f4 [3]
0.41220465 1.4409976 0.13229616
00000000: 7d0c d33e 9c72 b83f a578 073e

rotation f4 [3, 3]
0.16506931 -0.74291056 0.648719 -0.64323014 -0.5797024 -0.5002002 0.74766773 -0.33470783
-0.57355356
00000000: ee07 293e 632f 3ebf 7312 263f bbaa 24bf
00000010: 6067 14bf 1f0d 00bf 2767 3f3f d35e abbe
00000020: 68d4 12bf

beta f4 [3]
0.41220465 1.4409976 0.13229616
00000000: 7d0c d33e 9c72 b83f a578 073e
