sliced_opt/code/experiment/shape_registration/result/exp2/ot_param.pt (torch, 84069 bytes, 301 tensors)

theta f4 [3]
0	0x3fc47a7c	1.5349879
1	0xbfaf1d89	-1.3680888
2	0x3f9c5ecd	1.2216431

beta f4 [3]
0	0xbf2123ea	-0.62945426
1	0xbf887258	-1.0659895
2	0x3fac6103	1.3467106

beta f4 [3]
0	0x3da242fe	0.07922934
1	0xbf7a22fd	-0.9770964
2	0x3fa94ca8	1.3226519

beta f4 [3]
0	0x3f01cdbd	0.50704557
1	0xbf429411	-0.7600718
2	0x3f935f7b	1.1513513

beta f4 [3]
0	0x3f46734d	0.77519685
1	0xbf03eb72	-0.51531136
2	0x3f6bb60e	0.9207467

beta f4 [3]
0	0x3f521264	0.8205931
1	0xbec3901b	-0.3819588
2	0x3f412004	0.75439477

beta f4 [3]
0	0x3f4d9e24	0.8031943
1	0xbea753c8	-0.32681108
2	0x3f28c7fd	0.6593016

beta f4 [3]
0	0x3f448d52	0.7677814
1	0xbe9990af	-0.29993197
2	0x3f24ea7d	0.644203

beta f4 [3]
0	0x3f3b1d35	0.7309144
1	0xbe992b3d	-0.299158
2	0x3f2e8338	0.68168974

beta f4 [3]
0	0x3f360ce5	0.71113425
1	0xbe99dc4c	-0.30050886
2	0x3f3e24d6	0.7427496

beta f4 [3]
0	0x3f3771d1	0.71658045
1	0xbe866caf	-0.26254794
2	0x3f522c30	0.82098675

beta f4 [3]
0	0x3f41ad4c	0.75655055
1	0xbe5a644d	-0.21327324
2	0x3f629ec6	0.8852352

beta f4 [3]
0	0x3f4f569a	0.8099152
1	0xbe4875fc	-0.19576257
2	0x3f6f6efe	0.93528736

beta f4 [3]
0	0x3f627641	0.8846169
1	0xbe157668	-0.1459595
2	0x3f781206	0.969025

beta f4 [3]
0	0x3f725063	0.9465391
1	0xbe164096	-0.14673075
2	0x3f7e52cb	0.9934508

beta f4 [3]
0	0x3f794c1a	0.97381747
1	0xbe56c33d	-0.20972915
2	0x3f82b98f	1.0212878

beta f4 [3]
0	0x3f76a188	0.9634023
1	0xbea7170e	-0.32634777
2	0x3f857336	1.0425785

beta f4 [3]
0	0x3f716247	0.94290584
1	0xbed8ac26	-0.4231884
2	0x3f858cd6	1.0433605

beta f4 [3]
0	0x3f6fbe4c	0.93649745
1	0xbef792d8	-0.4835422
2	0x3f81f15a	1.015178

beta f4 [3]
0	0x3f620331	0.8828612
1	0xbf130d22	-0.57441914
2	0x3f7ca7ed	0.98693734

beta f4 [3]
0	0x3f49549a	0.78644717
1	0xbf29e022	-0.66357625
2	0x3f77a711	0.967393

beta f4 [3]
0	0x3f26d186	0.6516346
1	0xbf3a626c	-0.7280643
2	0x3f77764a	0.9666487

beta f4 [3]
0	0x3f132ea6	0.57493055
1	0xbf37f8da	-0.7186409
2	0x3f773c94	0.9657681

beta f4 [3]
0	0x3f045e42	0.51706326
1	0xbf2f1702	-0.6839448
2	0x3f788ec6	0.97092855

beta f4 [3]
0	0x3f01a23f	0.5063819
1	0xbf232e93	-0.6374294
2	0x3f76e2f2	0.9644004

beta f4 [3]
0	0x3f0686ac	0.5254924
1	0xbf0fc3de	-0.56158245
2	0x3f783153	0.9695026

beta f4 [3]
0	0x3f0dcea9	0.55393463
1	0xbf013302	-0.50468457
2	0x3f77a38b	0.9673392

beta f4 [3]
0	0x3f0fb9b2	0.56142724
1	0xbef6a19a	-0.48170167
2	0x3f78a430	0.9712553

beta f4 [3]
0	0x3f0c0b7e	0.54705036
1	0xbef78e1c	-0.48350608
2	0x3f7cf1b5	0.98806316

beta f4 [3]
0	0x3f076553	0.52888983
1	0xbf009b49	-0.50236946
2	0x3f8120c5	1.0088125

beta f4 [3]
0	0x3f079420	0.52960396
1	0xbf09bf66	-0.53807676
2	0x3f8253cc	1.0181823

beta f4 [3]
0	0x3f05abbd	0.52215177
1	0xbf1b6034	-0.6069367
2	0x3f820eec	1.0160804

beta f4 [3]
0	0x3f0706af	0.52744573
1	0xbf27fa26	-0.6561607
2	0x3f82236e	1.0167062

beta f4 [3]
0	0x3f142814	0.57873654
1	0xbf242294	-0.6411526
2	0x3f83bf13	1.0292686

beta f4 [3]
0	0x3f26c11c	0.6513841
1	0xbf182931	-0.59437853
2	0x3f84e7db	1.0383257

beta f4 [3]
0	0x3f34def4	0.706527
1	0xbf1042b9	-0.5635181
2	0x3f847c79	1.0350486

beta f4 [3]
0	0x3f342552	0.70369446
1	0xbf128994	-0.5724118
2	0x3f84ce97	1.0375546

beta f4 [3]
0	0x3f274987	0.6534657
1	0xbf1cb82e	-0.61218536
2	0x3f85863c	1.043159

beta f4 [3]
0	0x3f155a31	0.58340746
1	0xbf24edda	-0.6442543
2	0x3f86b852	1.0525

beta f4 [3]
0	0x3f0a28d1	0.5396853
1	0xbf1e977d	-0.619499
2	0x3f892fc9	1.0717708

beta f4 [3]
0	0x3f0e7ec5	0.55662185
1	0xbf0e1840	-0.5550575
2	0x3f89d7ea	1.0769017

beta f4 [3]
0	0x3f1654bc	0.58723044
1	0xbf05a4bc	-0.5220449
2	0x3f871aad	1.0555016

beta f4 [3]
0	0x3f1cf289	0.6130758
1	0xbf07a56c	-0.5298679
2	0x3f822d79	1.0170127

beta f4 [3]
0	0x3f1ae707	0.6050877
1	0xbf0f6d85	-0.5602649
2	0x3f7d7fbf	0.9902305

beta f4 [3]
0	0x3f14a712	0.5806743
1	0xbf127c00	-0.5722046
2	0x3f7d409b	0.98926705

beta f4 [3]
0	0x3f12e5ea	0.5738207
1	0xbf0b9265	-0.54520255
2	0x3f80d9ee	1.0066507

beta f4 [3]
0	0x3f15f22a	0.5857264
1	0xbf001f17	-0.5004744
2	0x3f838dd4	1.0277658

beta f4 [3]
0	0x3f192ead	0.59836847
1	0xbef80ffc	-0.48449695
2	0x3f84e8d4	1.0383554

beta f4 [3]
0	0x3f1a22ba	0.6020924
1	0xbf03601c	-0.51318526
2	0x3f84a2ab	1.0362142

beta f4 [3]
0	0x3f1adbc2	0.60491574
1	0xbf0cf25c	-0.5505731
2	0x3f83f342	1.0308611

beta f4 [3]
0	0x3f1eb5a4	0.6199591
1	0xbf0edde0	-0.55807304
2	0x3f8436e0	1.0329247

beta f4 [3]
0	0x3f23d8e6	0.64002836
1	0xbf0830f1	-0.5319968
2	0x3f85fd89	1.0467998

beta f4 [3]
0	0x3f257021	0.6462422
1	0xbf008b66	-0.50212705
2	0x3f886d82	1.0658419

beta f4 [3]
0	0x3f221f6f	0.63329214
1	0xbf00bf2c	-0.50291705
2	0x3f89cb24	1.0765119

beta f4 [3]
0	0x3f1fbf5e	0.6240138
1	0xbf061a43	-0.5238382
2	0x3f8902e2	1.0704005

beta f4 [3]
0	0x3f229759	0.6351219
1	0xbf082599	-0.5318237
2	0x3f86eaae	1.0540369

beta f4 [3]
0	0x3f27b3a7	0.655085
1	0xbf045d8f	-0.5170526
2	0x3f852437	1.0401677

beta f4 [3]
0	0x3f27ed3e	0.6559638
1	0xbf00d062	-0.50317967
2	0x3f84977f	1.0358733

beta f4 [3]
0	0x3f234f28	0.6379266
1	0xbefd204f	-0.49438712
2	0x3f853d46	1.0409324

beta f4 [3]
0	0x3f1f99bb	0.6234395
1	0xbefa9e4c	-0.48948896
2	0x3f858b36	1.0433109

beta f4 [3]
0	0x3f2125e9	0.6294847
1	0xbef8b337	-0.4857423
2	0x3f848a03	1.0354618

beta f4 [3]
0	0x3f253eff	0.6454925
1	0xbef8c497	-0.48587486
2	0x3f82ee30	1.0228939

beta f4 [3]
0	0x3f26b766	0.65123594
1	0xbefc6f40	-0.49303627
2	0x3f822481	1.016739

beta f4 [3]
0	0x3f250cf6	0.644729
1	0xbf00111c	-0.50026107
2	0x3f82bd08	1.0213938

beta f4 [3]
0	0x3f240b54	0.64079785
1	0xbefcb062	-0.4935332
2	0x3f8444ac	1.0333457

beta f4 [3]
0	0x3f25f47a	0.64826167
1	0xbef3e87a	-0.47638303
2	0x3f85a163	1.0439876

beta f4 [3]
0	0x3f288f9c	0.6584413
1	0xbef0e64c	-0.47050703
2	0x3f86112f	1.0473994

beta f4 [3]
0	0x3f294cc4	0.6613276
1	0xbef8cbba	-0.4859293
2	0x3f85afa4	1.0444226

beta f4 [3]
0	0x3f28bb5b	0.6591088
1	0xbf019638	-0.5061984
2	0x3f852090	1.0400562

beta f4 [3]
0	0x3f299f39	0.6625858
1	0xbf00960c	-0.50228953
2	0x3f854356	1.0411174

beta f4 [3]
0	0x3f2b0bfa	0.6681515
1	0xbef686b2	-0.4814964
2	0x3f85eb33	1.0462402

beta f4 [3]
0	0x3f2a4a95	0.66520053
1	0xbef1618a	-0.4714473
2	0x3f86552e	1.0494745

beta f4 [3]
0	0x3f282963	0.6568815
1	0xbef63baf	-0.4809241
2	0x3f85dd45	1.0458151

beta f4 [3]
0	0x3f27ee34	0.65597844
1	0xbefbbce0	-0.49167538
2	0x3f84a2f4	1.0362229

beta f4 [3]
0	0x3f29cb12	0.66325486
1	0xbefb9126	-0.49134177
2	0x3f837245	1.0269247

beta f4 [3]
0	0x3f2dcb78	0.67888594
1	0xbef7e686	-0.48418063
2	0x3f8218f3	1.0163864

beta f4 [3]
0	0x3f2dcc1d	0.6788958
1	0xbef89119	-0.485482
2	0x3f81c146	1.0137107

beta f4 [3]
0	0x3f2a3b0e	0.6649636
1	0xbefc13e6	-0.4923393
2	0x3f827cbd	1.0194317

beta f4 [3]
0	0x3f28c14d	0.65919954
1	0xbefa219e	-0.48853773
2	0x3f836510	1.0265217

beta f4 [3]
0	0x3f2beadc	0.6715524
1	0xbef427f8	-0.47686744
2	0x3f836f4e	1.0268342

beta f4 [3]
0	0x3f2ecedc	0.6828439
1	0xbef5622f	-0.4792647
2	0x3f82cabd	1.0218121

beta f4 [3]
0	0x3f2e1925	0.6800712
1	0xbefe68ab	-0.4968923
2	0x3f8269be	1.018852

beta f4 [3]
0	0x3f2cb2c8	0.674603
1	0xbf00e3ec	-0.5034778
2	0x3f82da96	1.0222957

beta f4 [3]
0	0x3f2db293	0.6785061
1	0xbefd40e6	-0.49463576
2	0x3f8353ce	1.025995

beta f4 [3]
0	0x3f2f4e7d	0.6847914
1	0xbef47058	-0.4774196
2	0x3f83eba2	1.0306284

beta f4 [3]
0	0x3f2f0554	0.68367505
1	0xbef4a3f5	-0.4778134
2	0x3f83e8e8	1.0305452

beta f4 [3]
0	0x3f2d7bb7	0.677669
1	0xbefbdebd	-0.49193373
2	0x3f8358cc	1.0261474

beta f4 [3]
0	0x3f2db088	0.6784749
1	0xbefddd83	-0.49583063
2	0x3f82bb44	1.0213399

beta f4 [3]
0	0x3f2f75e1	0.68539244
1	0xbef7dda8	-0.48411298
2	0x3f828777	1.019759

beta f4 [3]
0	0x3f2fbcb1	0.68647295
1	0xbef45406	-0.47720355
2	0x3f828f97	1.020007

beta f4 [3]
0	0x3f2d827f	0.67777246
1	0xbef81d22	-0.48459727
2	0x3f82a7b0	1.0207424

beta f4 [3]
0	0x3f2c98e2	0.6742078
1	0xbefae32c	-0.49001443
2	0x3f828a0d	1.019838

beta f4 [3]
0	0x3f2eb4b4	0.6824448
1	0xbef746a6	-0.48296088
2	0x3f824daa	1.0179951

beta f4 [3]
0	0x3f306ec5	0.6891902
1	0xbef449f2	-0.47712666
2	0x3f8236f7	1.0173024

beta f4 [3]
0	0x3f2ed685	0.6829608
1	0xbef97297	-0.48720238
2	0x3f8259e0	1.0183678

beta f4 [3]
0	0x3f2d6513	0.6773235
1	0xbefbf76f	-0.49212214
2	0x3f82c3aa	1.0215962

beta f4 [3]
0	0x3f2eb9fa	0.6825253
1	0xbef73397	-0.48281547
2	0x3f8319da	1.0242264

beta f4 [3]
0	0x3f307695	0.6893094
1	0xbef3ca40	-0.47615242
2	0x3f831222	1.0239909

beta f4 [3]
0	0x3f2f8576	0.6856302
1	0xbef8f7b7	-0.4862649
2	0x3f82d8ca	1.0222409

beta f4 [3]
0	0x3f2e5e10	0.6811228
1	0xbefcb6a6	-0.493581
2	0x3f82c385	1.0215918

beta f4 [3]
0	0x3f2ec655	0.6827138
1	0xbef9c48a	-0.4878276
2	0x3f82e25d	1.022533

beta f4 [3]
0	0x3f2f7dd3	0.6855137
1	0xbef53f9c	-0.47900093
2	0x3f8307d3	1.0236763

beta f4 [3]
0	0x3f2ee3fb	0.6831662
1	0xbef67bc6	-0.48141307
2	0x3f82ebca	1.0228207

beta f4 [3]
0	0x3f2df10e	0.67945945
1	0xbefaac29	-0.48959473
2	0x3f829726	1.0202377

beta f4 [3]
0	0x3f2e118a	0.6799551
1	0xbef9fb86	-0.4882471
2	0x3f82867f	1.0197295

beta f4 [3]
0	0x3f2ec8fa	0.68275416
1	0xbef60a47	-0.48054716
2	0x3f82b5a9	1.0211688

beta f4 [3]
0	0x3f2e7072	0.6814033
1	0xbef666d7	-0.48125336
2	0x3f82cd5c	1.0218921

beta f4 [3]
0	0x3f2d9fe8	0.6782212
1	0xbef9cc40	-0.48788643
2	0x3f82be9e	1.0214422

beta f4 [3]
0	0x3f2dcb07	0.6788792
1	0xbefa2bc1	-0.48861507
2	0x3f82c0bc	1.0215068

beta f4 [3]
0	0x3f2ea212	0.6821605
1	0xbef765ba	-0.483198
2	0x3f82ebd6	1.0228221

beta f4 [3]
0	0x3f2ea56b	0.6822116
1	0xbef7082e	-0.48248428
2	0x3f831030	1.0239315

beta f4 [3]
0	0x3f2de3fa	0.6792599
1	0xbef9da5a	-0.48799402
2	0x3f830c77	1.0238179

beta f4 [3]
0	0x3f2de2fc	0.67924476
1	0xbefa7810	-0.48919725
2	0x3f82ffe4	1.0234342

beta f4 [3]
0	0x3f2e944e	0.68195045
1	0xbef7eb10	-0.48421526
2	0x3f830caf	1.0238246

beta f4 [3]
0	0x3f2e6869	0.6812807
1	0xbef7678f	-0.48321196
2	0x3f831b71	1.024275

beta f4 [3]
0	0x3f2d74b2	0.6775619
1	0xbef99d5a	-0.48752862
2	0x3f83146f	1.0240611

beta f4 [3]
0	0x3f2d7a94	0.67765164
1	0xbef9ee38	-0.4881456
2	0x3f82f367	1.023053

beta f4 [3]
0	0x3f2e3ae4	0.6805861
1	0xbef807b6	-0.48443383
2	0x3f82dbd4	1.0223336

beta f4 [3]
0	0x3f2e4c88	0.6808553
1	0xbef75b75	-0.48311964
2	0x3f82e006	1.0224617

beta f4 [3]
0	0x3f2d7fae	0.6777295
1	0xbef923df	-0.4866018
2	0x3f82ec63	1.022839

beta f4 [3]
0	0x3f2d8273	0.67777175
1	0xbef967fb	-0.48712143
2	0x3f82ea12	1.0227683

beta f4 [3]
0	0x3f2e566c	0.6810062
1	0xbef7fb0d	-0.48433724
2	0x3f82dbca	1.0223324

beta f4 [3]
0	0x3f2e58d6	0.681043
1	0xbef7f026	-0.48425406
2	0x3f82ebe0	1.0228233

beta f4 [3]
0	0x3f2d9758	0.6780906
1	0xbef93df8	-0.4868009
2	0x3f831352	1.0240271

beta f4 [3]
0	0x3f2dc75f	0.6788234
1	0xbef93b40	-0.48678017
2	0x3f830e9c	1.0238833

beta f4 [3]
0	0x3f2ea5e4	0.6822188
1	0xbef80999	-0.48444822
2	0x3f82eddb	1.0228838

beta f4 [3]
0	0x3f2e9d05	0.6820834
1	0xbef8619d	-0.48511973
2	0x3f82e4ea	1.0226109

beta f4 [3]
0	0x3f2debdf	0.67938036
1	0xbef946c6	-0.48686808
2	0x3f82fda2	1.0233653

beta f4 [3]
0	0x3f2dd6d2	0.67905915
1	0xbef8c0d7	-0.48584625
2	0x3f830a0f	1.0237445

beta f4 [3]
0	0x3f2e72bd	0.68143827
1	0xbef7e1c2	-0.48414427
2	0x3f82e558	1.022624

beta f4 [3]
0	0x3f2e604f	0.68115705
1	0xbef85528	-0.4850247
2	0x3f82d436	1.0221012

beta f4 [3]
0	0x3f2de2dc	0.67924285
1	0xbef8cd73	-0.48594245
2	0x3f82e9c5	1.0227591

beta f4 [3]
0	0x3f2e0174	0.6797097
1	0xbef880fe	-0.48535913
2	0x3f82e776	1.0226886

beta f4 [3]
0	0x3f2e656f	0.68123525
1	0xbef83b77	-0.48482868
2	0x3f82d1bb	1.0220255

beta f4 [3]
0	0x3f2e5744	0.68101907
1	0xbef82f43	-0.48473558
2	0x3f82de8c	1.0224166

beta f4 [3]
0	0x3f2e073b	0.6797978
1	0xbef86220	-0.48512363
2	0x3f82fb55	1.023295

beta f4 [3]
0	0x3f2e4a80	0.6808243
1	0xbef80efe	-0.48448938
2	0x3f82f68f	1.0231494

beta f4 [3]
0	0x3f2e7662	0.6814939
1	0xbef855dc	-0.48503006
2	0x3f82e520	1.0226173

beta f4 [3]
0	0x3f2e44e8	0.6807389
1	0xbef8c060	-0.4858427
2	0x3f82eb4c	1.0228057

beta f4 [3]
0	0x3f2e09cf	0.67983717
1	0xbef8fe54	-0.48631537
2	0x3f82f674	1.0231462

beta f4 [3]
0	0x3f2e5770	0.6810217
1	0xbef84941	-0.48493388
2	0x3f82ee18	1.022891

beta f4 [3]
0	0x3f2e74a8	0.68146753
1	0xbef7c917	-0.48395607
2	0x3f82edd4	1.0228829

beta f4 [3]
0	0x3f2e0da5	0.6798957
1	0xbef8c789	-0.48589733
2	0x3f82ec05	1.0228277

beta f4 [3]
0	0x3f2dfb53	0.67961615
1	0xbef93441	-0.4867268
2	0x3f82e072	1.0224745

beta f4 [3]
0	0x3f2e5da2	0.6811162
1	0xbef81321	-0.48452094
2	0x3f82df82	1.0224459

beta f4 [3]
0	0x3f2e48fc	0.68080115
1	0xbef7ba72	-0.48384434
2	0x3f82f0e6	1.0229766

beta f4 [3]
0	0x3f2de125	0.6792167
1	0xbef8d178	-0.48597312
2	0x3f82f4b5	1.0230929

beta f4 [3]
0	0x3f2e1a6c	0.68009067
1	0xbef91efd	-0.48656455
2	0x3f82dc5f	1.0223502

beta f4 [3]
0	0x3f2e5f30	0.68113995
1	0xbef89146	-0.48548335
2	0x3f82dab9	1.0222999

beta f4 [3]
0	0x3f2e2c9c	0.6803682
1	0xbef7c1da	-0.48390085
2	0x3f8307e9	1.0236789

beta f4 [3]
0	0x3f2de777	0.6793131
1	0xbef873ae	-0.48525757
2	0x3f830c2a	1.0238087

beta f4 [3]
0	0x3f2e2a87	0.6803364
1	0xbef972b2	-0.48720318
2	0x3f82d80a	1.022218

beta f4 [3]
0	0x3f2e542b	0.6809718
1	0xbef8fc9a	-0.4863022
2	0x3f82d6e1	1.0221826

beta f4 [3]
0	0x3f2df5aa	0.6795298
1	0xbef88922	-0.48542124
2	0x3f830159	1.0234786

beta f4 [3]
0	0x3f2dee8f	0.67942137
1	0xbef8657a	-0.4851492
2	0x3f8304b8	1.0235815

beta f4 [3]
0	0x3f2e66c4	0.6812556
1	0xbef7e97a	-0.48420316
2	0x3f82e883	1.0227207

beta f4 [3]
0	0x3f2e1b12	0.68010056
1	0xbef8db49	-0.486048
2	0x3f82e30f	1.0225543

beta f4 [3]
0	0x3f2db992	0.6786128
1	0xbef95afd	-0.4870223
2	0x3f82f3a8	1.0230608

beta f4 [3]
0	0x3f2e4ee8	0.6808915
1	0xbef7c47a	-0.48392087
2	0x3f82f30b	1.0230421

beta f4 [3]
0	0x3f2e4949	0.68080574
1	0xbef7edf7	-0.4842374
2	0x3f82f1d5	1.0230051

beta f4 [3]
0	0x3f2dcf98	0.6789489
1	0xbef940a5	-0.48682132
2	0x3f82f46d	1.0230843

beta f4 [3]
0	0x3f2e234b	0.680226
1	0xbef8c274	-0.48585856
2	0x3f82e9d9	1.0227615

beta f4 [3]
0	0x3f2e4e9a	0.68088686
1	0xbef83839	-0.48480394
2	0x3f82ed65	1.0228697

beta f4 [3]
0	0x3f2e0cbd	0.6798819
1	0xbef83a7b	-0.48482117
2	0x3f83039b	1.0235475

beta f4 [3]
0	0x3f2e13e2	0.6799909
1	0xbef868b4	-0.48517382
2	0x3f82fb4d	1.0232941

beta f4 [3]
0	0x3f2e516f	0.6809301
1	0xbef84ef9	-0.4849775
2	0x3f82e89a	1.0227234

beta f4 [3]
0	0x3f2e221f	0.68020815
1	0xbef8768e	-0.4852795
2	0x3f82f1f4	1.0230088

beta f4 [3]
0	0x3f2e0c17	0.679872
1	0xbef8392e	-0.48481125
2	0x3f82fee3	1.0234035

beta f4 [3]
0	0x3f2e4341	0.6807137
1	0xbef81ad9	-0.48457983
2	0x3f82eef2	1.022917

beta f4 [3]
0	0x3f2e31a5	0.680445
1	0xbef8a050	-0.4855981
2	0x3f82e483	1.0225986

beta f4 [3]
0	0x3f2e1582	0.6800157
1	0xbef8531b	-0.48500904
2	0x3f82f754	1.0231729

beta f4 [3]
0	0x3f2e38d4	0.6805546
1	0xbef7e424	-0.48416245
2	0x3f82f9a8	1.0232439

beta f4 [3]
0	0x3f2e2d71	0.6803809
1	0xbef8a113	-0.4856039
2	0x3f82e84e	1.0227144

beta f4 [3]
0	0x3f2e2fb0	0.68041515
1	0xbef875a9	-0.48527268
2	0x3f82edf0	1.0228863

beta f4 [3]
0	0x3f2e37b0	0.6805372
1	0xbef7ebc5	-0.48422065
2	0x3f82fc7e	1.0233305

beta f4 [3]
0	0x3f2e2335	0.6802247
1	0xbef87e3c	-0.4853381
2	0x3f82f24e	1.0230196

beta f4 [3]
0	0x3f2e3f05	0.6806491
1	0xbef87890	-0.48529482
2	0x3f82e97e	1.0227506

beta f4 [3]
0	0x3f2e384d	0.6805466
1	0xbef81b3a	-0.48458272
2	0x3f82f617	1.0231351

beta f4 [3]
0	0x3f2e19d6	0.6800817
1	0xbef85a2d	-0.485063
2	0x3f82f7d4	1.0231881

beta f4 [3]
0	0x3f2e3ffe	0.68066394
1	0xbef857ab	-0.48504385
2	0x3f82ea8a	1.0227826

beta f4 [3]
0	0x3f2e3f4c	0.68065333
1	0xbef84b49	-0.48494938
2	0x3f82eb99	1.0228149

beta f4 [3]
0	0x3f2e19b4	0.6800797
1	0xbef855e0	-0.48503017
2	0x3f82f69f	1.0231513

beta f4 [3]
0	0x3f2e332c	0.6804683
1	0xbef82ef4	-0.48473322
2	0x3f82f2f7	1.0230397

beta f4 [3]
0	0x3f2e37ec	0.6805408
1	0xbef86689	-0.48515728
2	0x3f82eb57	1.022807

beta f4 [3]
0	0x3f2e21c7	0.6802029
1	0xbef86778	-0.4851644
2	0x3f82f34a	1.0230496

beta f4 [3]
0	0x3f2e3260	0.68045616
1	0xbef819c8	-0.4845717
2	0x3f82f7a1	1.023182

beta f4 [3]
0	0x3f2e2d8d	0.68038255
1	0xbef86f02	-0.48522192
2	0x3f82ef94	1.0229363

beta f4 [3]
0	0x3f2e2bd5	0.6803563
1	0xbef86d1d	-0.48520747
2	0x3f82f081	1.0229646

beta f4 [3]
0	0x3f2e307c	0.6804273
1	0xbef820bb	-0.4846247
2	0x3f82f7d3	1.023188

beta f4 [3]
0	0x3f2e235e	0.68022716
1	0xbef867b0	-0.48516607
2	0x3f82f35a	1.0230515

beta f4 [3]
0	0x3f2e322f	0.68045324
1	0xbef8611d	-0.48511592
2	0x3f82eeae	1.0229089

beta f4 [3]
0	0x3f2e2c81	0.6803666
1	0xbef83a3c	-0.4848193
2	0x3f82f4b4	1.0230927

beta f4 [3]
0	0x3f2e1ef3	0.68015975
1	0xbef858da	-0.48505288
2	0x3f82f549	1.0231105

beta f4 [3]
0	0x3f2e3459	0.68048626
1	0xbef84f98	-0.48498225
2	0x3f82ef38	1.0229254

beta f4 [3]
0	0x3f2e2939	0.6803165
1	0xbef8590a	-0.4850543
2	0x3f82f1fb	1.0230097

beta f4 [3]
0	0x3f2e22d9	0.68021923
1	0xbef84a63	-0.48494253
2	0x3f82f62e	1.0231378

beta f4 [3]
0	0x3f2e32d6	0.6804632
1	0xbef84646	-0.48491114
2	0x3f82f1bd	1.0230023

beta f4 [3]
0	0x3f2e2864	0.6803038
1	0xbef86d6f	-0.4852099
2	0x3f82f0e6	1.0229766

beta f4 [3]
0	0x3f2e2aa3	0.6803381
1	0xbef84044	-0.4848653
2	0x3f82f5b0	1.0231228

beta f4 [3]
0	0x3f2e2d88	0.68038225
1	0xbef84802	-0.48492438
2	0x3f82f3ce	1.0230653

beta f4 [3]
0	0x3f2e29ee	0.6803273
1	0xbef86d4c	-0.48520887
2	0x3f82f06b	1.022962

beta f4 [3]
0	0x3f2e2fdf	0.68041795
1	0xbef83e76	-0.48485154
2	0x3f82f3b8	1.0230627

beta f4 [3]
0	0x3f2e2774	0.6802895
1	0xbef84eba	-0.48497564
2	0x3f82f44d	1.0230805

beta f4 [3]
0	0x3f2e2d66	0.6803802
1	0xbef85d24	-0.4850856
2	0x3f82f065	1.0229613

beta f4 [3]
0	0x3f2e304f	0.68042463
1	0xbef84845	-0.48492637
2	0x3f82f1cc	1.023004

beta f4 [3]
0	0x3f2e25af	0.6802625
1	0xbef85228	-0.4850018
2	0x3f82f433	1.0230774

beta f4 [3]
0	0x3f2e30dc	0.68043303
1	0xbef84c3e	-0.48495668
2	0x3f82f155	1.0229899

beta f4 [3]
0	0x3f2e2dd9	0.6803871
1	0xbef85898	-0.48505092
2	0x3f82f116	1.0229824

beta f4 [3]
0	0x3f2e2978	0.68032026
1	0xbef84dce	-0.4849686
2	0x3f82f409	1.0230724

beta f4 [3]
0	0x3f2e30b7	0.6804308
1	0xbef84702	-0.48491675
2	0x3f82f293	1.0230278

beta f4 [3]
0	0x3f2e2bef	0.6803579
1	0xbef861d8	-0.4851215
2	0x3f82f104	1.0229802

beta f4 [3]
0	0x3f2e2e49	0.68039376
1	0xbef846b3	-0.4849144
2	0x3f82f366	1.0230529

beta f4 [3]
0	0x3f2e2c85	0.6803668
1	0xbef84ca8	-0.48495984
2	0x3f82f325	1.0230452

beta f4 [3]
0	0x3f2e2ccf	0.6803712
1	0xbef85c8e	-0.48508114
2	0x3f82f0ff	1.0229796

beta f4 [3]
0	0x3f2e2f6c	0.6804111
1	0xbef84763	-0.48491964
2	0x3f82f27f	1.0230254

beta f4 [3]
0	0x3f2e28f6	0.6803125
1	0xbef8523d	-0.48500243
2	0x3f82f346	1.0230491

beta f4 [3]
0	0x3f2e2f44	0.6804087
1	0xbef8510c	-0.48499334
2	0x3f82f150	1.0229893

beta f4 [3]
0	0x3f2e2cf4	0.68037343
1	0xbef851e1	-0.4849997
2	0x3f82f20e	1.0230119

beta f4 [3]
0	0x3f2e2a00	0.68032837
1	0xbef84f2b	-0.484979
2	0x3f82f379	1.0230552

beta f4 [3]
0	0x3f2e2f54	0.68040967
1	0xbef84d75	-0.48496595
2	0x3f82f208	1.0230112

beta f4 [3]
0	0x3f2e2b1d	0.68034536
1	0xbef85a07	-0.48506185
2	0x3f82f208	1.0230112

beta f4 [3]
0	0x3f2e2cf6	0.68037355
1	0xbef8488a	-0.48492843
2	0x3f82f387	1.0230569

beta f4 [3]
0	0x3f2e2c24	0.68036103
1	0xbef852e4	-0.4850074
2	0x3f82f28d	1.0230271

beta f4 [3]
0	0x3f2e2c78	0.68036604
1	0xbef85677	-0.48503467
2	0x3f82f1f2	1.0230086

beta f4 [3]
0	0x3f2e2ce0	0.68037224
1	0xbef849da	-0.48493844
2	0x3f82f337	1.0230473

beta f4 [3]
0	0x3f2e2a28	0.68033075
1	0xbef854e8	-0.48502278
2	0x3f82f2b9	1.0230323

beta f4 [3]
0	0x3f2e2e5e	0.680395
1	0xbef85018	-0.48498607
2	0x3f82f1d8	1.0230055

beta f4 [3]
0	0x3f2e2a99	0.6803375
1	0xbef851a4	-0.48499787
2	0x3f82f2e8	1.0230379

beta f4 [3]
0	0x3f2e2be0	0.680357
1	0xbef84ea6	-0.48497504
2	0x3f82f2de	1.0230367

beta f4 [3]
0	0x3f2e2d58	0.6803794
1	0xbef8528a	-0.48500472
2	0x3f82f1fc	1.0230098

beta f4 [3]
0	0x3f2e2aeb	0.6803424
1	0xbef85321	-0.48500922
2	0x3f82f2cc	1.0230346

beta f4 [3]
0	0x3f2e2d26	0.6803764
1	0xbef84b57	-0.4849498
2	0x3f82f307	1.0230416

beta f4 [3]
0	0x3f2e2b9f	0.6803531
1	0xbef85716	-0.4850394
2	0x3f82f22a	1.0230153

beta f4 [3]
0	0x3f2e2d4e	0.6803788
1	0xbef84e33	-0.4849716
2	0x3f82f2a4	1.0230298

beta f4 [3]
0	0x3f2e2b6c	0.68035007
1	0xbef8503e	-0.4849872
2	0x3f82f2fe	1.0230405

beta f4 [3]
0	0x3f2e2ccb	0.680371
1	0xbef852dc	-0.48500717
2	0x3f82f22c	1.0230155

beta f4 [3]
0	0x3f2e2cfc	0.6803739
1	0xbef84fc9	-0.4849837
2	0x3f82f26e	1.0230234

beta f4 [3]
0	0x3f2e2b1d	0.68034536
1	0xbef8511f	-0.4849939
2	0x3f82f2dc	1.0230365

beta f4 [3]
0	0x3f2e2dc9	0.6803861
1	0xbef84f4c	-0.48498
2	0x3f82f230	1.023016

beta f4 [3]
0	0x3f2e2b9b	0.68035287
1	0xbef85438	-0.48501754
2	0x3f82f258	1.0230207

beta f4 [3]
0	0x3f2e2d05	0.68037444
1	0xbef84c97	-0.48495933
2	0x3f82f2d0	1.023035

beta f4 [3]
0	0x3f2e2c31	0.6803618
1	0xbef8537f	-0.48501202
2	0x3f82f250	1.0230198

beta f4 [3]
0	0x3f2e2d1a	0.6803757
1	0xbef850c6	-0.48499125
2	0x3f82f25e	1.0230215

beta f4 [3]
0	0x3f2e2c50	0.68036366
1	0xbef84f4d	-0.48498002
2	0x3f82f2d0	1.023035

beta f4 [3]
0	0x3f2e2c7a	0.68036616
1	0xbef8525f	-0.48500344
2	0x3f82f264	1.0230222

beta f4 [3]
0	0x3f2e2d53	0.6803791
1	0xbef85020	-0.4849863
2	0x3f82f259	1.0230209

beta f4 [3]
0	0x3f2e2b91	0.6803523
1	0xbef85178	-0.48499656
2	0x3f82f2be	1.0230329

beta f4 [3]
0	0x3f2e2d6a	0.68038046
1	0xbef84f09	-0.484978
2	0x3f82f263	1.023022

beta f4 [3]
0	0x3f2e2bdf	0.6803569
1	0xbef853c4	-0.48501408
2	0x3f82f252	1.02302

beta f4 [3]
0	0x3f2e2cf8	0.68037367
1	0xbef84d92	-0.4849668
2	0x3f82f2b0	1.0230312

beta f4 [3]
0	0x3f2e2be1	0.68035704
1	0xbef852fe	-0.48500818
2	0x3f82f26e	1.0230234

beta f4 [3]
0	0x3f2e2d2c	0.68037677
1	0xbef84fff	-0.48498532
2	0x3f82f260	1.0230217

beta f4 [3]
0	0x3f2e2bd4	0.68035626
1	0xbef85126	-0.4849941
2	0x3f82f2b6	1.023032

beta f4 [3]
0	0x3f2e2cd2	0.6803714
1	0xbef85050	-0.48498774
2	0x3f82f280	1.0230255

beta f4 [3]
0	0x3f2e2c68	0.6803651
1	0xbef8520f	-0.48500106
2	0x3f82f270	1.0230236

beta f4 [3]
0	0x3f2e2c56	0.680364
1	0xbef84fed	-0.4849848
2	0x3f82f2b4	1.0230317

beta f4 [3]
0	0x3f2e2c79	0.6803661
1	0xbef8510c	-0.48499334
2	0x3f82f281	1.0230256

beta f4 [3]
0	0x3f2e2c66	0.68036497
1	0xbef851b7	-0.48499843
2	0x3f82f26e	1.0230234

beta f4 [3]
0	0x3f2e2c68	0.6803651
1	0xbef84fa3	-0.48498258
2	0x3f82f2a7	1.0230302

beta f4 [3]
0	0x3f2e2c20	0.6803608
1	0xbef851d9	-0.48499945
2	0x3f82f27a	1.0230248

beta f4 [3]
0	0x3f2e2cd3	0.68037146
1	0xbef8503f	-0.48498723
2	0x3f82f270	1.0230236

beta f4 [3]
0	0x3f2e2bc7	0.6803555
1	0xbef85190	-0.48499727
2	0x3f82f2a4	1.0230298

beta f4 [3]
0	0x3f2e2d04	0.6803744
1	0xbef84f8b	-0.48498186
2	0x3f82f27e	1.0230253

beta f4 [3]
0	0x3f2e2bd0	0.680356
1	0xbef85320	-0.4850092
2	0x3f82f27c	1.023025

beta f4 [3]
0	0x3f2e2d23	0.68037623
1	0xbef84e15	-0.48497072
2	0x3f82f2a6	1.02303

beta f4 [3]
0	0x3f2e2b81	0.6803513
1	0xbef853fa	-0.4850157
2	0x3f82f27f	1.0230254

beta f4 [3]
0	0x3f2e2dbd	0.6803854
1	0xbef84da3	-0.48496732
2	0x3f82f27e	1.0230253

beta f4 [3]
0	0x3f2e2aca	0.6803404
1	0xbef854cc	-0.48502195
2	0x3f82f29d	1.023029

beta f4 [3]
0	0x3f2e2e7c	0.6803968
1	0xbef84b98	-0.48495173
2	0x3f82f276	1.0230243

beta f4 [3]
0	0x3f2e29e6	0.6803268
1	0xbef85816	-0.48504704
2	0x3f82f27e	1.0230253

beta f4 [3]
0	0x3f2e2fb9	0.6804157
1	0xbef84720	-0.48491764
2	0x3f82f28e	1.0230272

beta f4 [3]
0	0x3f2e2808	0.6802983
1	0xbef85d8c	-0.4850887
2	0x3f82f278	1.0230246

beta f4 [3]
0	0x3f2e3283	0.68045825
1	0xbef84014	-0.48486388
2	0x3f82f27d	1.0230252

beta f4 [3]
0	0x3f2e242e	0.68023956
1	0xbef8678a	-0.48516494
2	0x3f82f298	1.0230284

beta f4 [3]
0	0x3f2e37ed	0.68054086
1	0xbef83170	-0.48475218
2	0x3f82f272	1.0230238

beta f4 [3]
0	0x3f2e1c92	0.68012345
1	0xbef87d1b	-0.48532948
2	0x3f82f293	1.0230278

beta f4 [3]
0	0x3f2e42ea	0.6807085
1	0xbef81213	-0.4845129
2	0x3f82f27e	1.0230253

beta f4 [3]
0	0x3f2e1839	0.6800571
1	0xbef8a274	-0.48561442
2	0x3f82ef91	1.022936

beta f4 [3]
0	0x3f2e0bed	0.6798695
1	0xbef936dc	-0.48674667
2	0x3f82e200	1.022522

beta f4 [3]
0	0x3f2e5c76	0.68109834
1	0xbef83c64	-0.48483574
2	0x3f82e4f0	1.0226116

beta f4 [3]
0	0x3f2e0cc8	0.6798825
1	0xbef7f4c6	-0.48428935
2	0x3f8307ea	1.023679

beta f4 [3]
0	0x3f2e2408	0.6802373
1	0xbef8bdf4	-0.48582423
2	0x3f82e859	1.0227157

beta f4 [3]
0	0x3f2e2442	0.68024075
1	0xbef94335	-0.48684087
2	0x3f82d86e	1.0222299

beta f4 [3]
0	0x3f2e2224	0.68020844
1	0xbef83c30	-0.4848342
2	0x3f82f863	1.0232052

beta f4 [3]
0	0x3f2e349a	0.68049014
1	0xbef7910d	-0.48352852
2	0x3f830680	1.0236359

beta f4 [3]
0	0x3f2dfbd4	0.67962384
1	0xbef9a4e6	-0.4875862
2	0x3f82da44	1.0222859

beta f4 [3]
0	0x3f2e5e95	0.6811307
1	0xbef87bd1	-0.48531964
2	0x3f82dcba	1.022361

beta f4 [3]
0	0x3f2e0d91	0.6798945
1	0xbef7492c	-0.48298013
2	0x3f831beb	1.0242895

beta f4 [3]
0	0x3f2dfa9f	0.6796054
1	0xbef9a0a3	-0.4875537
2	0x3f82db1b	1.0223116

beta f4 [3]
0	0x3f2e80d6	0.6816534
1	0xbef8bf20	-0.48583317
2	0x3f82c93e	1.0217664

beta f4 [3]
0	0x3f2e0f90	0.67992496
1	0xbef73d99	-0.48289183
2	0x3f831c8d	1.0243088

beta f4 [3]
0	0x3f2dd79e	0.6790713
1	0xbef97d49	-0.48728397
2	0x3f82eae8	1.0227938

beta f4 [3]
0	0x3f2ebcd9	0.6825691
1	0xbef8bd20	-0.4858179
2	0x3f82b56f	1.0211619

beta f4 [3]
0	0x3f2e2fef	0.6804189
1	0xbef78a63	-0.48347768
2	0x3f8308bc	1.023704

beta f4 [3]
0	0x3f2d79ca	0.6776396
1	0xbef93a69	-0.48677376
2	0x3f8311f7	1.0239857

beta f4 [3]
0	0x3f2eabdc	0.68230987
1	0xbef8cfa8	-0.4859593
2	0x3f82b8e1	1.021267

beta f4 [3]
0	0x3f2eb0d8	0.6823859
1	0xbef77cb9	-0.48337343
2	0x3f82df60	1.0224419

beta f4 [3]
0	0x3f2d42a8	0.67679834
1	0xbef9f37e	-0.48818582
2	0x3f830e19	1.0238677

beta f4 [3]
0	0x3f2e781c	0.6815202
1	0xbef79fa8	-0.48363996
2	0x3f82ee0d	1.0228897

beta f4 [3]
0	0x3f2e88e9	0.6817766
1	0xbef8673e	-0.48516268
2	0x3f82d0cc	1.021997

beta f4 [3]
0	0x3f2daded	0.67843515
1	0xbef96c19	-0.48715284
2	0x3f82faac	1.0232749
