code/experiment/shape_registration/result/saved/stanford_bunny/10k-7p/icp_du_param.pt (torch, 315945 bytes, 800 tensors)

rotation f4 [3, 3]
0.99999166 -0.003695688 -0.0017157939 0.0036929194 0.99999213 -0.0014115036 0.0017207669 0.0014050825
0.9999976
00000000: 74ff 7f3f 5b33 72bb 7de4 e0ba e804 723b
00000010: 7cff 7f3f 3402 b9ba 5b8b e13a bf2a b83a
00000020: d8ff 7f3f

beta f4 [3]
0.04982288 0.0145148635 -0.0078023924
00000000: 1413 4c3d c0cf 6d3c 36ab ffbb

rotation f4 [3, 3]
0.9999522 -0.008380556 -0.0050221644 0.008372514 0.99996334 -0.0016550616 0.005035875 0.0016129384
0.99998623
00000000: defc 7f3f 994e 09bc f890 a4bb de2c 093c
00000010: 99fd 7f3f a7ee d8ba fb03 a53b 3b69 d33a
00000020: 19ff 7f3f

beta f4 [3]
0.052157648 0.011693418 -0.008424471
00000000: 42a3 553d c095 3f3c cb06 0abc

rotation f4 [3, 3]
0.99987394 -0.01573584 -0.0020820992 0.015730385 0.9998728 -0.0026787831 0.0021239503 0.0026458236
0.9999942
00000000: bdf7 7f3f 73e8 80bc d473 08bb 02dd 803c
00000010: aaf7 7f3f 868e 2fbb f931 0b3b 8e65 2d3b
00000020: 9fff 7f3f

beta f4 [3]
0.052386053 0.010731988 -0.007948806
00000000: c292 563d 38d5 2f3c b53b 02bc

rotation f4 [3, 3]
0.9997696 -0.021458788 0.00026961052 0.021459926 0.9997567 -0.0051053814 -0.00015984368 0.0051101013
0.99998695
00000000: e7f0 7f3f 57ca afbc 835a 8d39 bacc af3c
00000010: 0ef0 7f3f 0b4b a7bb b69b 27b9 a372 a73b
00000020: 25ff 7f3f

beta f4 [3]
0.05259175 0.010030538 -0.007357684
00000000: 726a 573d 2057 243c ba18 f1bb

rotation f4 [3, 3]
0.99967563 -0.025445689 0.0012282158 0.025452385 0.99966013 -0.005647536 -0.001084052 0.0056771436
0.99998355
00000000: beea 7f3f 7a73 d0bc 15fc a03a 8581 d03c
00000010: bae9 7f3f f70e b9bb c016 8eba 5507 ba3b
00000020: ecfe 7f3f

beta f4 [3]
0.05449591 0.007849909 -0.007403032
00000000: 1a37 5f3d e89c 003c 2295 f2bb

rotation f4 [3, 3]
0.99955803 -0.0296361 0.002353869 0.029645432 0.99955225 -0.0040911078 -0.002231629 0.0041591655
0.9999889
00000000: 09e3 7f3f 68c7 f2bc 5e43 1a3b fada f23c
00000010: a8e2 7f3f b30e 86bb 8640 12bb 9c49 883b
00000020: 46ff 7f3f

beta f4 [3]
0.055137247 0.006997369 -0.007387135
00000000: 98d7 613d 304a e53b c80f f2bb

rotation f4 [3, 3]
0.9993791 -0.03495797 0.0043875384 0.03497012 0.99938476 -0.0027537108 -0.0042887037 0.0029053413
0.99998665
00000000: 4fd7 7f3f 1730 0fbd 57c5 8f3b d43c 0f3d
00000010: aed7 7f3f 9a77 34bb 4188 8cbb 8a67 3e3b
00000020: 20ff 7f3f

beta f4 [3]
0.054731894 0.007144697 -0.0070168376
00000000: 8d2e 603d 101e ea3b 80ed e5bb

rotation f4 [3, 3]
0.99925697 -0.03821621 0.0050359988 0.038219064 0.9992695 -0.00040171092 -0.005016818 0.00059397006
0.9999874
00000000: 4ecf 7f3f 9a88 1cbd 0505 a53b 988b 1c3d
00000010: 20d0 7f3f ba9c d2b9 1f64 a4bb a8b4 1b3a
00000020: 2dff 7f3f

beta f4 [3]
0.054498643 0.007470757 -0.006824079
00000000: f839 5f3d 40cd f43b 869c dfbb

rotation f4 [3, 3]
0.99913394 -0.041365154 0.004499178 0.04136616 0.9991441 -0.00010840426 -0.004490865 0.00029450728
0.99998987
00000000: 3ec7 7f3f 826e 29bd d76d 933b 906f 293d
00000010: e8c7 7f3f 1857 e3b8 1b28 93bb 1968 9a39
00000020: 56ff 7f3f

beta f4 [3]
0.05402025 0.00805527 -0.0065132175
00000000: 5644 5d3d 40fa 033c d46c d5bb

rotation f4 [3, 3]
0.9990817 -0.042647883 0.004124087 0.042648476 0.9990902 -7.1996874e-05 -0.004117349 0.00024779377
0.9999915
00000000: d1c3 7f3f 8caf 2ebd 5923 873b 2bb0 2e3d
00000010: 60c4 7f3f 07fd 96b8 d4ea 86bb 51ea 8139
00000020: 71ff 7f3f

beta f4 [3]
0.05581288 0.0064629465 -0.0066574886
00000000: 0c9c 643d 20c7 d33b 1027 dabb

rotation f4 [3, 3]
0.99904037 -0.04357388 0.004467045 0.043573014 0.9990503 0.0004015921 -0.004480027 -0.00020645057
0.9999902
00000000: 1cc1 7f3f 867a 32bd 4a60 923b 9e79 323d
00000010: c3c1 7f3f c78c d239 31cd 92bb a77a 58b9
00000020: 5cff 7f3f

beta f4 [3]
0.058172613 0.004358962 -0.006821119
00000000: 6846 6e3d a0d5 8e3b b283 dfbb

rotation f4 [3, 3]
0.99893355 -0.04582109 0.0057203164 0.045831144 0.9989483 -0.0015538709 -0.005642841 0.0018145355
0.99998283
00000000: 1cba 7f3f e5ae 3bbd 7e71 bb3b 70b9 3b3d
00000010: 13bb 7f3f 41ab cbba 95e7 b8bb b5d5 ed3a
00000020: e0fe 7f3f

beta f4 [3]
0.06067788 0.0016076416 -0.0066263843
00000000: 5e89 783d 80b7 d23a 2422 d9bb

rotation f4 [3, 3]
0.9987158 -0.050662316 0.00065340585 0.05066476 0.99870735 -0.0042023077 -0.00043941892 0.004230201
0.99999124
00000000: d7ab 7f3f 4a83 4fbd 5349 2b3a da85 4f3d
00000010: 49ab 7f3f 83b3 89bb cf61 e6b9 7f9d 8a3b
00000020: 6dff 7f3f

beta f4 [3]
0.060644515 0.0007468611 -0.006529822
00000000: 6266 783d 00c9 433a 1ef8 d5bb

rotation f4 [3, 3]
0.9985259 -0.054188985 -0.0030344066 0.05416787 0.9985093 -0.006680193 0.003391777 0.006505952
0.99997306
00000000: 659f 7f3f 45f5 5dbd e5dc 46bb 21df 5d3d
00000010: 4e9e 7f3f 85e5 dabb 9348 5e3b e22f d53b
00000020: 3cfe 7f3f

beta f4 [3]
0.05978618 0.0010393709 -0.0060905404
00000000: 5ae2 743d 803b 883a 2893 c7bb

rotation f4 [3, 3]
0.9982549 -0.058797162 -0.0055464427 0.058747638 0.99823505 -0.0087379385 0.0060504214 0.008396981
0.99994683
00000000: a28d 7f3f 4bd5 70bd efbe b5bb 5da1 703d
00000010: 558c 7f3f 9229 0fbc 9d42 c63b 7e93 093c
00000020: 84fc 7f3f

beta f4 [3]
0.059319142 0.0007579848 -0.0057628034
00000000: a1f8 723d 80b3 463a e6d5 bcbb

rotation f4 [3, 3]
0.99804455 -0.062125213 -0.0069180713 0.062040742 0.99800396 -0.011810859 0.007638037 0.011358628
0.9999065
00000000: d97f 7f3f 0277 7ebd fdb0 e2bb 6f1e 7e3d
00000010: 307d 7f3f 5582 41bc 8048 fa3b 8a19 3a3c
00000020: dff9 7f3f

beta f4 [3]
0.058900066 0.0006222725 -0.0052930918
00000000: 3241 713d 0020 233a ac71 adbb

rotation f4 [3, 3]
0.99788266 -0.064451545 -0.008707963 0.064312585 0.9978109 -0.015377421 0.00967965 0.014784488
0.99984384
00000000: 3d75 7f3f 2cff 83bd d8ab 0ebc 51b6 833d
00000010: 8970 7f3f 94f1 7bbc 6597 1e3c a33a 723c
00000020: c4f5 7f3f

beta f4 [3]
0.058651116 0.00049105287 -0.0048989234
00000000: 273c 703d 00ba 003a 2687 a0bb

rotation f4 [3, 3]
0.99772173 -0.06667267 -0.010269235 0.066475004 0.99761665 -0.018492533 0.011477382 0.017767472
0.99977607
00000000: b16a 7f3f ae8b 88bd 4b40 28bc 0c24 883d
00000010: ce63 7f3f a77d 97bc a10b 3c3c 178d 913c
00000020: 53f1 7f3f

beta f4 [3]
0.058240898 0.00061295927 -0.004525358
00000000: 028e 6e3d 00af 203a 7449 94bb

rotation f4 [3, 3]
0.99750394 -0.06952761 -0.012359266 0.06925145 0.9973669 -0.021543974 0.013824907 0.020634688
0.99969184
00000000: 6b5c 7f3f 7e64 8ebd 857e 4abc b4d3 8d3d
00000010: 7053 7f3f fd7c b0bc dd81 623c 140a a93c
00000020: ceeb 7f3f

beta f4 [3]
0.05739999 0.0010581017 -0.004171869
00000000: 401c 6b3d 00b0 8a3a 2cb4 88bb

rotation f4 [3, 3]
0.9973281 -0.07179226 -0.013525285 0.071445905 0.99714214 -0.024560884 0.015249921 0.023528866
0.9996069
00000000: e550 7f3f d207 93bd 2899 5dbc 3b52 923d
00000010: b544 7f3f e833 c9bc ceda 793c 9cbf c03c
00000020: 3de6 7f3f

beta f4 [3]
0.056887567 0.0012365058 -0.0038256394
00000000: f002 693d 4012 a23a 94b7 7abb

rotation f4 [3, 3]
0.99718297 -0.073449016 -0.015232179 0.07301059 0.9969496 -0.02758891 0.01721232 0.02639913
0.9995036
00000000: 6247 7f3f 706c 96bd 6490 79bc 9486 953d
00000010: 1738 7f3f 2302 e2bc da00 8d3c fd42 d83c
00000020: 78df 7f3f

beta f4 [3]
0.056643024 0.0012664199 -0.0035476517
00000000: 8402 683d 00fe a53a b87f 68bb

rotation f4 [3, 3]
0.9970073 -0.075645015 -0.015961016 0.075145155 0.99672425 -0.029899081 0.018170591 0.028610228
0.9994258
00000000: df3b 7f3f c6eb 9abd adc0 82bc b4e5 993d
00000010: 5229 7f3f ebee f4bc 7eda 943c ff5f ea3c
00000020: 5fda 7f3f

beta f4 [3]
0.056310765 0.0012989566 -0.0032789456
00000000: 1ea6 663d c041 aa3a 94e3 56bb

rotation f4 [3, 3]
0.9968134 -0.07789839 -0.017157856 0.0773368 0.9965143 -0.031269114 0.019533642 0.029842347
0.99936354
00000000: 2a2f 7f3f 3189 9fbd a28e 8cbc c262 9e3d
00000010: 901b 7f3f 0b14 00bd 0405 a03c f077 f43c
00000020: 4ad6 7f3f

beta f4 [3]
0.05589547 0.0013557076 -0.0031627864
00000000: a6f2 643d 00b2 b13a c046 4fbb

rotation f4 [3, 3]
0.9966468 -0.07980617 -0.018086942 0.07920203 0.9963459 -0.03197876 0.020573389 0.030439358
0.9993253
00000000: 3f24 7f3f 6b71 a3bd 112b 94bc ad34 a23d
00000010: 8610 7f3f 29fc 02bd 8689 a83c f65b f93c
00000020: c8d3 7f3f

beta f4 [3]
0.05539742 0.0015677512 -0.0031002304
00000000: 68e8 623d 007d cd3a 3c2d 4bbb

rotation f4 [3, 3]
0.9965742 -0.08062159 -0.018441707 0.08000598 0.9962811 -0.031992182 0.02095253 0.030407283
0.9993181
00000000: 7d1f 7f3f ef1c a5bd 1013 97bc 2dda a33d
00000010: 470c 7f3f 3c0a 03bd a4a4 ab3c b218 f93c
00000020: 50d3 7f3f

beta f4 [3]
0.05513616 0.0017277077 -0.003088965
00000000: 74d6 613d 4074 e23a 3c70 4abb

rotation f4 [3, 3]
0.9965321 -0.08107077 -0.018751943 0.08044518 0.99624527 -0.03200595 0.021276424 0.03038649
0.9993118
00000000: ba1c 7f3f 6f08 a6bd ad9d 99bc 71c0 a43d
00000010: ee09 7f3f ac18 03bd e54b ae3c 17ed f83c
00000020: e6d2 7f3f

beta f4 [3]
0.054734234 0.0021602288 -0.003016986
00000000: 0131 603d a092 0d3b a0b8 45bb

rotation f4 [3, 3]
0.9965587 -0.08080397 -0.018483743 0.080185525 0.9962643 -0.032061793 0.021005467 0.030469269
0.9993152
00000000: 791e 7f3f 8d7c a5bd 386b 97bc 4f38 a43d
00000010: 2d0b 7f3f 3a53 03bd a813 ac3c b09a f93c
00000020: 1fd3 7f3f

beta f4 [3]
0.054633364 0.0023961812 -0.0029669553
00000000: 3cc7 5f3d 4009 1d3b 4071 42bb

rotation f4 [3, 3]
0.9965901 -0.08042579 -0.018457802 0.07980402 0.99628824 -0.03227815 0.020985495 0.030695314
0.9993089
00000000: 8720 7f3f 47b6 a4bd d134 97bc 4a70 a33d
00000010: bf0c 7f3f 1836 04bd c6e9 ab3c bd74 fb3c
00000020: b5d2 7f3f

beta f4 [3]
0.054415204 0.0027919933 -0.0029007448
00000000: 7ae2 5e3d e0f9 363b 6c1a 3ebb

rotation f4 [3, 3]
0.99659973 -0.08038455 -0.018085893 0.07977152 0.9962873 -0.032380756 0.02062178 0.030827891
0.999312
00000000: 2921 7f3f a8a0 a4bd de28 94bc 405f a33d
00000010: af0c 7f3f afa1 04bd 02ef a83c c68a fc3c
00000020: e9d2 7f3f

beta f4 [3]
0.054339297 0.0029641092 -0.0028315717
00000000: e292 5e3d 8041 423b e491 39bb

rotation f4 [3, 3]
0.996654 -0.079818204 -0.017609881 0.079214424 0.9963221 -0.03267139 0.020153048 0.031167323
0.99931103
00000000: b724 7f3f ba77 a3bd 9942 90bc 2c3b a23d
00000010: f70e 7f3f 6fd2 05bd 0118 a53c 9d52 ff3c
00000020: d9d2 7f3f

beta f4 [3]
0.054020118 0.0035642385 -0.0026689982
00000000: 3344 5d3d 0096 693b 5cea 2ebb

rotation f4 [3, 3]
0.9967751 -0.078489244 -0.016659096 0.07793144 0.99645036 -0.031813983 0.019096388 0.03041256
0.99935436
00000000: a72c 7f3f f8be a0bd a878 88bc 859a 9f3d
00000010: 5f17 7f3f 614f 02bd 0770 9c3c c323 f93c
00000020: b0d5 7f3f

beta f4 [3]
0.054095984 0.00388214 -0.0026596263
00000000: c093 5d3d 806b 7e3b 204d 2ebb

rotation f4 [3, 3]
0.9968909 -0.077318124 -0.015165167 0.07680721 0.99653894 -0.031781256 0.017569706 0.030517478
0.99937963
00000000: 3e34 7f3f f758 9ebd 5277 78bc 194d 9d3d
00000010: 2d1d 7f3f 102d 02bd 58ee 8f3c caff f93c
00000020: 58d7 7f3f

beta f4 [3]
0.05418154 0.0041688457 -0.0025147647
00000000: 76ed 5d3d d09a 883b c0ce 24bb

rotation f4 [3, 3]
0.9969405 -0.07679545 -0.014557788 0.076303594 0.9965787 -0.03175853 0.016946848 0.03055058
0.99938935
00000000: 7e37 7f3f ef46 9dbd ca83 6ebc 0f45 9c3d
00000010: c81f 7f3f 3b15 02bd 1ed4 8a3c 3645 fa3c
00000020: fbd7 7f3f

beta f4 [3]
0.054172814 0.004420519 -0.0024457695
00000000: 50e4 5d3d 00da 903b 3449 20bb

rotation f4 [3, 3]
0.9969567 -0.07660494 -0.014458337 0.07612211 0.99660313 -0.03142543 0.01681648 0.030229138
0.9994016
00000000: 8e38 7f3f 0de3 9cbd a9e2 6cbc e9e5 9b3d
00000010: 6221 7f3f f4b7 00bd b7c2 893c 19a3 f73c
00000020: c9d8 7f3f

beta f4 [3]
0.054132648 0.004641719 -0.0024495833
00000000: 32ba 5d3d 9019 983b 3089 20bb

rotation f4 [3, 3]
0.99698234 -0.07633661 -0.014103709 0.07587083 0.9966345 -0.03103684 0.01642532 0.029872943
0.9994189
00000000: 3c3a 7f3f 5e56 9cbd 3e13 67bc 2a62 9b3d
00000010: 7023 7f3f f940 febc 658e 863c 1ab8 f43c
00000020: ebd9 7f3f

beta f4 [3]
0.053910695 0.0051184148 -0.002406397
00000000: 76d1 5c3d 60b8 a73b a4b4 1dbb

rotation f4 [3, 3]
0.9970389 -0.07558861 -0.014149754 0.075116016 0.9966807 -0.031391464 0.016475609 0.030235618
0.9994072
00000000: f13d 7f3f 33ce 9abd 5fd4 67bc 6dd6 993d
00000010: 7726 7f3f 5694 00bd dbf7 863c b0b0 f73c
00000020: 26d9 7f3f

beta f4 [3]
0.053899832 0.005370453 -0.0023832563
00000000: 12c6 5c3d a0fa af3b 6830 1cbb

rotation f4 [3, 3]
0.9970936 -0.07495103 -0.013643569 0.07449653 0.9967327 -0.031196468 0.01593679 0.030089155
0.99941987
00000000: 8741 7f3f ed7f 99bd 4789 5fbc a391 983d
00000010: e029 7f3f bc8f ffbc df8d 823c 887d f63c
00000020: fbd9 7f3f

beta f4 [3]
0.05276702 0.006973766 -0.0021092324
00000000: 3b22 583d 3084 e43b 0c3b 0abb

rotation f4 [3, 3]
0.99721354 -0.073350266 -0.013568692 0.07291595 0.9968833 -0.030100835 0.015733913 0.02902713
0.99945456
00000000: 6349 7f3f aa38 96bd 384f 5ebc f554 953d
00000010: be33 7f3f 0796 f6bc 68e4 803c 4eca ed3c
00000020: 41dc 7f3f

beta f4 [3]
0.052220277 0.008088343 -0.0020944793
00000000: eee4 553d f884 043c 8843 09bb

rotation f4 [3, 3]
0.99725735 -0.07286251 -0.0129758585 0.07245604 0.99693763 -0.029412778 0.015079169 0.028391963
0.9994829
00000000: 424c 7f3f f138 95bd b298 54bc d563 943d
00000010: 4e37 7f3f 11f3 f0bc 9e0e 773c 4396 e83c
00000020: 1dde 7f3f

beta f4 [3]
0.052139156 0.0084728375 -0.0021430599
00000000: de8f 553d a8d1 0a3c 9472 0cbb

rotation f4 [3, 3]
0.9972708 -0.07277579 -0.012442156 0.072397254 0.99696654 -0.028579798 0.014484445 0.027601171
0.99951386
00000000: 244d 7f3f 790b 95bd 2fda 4bbc 0345 943d
00000010: 3339 7f3f 2e20 eabc 2a50 6d3c da1b e23c
00000020: 24e0 7f3f

beta f4 [3]
0.052045766 0.0087690875 -0.0021826737
00000000: f12d 553d 38ac 0f3c 300b 0fbb

rotation f4 [3, 3]
0.997239 -0.07341669 -0.011154971 0.07308761 0.996947 -0.027476838 0.013138079 0.026585653
0.9995602
00000000: 0e4b 7f3f 7d5b 96bd 57c3 36bc f5ae 953d
00000010: eb37 7f3f 1b17 e1bc 1941 573c 28ca d93c
00000020: 2de3 7f3f

beta f4 [3]
0.05189402 0.008989163 -0.0021707332
00000000: d38e 543d 4847 133c dc42 0ebb

rotation f4 [3, 3]
0.9972528 -0.073477365 -0.009411941 0.07320727 0.99696726 -0.026408859 0.011324066 0.025647424
0.9996072
00000000: f64b 7f3f 4d7b 96bd 8b34 1abc b1ed 953d
00000010: 3f39 7f3f 6457 d8bc 9388 393c 8c1a d23c
00000020: 42e6 7f3f

beta f4 [3]
0.05181078 0.009235822 -0.002105713
00000000: 8a37 543d d851 173c 0000 0abb

rotation f4 [3, 3]
0.9973408 -0.07248324 -0.0075811655 0.072271794 0.9970667 -0.0252027 0.009385818 0.02458783
0.99965364
00000000: ba51 7f3f 1872 94bd 6d6b f8bb 3c03 943d
00000010: c33f 7f3f e575 cebc f9c6 193c 6b6c c93c
00000020: 4de9 7f3f

beta f4 [3]
0.05186377 0.00952483 -0.0020731473
00000000: 1b6f 543d 080e 1c3c a4dd 07bb

rotation f4 [3, 3]
0.9974304 -0.071370855 -0.00625024 0.071206376 0.99718535 -0.023475433 0.007908236 0.022970214
0.99970496
00000000: 9957 7f3f e22a 92bd d0ce ccbb a6d4 913d
00000010: 8a47 7f3f 8d4f c0bc 8c91 013c 082c bc3c
00000020: aaec 7f3f

beta f4 [3]
0.05149065 0.010385543 -0.002043711
00000000: dce7 523d 2028 2a3c c8ef 05bb

rotation f4 [3, 3]
0.9975909 -0.06915097 -0.0055458862 0.069011524 0.997366 -0.02233604 0.0070760427 0.021899773
0.99973524
00000000: 1e62 7f3f 069f 8dbd 44ba b5bb ea55 8d3d
00000010: 6153 7f3f 12fa b6bc 26de e73b 2767 b33c
00000020: a6ee 7f3f

beta f4 [3]
0.051678374 0.010774761 -0.0021522064
00000000: b4ac 533d a088 303c 080c 0dbb

rotation f4 [3, 3]
0.9976736 -0.06795414 -0.0054245624 0.06782639 0.9974758 -0.021026274 0.0068393825 0.020609258
0.9997643
00000000: 8967 7f3f 8a2b 8bbd 87c0 b1bb 90e8 8a3d
00000010: 935a 7f3f 4b3f acbc e61c e03b bfd4 a83c
00000020: 8ef0 7f3f

beta f4 [3]
0.051696252 0.011149846 -0.0022997074
00000000: 73bf 533d d8ad 363c b0b6 16bb

rotation f4 [3, 3]
0.99784625 -0.06545324 -0.004203644 0.06536035 0.99767476 -0.019286675 0.0054556597 0.018969895
0.9998049
00000000: da72 7f3f 590c 86bd b9be 89bb a6db 853d
00000010: 9d67 7f3f 17ff 9dbc 64c5 b23b c166 9b3c
00000020: 37f3 7f3f

beta f4 [3]
0.05186572 0.011633955 -0.0023580166
00000000: 2671 543d 589c 3e3c f488 1abb

rotation f4 [3, 3]
0.998076 -0.06195569 -0.0022931106 0.06191044 0.99795014 -0.0162025 0.0032920286 0.016029226
0.99986595
00000000: e981 7f3f 40c5 7dbd 0348 16bb cd95 7d3d
00000010: a979 7f3f 1bbb 84bc 13bf 573b b94f 833c
00000020: 37f7 7f3f

beta f4 [3]
0.052086443 0.01227057 -0.002484262
00000000: 9858 553d 800a 493c 00cf 22bb

rotation f4 [3, 3]
0.99832016 -0.05793987 -0.0005326214 0.05792793 0.99823326 -0.01323424 0.0012984163 0.013181196
0.9999124
00000000: e991 7f3f 5b52 6dbd 9e9f 0bba d645 6d3d
00000010: 378c 7f3f 6dd4 58bc 9f2f aa3a f1f5 573c
00000020: 42fa 7f3f

beta f4 [3]
0.05232665 0.013002157 -0.002561125
00000000: 7854 563d 0007 553c 8cd8 27bb

rotation f4 [3, 3]
0.9984889 -0.054893963 0.0027085582 0.054922417 0.9984225 -0.011697348 -0.0020617186 0.011828869
0.9999283
00000000: f89c 7f3f 7ed8 60bd 1182 313b 54f6 603d
00000010: 9e98 7f3f 3ca6 3fbc e61d 07bb dfcd 413c
00000020: 4dfb 7f3f

beta f4 [3]
0.05251974 0.013590135 -0.0023708753
00000000: f01e 573d 28a9 5e3c b060 1bbb

rotation f4 [3, 3]
0.99856627 -0.05336568 0.0040956982 0.053404033 0.99852324 -0.009956502 -0.0035586066 0.010160735
0.9999418
00000000: 0aa2 7f3f f995 5abd 3535 863b 30be 5a3d
00000010: 389f 7f3f 9920 23bc 8337 69bb 3679 263c
00000020: 30fc 7f3f

beta f4 [3]
0.052531116 0.014075369 -0.0023589097
00000000: de2a 573d 609c 663c f097 1abb

rotation f4 [3, 3]
0.998597 -0.052742418 0.0046838927 0.052777454 0.9985754 -0.007778035 -0.0042673857 0.008013817
0.9999586
00000000: 0ea4 7f3f 6f08 58bd 577b 993b 2c2d 583d
00000010: a3a2 7f3f e3de febb 6dd5 8bbb 624c 033c
00000020: 49fd 7f3f

beta f4 [3]
0.052588075 0.014287427 -0.0024912404
00000000: 9866 573d d015 6a3c 1444 23bb

rotation f4 [3, 3]
0.99859613 -0.05271121 0.0052630315 0.052743867 0.9985881 -0.0062984023 -0.004923697 0.006567126
0.99996626
00000000: ffa3 7f3f b6e7 57bd 8275 ac3b f409 583d
00000010: 78a3 7f3f d462 cebb f756 a1bb 0c31 d73b
00000020: cafd 7f3f

beta f4 [3]
0.052461393 0.01455868 -0.002558033
00000000: c2e1 563d 8887 6e3c aca4 27bb

rotation f4 [3, 3]
0.99861383 -0.052333377 0.005680327 0.052362394 0.9986161 -0.00498428 -0.005411341 0.0052751065
0.99997187
00000000: 28a5 7f3f 865b 56bd 0922 ba3b f379 563d
00000010: 4ea5 7f3f 2c53 a3bb 9e51 b1bb cdda ac3b
00000020: 28fe 7f3f

beta f4 [3]
0.051460676 0.015860803 -0.00242363
00000000: 6ec8 523d 84ee 813c c4d5 1ebb

rotation f4 [3, 3]
0.99874 -0.049766086 0.006449154 0.049790494 0.9987525 -0.0036860015 -0.006257886 0.004002271
0.99997234
00000000: 6dad 7f3f 86d7 4bbd 6d53 d33b 1ef1 4b3d
00000010: 3eae 7f3f d890 71bb f40e cdbb 7c25 833b
00000020: 30fe 7f3f

beta f4 [3]
0.051483218 0.016388923 -0.002461128
00000000: 11e0 523d 1042 863c e04a 21bb

rotation f4 [3, 3]
0.9988351 -0.047767807 0.0068524256 0.047786888 0.9988545 -0.002575958 -0.0067211986 0.0029005758
0.9999734
00000000: a8b3 7f3f 2da8 43bd 508a e03b 2fbc 433d
00000010: eeb4 7f3f 67d1 28bb 803d dcbb 9617 3e3b
00000020: 42fe 7f3f

beta f4 [3]
0.0514616 0.016811773 -0.0025122892
00000000: 66c9 523d d8b8 893c 38a5 24bb

rotation f4 [3, 3]
0.9989096 -0.04607825 0.007521521 0.04608897 0.9989368 -0.0012527991 -0.007455598 0.0015981891
0.99997085
00000000: 8ab8 7f3f 8cbc 3cbd 1777 f63b cac7 3c3d
00000010: 52ba 7f3f f634 a4ba 174e f4bb 547a d13a
00000020: 17fe 7f3f

beta f4 [3]
0.051261436 0.01741518 -0.0025179144
00000000: 83f7 513d 48aa 8e3c 9803 25bb

rotation f4 [3, 3]
0.9989772 -0.04463098 0.007262523 0.04463806 0.9990029 -0.0008090714 -0.00721903 0.0011324703
0.9999733
00000000: f8bc 7f3f f9ce 36bd 75fa ed3b 66d6 363d
00000010: a7be 7f3f dd17 54ba 9d8d ecbb 666f 943a
00000020: 40fe 7f3f

beta f4 [3]
0.05120635 0.017806143 -0.0025136722
00000000: c0bd 513d 30de 913c 6cbc 24bb

rotation f4 [3, 3]
0.99902046 -0.043536443 0.007933089 0.043549966 0.99905014 -0.0015533249 -0.007858031 0.001897219
0.99996746
00000000: cebf 7f3f 4553 32bd c9f9 013c 7361 323d
00000010: c0c1 7f3f ef98 cbba f9be 00bc 1bac f83a
00000020: defd 7f3f

beta f4 [3]
0.051119555 0.018119909 -0.0023605665
00000000: bd62 513d 3470 943c bcb3 1abb

rotation f4 [3, 3]
0.99906486 -0.042353354 0.008700215 0.042367052 0.9991011 -0.001367647 -0.008634425 0.0017349767
0.99996114
00000000: b7c2 7f3f b67a 2dbd 598b 0e3c 1389 2d3d
00000010: 17c5 7f3f 9e42 b3ba 6777 0dbc 2868 e33a
00000020: 74fd 7f3f

beta f4 [3]
0.051155962 0.018346548 -0.002302507
00000000: ea88 513d 804b 963c a8e5 16bb

rotation f4 [3, 3]
0.9991002 -0.041544456 0.008515189 0.041556798 0.99913496 -0.001339716 -0.008452411 0.001692067
0.9999626
00000000: 08c5 7f3f 852a 2abd 4b83 0b3c 7637 2a3d
00000010: 4fc7 7f3f 6999 afba fb7b 0abc 59c8 dd3a
00000020: 8dfd 7f3f

beta f4 [3]
0.051048897 0.018673338 -0.0022948189
00000000: a618 513d d4f8 983c ac64 16bb

rotation f4 [3, 3]
0.9991362 -0.040740445 0.008221253 0.040756874 0.9991681 -0.0017496684 -0.008142642 0.0020835914
0.999965
00000000: 64c7 7f3f 74df 26bd 6fb2 063c aef0 263d
00000010: 7bc9 7f3f 2155 e5ba b768 05bc dd8c 083b
00000020: b5fd 7f3f

beta f4 [3]
0.050929442 0.019022472 -0.0022547394
00000000: 649b 503d 04d5 9b3c 40c4 13bb

rotation f4 [3, 3]
0.99916375 -0.039882135 0.0089908065 0.03990685 0.9991998 -0.0026260933 -0.008879087 0.0029825077
0.9999559
00000000: 32c9 7f3f 735b 23bd 2d4e 133c 5d75 233d
00000010: 8fcb 7f3f 891a 2cbb 9779 11bc 2d76 433b
00000020: 1cfd 7f3f

beta f4 [3]
0.05082675 0.019355416 -0.002102173
00000000: b62f 503d 408f 9e3c 9cc4 09bb

rotation f4 [3, 3]
0.9991948 -0.039087187 0.009090119 0.039121434 0.99922794 -0.0036013832 -0.008942226 0.0039541125
0.9999523
00000000: 3bcb 7f3f e319 20bd b9ee 143c cc3d 203d
00000010: 67cd 7f3f 2f05 6cbb 6a82 12bc 8091 813b
00000020: e0fc 7f3f

beta f4 [3]
0.049559705 0.02100975 -0.0017574895
00000000: 1eff 4a3d a41c ac3c 905b e6ba

rotation f4 [3, 3]
0.9992511 -0.03812844 0.006549607 0.038148932 0.99926716 -0.0030810018 -0.0064275847 0.0033283692
0.99997365
00000000: ecce 7f3f 912c 1cbd 169e d63b 0e42 1c3d
00000010: f9cf 7f3f a2ea 49bb 7d9e d2bb c520 5a3b
00000020: 46fe 7f3f

beta f4 [3]
0.049105085 0.021803819 -0.0019187434
00000000: 6a22 493d ec9d b23c 587e fbba

rotation f4 [3, 3]
0.99930245 -0.03689852 0.00582139 0.03692055 0.99931145 -0.0036999134 -0.005680732 0.003912376
0.9999764
00000000: 49d2 7f3f e722 17bd 5cc1 be3b 013a 173d
00000010: e0d2 7f3f 3f7a 72bb 6f25 babb 6333 803b
00000020: 74fe 7f3f

beta f4 [3]
0.04902338 0.02225411 -0.0018647099
00000000: bdcc 483d 404e b63c 4869 f4ba

rotation f4 [3, 3]
0.99930257 -0.036957115 0.0052703065 0.036979064 0.9993072 -0.0041698096 -0.0051127453 0.004361577
0.99997735
00000000: 4bd2 7f3f 5860 17bd 89b2 ac3b 5c77 173d
00000010: 99d2 7f3f e6a2 88bb d188 a7bb 8feb 8e3b
00000020: 84fe 7f3f

beta f4 [3]
0.048814863 0.022626482 -0.0018079244
00000000: 18f2 473d 2c5b b93c e0f7 ecba

rotation f4 [3, 3]
0.9992733 -0.037695713 0.0056324536 0.037720542 0.99927866 -0.004395488 -0.005462784 0.0046046367
0.9999743
00000000: 60d0 7f3f d266 1abd 7290 b83b db80 1a3d
00000010: bad0 7f3f 0708 90bb 2701 b3bb 7ee2 963b
00000020: 51fe 7f3f

beta f4 [3]
0.047936402 0.02362854 -0.0015716068
00000000: f658 443d a490 c13c 60fe cdba

rotation f4 [3, 3]
0.99929434 -0.03691341 0.0068973606 0.036936853 0.9993117 -0.0033533962 -0.006769166 0.0036054547
0.9999704
00000000: c1d1 7f3f 8432 17bd 4103 e23b 194b 173d
00000010: e4d2 7f3f a7c4 5bbb e1cf ddbb 7e49 6c3b
00000020: 0ffe 7f3f

beta f4 [3]
0.047078423 0.024936236 -0.0013528671
00000000: 4ed5 403d 1447 cc3c b052 b1ba

rotation f4 [3, 3]
0.9992558 -0.037337873 0.009712005 0.037364714 0.99929863 -0.00258211 -0.009608536 0.0029433193
0.9999497
00000000: 3acf 7f3f 99ef 18bd 1a1f 1f3c be0b 193d
00000010: 09d2 7f3f 9e38 29bb 1f6d 1dbc b4e4 403b
00000020: b4fc 7f3f

beta f4 [3]
0.04676836 0.02548749 -0.0011463594
00000000: 2e90 3f3d 24cb d03c 7041 96ba

rotation f4 [3, 3]
0.99923676 -0.03688013 0.012888978 0.036912505 0.99931616 -0.002271807 -0.012796316 0.0027459918
0.9999146
00000000: fbcd 7f3f 9f0f 17bd 4b2c 533c 9131 173d
00000010: 2fd3 7f3f 99e2 14bb a4a7 51bc 19f6 333b
00000020: 67fa 7f3f

beta f4 [3]
0.046437204 0.026171863 -0.0008765245
00000000: f034 3e3d 6066 d63c 90c6 65ba

rotation f4 [3, 3]
0.9991929 -0.036347527 0.017105596 0.036401134 0.99933326 -0.0028320125 -0.016991189 0.0034524715
0.99984986
00000000: 1bcb 7f3f 25e1 14bd 0921 8c3c 5b19 153d
00000010: 4ed4 7f3f 4999 39bb 1b31 8bbc dc42 623b
00000020: 29f6 7f3f

beta f4 [3]
0.04561285 0.027453065 -0.00033971015
00000000: 8ad4 3a3d 40e5 e03c 201b b2b9

rotation f4 [3, 3]
0.9991648 -0.035268825 0.020619318 0.035322886 0.99937284 -0.002291594 -0.02052604 0.0030175892
0.9997842
00000000: 44c9 7f3f 0b76 10bd d8e9 a83c bbae 103d
00000010: e6d6 7f3f 912e 16bb 3a26 a8bc bfc2 453b
00000020: dbf1 7f3f

beta f4 [3]
0.044525333 0.029212676 0.00017486792
00000000: 3260 363d 6c4f ef3c c05c 3739

rotation f4 [3, 3]
0.99913263 -0.033203103 0.025129722 0.033208 0.99944866 0.00021812518 -0.025123194 0.0006163095
0.999684
00000000: 28c7 7f3f faff 07bd d9dc cd3c 1d05 083d
00000010: dedb 7f3f 88b8 6439 28cf cdbc d58f 213a
00000020: 4aeb 7f3f

beta f4 [3]
0.044216014 0.03030561 0.00042560976
00000000: da1b 353d 7843 f83c 6024 df39

rotation f4 [3, 3]
0.9991463 -0.029259102 0.029151293 0.029188164 0.9995696 0.0028391236 -0.02922235 -0.0019862186
0.99957067
00000000: 0dc8 7f3f c9b0 efbc b1ce ee3c 041c ef3c
00000010: cbe3 7f3f 9710 3a3b b663 efbc 382b 02bb
00000020: dde3 7f3f

beta f4 [3]
0.04346414 0.032249704 0.0008019125
00000000: 7407 323d 4418 043d 7037 523a

rotation f4 [3, 3]
0.99921453 -0.025475485 0.03035725 0.02529989 0.999661 0.0061552087 -0.030503739 -0.005382335
0.9995202
00000000: 86cc 7f3f f7b1 d0bc c4af f83c b741 cf3c
00000010: c9e9 7f3f a2b1 c93b fae2 f9bc 4c5e b0bb
00000020: 8ee0 7f3f

beta f4 [3]
0.042655893 0.034199394 0.00088666845
00000000: f2b7 2e3d aa14 0c3d 506f 683a

rotation f4 [3, 3]
0.99925655 -0.02265564 0.031196795 0.022446584 0.9997236 0.007035743 -0.03134737 -0.006330103
0.9994886
00000000: 47cf 7f3f 5298 b9bc 6c90 ff3c e6e1 b73c
00000010: e3ed 7f3f 178c e63b 1a66 00bd c16c cfbb
00000020: 7cde 7f3f

beta f4 [3]
0.042057913 0.035707086 0.0010611471
00000000: eb44 2c3d 9841 123d 3016 8b3a

rotation f4 [3, 3]
0.99922234 -0.021507666 0.03303206 0.021268884 0.9997449 0.00755114 -0.033186626 -0.0068433476
0.99942535
00000000: 09cd 7f3f d830 b0bc a04c 073d 153c ae3c
00000010: 48ef 7f3f 8e6f f73b b3ee 07bd 293e e0bb
00000020: 57da 7f3f

beta f4 [3]
0.040584322 0.03790036 0.0014409292
00000000: bf3b 263d 683d 1b3d 90dd bc3a

rotation f4 [3, 3]
0.99918365 -0.021545133 0.034163933 0.021361765 0.9997555 0.005711603 -0.03427886 -0.004977328
0.99939966
00000000: 80ca 7f3f 6b7f b0bc 7bef 0b3d defe ae3c
00000010: faef 7f3f 6628 bb3b fd67 0cbd da18 a3bb
00000020: a8d8 7f3f

beta f4 [3]
0.038821816 0.040005542 0.0017996654
00000000: a003 1f3d dadc 233d c0e2 eb3a

rotation f4 [3, 3]
0.99914426 -0.019230241 0.036616705 0.018985275 0.99979514 0.0070310934 -0.036744658 -0.006330201
0.99930465
00000000: ebc7 7f3f bd88 9dbc 66fb 153d 0287 9b3c
00000010: 93f2 7f3f 1665 e63b 9181 16bd 936d cfbb
00000020: 6ed2 7f3f

beta f4 [3]
0.03715349 0.042251863 0.0018429467
00000000: 422e 183d 4a10 2d3d 088f f13a

rotation f4 [3, 3]
0.9990833 -0.018752977 0.038483754 0.018475916 0.99980086 0.00753408 -0.03861745 -0.0068162824
0.99923074
00000000: ecc3 7f3f d89f 99bc 24a1 1d3d ce5a 973c
00000010: f3f2 7f3f 72e0 f63b 552d 1ebd 1f5b dfbb
00000020: 96cd 7f3f

beta f4 [3]
0.034111544 0.045551755 0.0019425936
00000000: 8cb8 0b3d 7a94 3a3d a09e fe3a

rotation f4 [3, 3]
0.99895525 -0.017920667 0.042038735 0.017477646 0.9997883 0.010885327 -0.042224623 -0.01013904
0.99905676
00000000: 88bb 7f3f 5dce 92bc cf30 2c3d 482d 8f3c
00000010: 20f2 7f3f 5f58 323c baf3 2cbd 371e 26bc
00000020: 2fc2 7f3f

beta f4 [3]
0.031615987 0.04835935 0.0018091118
00000000: c47f 013d 7414 463d b81f ed3a

rotation f4 [3, 3]
0.99862224 -0.023558509 0.04690312 0.023179388 0.99969494 0.008618911 -0.047091324 -0.0075193923
0.99886274
00000000: b5a5 7f3f c6fd c0bc 7c1d 403d b3e2 bd3c
00000010: 02ec 7f3f 5536 0d3c d5e2 40bd 3c65 f6bb
00000020: 78b5 7f3f

beta f4 [3]
0.028194657 0.05125613 0.0021953937
00000000: 7bf8 e63c f3f1 513d 98e0 0f3b

rotation f4 [3, 3]
0.9983356 -0.02557462 0.0516925 0.025201704 0.99965125 0.007848938 -0.05187523 -0.0065331473
0.998632
00000000: ec92 7f3f de81 d1bc 84bb 533d ce73 ce3c
00000010: 25e9 7f3f d598 003c 1f7b 54bd 0314 d6bb
00000020: 59a6 7f3f

beta f4 [3]
0.025003426 0.054509327 0.002586713
00000000: fcd3 cc3c 2c45 5f3d d885 293b

rotation f4 [3, 3]
0.9980407 -0.025277756 0.05724237 0.02496193 0.99966955 0.006237183 -0.057380743 -0.0047955723
0.99834144
00000000: 987f 7f3f 4c13 cfbc fa76 6a3d f67c cc3c
00000010: 58ea 7f3f 4961 cc3b 1208 6bbd 2d24 9dbb
00000020: 4e93 7f3f

beta f4 [3]
0.02249936 0.057533145 0.0029492024
00000000: 9450 b83c e0a7 6b3d 6847 413b

rotation f4 [3, 3]
0.9977538 -0.025682958 0.061867673 0.025466774 0.99966663 0.004287421 -0.061957173 -0.0027023614
0.99807525
00000000: cb6c 7f3f 1165 d2bc f568 7d3d b29f d03c
00000010: 27ea 7f3f 7e7d 8c3b cec6 7dbd 1a1a 31bb
00000020: dc81 7f3f

beta f4 [3]
0.019557465 0.061126098 0.003355776
00000000: fa36 a03c 5c5f 7a3d 94ec 5b3b

rotation f4 [3, 3]
0.99737847 -0.023780515 0.06834183 0.023206647 0.99968874 0.009177604 -0.0685389 -0.007567614
0.99761987
00000000: 3254 7f3f 5bcf c2bc cdf6 8b3d de1b be3c
00000010: 9aeb 7f3f a95d 163c 1f5e 8cbd bff9 f7bb
00000020: 0464 7f3f

beta f4 [3]
0.018619027 0.06321508 0.003291402
00000000: ee86 983c e876 813d 90b4 573b

rotation f4 [3, 3]
0.9968663 -0.021390555 0.07616019 0.020580342 0.9997231 0.011406249 -0.0763831 -0.009803129
0.99703044
00000000: a132 7f3f 3f3b afbc e0f9 9b3d 1b98 a83c
00000010: daed 7f3f 47e1 3a3c be6e 9cbd 4e9d 20bc
00000020: 633d 7f3f

beta f4 [3]
0.016642034 0.066402644 0.0036939601
00000000: e054 883c 1cfe 873d 5e16 723b

rotation f4 [3, 3]
0.996412 -0.019042753 0.08246545 0.017702691 0.9996998 0.016950293 -0.082763456 -0.015429576
0.99644977
00000000: db14 7f3f 8cff 9bbc a5e3 a83d 3c05 913c
00000010: 53ec 7f3f 57db 8a3c e37f a9bd 55cc 7cbc
00000020: 5517 7f3f

beta f4 [3]
0.014004588 0.070304796 0.0039353357
00000000: 8073 653c f6fb 8f3d fdf3 803b

rotation f4 [3, 3]
0.9955792 -0.014790633 0.092752345 0.013127877 0.9997424 0.018510517 -0.09300239 -0.01721118
0.9955171
00000000: 47de 7e3f 6954 72bc f1f4 bd3d 4f16 573c
00000010: 1eef 7f3f 5ea3 973c 0978 bebd 76fe 8cbc
00000020: 35da 7e3f

beta f4 [3]
0.0126977265 0.073123366 0.004437403
00000000: 200a 503c b4c1 953d a267 913b

rotation f4 [3, 3]
0.9944909 -0.012750131 0.10404268 0.011076181 0.9997999 0.01664926 -0.1042342 -0.015405271
0.99443334
00000000: f596 7e3f ede5 50bc 5414 d53d df78 353c
00000010: e3f2 7f3f 0764 883c be78 d5bd 6466 7cbc
00000020: 2f93 7e3f

beta f4 [3]
0.0110117905 0.07619695 0.0051539736
00000000: cc6a 343c 260d 9c3d aae2 a83b

rotation f4 [3, 3]
0.99345595 -0.009078773 0.113855734 0.0071487343 0.99982417 0.017348811 -0.113993205 -0.016421266
0.9933461
00000000: 2153 7e3f 22bf 14bc 322d e93d ee3f ea3b
00000010: 7af4 7f3f 181f 8e3c 4575 e9bd e485 86bc
00000020: ee4b 7e3f

beta f4 [3]
0.009094708 0.0797326 0.0056900717
00000000: f801 153c d84a a33d c873 ba3b

rotation f4 [3, 3]
0.99247265 -0.004353885 0.122387625 0.0016384468 0.99975026 0.022276605 -0.122454174 -0.021908699
0.99223214
00000000: b012 7e3f 09ab 8ebb 5da6 fa3d 27c1 d63a
00000010: a2ef 7f3f 6d7d b63c 41c9 fabd df79 b3bc
00000020: ed02 7e3f

beta f4 [3]
0.0071527734 0.083445966 0.0059852623
00000000: d061 ea3b b8e5 aa3d 0520 c43b

rotation f4 [3, 3]
0.99237126 -0.00014875107 0.12329049 -0.0032121052 0.9996294 0.027068505 -0.123248115 -0.027257372
0.9920022
00000000: 0b0c 7e3f 10fa 1bb9 b97f fc3d 2f82 52bb
00000010: b6e7 7f3f c5be dd3c 8269 fcbd da4a dfbc
00000020: dbf3 7d3f

beta f4 [3]
0.0070788376 0.085123986 0.0057501104
00000000: 98f5 e73b 7c55 ae3d 6c6b bc3b

rotation f4 [3, 3]
0.9923194 0.006032721 0.12355625 -0.010513784 0.9993094 0.035646245 -0.12325578 -0.03667153
0.9916975
00000000: a508 7e3f 22ae c53b 0f0b fd3d 0242 2cbc
00000010: bed2 7f3f cc01 123d 876d fcbd e334 16bd
00000020: e3df 7d3f

beta f4 [3]
0.0047293827 0.08916782 0.0055880127
00000000: f0f8 9a3b 9e9d b63d a61b b73b

rotation f4 [3, 3]
0.9929642 0.009161257 0.118056536 -0.015323659 0.9985604 0.051389493 -0.1174162 -0.052837454
0.9916759
00000000: e732 7e3f 1919 163c a0c7 f13d 1610 7bbc
00000010: a8a1 7f3f ca7d 523d e877 f0bd 166c 58bd
00000020: 79de 7d3f

beta f4 [3]
0.003735207 0.0913188 0.0047473013
00000000: 60ca 743b 5a05 bb3d 408f 9b3b

rotation f4 [3, 3]
0.99309313 0.01561635 0.116282895 -0.022934197 0.99782115 0.06185778 -0.115063645 -0.06409769
0.99128765
00000000: 5a3b 7e3f b8db 7f3c ba25 ee3d 7fe0 bbbc
00000010: 3571 7f3f 955e 7d3d 7da6 ebbd a645 83bd
00000020: 07c5 7d3f

beta f4 [3]
0.001324974 0.09484306 0.0045078276
00000000: c0aa ad3a 143d c23d 66b6 933b

rotation f4 [3, 3]
0.9925405 0.01910584 0.12040706 -0.027805947 0.9970887 0.07098976 -0.118700616 -0.07380883
0.99018264
00000000: 2217 7e3f da83 9c3c fa97 f63d 4cc9 e3bc
00000010: 3441 7f3f 1463 913d 4f19 f3bd 1529 97bd
00000020: 9c7c 7d3f

beta f4 [3]
-5.6624413e-05 0.09666574 0.004476251
00000000: 0080 6db8 b0f8 c53d 84ad 923b

rotation f4 [3, 3]
0.9923559 0.02276072 0.12129047 -0.03318875 0.9958568 0.084660694 -0.118861124 -0.08803912
0.9889999
00000000: 090b 7e3f b174 ba3c 2367 f83d edf0 07bd
00000010: 79f0 7e3f 9662 ad3d 766d f3bd db4d b4bd
00000020: 192f 7d3f

beta f4 [3]
-0.000638064 0.09744085 0.0040666503
00000000: c043 27ba 128f c73d 8941 853b

rotation f4 [3, 3]
0.9922476 0.021868896 0.122338355 -0.03385114 0.994734 0.09673563 -0.11957877 -0.100127205
0.9877627
00000000: f003 7e3f 6626 b33c 888c fa3d 7ea7 0abd
00000010: e3a6 7e3f 541d c63d b7e5 f4bd 7e0f cdbd
00000020: 04de 7c3f

beta f4 [3]
-0.001015868 0.09772692 0.003663716
00000000: e026 85ba 0d25 c83d f41a 703b

rotation f4 [3, 3]
0.9925023 0.018061992 0.12088345 -0.031245353 0.9936521 0.10807019 -0.11816423 -0.11103715
0.98676646
00000000: a114 7e3f bef6 933c be91 f73d 41f6 ffbc
00000010: fc5f 7e3f e753 dd3d 1600 f2bd 7267 e3bd
00000020: ba9c 7c3f

beta f4 [3]
-0.0013592169 0.09783261 0.003283896
00000000: c027 b2ba 775c c83d a236 573b

rotation f4 [3, 3]
0.9926202 0.016250396 0.12016921 -0.029995082 0.9930883 0.113467164 -0.11749504 -0.11623464
0.9862473
00000000: 5c1c 7e3f 8d1f 853c 461b f63d 3fb8 f5bc
00000010: 093b 7e3f 7961 e83d 3da1 f0bd 6d0c eebd
00000020: b47a 7c3f

beta f4 [3]
-0.0018327143 0.09815477 0.0031502615
00000000: b037 f0ba 5e05 c93d 9e74 4e3b

rotation f4 [3, 3]
0.99307203 0.012461189 0.11684668 -0.027053205 0.9918957 0.124143265 -0.11435264 -0.12644395
0.98536056
00000000: f839 7e3f 042a 4c3c 504d ef3d af9e ddbc
00000010: e0ec 7d3f d33e fe3d b831 eabd 867a 01be
00000020: 9740 7c3f

beta f4 [3]
-0.002105305 0.09817133 0.0027348516
00000000: 28f9 09bb 0d0e c93d 323b 333b

rotation f4 [3, 3]
0.99332625 0.009164059 0.11497151 -0.024237493 0.99116474 0.13039899 -0.11276106 -0.13231586
0.98477244
00000000: a14a 7e3f d924 163c 2f76 eb3d b58d c6bc
00000010: f9bc 7d3f 5087 053e 45ef e6bd cf7d 07be
00000020: 0c1a 7c3f

beta f4 [3]
-0.0022796635 0.098133795 0.0025344742
00000000: 6866 15bb 5ffa c83d 6c19 263b

rotation f4 [3, 3]
0.99347746 0.0059024026 0.11387566 -0.021594714 0.9903264 0.13706541 -0.11196517 -0.13863079
0.9839946
00000000: 8a54 7e3f f168 c13b a437 e93d 66e7 b0bc
00000010: 0886 7d3f e05a 0c3e ff4d e5bd 3bf5 0dbe
00000020: 12e7 7b3f

beta f4 [3]
-0.0024542473 0.09813233 0.00236481
00000000: 70d7 20bb 9af9 c83d eefa 1a3b

rotation f4 [3, 3]
0.9933957 0.0007749856 0.1147366 -0.017590031 0.98918515 0.14561497 -0.11338283 -0.14667141
0.98266584
00000000: 2e4f 7e3f 6728 4b3a 06fb ea3d f818 90bc
00000010: 3d3b 7d3f 171c 153e 4235 e8bd 0831 16be
00000020: fd8f 7b3f

beta f4 [3]
-0.0026688688 0.09809297 0.002174215
00000000: 30e8 2ebb f8e4 c83d 467d 0e3b

rotation f4 [3, 3]
0.9931194 -0.0035676574 0.11705143 -0.014706367 0.987823 0.15488501 -0.116178885 -0.15554096
0.98097354
00000000: 133d 7e3f 5ccf 69bb a9b8 ef3d f9f2 70bc
00000010: f8e1 7c3f 2d9a 1e3e 32ef edbd 2146 1fbe
00000020: 1521 7b3f

beta f4 [3]
-0.0028580483 0.09809283 0.0019918089
00000000: 184e 3bbb e5e4 c83d 0289 023b

rotation f4 [3, 3]
0.9930663 -0.0061033564 0.1173954 -0.013201213 0.9865445 0.1629592 -0.11681053 -0.1633793
0.9796236
00000000: 9839 7e3f aafe c7bb 006d f03d e749 58bc
00000010: 2e8e 7c3f c7de 263e 5c3a efbd e74c 27be
00000020: 9dc8 7a3f

beta f4 [3]
-0.0030048564 0.09817618 0.0017769355
00000000: 20ed 44bb 9810 c93d 10e8 e83a

rotation f4 [3, 3]
0.99322796 -0.007461206 0.11594488 -0.012358926 0.98548865 0.16929261 -0.115525335 -0.16957878
0.9787224
00000000: 3044 7e3f 227d f4bb 8274 ed3d 187d 4abc
00000010: fc48 7c3f 0b5b 2d3e 8c98 ecbd 0fa6 2dbe
00000020: 8d8d 7a3f

beta f4 [3]
-0.0034183916 0.098552465 0.0016247602
00000000: 1807 60bb e0d5 c93d e8f5 d43a

rotation f4 [3, 3]
0.99300545 -0.009497798 0.11768623 -0.011335348 0.98448616 0.17509663 -0.11752347 -0.17520584
0.9774924
00000000: 9b35 7e3f a79c 1bbc 7a05 f13d e5b7 39bc
00000010: 4907 7c3f 884c 333e 25b0 f0bd 2969 33be
00000020: f13c 7a3f

beta f4 [3]
-0.0035408325 0.098544896 0.0015304592
00000000: 500d 68bb e8d1 c93d b099 c83a

rotation f4 [3, 3]
0.9929539 -0.009677127 0.11810994 -0.011702719 0.9837815 0.17899178 -0.11792627 -0.17911245
0.97673553
00000000: 3a32 7e3f d08c 1ebc a0e3 f13d c3bc 3fbc
00000010: 1bd9 7b3f 9f49 373e 5483 f1bd 4169 37be
00000020: 570b 7a3f

beta f4 [3]
-0.0036110673 0.09859941 0.0014386382
00000000: a8a7 6cbb 7dee c93d b090 bc3a

rotation f4 [3, 3]
0.99280864 -0.00884295 0.11938129 -0.013549063 0.98255885 0.18545426 -0.1189394 -0.18573852
0.97537374
00000000: b528 7e3f 05e2 10bc 2e7e f43d e4fc 5dbc
00000010: fa88 7b3f b9e7 3d3e 8096 f3bd 3d32 3ebe
00000020: 18b2 793f

beta f4 [3]
-0.0035611484 0.0986349 0.0012719221
00000000: 2862 69bb 1801 ca3d a0b6 a63a

rotation f4 [3, 3]
0.99289525 -0.008639901 0.11867887 -0.013874334 0.98215175 0.18757914 -0.11818124 -0.18789297
0.9750536
00000000: 622e 7e3f 5f8e 0dbc e80d f33d 2d51 63bc
00000010: 4c6e 7b3f bf14 403e 0209 f2bd 0467 40be
00000020: 1d9d 793f

beta f4 [3]
-0.0036039185 0.0986964 0.0011880351
00000000: b82f 6cbb 5721 ca3d d8b7 9b3a

rotation f4 [3, 3]
0.99271005 -0.0068512587 0.12033137 -0.01614045 0.9818332 0.18905775 -0.1194406 -0.18962161
0.97456527
00000000: 3f22 7e3f 8680 e0bb 4b70 f63d fa38 84bc
00000010: 6c59 7b3f 5b98 413e 469d f4bd 2b2c 42be
00000020: 1c7d 793f

beta f4 [3]
-0.0035800785 0.09877914 0.0011942284
00000000: c09f 6abb b84c ca3d a887 9c3a

rotation f4 [3, 3]
0.99265724 -0.00611205 0.12080362 -0.017132651 0.9815488 0.19043949 -0.119738854 -0.1911112
0.9742376
00000000: c91e 7e3f 9747 c8bb e367 f73d c659 8cbc
00000010: c846 7b3f 9202 433e a539 f5bd a8b2 43be
00000020: a367 793f

beta f4 [3]
-0.0035864487 0.09880845 0.0011627357
00000000: a00a 6bbb 165c ca3d f066 983a

rotation f4 [3, 3]
0.99256736 -0.0058650477 0.12155149 -0.017586326 0.9814402 0.19095667 -0.12041591 -0.19167554
0.974043
00000000: e518 7e3f 962f c0bb fdef f83d 3311 90bc
00000010: aa3f 7b3f 258a 433e 9e9c f6bd 9846 44be
00000020: e25a 793f

beta f4 [3]
-0.0035730954 0.09879695 0.0011679567
00000000: 982a 6abb 0e56 ca3d 2016 993a

rotation f4 [3, 3]
0.9925592 -0.0058254027 0.12162504 -0.017641168 0.98143685 0.19097382 -0.12047971 -0.1916983
0.9740311
00000000: 5c18 7e3f 05e3 bebb 8d16 f93d 3684 90bc
00000010: 723f 7b3f a48e 433e 11be f6bd 8f4c 44be
00000020: 1a5a 793f

beta f4 [3]
-0.003571866 0.0987816 0.0011697337
00000000: f815 6abb 024e ca3d c051 993a

rotation f4 [3, 3]
0.9925583 -0.00579545 0.121630535 -0.017669626 0.9814396 0.19095373 -0.120479874 -0.191682
0.9740339
00000000: 4d18 7e3f c2e7 bdbb 6e19 f93d e4bf 90bc
00000010: a03f 7b3f 6089 433e 27be f6bd 4948 44be
00000020: 495a 793f

beta f4 [3]
-0.0035674535 0.09876618 0.0011721887
00000000: f0cb 69bb ec45 ca3d 20a4 993a

rotation f4 [3, 3]
0.99260205 -0.0061740675 0.12125897 -0.017216368 0.98145795 0.19090311 -0.12018913 -0.19157827
0.9740906
00000000: 2b1b 7e3f d54f cabb 9f56 f83d 5709 8dbc
00000010: d440 7b3f 1b7c 433e b825 f6bd 182d 44be
00000020: 005e 793f

beta f4 [3]
-0.0035909992 0.098738864 0.0011674641
00000000: f856 6bbb 9a37 ca3d 9805 993a

rotation f4 [3, 3]
0.99261135 -0.006199645 0.12117925 -0.017174508 0.9814605 0.190895 -0.12011611 -0.19156566
0.974102
00000000: c71b 7e3f 6426 cbbb d42c f83d 8eb1 8cbc
00000010: ff40 7b3f fb79 433e 6fff f5bd ca29 44be
00000020: c05e 793f

beta f4 [3]
-0.0036011357 0.09872767 0.001173404
00000000: 0801 6cbb bc31 ca3d e8cc 993a

rotation f4 [3, 3]
0.99261504 -0.0061959666 0.1211534 -0.01717216 0.98146164 0.19089094 -0.12008979 -0.19156113
0.97410643
00000000: 051c 7e3f 8907 cbbb 461f f83d a1ac 8cbc
00000010: 1241 7b3f ea78 433e a3f1 f5bd 9a28 44be
00000020: 0a5f 793f

beta f4 [3]
-0.0036024265 0.09871892 0.0011791931
00000000: b016 6cbb 252d ca3d 288f 9a3a

rotation f4 [3, 3]
0.9926157 -0.0061896043 0.121143416 -0.017179562 0.98145735 0.19091003 -0.12007884 -0.19158155
0.97410333
00000000: 101c 7e3f 2ad2 cabb 0a1a f83d 27bc 8cbc
00000010: ca40 7b3f eb7d 433e e5eb f5bd f42d 44be
00000020: d65e 793f

beta f4 [3]
-0.0036033317 0.09871222 0.001185731
00000000: e025 6cbb a229 ca3d 886a 9b3a

rotation f4 [3, 3]
0.9926149 -0.006198159 0.12115299 -0.017171172 0.9814602 0.19090006 -0.12008946 -0.19156994
0.97410476
00000000: 031c 7e3f ed19 cbbb 0f1f f83d 8faa 8cbc
00000010: fa40 7b3f 4e7b 433e 76f1 f5bd e92a 44be
00000020: ee5e 793f

beta f4 [3]
-0.003600007 0.09869657 0.0011947099
00000000: 18ee 6bbb 6d21 ca3d d097 9c3a

rotation f4 [3, 3]
0.9926154 -0.006223999 0.12114479 -0.017144123 0.98146003 0.19089995 -0.12008679 -0.19156699
0.97410554
00000000: 0b1c 7e3f b0f2 cbbb c21a f83d d571 8cbc
00000010: f740 7b3f 477b 433e 10f0 f5bd 232a 44be
00000020: fb5e 793f

beta f4 [3]
-0.0035944153 0.09868643 0.0012038695
00000000: 4890 6bbb 1c1c ca3d 28cb 9d3a

rotation f4 [3, 3]
0.99261606 -0.006230383 0.12113416 -0.017139528 0.98145485 0.19092149 -0.12007754 -0.1915884
0.974102
00000000: 161c 7e3f 3e28 ccbb 3015 f83d 3268 8cbc
00000010: a040 7b3f ec80 433e 37eb f5bd c02f 44be
00000020: c05e 793f

beta f4 [3]
-0.0035867728 0.098678865 0.0012128586
00000000: 1010 6bbb 2518 ca3d c8f8 9e3a

rotation f4 [3, 3]
0.99262 -0.0062186774 0.12110832 -0.017149467 0.98144937 0.19095343 -0.120049156 -0.19162111
0.97409946
00000000: 581c 7e3f 0cc6 cbbb a407 f83d 0a7d 8cbc
00000010: 4440 7b3f 4c89 433e 55dc f5bd 5338 44be
00000020: 955e 793f

beta f4 [3]
-0.0035792626 0.09867071 0.0012212917
00000000: 1092 6abb df13 ca3d c013 a03a

rotation f4 [3, 3]
0.99261993 -0.0062551317 0.121107094 -0.017115124 0.98144644 0.1909728 -0.120054446 -0.19163589
0.9740959
00000000: 571c 7e3f d9f7 ccbb ff06 f83d 0435 8cbc
00000010: 1340 7b3f 608e 433e 1bdf f5bd 333c 44be
00000020: 595e 793f

beta f4 [3]
-0.0035665985 0.09865139 0.001230767
00000000: 98bd 69bb bd09 ca3d b051 a13a

rotation f4 [3, 3]
0.99258876 -0.006646048 0.121339664 -0.016778935 0.9814442 0.19101271 -0.12035746 -0.19163278
0.97405916
00000000: 4c1a 7e3f 17c7 d9bb ee80 f83d fa73 89bc
00000010: ed3f 7b3f d698 433e f97d f6bd 623b 44be
00000020: f15b 793f

beta f4 [3]
-0.0035432223 0.09862112 0.0012476454
00000000: 6835 68bb dff9 c93d 0888 a33a

rotation f4 [3, 3]
0.99259037 -0.0066638663 0.1213258 -0.016764652 0.98143494 0.1910608 -0.1203465 -0.19167902
0.9740512
00000000: 671a 7e3f 905c dabb a979 f83d 0656 89bc
00000010: 523f 7b3f 71a5 433e 3a78 f6bd 8147 44be
00000020: 6b5b 793f

beta f4 [3]
-0.003517706 0.09860654 0.0012593074
00000000: 5089 66bb 3af2 c93d 580f a53a

rotation f4 [3, 3]
0.9926084 -0.0065066726 0.12118977 -0.016893713 0.98143303 0.19106379 -0.12018253 -0.19169848
0.97406805
00000000: 961b 7e3f ed35 d5bb 5832 f83d af64 8abc
00000010: 323f 7b3f 3aa6 433e 4222 f6bd 9b4c 44be
00000020: 865c 793f

beta f4 [3]
-0.0034982264 0.098596215 0.0012713941
00000000: 8042 65bb d0ec c93d e8a4 a63a

rotation f4 [3, 3]
0.9926158 -0.0064906096 0.12112792 -0.01690044 0.98142797 0.19108768 -0.12011845 -0.19172357
0.97407067
00000000: 121c 7e3f 2eaf d4bb ea11 f83d cb72 8abc
00000010: dd3e 7b3f 7dac 433e a900 f6bd 2f53 44be
00000020: b25c 793f

beta f4 [3]
-0.003488319 0.09858769 0.0012837555
00000000: 489c 64bb 58e8 c93d b043 a83a

rotation f4 [3, 3]
0.9926177 -0.006493931 0.12111291 -0.016901746 0.9814158 0.19114816 -0.12010332 -0.19178396
0.97406095
00000000: 321c 7e3f 0bcb d4bb 0c0a f83d 8875 8abc
00000010: 113e 7b3f 58bc 433e bbf8 f5bd 0463 44be
00000020: 0f5c 793f

beta f4 [3]
-0.0034817047 0.09858228 0.00129548
00000000: 502d 64bb 82e5 c93d 18cd a93a

rotation f4 [3, 3]
0.9926216 -0.006481022 0.12108064 -0.016912205 0.98140943 0.19118044 -0.12006855 -0.19181733
0.9740585
00000000: 731c 7e3f c15e d4bb 20f9 f73d 778b 8abc
00000010: a63d 7b3f cec4 433e 80e6 f5bd c36b 44be
00000020: e65b 793f

beta f4 [3]
-0.0034750607 0.09857623 0.001306681
00000000: d8bd 63bb 56e2 c93d f044 ab3a

rotation f4 [3, 3]
0.9926476 -0.0062305564 0.120880246 -0.017118633 0.9814103 0.19115514 -0.119824305 -0.19181928
0.97408783
00000000: 271e 7e3f b229 ccbb 1090 f73d 603c 8cbc
00000010: b53d 7b3f 2cbe 433e 7266 f5bd 466c 44be
00000020: d25d 793f

beta f4 [3]
-0.0034623295 0.09858489 0.0013113879
00000000: 40e8 62bb e0e6 c93d e0e2 ab3a

rotation f4 [3, 3]
0.9926506 -0.0061920458 0.12085656 -0.017148798 0.9814143 0.191132 -0.11979406 -0.19179995
0.97409546
00000000: 5a1e 7e3f a5e6 cabb a583 f73d a37b 8cbc
00000010: f83d 7b3f 1bb8 433e 9756 f5bd 3567 44be
00000020: 525e 793f

beta f4 [3]
-0.0034523439 0.098581165 0.001320716
00000000: b840 62bb ece4 c93d e01b ad3a

rotation f4 [3, 3]
0.992655 -0.0061920397 0.120822586 -0.017144784 0.98141026 0.19115537 -0.119760096 -0.19182271
0.97409546
00000000: a31e 7e3f 98e6 cabb d571 f73d 3873 8cbc
00000010: b43d 7b3f 3cbe 433e c844 f5bd 2c6d 44be
00000020: 525e 793f

beta f4 [3]
-0.0034436695 0.09857764 0.001329611
00000000: 30af 61bb 13e3 c93d 5846 ae3a

rotation f4 [3, 3]
0.9926593 -0.0061757057 0.12079337 -0.017152015 0.9814148 0.19113418 -0.119728334 -0.19180226
0.9741038
00000000: eb1e 7e3f 935d cabb 8462 f73d 6282 8cbc
00000010: 003e 7b3f aeb8 433e 2134 f5bd d067 44be
00000020: de5e 793f

beta f4 [3]
-0.0034332108 0.0985723 0.0013407655
00000000: b8ff 60bb 46e0 c93d a0bc af3a

rotation f4 [3, 3]
0.9926607 -0.006169877 0.12078064 -0.017159358 0.9814087 0.19116373 -0.11971429 -0.19183274
0.9740993
00000000: 031f 7e3f ae2c cabb d75b f73d c891 8cbc
00000010: 9a3d 7b3f 6dc0 433e c42c f5bd cd6f 44be
00000020: 925e 793f

beta f4 [3]
-0.0034231916 0.098566815 0.0013485756
00000000: a057 60bb 66dd c93d b0c2 b03a

rotation f4 [3, 3]
0.992662 -0.0061521404 0.12076711 -0.017174777 0.9814073 0.1911682 -0.11969771 -0.19183932
0.9740998
00000000: 191f 7e3f e597 c9bb bf54 f73d 1eb2 8cbc
00000010: 823d 7b3f 99c1 433e 1324 f5bd 8771 44be
00000020: 9b5e 793f

beta f4 [3]
-0.0034194663 0.09856491 0.0013540983
00000000: 2019 60bb 66dc c93d 007c b13a

rotation f4 [3, 3]
0.99265903 -0.006127129 0.12078847 -0.017201634 0.9814104 0.19114721 -0.11971432 -0.19182187
0.9741007
00000000: e71e 7e3f 15c6 c8bb f25f f73d 71ea 8cbc
00000010: b63d 7b3f 18bc 433e c82c f5bd f46c 44be
00000020: aa5e 793f

beta f4 [3]
-0.0034110416 0.09856025 0.001364057
00000000: c88b 5fbb f5d9 c93d 28ca b23a

rotation f4 [3, 3]
0.9926591 -0.0061236317 0.12079027 -0.017206237 0.9814089 0.19115624 -0.11971518 -0.19183142
0.9740991
00000000: e81e 7e3f bfa8 c8bb e460 f73d 18f4 8cbc
00000010: 9d3d 7b3f 76be 433e 3b2d f5bd 756f 44be
00000020: 8f5e 793f

beta f4 [3]
-0.0034074187 0.09855767 0.0013716295
00000000: 004f 5fbb 9bd8 c93d 40c8 b33a

rotation f4 [3, 3]
0.9926602 -0.0061435276 0.12077965 -0.01718655 0.98140585 0.19117169 -0.11970842 -0.19184448
0.9740973
00000000: fb1e 7e3f a54f c9bb 525b f73d cfca 8cbc
00000010: 6a3d 7b3f 83c2 433e b029 f5bd e172 44be
00000020: 715e 793f

beta f4 [3]
-0.0034008306 0.0985461 0.0013787765
00000000: 78e0 5ebb 8ad2 c93d 10b8 b43a

rotation f4 [3, 3]
0.9926603 -0.0061482033 0.120773725 -0.017181808 0.9814048 0.19117442 -0.11970383 -0.19184704
0.9740969
00000000: fc1e 7e3f de76 c9bb 3758 f73d ddc0 8cbc
00000010: 583d 7b3f 3ac3 433e 4827 f5bd 8d73 44be
00000020: 6a5e 793f

beta f4 [3]
-0.0033926927 0.09853459 0.0013859496
00000000: f057 5ebb 81cc c93d c0a8 b53a

rotation f4 [3, 3]
0.99266523 -0.0061389194 0.12073523 -0.01718544 0.98140144 0.19119388 -0.11966366 -0.19186674
0.9740982
00000000: 4f1f 7e3f fd28 c9bb 0844 f73d 7bc8 8cbc
00000010: 203d 7b3f 54c8 433e 3912 f5bd b778 44be
00000020: 805e 793f

beta f4 [3]
-0.0033850763 0.098525316 0.0013922881
00000000: 28d8 5dbb a4c7 c93d 707d b63a

rotation f4 [3, 3]
0.99266726 -0.006150394 0.12072271 -0.01717387 0.98139745 0.1912192 -0.119652875 -0.19189015
0.9740953
00000000: 711f 7e3f 3f89 c9bb 783d f73d 37b0 8cbc
00000010: dd3c 7b3f f7ce 433e 910c f5bd da7e 44be
00000020: 4f5e 793f

beta f4 [3]
-0.0033800434 0.0985218 0.0013999455
00000000: b883 5dbb ccc5 c93d 607e b73a

rotation f4 [3, 3]
0.9926707 -0.0061112647 0.12069704 -0.017210232 0.9813929 0.19123857 -0.11961979 -0.19191414
0.97409457
00000000: ab1f 7e3f 0141 c8bb 0230 f73d 79fc 8cbc
00000010: 913c 7b3f 0bd4 433e 38fb f4bd 2485 44be
00000020: 435e 793f

beta f4 [3]
-0.0033778064 0.09852216 0.0014083991
00000000: 305e 5dbb fcc5 c93d 089a b83a

rotation f4 [3, 3]
0.9926742 -0.0061140866 0.12066796 -0.01720582 0.98138654 0.19127028 -0.11959126 -0.19194518
0.97409165
00000000: e51f 7e3f ad58 c8bb c320 f73d 38f3 8cbc
00000010: 263c 7b3f 5bdc 433e 43ec f4bd 478d 44be
00000020: 125e 793f

beta f4 [3]
-0.0033754501 0.09851921 0.0014174981
00000000: a836 5dbb 71c4 c93d 58cb b93a

rotation f4 [3, 3]
0.9926774 -0.006104021 0.12064451 -0.01721186 0.9813856 0.19127698 -0.119566076 -0.19195235
0.97409374
00000000: 1b20 7e3f 3d04 c8bb 7814 f73d e3ff 8cbc
00000010: 163c 7b3f 1dde 433e 0fdf f4bd 288f 44be
00000020: 355e 793f

beta f4 [3]
-0.003373379 0.098515466 0.001426422
00000000: e813 5dbb 7ac2 c93d c8f6 ba3a

rotation f4 [3, 3]
0.9926774 -0.006106932 0.12064168 -0.017208315 0.9813859 0.19127384 -0.11956401 -0.19194917
0.97409457
00000000: 1b20 7e3f a91c c8bb fc12 f73d 74f8 8cbc
00000010: 1b3c 7b3f 4add 433e fadd f4bd 538e 44be
00000020: 435e 793f

beta f4 [3]
-0.003368752 0.09850445 0.0014360202
00000000: 48c6 5cbb b3bc c93d d838 bc3a

rotation f4 [3, 3]
0.9926725 -0.0056250347 0.12070537 -0.017688893 0.98139024 0.1912095 -0.11953443 -0.19194324
0.9740992
00000000: c91f 7e3f 3652 b8bb 6134 f73d 4ce8 90bc
00000010: 643c 7b3f 6ccc 433e 78ce f4bd c58c 44be
00000020: 915e 793f

beta f4 [3]
-0.003345659 0.09850658 0.0014480771
00000000: d842 5bbb d1bd c93d 68cd bd3a

rotation f4 [3, 3]
0.99267346 -0.005590537 0.12070099 -0.017724728 0.9813858 0.19122893 -0.11952305 -0.19196692
0.9740963
00000000: d91f 7e3f d330 b7bb 1532 f73d 7333 91bc
00000010: 1a3c 7b3f 84d1 433e 80c8 f4bd fa92 44be
00000020: 605e 793f

beta f4 [3]
-0.0033358391 0.09849791 0.0014545582
00000000: 189e 5abb 46b9 c93d e0a6 be3a

rotation f4 [3, 3]
0.99267364 -0.0055911 0.120699786 -0.017724445 0.9813847 0.19123444 -0.11952196 -0.19197245
0.97409546
00000000: dc1f 7e3f 8c35 b7bb 7331 f73d db32 91bc
00000010: 073c 7b3f f6d2 433e eec7 f4bd 6d94 44be
00000020: 525e 793f

beta f4 [3]
-0.0033273678 0.09848701 0.0014586486
00000000: f80f 5abb 8fb3 c93d 2030 bf3a

rotation f4 [3, 3]
0.9926769 -0.0055774935 0.12067507 -0.017735923 0.98138034 0.19125658 -0.11949457 -0.19199586
0.974094
00000000: 1320 7e3f 68c3 b6bb 7e24 f73d ed4a 91bc
00000010: be3b 7b3f c4d8 433e 92b9 f4bd 909a 44be
00000020: 395e 793f

beta f4 [3]
-0.0033192337 0.09848192 0.001462019
00000000: 8087 59bb e4b0 c93d 38a1 bf3a

rotation f4 [3, 3]
0.9926761 -0.0055835927 0.12067723 -0.017730845 0.98137915 0.19125995 -0.11949807 -0.19199897
0.97409284
00000000: 0520 7e3f 92f6 b6bb a025 f73d 4740 91bc
00000010: aa3b 7b3f a6d9 433e 67bb f4bd 619b 44be
00000020: 265e 793f

beta f4 [3]
-0.003313845 0.098478995 0.0014644992
00000000: 182d 59bb 5baf c93d 70f4 bf3a

rotation f4 [3, 3]
0.9926776 -0.005580796 0.12066237 -0.017731402 0.9813781 0.19126397 -0.11948296 -0.19200313
0.9740935
00000000: 1f20 7e3f 1cdf b6bb d51d f73d 7241 91bc
00000010: 983b 7b3f b4da 433e 7bb3 f4bd 789c 44be
00000020: 315e 793f

beta f4 [3]
-0.0033108518 0.09847605 0.0014663525
00000000: e0fa 58bb d0ad c93d a032 c03a

rotation f4 [3, 3]
0.99267745 -0.0055751936 0.12066441 -0.017737832 0.9813776 0.1912675 -0.119483866 -0.19200753
0.9740925
00000000: 1c20 7e3f 1db0 b6bb e71e f73d ee4e 91bc
00000010: 903b 7b3f a1db 433e f5b3 f4bd 9f9d 44be
00000020: 205e 793f

beta f4 [3]
-0.0033095162 0.09847533 0.001467823
00000000: 78e4 58bb 6fad c93d f863 c03a

rotation f4 [3, 3]
0.99267817 -0.0055712303 0.12066247 -0.017741488 0.9813772 0.1912718 -0.11948082 -0.19201177
0.9740922
00000000: 2820 7e3f de8e b6bb e31d f73d 9956 91bc
00000010: 893b 7b3f c1dc 433e 5cb2 f4bd bc9e 44be
00000020: 1b5e 793f

beta f4 [3]
-0.0033089984 0.09847536 0.0014696429
00000000: c8db 58bb 73ad c93d 08a1 c03a

rotation f4 [3, 3]
0.99267787 -0.0055703856 0.12066073 -0.017742574 0.9813767 0.19126987 -0.11947925 -0.1920105
0.9740924
00000000: 2320 7e3f c887 b6bb f91c f73d e058 91bc
00000010: 813b 7b3f 40dc 433e 89b1 f4bd 679e 44be
00000020: 1f5e 793f

beta f4 [3]
-0.0033086464 0.09847513 0.0014701895
00000000: e0d5 58bb 54ad c93d 60b3 c03a

rotation f4 [3, 3]
0.992678 -0.0055684084 0.12065819 -0.017745243 0.9813748 0.19127747 -0.11947639 -0.19201873
0.97409105
00000000: 2520 7e3f 3277 b6bb a41b f73d 795e 91bc
00000010: 613b 7b3f 3ede 433e 0ab0 f4bd 8fa0 44be
00000020: 085e 793f

beta f4 [3]
-0.0033076797 0.09847437 0.0014710622
00000000: a8c5 58bb eeac c93d a8d0 c03a

rotation f4 [3, 3]
0.9926777 -0.005565292 0.12066059 -0.017748596 0.9813747 0.19127971 -0.119477965 -0.19202104
0.9740905
00000000: 2020 7e3f 0e5d b6bb e61c f73d 8165 91bc
00000010: 5f3b 7b3f d4de 433e ddb0 f4bd 2aa1 44be
00000020: ff5d 793f

beta f4 [3]
-0.0033063367 0.09847417 0.0014717858
00000000: 20af 58bb d3ac c93d f0e8 c03a

rotation f4 [3, 3]
0.99267906 -0.005564742 0.12065145 -0.01774792 0.98137385 0.19128424 -0.11946886 -0.19202551
0.9740907
00000000: 3720 7e3f 7058 b6bb 1b18 f73d 1664 91bc
00000010: 513b 7b3f 04e0 433e 17ac f4bd 56a2 44be
00000020: 025e 793f

beta f4 [3]
-0.003305681 0.09847368 0.0014721509
00000000: 20a4 58bb 92ac c93d 30f5 c03a

rotation f4 [3, 3]
0.992679 -0.0055641946 0.12065156 -0.017748168 0.98137426 0.19128437 -0.11946879 -0.1920254
0.974091
00000000: 3620 7e3f d953 b6bb 2a18 f73d 9b64 91bc
00000010: 583b 7b3f 0de0 433e 0eac f4bd 4ea2 44be
00000020: 075e 793f

beta f4 [3]
-0.003305534 0.09847362 0.0014721686
00000000: a8a1 58bb 8aac c93d c8f5 c03a

rotation f4 [3, 3]
0.992679 -0.0055641946 0.12065156 -0.017748168 0.98137426 0.19128437 -0.11946879 -0.1920254
0.974091
00000000: 3620 7e3f d953 b6bb 2a18 f73d 9b64 91bc
00000010: 583b 7b3f 0de0 433e 0eac f4bd 4ea2 44be
00000020: 075e 793f

beta f4 [3]
-0.003305534 0.09847362 0.0014721686
00000000: a8a1 58bb 8aac c93d c8f5 c03a

rotation f4 [3, 3]
0.992679 -0.0055641946 0.12065156 -0.017748168 0.98137426 0.19128437 -0.11946879 -0.1920254
0.974091
00000000: 3620 7e3f d953 b6bb 2a18 f73d 9b64 91bc
00000010: 583b 7b3f 0de0 433e 0eac f4bd 4ea2 44be
00000020: 075e 793f

beta f4 [3]
-0.003305534 0.09847362 0.0014721686
00000000: a8a1 58bb 8aac c93d c8f5 c03a

rotation f4 [3, 3]
0.992679 -0.0055641946 0.12065156 -0.017748168 0.98137426 0.19128437 -0.11946879 -0.1920254
0.974091
00000000: 3620 7e3f d953 b6bb 2a18 f73d 9b64 91bc
00000010: 583b 7b3f 0de0 433e 0eac f4bd 4ea2 44be
00000020: 075e 793f

beta f4 [3]
-0.003305534 0.09847362 0.0014721686
00000000: a8a1 58bb 8aac c93d c8f5 c03a
