code/experiment/shape_registration/result/saved/stanford_bunny/10k-7p/icp_umeyama_param.pt (torch, 315945 bytes, 800 tensors)

rotation f4 [3, 3]
000000 74 ff 7f 3f 5b 33 72 bb 7d e4 e0 ba e8 04 72 3b
       0.99999166 -0.003695688 -0.0017157939 0.0036929194
000010 7c ff 7f 3f 34 02 b9 ba 5b 8b e1 3a bf 2a b8 3a
       0.99999213 -0.0014115036 0.0017207669 0.0014050825
000020 d8 ff 7f 3f
       0.9999976

beta f4 [3]
000000 5a ab 3f 3d dc f7 90 3c 20 07 ea bb
       0.046794273 0.017696314 -0.0071419626

rotation f4 [3, 3]
000000 78 fe 7f 3f c0 8e d0 bb 00 59 24 bb 8f 3a d0 3b
       0.99997663 -0.0063646734 -0.0025077462 0.006354637
000010 2c fe 7f 3f 63 b5 80 bb 71 fb 25 3b 11 2f 80 3b
       0.9999721 -0.003927873 0.0025326873 0.0039118608
000020 49 ff 7f 3f
       0.9999891

beta f4 [3]
000000 3e 1e 3e 3d b0 09 96 3c f2 4d de bb
       0.04641556 0.018315166 -0.006784194

rotation f4 [3, 3]
000000 58 fd 7f 3f f0 c5 07 bc 59 8f 6f bb 11 6d 07 3c
       0.99995947 -0.008286938 -0.0036553948 0.00826575
000010 a9 fc 7f 3f f7 4d c2 bb 2d c9 72 3b f4 51 c1 3b
       0.99994904 -0.0059297043 0.003704618 0.005899662
000020 70 fe 7f 3f
       0.99997616

beta f4 [3]
000000 50 71 3d 3d 34 a2 9a 3c 3e d1 d5 bb
       0.04625064 0.018876173 -0.0065251878

rotation f4 [3, 3]
000000 9a fc 7f 3f 63 dd 11 bc 09 89 a0 bb 3a 46 11 3c
       0.99994814 -0.00890288 -0.0048991484 0.008866841
000010 a8 fb 7f 3f 75 9d ef bb 2b a8 a2 3b 47 2d ee 3b
       0.9999337 -0.0073124715 0.004963895 0.007268581
000020 74 fd 7f 3f
       0.99996114

beta f4 [3]
000000 6c 26 3d 3d a4 3a a0 3c 9a 92 ce bb
       0.04617922 0.019559212 -0.0063040974

rotation f4 [3, 3]
000000 09 fc 7f 3f 2a d3 1a bc c9 86 b8 bb c0 23 1a 3c
       0.9999395 -0.0094497595 -0.005631302 0.0094079375
000010 4d fb 7f 3f 42 6f f4 bb 28 d4 ba 3b ea b0 f2 3b
       0.9999283 -0.007459552 0.0057015605 0.0074063437
000020 25 fd 7f 3f
       0.9999564

beta f4 [3]
000000 9e e6 3c 3d 00 47 a6 3c 6a 4d c9 bb
       0.04611837 0.020297527 -0.0061432617

rotation f4 [3, 3]
000000 aa fb 7f 3f 8b bd 23 bc 25 b2 bc bb f5 f4 22 3c
       0.99993384 -0.009993921 -0.005758541 0.009946098
000010 85 fa 7f 3f 5c 90 08 bc b8 6a bf 3b 58 9f 07 3c
       0.9999164 -0.008335199 0.0058415793 0.008277737
000020 a8 fc 7f 3f
       0.999949

beta f4 [3]
000000 d1 32 3c 3d b4 0d ad 3c da d5 bf bb
       0.0459469 0.021124698 -0.0058543505

rotation f4 [3, 3]
000000 93 fb 7f 3f bb c1 20 bc 04 ef cc bb 45 ee 1f 3c
       0.99993247 -0.009811814 -0.006254079 0.009761398
000010 c2 fa 7f 3f a2 88 03 bc c4 7e cf 3b 3e 85 02 3c
       0.99992 -0.008028181 0.0063322503 0.007966338
000020 9d fc 7f 3f
       0.9999483

beta f4 [3]
000000 d7 dd 3b 3d 74 84 b4 3c f8 b9 bb bb
       0.04586586 0.022035815 -0.0057289563

rotation f4 [3, 3]
000000 62 fb 7f 3f 8d 1f 1c bc 73 fa e7 bb aa 32 1b 3c
       0.99992955 -0.009529007 -0.0070794164 0.0094725285
000010 02 fb 7f 3f e5 40 02 bc 41 71 ea 3b 52 25 01 3c
       0.9999238 -0.007950042 0.007154614 0.007882433
000020 4b fc 7f 3f
       0.99994344

beta f4 [3]
000000 52 bb 3b 3d 70 8f bb 3c 52 00 b8 bb
       0.04583294 0.022895545 -0.0056152726

rotation f4 [3, 3]
000000 dc fb 7f 3f 76 8e 14 bc 6c ec da bb 06 d5 13 3c
       0.9999368 -0.009067168 -0.0066810157 0.009022957
000010 e2 fb 7f 3f 08 f3 d9 bb 05 e4 dc 3b f7 f6 d7 3b
       0.9999372 -0.006651286 0.0067410492 0.00659072
000020 19 fd 7f 3f
       0.9999557

beta f4 [3]
000000 2e a4 3b 3d c4 9c c2 3c 44 87 b3 bb
       0.04581087 0.023756392 -0.0054787714

rotation f4 [3, 3]
000000 92 fc 7f 3f 36 1f 0e bc e9 fe b3 bb 3f c8 0d 3c
       0.99994767 -0.008674433 -0.005493034 0.008653699
000010 15 fd 7f 3f 38 97 7b bb c2 15 b5 3b 66 78 78 3b
       0.9999555 -0.0038389694 0.0055262754 0.003791356
000020 8c fe 7f 3f
       0.9999778

beta f4 [3]
000000 3a 93 3b 3d c4 81 ca 3c 28 3a af bb
       0.045794703 0.02472008 -0.005347509

rotation f4 [3, 3]
000000 a2 fc 7f 3f c7 3d 12 bc 86 0c a0 bb f7 10 12 3c
       0.9999486 -0.008925862 -0.0048843054 0.008915178
000010 41 fd 7f 3f 23 0f 12 bb 08 b3 a0 3b c1 33 0f 3b
       0.9999581 -0.0022286854 0.0049041547 0.0021850916
000020 13 ff 7f 3f
       0.9999859

beta f4 [3]
000000 2a 16 3b 3d 84 c2 d1 3c b0 9b a9 bb
       0.045675434 0.025605448 -0.00517603

rotation f4 [3, 3]
000000 00 fd 7f 3f 3c 95 16 bc 95 3e 38 bb ab 8c 16 3c
       0.9999542 -0.009190854 -0.0028113474 0.009188811
000010 3b fd 7f 3f 5c 1e 5a ba 0a c1 38 3b 16 64 53 3a
       0.99995774 -0.0008320564 0.0028191232 0.0008063925
000020 bd ff 7f 3f
       0.999996

beta f4 [3]
000000 83 ae 3a 3d 74 10 d9 3c a0 05 a1 bb
       0.045576584 0.026497103 -0.0049140006

rotation f4 [3, 3]
000000 be fb 7f 3f 45 f3 3a bc 1d fd fd 38 61 f2 3a 3c
       0.99993503 -0.011410539 0.00012111126 0.011410327
000010 b6 fb 7f 3f 6a d1 a6 39 02 e3 02 b9 44 28 a6 b9
       0.99993455 0.00031818013 -0.00012482333 -0.00031691988
000020 fe ff 7f 3f
       0.9999999

beta f4 [3]
000000 50 40 39 3d 00 18 e0 3c 1e f2 95 bb
       0.04522735 0.027355194 -0.0045759818

rotation f4 [3, 3]
000000 02 fb 7f 3f fc af 47 bc e1 98 07 3b e9 a0 47 3c
       0.9999238 -0.012187954 0.0020690488 0.01218436
000010 0c fb 7f 3f 2d af f2 3a 32 0c 09 bb 1f 51 ef ba
       0.9999244 0.0018515341 -0.002091181 -0.0018258429
000020 c2 ff 7f 3f
       0.9999963

beta f4 [3]
000000 28 13 38 3d dc 84 e8 3c fc 31 8f bb
       0.044940144 0.028383665 -0.0043699723

rotation f4 [3, 3]
000000 a0 fa 7f 3f bd ab 4b bc ee 61 4c 3b 4f 7e 4b 3c
       0.999918 -0.012431082 0.00311863 0.012420251
000010 91 fa 7f 3f 03 64 66 3b 7b 36 4f bb 20 d0 63 bb
       0.9999171 0.0035154826 -0.0031618166 -0.0034761503
000020 4b ff 7f 3f
       0.9999892

beta f4 [3]
000000 d4 60 36 3d 78 3a f2 3c 30 40 8b bb
       0.044525936 0.029568896 -0.004249595

rotation f4 [3, 3]
000000 59 f9 7f 3f 08 2e 5c bc 53 93 9b 3b f1 d6 5b 3c
       0.9998985 -0.013438709 0.004747787 0.013417945
000010 76 f9 7f 3f 35 a6 8f 3b 30 7f 9d bb b8 8d 8d bb
       0.9999002 0.004383827 -0.0048064217 -0.0043198727
000020 a3 fe 7f 3f
       0.9999792

beta f4 [3]
000000 21 3a 34 3d 40 dc fb 3c ba 6b 82 bb
       0.04400075 0.030744672 -0.003980127

rotation f4 [3, 3]
000000 35 f8 7f 3f 7d 60 69 bc 00 fd c3 3b 29 e5 68 3c
       0.9998811 -0.014244196 0.0059810877 0.014214792
000010 94 f8 7f 3f 3d 25 a3 3b c4 46 c6 bb 29 54 a0 bb
       0.99988675 0.0049788044 -0.0060509164 -0.004892845
000020 0c fe 7f 3f
       0.9999702

beta f4 [3]
000000 76 f6 30 3d 28 0b 04 3d dc 22 6d bb
       0.043203793 0.032237202 -0.0036184108

rotation f4 [3, 3]
000000 37 f7 7f 3f b0 ef 76 bc aa d3 d1 3b 66 87 76 3c
       0.99986595 -0.015071794 0.006403406 0.01504693
000010 0f f8 7f 3f ec d8 80 3b e4 be d3 bb 27 5a 7b bb
       0.9998788 0.003932109 -0.006461965 -0.0038353296
000020 22 fe 7f 3f
       0.9999715

beta f4 [3]
000000 28 2b 2d 3d 80 5a 0a 3d c0 cd 51 bb
       0.042277485 0.033777714 -0.0032013506

rotation f4 [3, 3]
000000 17 f7 7f 3f f0 fe 79 bc 80 a0 ce 3b a4 b7 79 3c
       0.99986404 -0.015258536 0.006305754 0.015241537
000010 28 f8 7f 3f 58 e4 34 3b d7 f9 cf bb e7 8e 2e bb
       0.9998803 0.0027601924 -0.006346922 -0.002663547
000020 76 fe 7f 3f
       0.9999765

beta f4 [3]
000000 0c 26 29 3d dc 9f 10 3d c0 09 3e bb
       0.04129605 0.035308704 -0.002899751

rotation f4 [3, 3]
000000 e7 f6 7f 3f 23 e2 72 bc 62 87 f9 3b 4d 8b 72 3c
       0.9998612 -0.014824423 0.007615016 0.01480372
000010 8f f8 7f 3f 52 cd 34 3b b8 d7 fa bb ce 65 2d bb
       0.99988645 0.00275882 -0.00765511 -0.0026458385
000020 db fd 7f 3f
       0.9999673

beta f4 [3]
000000 36 12 25 3d b4 07 17 3d 88 c9 2e bb
       0.04030057 0.03687258 -0.0026670415

rotation f4 [3, 3]
000000 c4 f6 7f 3f 48 11 69 bc 3c 79 12 3c c8 d5 68 3c
       0.9998591 -0.014225312 0.008940037 0.014211126
000010 4f f9 7f 3f e6 d8 da 3a 1c d9 12 bc c9 26 ca ba
       0.9998979 0.0016696721 -0.008962896 -0.0015422936
000020 4c fd 7f 3f
       0.99995875

beta f4 [3]
000000 98 97 20 3d 08 40 1d 3d 64 8b 21 bb
       0.03920707 0.038391143 -0.0024649734

rotation f4 [3, 3]
000000 7e f5 7f 3f 38 73 60 bc c4 03 3d 3c 19 48 60 3c
       0.99983966 -0.013699345 0.011536542 0.013689064
000010 d7 f9 7f 3f 8e 77 7b 3a de 35 3d bc e7 04 52 ba
       0.999906 0.0009592705 -0.0115484875 -0.0008011595
000020 99 fb 7f 3f
       0.9999328

beta f4 [3]
000000 b8 57 1b 3d d4 91 24 3d 0c 6e 11 bb
       0.037925452 0.040178135 -0.0022190837

rotation f4 [3, 3]
000000 91 f3 7f 3f 9d d1 60 bc b4 74 62 3c 3f a8 60 3c
       0.9998103 -0.013721851 0.0138217695 0.013711988
000010 d6 f9 7f 3f f7 f5 57 3a b7 9e 62 bc 9e 3c 26 ba
       0.99990594 0.0008238251 -0.013831786 -0.000634143
000020 ba f9 7f 3f
       0.9999043

beta f4 [3]
000000 1e 38 16 3d dc b3 2b 3d f8 5d 07 bb
       0.03667461 0.041919574 -0.0020655375

rotation f4 [3, 3]
000000 d6 ec 7f 3f 48 f1 7e bc 18 62 97 3c 92 1d 7e 3c
       0.9997076 -0.015560456 0.018479392 0.01550998
000010 d6 f7 7f 3f 5e 6c 39 3b 6d ba 97 bc 71 9c 26 bb
       0.9998754 0.0028293352 -0.018521512 -0.0025422836
000020 84 f4 7f 3f
       0.99982476

beta f4 [3]
000000 9c 8d 0f 3d a8 28 33 3d 50 2f 02 bb
       0.03504716 0.043739945 -0.0019864626

rotation f4 [3, 3]
000000 f9 e8 7f 3f 8d 66 86 bc eb 9f aa 3c ed bb 85 3c
       0.99964863 -0.016406322 0.020828208 0.016324962
000010 b7 f6 7f 3f 8a 5a 85 3b 99 25 ab bc 46 55 74 bb
       0.9998583 0.004069631 -0.020891951 -0.0037282272
000020 40 f1 7f 3f
       0.99977493

beta f4 [3]
000000 7e 94 09 3d 32 19 3a 3d d0 02 07 bb
       0.03358888 0.045434184 -0.0020601042

rotation f4 [3, 3]
000000 2e e2 7f 3f 9f 6f 84 bc bd 83 d0 3c 70 2c 83 3c
       0.999545 -0.016166506 0.025453443 0.0160124
000010 4c f6 7f 3f 40 5f cc 3b c5 4f d1 bc 7e ee be bb
       0.99985194 0.0062369406 -0.025550732 -0.0058267703
000020 7c e9 7f 3f
       0.99965644

beta f4 [3]
000000 ff 4f 04 3d ec ca 40 3d 5c 7a 08 bb
       0.032302853 0.04706852 -0.0020824885

rotation f4 [3, 3]
000000 b4 db 7f 3f 42 81 96 bc c4 67 e3 3c be fd 94 3c
       0.99944615 -0.018372182 0.02775944 0.0181874
000010 9d f3 7f 3f a4 27 e2 3b 34 66 e4 bc e2 7a d1 bb
       0.999811 0.006901698 -0.027880765 -0.0063928226
000020 35 e5 7f 3f
       0.9995912

beta f4 [3]
000000 20 2f fd 3c ee ee 45 3d 44 50 0a bb
       0.03090626 0.048323564 -0.002110497

rotation f4 [3, 3]
000000 1a cf 7f 3f b1 ba ae bc 5c dd 03 3d 97 32 ad 3c
       0.99925387 -0.021329256 0.032193527 0.021142287
000010 18 f0 7f 3f fa cb c8 3b 66 5e 04 bd 4f 59 b2 bb
       0.9997573 0.0061278315 -0.032316588 -0.0054427753
000020 c7 dc 7f 3f
       0.99946254

beta f4 [3]
000000 a5 8e f1 3c 5c 19 4b 3d 68 c3 ef ba
       0.029486964 0.04958473 -0.0018292489

rotation f4 [3, 3]
000000 84 bd 7f 3f aa 52 d0 bc c1 46 18 3d 5c d4 ce 3c
       0.9989855 -0.025430042 0.03717685 0.025247745
000010 28 ea 7f 3f 6b 07 b0 3b fa c8 18 bd 37 18 91 bb
       0.9996667 0.005371978 -0.03730104 -0.0044279355
000020 c5 d1 7f 3f
       0.9992946

beta f4 [3]
000000 9e 53 e5 3c e2 3e 50 3d 80 f5 c4 ba
       0.027993973 0.05084122 -0.0015026778

rotation f4 [3, 3]
000000 e4 ae 7f 3f 04 cf e7 bc c6 8d 27 3d a2 f6 e6 3c
       0.99876237 -0.028296955 0.04090669 0.028193776
000010 a7 e5 7f 3f 9e ed 4a 3b 65 d8 27 bd 1b 30 fe ba
       0.99959797 0.0030964385 -0.040977854 -0.0019392999
000020 d6 c8 7f 3f
       0.99915826

beta f4 [3]
000000 72 f4 da 3c 00 1c 55 3d 68 96 94 ba
       0.026727889 0.052028656 -0.0011336328

rotation f4 [3, 3]
000000 74 9e 7f 3f 73 82 fe bc 74 9c 37 3d 56 ed fe 3c
       0.99851155 -0.031068062 0.04482694 0.03111903
000010 45 e0 7f 3f 17 74 e8 b9 3a 77 37 bd 8c e0 f0 3a
       0.99951583 -0.00044336982 -0.044791438 0.0018377467
000020 1e be 7f 3f
       0.9989947

beta f4 [3]
000000 34 b9 d1 3c e0 9b 59 3d 80 02 2b ba
       0.025601007 0.05312717 -0.0006523505

rotation f4 [3, 3]
000000 6f 8a 7f 3f 45 d8 0e bd e2 5d 47 3d 0f aa 0f 3d
       0.9982061 -0.03487422 0.048673518 0.03507429
000010 5a d7 7f 3f 76 2b 55 bb f0 c6 46 bd e0 58 a2 3b
       0.99937975 -0.0032527125 -0.048529565 0.0049544424
000020 fd b1 7f 3f
       0.99880964

beta f4 [3]
000000 c8 8b c7 3c 6e d6 5d 3d 80 12 58 b9
       0.024358645 0.054159574 -0.00020606257

rotation f4 [3, 3]
000000 bd 77 7f 3f c9 c1 1b bd a3 27 55 3d 64 86 1d 3d
       0.9979208 -0.038026605 0.052039754 0.038458243
000010 c1 cd 7f 3f ab d5 ef bb fe d9 53 bd 31 75 18 3c
       0.9992333 -0.0073191724 -0.051721565 0.009305284
000020 75 a5 7f 3f
       0.9986184

beta f4 [3]
000000 6c b0 be 3c fa a4 61 3d 80 6e 62 39
       0.023277484 0.055088975 0.00021594204

rotation f4 [3, 3]
000000 23 6d 7f 3f 4a 3e 20 bd 9f 52 5e 3d 08 92 22 3d
       0.99775904 -0.039121903 0.054278012 0.039690048
000010 6f c9 7f 3f 2d 71 1a bc c7 a0 5c bd 80 63 3d 3c
       0.9991674 -0.009426397 -0.053864267 0.011559367
000020 79 9c 7f 3f
       0.99848133

beta f4 [3]
000000 24 01 b7 3c 1a 1d 66 3d a0 24 ff 39
       0.022339411 0.056180097 0.00048664678

rotation f4 [3, 3]
000000 30 5f 7f 3f ad ef 23 bd 13 4e 6b 3d a7 15 27 3d
       0.9975462 -0.040023495 0.057447504 0.040792134
000010 89 c4 7f 3f 07 f5 48 bc 7e 14 69 bd 96 dc 6e 3c
       0.99909264 -0.01226545 -0.05690431 0.014578959
000020 da 8e 7f 3f
       0.9982735

beta f4 [3]
000000 32 4c b0 3c 1a 3c 6a 3d 70 5d 75 3a
       0.021520708 0.057186224 0.00093599316

rotation f4 [3, 3]
000000 9b 4e 7f 3f b4 6d 28 bd aa ab 79 3d af cb 2c 3d
       0.9972932 -0.041120246 0.060954727 0.042186435
000010 e8 bc 7f 3f 69 9a 85 bc 1e ab 76 bd 7e 4e 9a 3c
       0.99897623 -0.01630898 -0.060221784 0.018836256
000020 68 7d 7f 3f
       0.9980073

beta f4 [3]
000000 c2 6c aa 3c f6 ca 6d 3d a0 78 c9 3a
       0.020803813 0.058054887 0.0015371032

rotation f4 [3, 3]
000000 f4 3a 7f 3f d1 31 2f bd 3e 55 84 3d 04 ac 34 3d
       0.9969933 -0.042772118 0.06461571 0.04410936
000010 d9 b3 7f 3f 44 08 9f bc 82 7a 82 bd 11 e7 b5 3c
       0.998838 -0.019413121 -0.06371023 0.022204908
000020 a9 6a 7f 3f
       0.99772125

beta f4 [3]
000000 d6 c5 a4 3c 66 41 71 3d 96 7d 08 3b
       0.020113867 0.05890026 0.0020826808

rotation f4 [3, 3]
000000 f6 29 7f 3f bf 98 31 bd 6d 84 8b 3d f0 67 38 3d
       0.996734 -0.04335856 0.068123676 0.045020998
000010 15 ac 7f 3f 2c ee bc bc 81 4a 89 bd dc 6f d5 3c
       0.9987195 -0.023062788 -0.067036636 0.026054315
000020 41 56 7f 3f
       0.9974099

beta f4 [3]
000000 96 92 9f 3c 74 e0 74 3d a2 08 2e 3b
       0.019479077 0.059784368 0.0026555439

rotation f4 [3, 3]
000000 f6 17 7f 3f 6b dc 31 bd 1d 71 93 3d 4c c3 39 3d
       0.99645936 -0.043423098 0.07199309 0.045352265
000010 70 a7 7f 3f b0 e9 cf bc 57 fc 90 bd 75 ec e9 3c
       0.99864864 -0.025379986 -0.0707938 0.028555134
000020 c6 40 7f 3f
       0.9970821

beta f4 [3]
000000 44 9f 9b 3c f0 8e 78 3d fa 99 4f 3b
       0.018996842 0.06068319 0.003167747

rotation f4 [3, 3]
000000 7a 0f 7f 3f 8d 2b 2b bd db fe 98 3d be cc 33 3d
       0.9963299 -0.04178958 0.07470485 0.04389643
000010 4c a9 7f 3f 7d 6a db bc 22 80 96 bd b1 79 f5 3c
       0.998677 -0.026784176 -0.07348658 0.029965254
000020 4f 31 7f 3f
       0.99684614

beta f4 [3]
000000 06 1d 99 3c 7c 1c 7c 3d 74 45 66 3b
       0.018690597 0.061550602 0.0035136612

rotation f4 [3, 3]
000000 c8 11 7f 3f c6 95 26 bd 86 49 99 3d 5f 58 2f 3d
       0.9963651 -0.04067018 0.074847266 0.042808887
000010 a6 ab 7f 3f b6 d0 de bc 18 d3 96 bd c1 40 f8 3c
       0.9987129 -0.02719913 -0.07364482 0.030304315
000020 db 2f 7f 3f
       0.99682397

beta f4 [3]
000000 16 49 96 3c 14 92 7f 3d e6 ab 70 3b
       0.018345397 0.06239517 0.0036723553

rotation f4 [3, 3]
000000 58 11 7f 3f 42 b8 25 bd fc b6 99 3d ed 29 2e 3d
       0.9963584 -0.040458925 0.075056046 0.042520452
000010 71 ae 7f 3f 3e 97 d5 bc ef 5c 97 bd 06 f5 ee 3c
       0.9987555 -0.026073094 -0.073907726 0.02916957
000020 cd 30 7f 3f
       0.9968384

beta f4 [3]
000000 ba 14 92 3c fc 99 81 3d 3a 93 73 3b
       0.017832149 0.06328198 0.0037166611

rotation f4 [3, 3]
000000 c9 12 7f 3f e0 6b 1f bd 1d c5 9a 3d c1 30 27 3d
       0.9963804 -0.038921237 0.075571276 0.04081798
000010 ee b6 7f 3f f8 4a c2 bc 06 b5 98 bd 92 db da 3c
       0.99888504 -0.023717389 -0.074564025 0.026716027
000020 17 32 7f 3f
       0.99685806

beta f4 [3]
000000 a4 16 8f 3c d8 66 83 3d 62 a4 71 3b
       0.01746685 0.064161 0.0036871661

rotation f4 [3, 3]
000000 1f 17 7f 3f 44 d0 1c bd a9 a7 99 3d 76 51 24 3d
       0.99644655 -0.038284555 0.07502682 0.04011675
000010 c9 b9 7f 3f ca fa bc bc 7f ae 97 bd e6 f6 d4 3c
       0.9989286 -0.023068804 -0.07406329 0.025996637
000020 cb 35 7f 3f
       0.99691457

beta f4 [3]
000000 f6 0a 8d 3c ab b5 84 3d 5a 91 70 3b
       0.01721714 0.06479963 0.003670773

rotation f4 [3, 3]
000000 26 16 7f 3f bb a3 1b bd 31 5a 9a 3d 8b f8 22 3d
       0.9964317 -0.037997942 0.07536734 0.03978781
000010 a9 bb 7f 3f e1 6c b7 bc ec 72 98 bd 2b 56 cf 3c
       0.9989572 -0.022390785 -0.074437946 0.025309643
000020 21 35 7f 3f
       0.99690443

beta f4 [3]
000000 a6 ae 8b 3c 7a b7 85 3d 82 3c 72 3b
       0.017051052 0.06529136 0.0036962335

rotation f4 [3, 3]
000000 08 16 7f 3f 91 e5 13 bd 73 4b 9c 3d 7f 30 1b 3d
       0.9964299 -0.036107603 0.07631578 0.037888046
000010 12 c1 7f 3f f5 4f b4 bc 4e 84 9a bd 26 5b cb 3c
       0.99903977 -0.022010783 -0.07544766 0.024823736
000020 f7 30 7f 3f
       0.9968409

beta f4 [3]
000000 1c 74 8a 3c 2e 22 87 3d 76 c2 77 3b
       0.016901068 0.06598316 0.0037805117

rotation f4 [3, 3]
000000 24 15 7f 3f d5 b3 0f bd 51 9d 9d 3d 11 5f 16 3d
       0.99641633 -0.03508361 0.07696021 0.036711756
000010 e3 c6 7f 3f 02 97 a2 bc 38 0d 9c bd 17 26 b9 3c
       0.9991285 -0.019847397 -0.07619709 0.02260117
000020 ab 30 7f 3f
       0.99683636

beta f4 [3]
000000 46 55 89 3c 2c 79 88 3d 1a 71 74 3b
       0.016764294 0.06663737 0.003729886

rotation f4 [3, 3]
000000 0a 1d 7f 3f dc 98 07 bd 1b 37 9c 3d 00 c8 0d 3d
       0.99653685 -0.033104762 0.07627698 0.034614563
000010 6e cd 7f 3f a0 0a 98 bc 3b d6 9a bd 81 24 ad 3c
       0.99922836 -0.018559754 -0.075603925 0.02113557
000020 be 35 7f 3f
       0.9969138

beta f4 [3]
000000 c2 b9 88 3c 34 ea 89 3d a6 bc 6d 3b
       0.016690139 0.06734124 0.0036275773

rotation f4 [3, 3]
000000 31 25 7f 3f 1b 51 03 bd 91 cc 99 3d 30 68 09 3d
       0.99666125 -0.03205977 0.07509721 0.033546627
000010 c6 cf 7f 3f a2 88 98 bc 6a 76 98 bd 5a aa ac 3c
       0.9992641 -0.01861984 -0.07444461 0.021077324
000020 91 3b 7f 3f
       0.99700266

beta f4 [3]
000000 3e 64 87 3c 24 25 8b 3d 42 74 6a 3b
       0.016527291 0.067941934 0.0035774861

rotation f4 [3, 3]
000000 ac 2c 7f 3f 9a 0f 00 bd fd 55 97 3d e0 eb 05 3d
       0.9967754 -0.03126488 0.07389448 0.03269565
000010 05 d2 7f 3f 3a 65 95 bc 17 10 96 bd c4 b3 a8 3c
       0.9992984 -0.018236745 -0.07327288 0.020593531
000020 e1 41 7f 3f
       0.997099

beta f4 [3]
000000 e0 46 86 3c 04 25 8c 3d 5c 13 66 3b
       0.016391218 0.06842998 0.0035106754

rotation f4 [3, 3]
000000 8f 30 7f 3f c1 f7 f7 bc ba 8f 96 3d 3b c6 01 3d
       0.9968347 -0.030269505 0.073516324 0.031683188
000010 5a d4 7f 3f a4 8b 94 bc 1d 56 95 bd cd 28 a7 3c
       0.999334 -0.018132992 -0.072918154 0.020405198
000020 e2 43 7f 3f
       0.99712956

beta f4 [3]
000000 86 2e 85 3c cc 36 8d 3d 0e ac 64 3b
       0.016257536 0.06895217 0.0034892592

rotation f4 [3, 3]
000000 35 32 7f 3f 3c 26 f1 bc 3e 8c 96 3d b3 d2 fb 3c
       0.99685985 -0.029437177 0.07350968 0.030740118
000010 ee d7 7f 3f ed 76 88 bc b0 73 95 bd a5 8b 9a 3c
       0.9993886 -0.01665827 -0.07297456 0.018865416
000020 90 45 7f 3f
       0.9971552

beta f4 [3]
000000 08 88 84 3c 73 2d 8e 3d 66 cf 5b 3b
       0.016178146 0.069422625 0.0033540367

rotation f4 [3, 3]
000000 bf 33 7f 3f cf 95 ef bc 9f 10 96 3d 0c 0a fa 3c
       0.99688333 -0.029246239 0.07327389 0.030522369
000010 bc d8 7f 3f ce f2 85 bc a7 fe 94 bd 17 db 97 3c
       0.99940085 -0.01635113 -0.072751336 0.018537087
000020 13 47 7f 3f
       0.99717826

beta f4 [3]
000000 e2 63 83 3c 00 03 8f 3d 52 e7 56 3b
       0.016038839 0.06982994 0.0032791686

rotation f4 [3, 3]
000000 77 36 7f 3f 31 76 ee bc 01 05 95 3d e9 1b f9 3c
       0.9969248 -0.029109092 0.07276345 0.030408816
000010 77 d8 7f 3f 09 bf 89 bc 2f ed 93 bd d3 73 9b 3c
       0.99939674 -0.016814725 -0.072229736 0.018976128
000020 04 49 7f 3f
       0.9972079

beta f4 [3]
000000 02 ba 81 3c ad d6 8f 3d a2 a4 53 3b
       0.015835766 0.07023368 0.0032294174

rotation f4 [3, 3]
000000 d5 37 7f 3f 70 2f ec bc d7 a7 94 3d 3d 4d f7 3c
       0.9969457 -0.028831214 0.072585754 0.030188197
000010 eb d7 7f 3f 74 b8 90 bc 70 85 93 bd fa 3a a2 3c
       0.9993884 -0.01766608 -0.072031856 0.019803513
000020 e0 48 7f 3f
       0.99720573

beta f4 [3]
000000 04 6d 80 3c ba 9b 90 3d 72 20 54 3b
       0.015676983 0.070609525 0.0032367972

rotation f4 [3, 3]
000000 3a 38 7f 3f 98 b9 ec bc 33 6e 94 3d 5f 4f f7 3c
       0.9969517 -0.028897092 0.07247581 0.030189214
000010 ec d8 7f 3f 24 95 89 bc ec 58 93 bd 06 17 9b 3c
       0.9994037 -0.016794749 -0.07194695 0.018931877
000020 67 4a 7f 3f
       0.99722904

beta f4 [3]
000000 84 2c 7b 3c dc a0 91 3d e6 77 4d 3b
       0.015330438 0.071107596 0.0031351983

rotation f4 [3, 3]
000000 68 36 7f 3f 72 f1 e8 bc 5d 93 95 3d 1e 27 f3 3c
       0.9969239 -0.028435443 0.07303498 0.029681738
000010 b6 da 7f 3f fb 59 83 bc 75 8e 94 bd 47 b5 94 3c
       0.999431 -0.016034117 -0.07253734 0.018152846
000020 89 48 7f 3f
       0.99720055

beta f4 [3]
000000 5c 42 77 3c 38 8b 92 3d 5e fa 48 3b
       0.015091505 0.0715546 0.0030666809

rotation f4 [3, 3]
000000 be 2f 7f 3f 90 b7 f0 bc bf a3 97 3d 2d 0b fb 3c
       0.99682224 -0.029384404 0.07404279 0.030644977
000010 e6 d8 7f 3f 08 9d 82 bc de 96 96 bd 55 c9 94 3c
       0.99940336 -0.015944019 -0.073529944 0.018162409
000020 c5 43 7f 3f
       0.99712783

beta f4 [3]
000000 34 0b 6f 3c be 9a 93 3d 60 10 4b 3b
       0.014590073 0.07207249 0.0030985102

rotation f4 [3, 3]
000000 ee 20 7f 3f 3d e6 02 bd ad a2 9b 3d e3 21 08 3d
       0.9965962 -0.031957854 0.07599387 0.033235442
000010 ce d3 7f 3f 4c c4 7f bc 3e 82 9a bd 6b 23 94 3c
       0.99932563 -0.015610766 -0.07544373 0.018083295
000020 7b 3a 7f 3f
       0.9969861

beta f4 [3]
000000 34 6d 65 3c 50 bd 94 3d 76 d4 50 3b
       0.014003087 0.07262671 0.0031864918

rotation f4 [3, 3]
000000 07 14 7f 3f 07 7a 09 bd f9 72 9f 3d fc 86 0e 3d
       0.99639934 -0.03356364 0.07785601 0.0347967
000010 63 d1 7f 3f 9c 1f 6e bc 2c 56 9e bd 63 d3 8c 3c
       0.99928874 -0.014533903 -0.0773128 0.01719064
000020 20 32 7f 3f
       0.9968586

beta f4 [3]
000000 10 a3 5c 3c fe 13 96 3d b6 f1 54 3b
       0.0134666115 0.07328032 0.0032492704

rotation f4 [3, 3]
000000 19 06 7f 3f b2 e5 07 bd 59 3f a5 3d 1d 1a 0d 3d
       0.9961868 -0.03317804 0.08068723 0.03444873
000010 47 d2 7f 3f 2f 0d 6c bc 66 27 a4 bd 0b 58 8c 3c
       0.9993023 -0.01440744 -0.08015327 0.017131826
000020 7c 23 7f 3f
       0.9966352

beta f4 [3]
000000 78 dc 56 3c 9c 99 97 3d 74 3b 5c 3b
       0.013114087 0.074023455 0.0033604773

rotation f4 [3, 3]
000000 2e 02 7f 3f 02 d0 07 bd e3 c6 a6 3d bd 42 0c 3d
       0.996127 -0.033157356 0.081434034 0.034243334
000010 e0 d4 7f 3f c6 2e 44 bc a7 da a5 bd 9d 1c 71 3c
       0.99934196 -0.011974042 -0.08098345 0.014716295
000020 9e 21 7f 3f
       0.9966067

beta f4 [3]
000000 d8 d7 4f 3c 38 3c 99 3d 0a 73 50 3b
       0.0126857385 0.07482189 0.003180685

rotation f4 [3, 3]
000000 2c 01 7f 3f fb 58 09 bd bb d9 a6 3d 7f 63 0d 3d
       0.99611163 -0.033532124 0.081469975 0.034518715
000010 2e d5 7f 3f 5a d2 2f bc 27 01 a6 bd e3 36 5d 3c
       0.9993466 -0.010731304 -0.081056885 0.013501856
000020 5b 22 7f 3f
       0.996618

beta f4 [3]
000000 28 f7 4a 3c be 8c 9a 3d e2 07 44 3b
       0.012388028 0.07546376 0.0029911925

rotation f4 [3, 3]
000000 58 05 7f 3f 73 99 0b bd 8a c8 a4 3d 16 89 0e 3d
       0.9961753 -0.034081887 0.08046062 0.034798704
000010 77 d6 7f 3f d1 83 f6 bb 51 27 a4 bd 63 a9 28 3c
       0.9993662 -0.007523038 -0.080153115 0.010294291
000020 a8 29 7f 3f
       0.9967294

beta f4 [3]
000000 40 7c 43 3c fb 25 9c 3d 9a d4 2c 3b
       0.011931479 0.07624432 0.0026371838

rotation f4 [3, 3]
000000 97 0e 7f 3f 75 cb 0a bd 11 57 a1 3d 95 b3 0c 3d
       0.9963164 -0.033885438 0.07877935 0.03435095
000010 a4 d8 7f 3f 65 6e 95 bb 36 ed a0 bd 90 8f ed 3b
       0.9993994 -0.004560279 -0.078577444 0.00724978
000020 a5 33 7f 3f
       0.9968818

beta f4 [3]
000000 98 d8 3c 3c d2 d0 9d 3d 5a d9 11 3b
       0.011526249 0.07705845 0.0022254796

rotation f4 [3, 3]
000000 b8 10 7f 3f 1f dd 08 bd d6 e7 a0 3d c7 48 09 3d
       0.99634886 -0.033414003 0.07856719 0.03351667
000010 36 db 7f 3f e6 a0 93 37 d8 d0 a0 bd d6 72 2b 3b
       0.99943864 1.759869e-05 -0.07852334 0.0026160977
000020 71 35 7f 3f
       0.9969092

beta f4 [3]
000000 d8 9f 36 3c ef 9f 9f 3d 80 4c ec 3a
       0.011146508 0.07794177 0.001802817

rotation f4 [3, 3]
000000 55 07 7f 3f 13 1d 06 bd 54 23 a5 3d d4 01 05 3d
       0.9962056 -0.03274257 0.08063379 0.032472447
000010 b6 dc 7f 3f ed 83 98 3b a5 5c a5 bd 16 4d 04 bb
       0.99946153 0.0046543987 -0.08074311 -0.0020187548
000020 e4 29 7f 3f
       0.99673295

beta f4 [3]
000000 b8 e8 31 3c 38 65 a1 3d c8 7f bf 3a
       0.010858707 0.07880634 0.0014610225

rotation f4 [3, 3]
000000 55 f2 7e 3f 80 97 03 bd 63 8f ad 3d 6f 32 01 3d
       0.9958852 -0.032126904 0.084746145 0.031542238
000010 37 dd 7f 3f 6e e5 06 3c 30 02 ae bd 2d 13 b5 bb
       0.9994692 0.008233411 -0.08496511 -0.0055259676
000020 0c 12 7f 3f
       0.9963691

beta f4 [3]
000000 04 c8 2c 3c aa 3c a3 3d 38 2e ac 3a
       0.010545734 0.07970555 0.0013136333

rotation f4 [3, 3]
000000 29 e9 7e 3f bd fb fa bc 9a ff b1 3d 8a 99 f5 3c
       0.99574524 -0.030637616 0.0869133 0.02998044
000010 05 e0 7f 3f ca 2a 11 3c 6a 77 b2 bd aa b2 cb bb
       0.999512 0.008860299 -0.08714183 -0.006216367
000020 75 05 7f 3f
       0.996177

beta f4 [3]
000000 74 23 27 3c e8 0c a5 3d f4 d9 a3 3a
       0.010201324 0.08059102 0.0012500868

rotation f4 [3, 3]
000000 bd e3 7e 3f 00 e2 d5 bc 9f e3 b6 3d c4 f3 ce 3c
       0.9956625 -0.026108742 0.08930134 0.02526272
000010 6d e7 7f 3f 5a 8a 2d 3c e0 62 b7 bd 34 d2 07 bc
       0.999625 0.010592068 -0.08954406 -0.008289862
000020 7d f6 7e 3f
       0.9959486

beta f4 [3]
000000 c0 51 20 3c 7c c4 a7 3d 00 4c 98 3a
       0.009785116 0.08191773 0.001161933

rotation f4 [3, 3]
000000 f2 dd 7e 3f 80 cc b7 bc fc e8 ba 3d cb 4b af 3c
       0.9955741 -0.02243638 0.091264695 0.021398446
000010 0b ec 7f 3f 9c 2f 4a 3c 55 6b bb bd 65 49 29 bc
       0.9996955 0.0123404525 -0.09151331 -0.01033244
000020 81 e9 7e 3f
       0.9957505

beta f4 [3]
000000 40 97 1b 3c d4 e2 a9 3d 8c 8f 86 3a
       0.00949651 0.08295217 0.0010266169

rotation f4 [3, 3]
000000 f8 d5 7e 3f c7 f4 a8 bc 4c 79 be 3d 1d 7c 9e 3c
       0.9954524 -0.020624531 0.09300479 0.019346291
000010 bb ec 7f 3f ef a2 6f 3c fd 08 bf bd a4 0f 51 bc
       0.999706 0.014626249 -0.09327886 -0.012760077
000020 ec dc 7e 3f
       0.9955585

beta f4 [3]
000000 cc c8 14 3c 21 cb ab 3d e8 0a 57 3a
       0.009081077 0.08388353 0.0008203224

rotation f4 [3, 3]
000000 91 d4 7e 3f 90 8e 92 bc 8b 14 c0 3d be c3 85 3c
       0.995431 -0.017890245 0.09378918 0.016328689
000010 5b ed 7f 3f b1 73 8e 3c b2 a9 c0 bd 89 41 81 bc
       0.9997155 0.01738915 -0.09407367 -0.01577832
000020 29 d5 7e 3f
       0.99544007

beta f4 [3]
000000 24 d6 0c 3c f2 03 ae 3d a8 75 05 3a
       0.008595977 0.08496846 0.00050910795

rotation f4 [3, 3]
000000 de d2 7e 3f 32 02 77 bc 43 aa c1 3d 42 02 5a 3c
       0.9954051 -0.015076207 0.09456303 0.013306202
000010 ff ed 7f 3f 52 49 9e 3c 2a 35 c2 bd 6f 3f 93 bc
       0.9997253 0.019322071 -0.094827965 -0.017974583
000020 11 ce 7e 3f
       0.9953318

beta f4 [3]
000000 d0 ec 03 3c 34 5c b0 3d d0 c5 95 39
       0.008052066 0.08611336 0.00028566876

rotation f4 [3, 3]
000000 12 cb 7e 3f 14 51 2f bc 1d 69 c5 3d ae 2b 0c 3c
       0.9952861 -0.010700483 0.096391894 0.008555336
000010 cf ec 7f 3f 66 72 b9 3c 48 d9 c5 bd 2f d1 b1 bc
       0.99970716 0.022637557 -0.09660584 -0.021706192
000020 f5 bd 7e 3f
       0.995086

beta f4 [3]
000000 90 43 00 3c 81 73 b2 3d 00 4e 56 b7
       0.007828608 0.08713437 -1.2773555e-05

rotation f4 [3, 3]
000000 fa b1 7e 3f b6 21 ad bb ed 3a ce 3d 8e 01 3c 3b
       0.9949032 -0.0052835597 0.10069833 0.002868745
000010 b6 ec 7f 3f 9b 8d c5 3c ef 6d ce bd 62 2d c2 bc
       0.9997057 0.024115374 -0.10079562 -0.02370328
000020 c0 9f 7e 3f
       0.9946251

beta f4 [3]
000000 e0 c3 f6 3b 7c bc b4 3d 80 01 b1 b8
       0.0075306743 0.08825013 -8.440297e-05

rotation f4 [3, 3]
000000 97 93 7e 3f 08 07 da b9 88 ac d7 3d ae fc 1f bb
       0.99443954 -0.0004158544 0.105309546 -0.0024412083
000010 ea e7 7f 3f ca 30 dd 3c 0f 9e d7 bd ab 10 de bc
       0.9996325 0.027000804 -0.10528194 -0.027107557
000020 93 7b 7e 3f
       0.9940731

beta f4 [3]
000000 e8 37 e6 3b 62 50 b7 3d a0 5d 74 b9
       0.0070257075 0.08950879 -0.00023304531

rotation f4 [3, 3]
000000 f4 74 7e 3f c0 da b0 3b 75 42 e0 3d 3e ae 09 bc
       0.99397206 0.005397171 0.10950176 -0.008403359
000010 c4 e5 7f 3f 1c 44 dd 3c 14 df df bd 8e 78 e3 bc
       0.9995997 0.027010016 -0.10931221 -0.027767446
000020 da 5d 7e 3f
       0.99361956

beta f4 [3]
000000 00 a5 d6 3b ca ae b9 3d 60 f7 47 b9
       0.0065504313 0.090665415 -0.00019070273

rotation f4 [3, 3]
000000 3c 44 7e 3f 74 59 07 3c 3b 54 ed 3d 07 b1 37 bc
       0.9932287 0.008261073 0.11588331 -0.01121164
000010 b0 e7 7f 3f 94 6c cb 3c 17 d2 ec bd 9f b0 d4 bc
       0.999629 0.024832048 -0.11563509 -0.025963126
000020 25 32 7e 3f
       0.99295264

beta f4 [3]
000000 80 ce c6 3b 94 2f bb 3d 40 50 98 38
       0.006067097 0.09139934 7.2628725e-05

rotation f4 [3, 3]
000000 af 11 7e 3f 2f b6 05 3c 5a 82 fa 3d ae 24 37 bc
       0.99245733 0.008161112 0.12231894 -0.011178179
000010 0c e9 7f 3f c8 96 c4 3c 31 05 fa bd 80 4e ce bc
       0.99964976 0.02399768 -0.122080214 -0.025183916
000020 de 00 7e 3f
       0.99220073

beta f4 [3]
000000 48 ff b6 3b b8 20 bc 3d e0 a9 8c 39
       0.005584631 0.09185928 0.00026829448

rotation f4 [3, 3]
000000 a3 f0 7d 3f 5a 2f 11 3c 56 53 01 3e 21 0b 44 bc
       0.9919531 0.008861387 0.12629446 -0.011965544
000010 ac e8 7f 3f cc 4e c3 3c 36 10 01 be 1a 1e ce bc
       0.99964404 0.023841284 -0.1260384 -0.025160838
000020 74 e0 7d 3f
       0.99170613

beta f4 [3]
000000 d8 e6 ab 3b c4 d0 bc 3d 00 7e a1 39
       0.0052460246 0.092195064 0.0003080219

rotation f4 [3, 3]
000000 ce da 7d 3f c2 3f 1c 3c 5f ee 03 3e e9 b2 4f bc
       0.99161994 0.009536685 0.128839 -0.012676933
000010 89 e8 7f 3f f4 23 c1 3c 3e a7 03 be 29 e6 cc bc
       0.99964195 0.023576714 -0.12856767 -0.025012093
000020 70 cb 7d 3f
       0.99138546

beta f4 [3]
000000 00 90 a4 3b 7b 4a bd 3d 50 50 93 39
       0.005022049 0.09242722 0.00028097862

rotation f4 [3, 3]
000000 09 c8 7d 3f 1f 56 0d 3c 9d 3b 06 3e 1a 67 43 bc
       0.99133354 0.00862649 0.13108678 -0.011926437
000010 d7 e7 7f 3f 35 fa c7 3c a9 f7 05 be b8 0c d3 bc
       0.99963135 0.0244113 -0.13082756 -0.0257629
000020 cf b6 7d 3f
       0.9910707

beta f4 [3]
000000 68 98 9b 3b 82 b6 bd 3d 00 80 72 39
       0.004748393 0.09263326 0.00023126602

rotation f4 [3, 3]
000000 93 b3 7d 3f 61 06 06 3c 8d a8 08 3e 8b c0 3c bc
       0.99102134 0.008180232 0.13345547 -0.011520515
000010 5e e8 7f 3f 14 e4 c6 3c b9 67 08 be 54 b2 d1 bc
       0.9996394 0.024278678 -0.13320817 -0.025597729
000020 51 a2 7d 3f
       0.990758

beta f4 [3]
000000 e0 44 94 3b 5a 0b be 3d 70 3b 84 39
       0.004524812 0.09279509 0.00025221286

rotation f4 [3, 3]
000000 74 a7 7d 3f 33 48 ea 3b 21 1e 0a 3e 11 2a 2d bc
       0.9908364 0.00714972 0.13488056 -0.010569111
000010 6f e8 7f 3f 24 f9 c9 3c 1a e3 09 be cc cb d3 bc
       0.9996404 0.024654932 -0.13465539 -0.025854014
000020 0a 95 7d 3f
       0.9905554

beta f4 [3]
000000 10 83 8d 3b e8 50 be 3d 40 6c 74 39
       0.0043186024 0.092927754 0.0002330998

rotation f4 [3, 3]
000000 04 a4 7d 3f 6d 8c f0 3b 6e 80 0a 3e ee 3c 2d bc
       0.99078393 0.007340959 0.13525555 -0.010573609
000010 b7 ea 7f 3f 13 0f be 3c 35 48 0a be 05 05 c8 bc
       0.9996752 0.023200547 -0.13504107 -0.024416456
000020 ff 93 7d 3f
       0.9905395

beta f4 [3]
000000 40 45 89 3b bf 9c be 3d 20 c0 80 39
       0.0041891634 0.09307241 0.00024557207

rotation f4 [3, 3]
000000 18 b3 7d 3f 99 18 df 3b 5b ca 08 3e 0d 27 22 bc
       0.991014 0.006808352 0.13358442 -0.009897006
000010 3d ec 7f 3f 54 14 b8 3c b5 97 08 be ce 41 c1 bc
       0.99969846 0.02247063 -0.13339122 -0.023590948
000020 ea a3 7d 3f
       0.9907824

beta f4 [3]
000000 e0 79 83 3b 40 d2 be 3d 40 88 ff 38
       0.0040123314 0.09317446 0.00012184726

rotation f4 [3, 3]
000000 77 b1 7d 3f e9 6c 01 3c f8 ea 08 3e bc 6f 2c bc
       0.99098915 0.007899501 0.13370883 -0.010524686
000010 9b f0 7f 3f f2 21 9b 3c 8e bb 08 be 69 43 a5 bc
       0.9997651 0.018937085 -0.13352796 -0.020173745
000020 aa a7 7d 3f
       0.9908396

beta f4 [3]
000000 60 bd 77 3b 64 59 bf 3d c0 f6 52 39
       0.0037802085 0.09343222 0.00020119082

rotation f4 [3, 3]
000000 44 b2 7d 3f d7 0f 16 3c 10 bf 08 3e 9f 1e 3d bc
       0.99100137 0.00915905 0.13354135 -0.011542945
000010 16 f2 7f 3f 0e 04 8c 3c 80 8e 08 be 6c 61 97 bc
       0.9997877 0.017091777 -0.1333561 -0.018479072
000020 65 ab 7d 3f
       0.9908965

beta f4 [3]
000000 70 be 70 3b a6 bb bf 3d a0 16 54 39
       0.0036734603 0.09361963 0.00020226324

rotation f4 [3, 3]
000000 a8 b5 7d 3f 19 d6 1c 3c b2 51 08 3e d1 c8 3f bc
       0.9910531 0.009572529 0.13312414 -0.011705593
000010 df f3 7f 3f 60 d5 79 3c 06 25 08 be eb 90 88 bc
       0.9998149 0.0152486265 -0.13295373 -0.016670665
000020 fe b0 7d 3f
       0.99098194

beta f4 [3]
000000 30 c0 69 3b 50 ec bf 3d 80 e5 56 39
       0.0035667531 0.09371245 0.00020494126

rotation f4 [3, 3]
000000 93 c1 7d 3f da bc 2e 3c 98 d7 06 3e b2 e6 4f bc
       0.99123496 0.010665143 0.1316818 -0.012689279
000010 cb f3 7f 3f f6 48 6e 3c 77 a8 06 be 1d c9 83 bc
       0.99981374 0.014543762 -0.13150202 -0.01608711
000020 58 be 7d 3f
       0.99118567

beta f4 [3]
000000 e0 50 66 3b 86 38 c0 3d 40 f6 e7 38
       0.003514342 0.09385781 0.00011060806

rotation f4 [3, 3]
000000 85 ce 7d 3f 06 d9 64 3c c3 fc 04 3e d6 4c 83 bc
       0.9914325 0.013967758 0.12987046 -0.01602785
000010 5c f0 7f 3f ef f3 72 3c 67 be 04 be 5f 7d 89 bc
       0.99976134 0.014828666 -0.12963258 -0.016783414
000020 b3 cd 7d 3f
       0.99142

beta f4 [3]
000000 a0 11 67 3b a7 de c0 3d 00 a0 a0 b6
       0.0035258308 0.094174676 -4.786998e-06

rotation f4 [3, 3]
000000 0b db 7d 3f f9 ef 82 3c e9 3e 03 3e 1d fa 92 bc
       0.9916236 0.015983569 0.12816967 -0.017941529
000010 eb ee 7f 3f 98 a4 67 3c e1 fa 02 be 2a b0 85 bc
       0.99973935 0.014138363 -0.12791015 -0.016319353
000020 e8 dc 7d 3f
       0.991652

beta f4 [3]
000000 a0 98 5f 3b 44 5f c1 3d 80 c3 48 b8
       0.0034118071 0.094419986 -4.786579e-05

rotation f4 [3, 3]
000000 bd ea 7d 3f 5f 70 8d 3c 22 29 01 3e 72 e9 9c bc
       0.9918631 0.017265497 0.12613347 -0.019154284
000010 c6 ed 7f 3f 9d bd 61 3c 85 e1 00 be f4 bd 83 bc
       0.9997219 0.0137781175 -0.12586029 -0.016081788
000020 56 ee 7d 3f
       0.99191797

beta f4 [3]
000000 60 59 5a 3b 68 b2 c1 3d 40 0d d0 b8
       0.0033317432 0.094578564 -9.920681e-05

rotation f4 [3, 3]
000000 09 f9 7d 3f d4 c6 94 3c 28 85 fe 3d e2 91 a3 bc
       0.9920812 0.018161215 0.12427741 -0.019967023
000010 20 ed 7f 3f 38 dc 59 3c e1 f3 fd bd 95 65 80 bc
       0.999712 0.013297133 -0.12400032 -0.015673438
000020 16 fe 7d 3f
       0.9921583

beta f4 [3]
000000 90 c6 51 3b 55 0d c2 3d a0 83 27 b9
       0.0032009222 0.09475199 -0.00015975395

rotation f4 [3, 3]
000000 ed 0a 7e 3f e7 7e 91 3c 3f 25 fa 3d 2e 67 a0 bc
       0.9923542 0.017760707 0.122141354 -0.01958045
000010 47 ed 7f 3f 52 b4 60 3c 14 93 f9 bd 6a 15 83 bc
       0.9997143 0.013714867 -0.12186256 -0.016001422
000020 1d 0f 7e 3f
       0.9924181

beta f4 [3]
000000 b0 b8 4a 3b a8 26 c2 3d 20 e6 94 b9
       0.0030932836 0.09480029 -0.00028400216

rotation f4 [3, 3]
000000 94 11 7e 3f 36 22 90 3c 6b 7f f8 3d cd e5 9e bc
       0.9924557 0.017594438 0.12133678 -0.019396687
000010 89 ed 7f 3f 03 3f 60 3c 36 ef f7 bd 93 8e 82 bc
       0.99971825 0.013686898 -0.12106173 -0.015937125
000020 9a 15 7e 3f
       0.9925171

beta f4 [3]
000000 60 46 45 3b bb 42 c2 3d 80 d7 a7 b9
       0.0030101761 0.09485384 -0.00032013282

rotation f4 [3, 3]
000000 cd 1a 7e 3f 5d 98 92 3c bd 07 f6 3d 0c 25 a0 bc
       0.99259645 0.017894918 0.12013195 -0.019548915
000010 44 ee 7f 3f e4 7a 4e 3c 87 80 f5 bd ba 6e 73 bc
       0.9997294 0.012602542 -0.11987405 -0.014857942
000020 21 20 7e 3f
       0.99267775

beta f4 [3]
000000 50 70 42 3b 1c 63 c2 3d e0 0e ac b9
       0.0029668994 0.0949156 -0.0003281748

rotation f4 [3, 3]
000000 17 23 7e 3f c4 e2 95 3c af c1 f3 3d 9a 9f a2 bc
       0.9927229 0.018296607 0.119021766 -0.019851495
000010 78 ee 7f 3f 2f d2 42 3c e8 3e f3 bd 0f 1e 68 bc
       0.9997325 0.011890932 -0.11877233 -0.014167323
000020 78 29 7e 3f
       0.99282026

beta f4 [3]
000000 80 ec 40 3b dd 79 c2 3d 70 59 b8 b9
       0.002943784 0.094959 -0.0003516185

rotation f4 [3, 3]
000000 a8 29 7e 3f 17 ec 92 3c b5 26 f2 3d b7 20 9f bc
       0.9928231 0.017934842 0.11823789 -0.01942478
000010 52 ef 7f 3f bc bf 3b 3c 43 ab f1 bd b2 08 60 bc
       0.9997455 0.011459287 -0.11800244 -0.013673948
000020 ef 2f 7e 3f
       0.9929189

beta f4 [3]
000000 f0 8e 3f 3b 10 75 c2 3d f0 6e bf b9
       0.0029229484 0.09494984 -0.00036513014

rotation f4 [3, 3]
000000 76 2e 7e 3f 4a b0 93 3c ce db f0 3d b4 b4 9f bc
       0.99289644 0.018028397 0.117606744 -0.019495346
000010 54 ef 7f 3f c5 a9 39 3c 22 61 f0 bd 6c e9 5d bc
       0.9997456 0.01133198 -0.117372766 -0.013544422
000020 f0 34 7e 3f
       0.99299526

beta f4 [3]
000000 50 bc 3e 3b 83 8f c2 3d 40 17 c3 b9
       0.0029103942 0.09500029 -0.0003721062

rotation f4 [3, 3]
000000 f7 29 7e 3f bb b1 90 3c 13 29 f2 3d 43 79 9c bc
       0.99282783 0.017662873 0.118242405 -0.01910079
000010 10 f0 7f 3f c3 df 34 3c b8 b3 f1 bd 5f 94 58 bc
       0.9997568 0.011039677 -0.11801857 -0.013218968
000020 3b 30 7e 3f
       0.99292344

beta f4 [3]
000000 20 2a 3d 3b 5c 96 c2 3d 80 4a a8 b9
       0.002886422 0.09501335 -0.00032098964

rotation f4 [3, 3]
000000 46 26 7e 3f 74 12 92 3c d8 13 f3 3d c8 e5 9d bc
       0.9927715 0.017831065 0.11869019 -0.019274607
000010 dc ef 7f 3f 7f 9f 34 3c 5f 9d f2 bd f6 cb 58 bc
       0.9997537 0.011024355 -0.118464224 -0.013232222
000020 c0 2c 7e 3f
       0.99287033

beta f4 [3]
000000 50 00 3d 3b 66 a3 c2 3d f0 ef 95 b9
       0.0028839298 0.09503822 -0.00028598262

rotation f4 [3, 3]
000000 c7 25 7e 3f 63 3e 92 3c b9 32 f3 3d 5d 0e 9e bc
       0.99276394 0.017852014 0.11874909 -0.019293958
000010 d7 ef 7f 3f 47 52 34 3c 51 bc f2 bd 53 8d 58 bc
       0.9997534 0.011005945 -0.11852325 -0.013217288
000020 4d 2c 7e 3f
       0.9928635

beta f4 [3]
000000 10 ad 3d 3b e2 9f c2 3d c0 6a 91 b9
       0.0028942265 0.095031515 -0.0002773609

rotation f4 [3, 3]
000000 d9 25 7e 3f 14 2a 92 3c 92 2e f3 3d 19 f8 9d bc
       0.992765 0.01784233 0.11874117 -0.019283341
000010 db ef 7f 3f 07 37 34 3c 59 b8 f2 bd e5 6c 58 bc
       0.99975365 0.010999448 -0.11851568 -0.013209556
000020 5b 2c 7e 3f
       0.9928643

beta f4 [3]
000000 00 40 3e 3b 00 9d c2 3d 50 a6 8e b9
       0.0029029846 0.095026016 -0.00027208263

rotation f4 [3, 3]
000000 f4 25 7e 3f 29 38 92 3c 0a 27 f3 3d c7 09 9e bc
       0.9927666 0.017849045 0.118726805 -0.019291772
000010 d4 ef 7f 3f a1 72 34 3c 9b b0 f2 bd 68 ab 58 bc
       0.99975324 0.011013658 -0.11850091 -0.01322446
000020 75 2c 7e 3f
       0.99286586

beta f4 [3]
000000 20 ad 3e 3b de 9b c2 3d c0 23 8d b9
       0.002909489 0.095023856 -0.00026920252

rotation f4 [3, 3]
000000 f7 25 7e 3f 89 06 92 3c cf 27 f3 3d 4b da 9d bc
       0.9927668 0.017825382 0.11872827 -0.01926913
000010 db ef 7f 3f 3c 99 34 3c 6f b1 f2 bd 0a c6 58 bc
       0.99975365 0.011022862 -0.11850249 -0.01323081
000020 72 2c 7e 3f
       0.9928657

beta f4 [3]
000000 b0 f6 3e 3b 3c 98 c2 3d 10 73 8b b9
       0.0029138736 0.09501693 -0.00026597874

rotation f4 [3, 3]
000000 de 25 7e 3f cd 09 92 3c 6c 2c f3 3d fd e0 9d bc
       0.9927653 0.017826939 0.11873707 -0.019272322
000010 cf ef 7f 3f 4a d1 34 3c 13 b6 f2 bd 6d 01 59 bc
       0.99975294 0.0110362265 -0.11851134 -0.013244969
000020 59 2c 7e 3f
       0.9928642

beta f4 [3]
000000 80 43 3f 3b 30 94 c2 3d 50 c0 89 b9
       0.002918452 0.09500921 -0.0002627396

rotation f4 [3, 3]
000000 e2 25 7e 3f bd 1e 92 3c b2 2c f3 3d 3e f9 9d bc
       0.99276555 0.017836923 0.11873759 -0.019283887
000010 d2 ef 7f 3f 22 fc 34 3c 03 b6 f2 bd 2b 31 59 bc
       0.9997531 0.011046441 -0.11851122 -0.013256351
000020 5a 2c 7e 3f
       0.99286425

beta f4 [3]
000000 d0 8f 3f 3b f0 92 c2 3d 40 34 88 b9
       0.0029230006 0.09500682 -0.0002597887

rotation f4 [3, 3]
000000 e3 25 7e 3f 3f 23 92 3c ec 2c f3 3d bc fe 9d bc
       0.9927656 0.017839072 0.118738025 -0.019286506
000010 d0 ef 7f 3f dc 14 35 3c 1b b6 f2 bd 07 4a 59 bc
       0.999753 0.011052337 -0.1185114 -0.013262278
000020 57 2c 7e 3f
       0.9928641

beta f4 [3]
000000 40 a4 3f 3b fc 91 c2 3d 50 1d 88 b9
       0.0029242188 0.095005006 -0.0002596178

rotation f4 [3, 3]
000000 df 25 7e 3f fb 11 92 3c 0d 2e f3 3d bd ea 9d bc
       0.99276537 0.01783084 0.11874018 -0.019276971
000010 d9 ef 7f 3f d7 e5 34 3c 70 b7 f2 bd 93 16 59 bc
       0.99975353 0.011041126 -0.11851394 -0.013250011
000020 56 2c 7e 3f
       0.992864

beta f4 [3]
000000 80 be 3f 3b c4 8f c2 3d 70 d9 87 b9
       0.0029257834 0.09500077 -0.0002591121

rotation f4 [3, 3]
000000 c8 25 7e 3f 29 31 92 3c c8 32 f3 3d 4c 08 9e bc
       0.992764 0.017845707 0.1187492 -0.019291066
000010 d3 ef 7f 3f 3a ba 34 3c 35 bc f2 bd 2b f4 58 bc
       0.9997532 0.011030728 -0.11852304 -0.013241808
000020 46 2c 7e 3f
       0.99286306

beta f4 [3]
000000 50 dd 3f 3b bc 8e c2 3d c0 22 88 b9
       0.00292762 0.09499881 -0.00025965832

rotation f4 [3, 3]
000000 cc 25 7e 3f 51 36 92 3c 37 32 f3 3d cb 0b 9e bc
       0.99276423 0.017848166 0.11874812 -0.019292733
000010 d7 ef 7f 3f d7 b2 34 3c 81 bb f2 bd 33 ec 58 bc
       0.9997534 0.011028967 -0.1185217 -0.013239908
000020 4c 2c 7e 3f
       0.9928634

beta f4 [3]
000000 10 fa 3f 3b 2e 8e c2 3d a0 9f 88 b9
       0.0029293336 0.09499775 -0.0002605887

rotation f4 [3, 3]
000000 c5 25 7e 3f 47 36 92 3c 1f 36 f3 3d 2a 0b 9e bc
       0.9927638 0.017848147 0.11875557 -0.019292433
000010 dc ef 7f 3f 0a ad 34 3c 3a bf f2 bd 9a e4 58 bc
       0.9997537 0.011027584 -0.1185288 -0.013238097
000020 47 2c 7e 3f
       0.9928631

beta f4 [3]
000000 b0 38 40 3b f4 8d c2 3d 00 bf 88 b9
       0.0029330663 0.09499732 -0.00026082247

rotation f4 [3, 3]
000000 b5 25 7e 3f 43 35 92 3c 15 37 f3 3d 8f 09 9e bc
       0.99276286 0.017847663 0.118757404 -0.019291667
000010 d5 ef 7f 3f 84 91 34 3c a1 c0 f2 bd 5f cc 58 bc
       0.9997533 0.011021022 -0.11853147 -0.01323232
000020 34 2c 7e 3f
       0.992862

beta f4 [3]
000000 b0 5f 40 3b ff 8d c2 3d 70 ee 88 b9
       0.002935391 0.0949974 -0.0002611759

rotation f4 [3, 3]
000000 ae 25 7e 3f 81 3e 92 3c b6 38 f3 3d 29 13 9e bc
       0.99276245 0.01785207 0.11876051 -0.019296246
000010 d0 ef 7f 3f 4d 94 34 3c 28 c2 f2 bd 9b d1 58 bc
       0.999753 0.011021686 -0.118534386 -0.013233568
000020 34 2c 7e 3f
       0.992862

beta f4 [3]
000000 b0 79 40 3b 10 8e c2 3d f0 3d 89 b9
       0.0029369406 0.094997525 -0.00026176823

rotation f4 [3, 3]
000000 4d 25 7e 3f f9 8d 92 3c 40 4f f3 3d e2 58 9e bc
       0.99275666 0.017889963 0.1188035 -0.019329492
000010 d2 ef 7f 3f 6e db 33 3c da d8 f2 bd 91 2d 58 bc
       0.9997531 0.010977609 -0.118577674 -0.013194458
000020 e5 2b 7e 3f
       0.9928573

beta f4 [3]
000000 90 c2 40 3b 10 8e c2 3d e0 07 87 b9
       0.0029412843 0.094997525 -0.00025755074

rotation f4 [3, 3]
000000 35 25 7e 3f 68 8f 92 3c b2 55 f3 3d dd 5a 9e bc
       0.99275523 0.017890647 0.118815795 -0.019330436
000010 d1 ef 7f 3f 0b dc 33 3c 3f df f2 bd c4 2e 58 bc
       0.99975306 0.010977755 -0.11858987 -0.013194744
000020 d0 2b 7e 3f
       0.992856

beta f4 [3]
000000 c0 de 40 3b 00 8e c2 3d 10 15 86 b9
       0.0029429644 0.094997406 -0.00025574164

rotation f4 [3, 3]
000000 39 25 7e 3f 99 94 92 3c 70 54 f3 3d 1d 5d 9e bc
       0.9927555 0.017893123 0.118813396 -0.01933151
000010 d3 ef 7f 3f 86 ab 33 3c 2a de f2 bd be ff 57 bc
       0.9997532 0.010966187 -0.11858781 -0.013183532
000020 d3 2b 7e 3f
       0.9928562

beta f4 [3]
000000 20 ee 40 3b ff 8c c2 3d 90 b0 85 b9
       0.0029438809 0.09499549 -0.00025499286

rotation f4 [3, 3]
000000 36 25 7e 3f b1 96 92 3c 96 54 f3 3d 71 60 9e bc
       0.9927553 0.01789412 0.11881368 -0.019333096
000010 d0 ef 7f 3f fd b3 33 3c 5b de f2 bd 93 09 58 bc
       0.999753 0.0109682055 -0.11858817 -0.013185876
000020 cd 2b 7e 3f
       0.99285585

beta f4 [3]
000000 b0 f2 40 3b b0 8c c2 3d d0 78 85 b9
       0.0029441528 0.0949949 -0.0002545775

rotation f4 [3, 3]
000000 3c 25 7e 3f ab 98 92 3c f1 53 f3 3d 1b 62 9e bc
       0.99275565 0.017895063 0.11881245 -0.01933389
000010 d2 ef 7f 3f b2 bb 33 3c 90 dd f2 bd 3c 10 58 bc
       0.9997531 0.010970043 -0.11858666 -0.013187464
000020 d4 2b 7e 3f
       0.99285626

beta f4 [3]
000000 20 fb 40 3b 78 8c c2 3d f0 77 85 b9
       0.0029446557 0.094994485 -0.00025457097

rotation f4 [3, 3]
000000 41 25 7e 3f 6b 98 92 3c 8e 53 f3 3d a3 61 9e bc
       0.99275595 0.017894944 0.11881171 -0.019333666
000010 d3 ef 7f 3f fb bf 33 3c 09 dd f2 bd 17 14 58 bc
       0.9997532 0.010971065 -0.11858565 -0.013188384
000020 dc 2b 7e 3f
       0.99285674

beta f4 [3]
000000 20 00 41 3b 6e 8c c2 3d 40 61 85 b9
       0.0029449537 0.09499441 -0.00025440194

rotation f4 [3, 3]
000000 41 25 7e 3f 6b 98 92 3c 8e 53 f3 3d a3 61 9e bc
       0.99275595 0.017894944 0.11881171 -0.019333666
000010 d3 ef 7f 3f fb bf 33 3c 09 dd f2 bd 17 14 58 bc
       0.9997532 0.010971065 -0.11858565 -0.013188384
000020 dc 2b 7e 3f
       0.99285674

beta f4 [3]
000000 20 00 41 3b 6e 8c c2 3d 40 61 85 b9
       0.0029449537 0.09499441 -0.00025440194

rotation f4 [3, 3]
000000 41 25 7e 3f 6b 98 92 3c 8e 53 f3 3d a3 61 9e bc
       0.99275595 0.017894944 0.11881171 -0.019333666
000010 d3 ef 7f 3f fb bf 33 3c 09 dd f2 bd 17 14 58 bc
       0.9997532 0.010971065 -0.11858565 -0.013188384
000020 dc 2b 7e 3f
       0.99285674

beta f4 [3]
000000 20 00 41 3b 6e 8c c2 3d 40 61 85 b9
       0.0029449537 0.09499441 -0.00025440194

rotation f4 [3, 3]
000000 41 25 7e 3f 6b 98 92 3c 8e 53 f3 3d a3 61 9e bc
       0.99275595 0.017894944 0.11881171 -0.019333666
000010 d3 ef 7f 3f fb bf 33 3c 09 dd f2 bd 17 14 58 bc
       0.9997532 0.010971065 -0.11858565 -0.013188384
000020 dc 2b 7e 3f
       0.99285674

beta f4 [3]
000000 20 00 41 3b 6e 8c c2 3d 40 61 85 b9
       0.0029449537 0.09499441 -0.00025440194

rotation f4 [3, 3]
000000 41 25 7e 3f 6b 98 92 3c 8e 53 f3 3d a3 61 9e bc
       0.99275595 0.017894944 0.11881171 -0.019333666
000010 d3 ef 7f 3f fb bf 33 3c 09 dd f2 bd 17 14 58 bc
       0.9997532 0.010971065 -0.11858565 -0.013188384
000020 dc 2b 7e 3f
       0.99285674

beta f4 [3]
000000 20 00 41 3b 6e 8c c2 3d 40 61 85 b9
       0.0029449537 0.09499441 -0.00025440194

rotation f4 [3, 3]
000000 41 25 7e 3f 6b 98 92 3c 8e 53 f3 3d a3 61 9e bc
       0.99275595 0.017894944 0.11881171 -0.019333666
000010 d3 ef 7f 3f fb bf 33 3c 09 dd f2 bd 17 14 58 bc
       0.9997532 0.010971065 -0.11858565 -0.013188384
000020 dc 2b 7e 3f
       0.99285674

beta f4 [3]
000000 20 00 41 3b 6e 8c c2 3d 40 61 85 b9
       0.0029449537 0.09499441 -0.00025440194

rotation f4 [3, 3]
000000 41 25 7e 3f 6b 98 92 3c 8e 53 f3 3d a3 61 9e bc
       0.99275595 0.017894944 0.11881171 -0.019333666
000010 d3 ef 7f 3f fb bf 33 3c 09 dd f2 bd 17 14 58 bc
       0.9997532 0.010971065 -0.11858565 -0.013188384
000020 dc 2b 7e 3f
       0.99285674

beta f4 [3]
000000 20 00 41 3b 6e 8c c2 3d 40 61 85 b9
       0.0029449537 0.09499441 -0.00025440194

rotation f4 [3, 3]
000000 41 25 7e 3f 6b 98 92 3c 8e 53 f3 3d a3 61 9e bc
       0.99275595 0.017894944 0.11881171 -0.019333666
000010 d3 ef 7f 3f fb bf 33 3c 09 dd f2 bd 17 14 58 bc
       0.9997532 0.010971065 -0.11858565 -0.013188384
000020 dc 2b 7e 3f
       0.99285674

beta f4 [3]
000000 20 00 41 3b 6e 8c c2 3d 40 61 85 b9
       0.0029449537 0.09499441 -0.00025440194

rotation f4 [3, 3]
000000 41 25 7e 3f 6b 98 92 3c 8e 53 f3 3d a3 61 9e bc
       0.99275595 0.017894944 0.11881171 -0.019333666
000010 d3 ef 7f 3f fb bf 33 3c 09 dd f2 bd 17 14 58 bc
       0.9997532 0.010971065 -0.11858565 -0.013188384
000020 dc 2b 7e 3f
       0.99285674

beta f4 [3]
000000 20 00 41 3b 6e 8c c2 3d 40 61 85 b9
       0.0029449537 0.09499441 -0.00025440194

rotation f4 [3, 3]
000000 41 25 7e 3f 6b 98 92 3c 8e 53 f3 3d a3 61 9e bc
       0.99275595 0.017894944 0.11881171 -0.019333666
000010 d3 ef 7f 3f fb bf 33 3c 09 dd f2 bd 17 14 58 bc
       0.9997532 0.010971065 -0.11858565 -0.013188384
000020 dc 2b 7e 3f
       0.99285674

beta f4 [3]
000000 20 00 41 3b 6e 8c c2 3d 40 61 85 b9
       0.0029449537 0.09499441 -0.00025440194

rotation f4 [3, 3]
000000 41 25 7e 3f 6b 98 92 3c 8e 53 f3 3d a3 61 9e bc
       0.99275595 0.017894944 0.11881171 -0.019333666
000010 d3 ef 7f 3f fb bf 33 3c 09 dd f2 bd 17 14 58 bc
       0.9997532 0.010971065 -0.11858565 -0.013188384
000020 dc 2b 7e 3f
       0.99285674

beta f4 [3]
000000 20 00 41 3b 6e 8c c2 3d 40 61 85 b9
       0.0029449537 0.09499441 -0.00025440194

rotation f4 [3, 3]
000000 41 25 7e 3f 6b 98 92 3c 8e 53 f3 3d a3 61 9e bc
       0.99275595 0.017894944 0.11881171 -0.019333666
000010 d3 ef 7f 3f fb bf 33 3c 09 dd f2 bd 17 14 58 bc
       0.9997532 0.010971065 -0.11858565 -0.013188384
000020 dc 2b 7e 3f
       0.99285674

beta f4 [3]
000000 20 00 41 3b 6e 8c c2 3d 40 61 85 b9
       0.0029449537 0.09499441 -0.00025440194

rotation f4 [3, 3]
000000 41 25 7e 3f 6b 98 92 3c 8e 53 f3 3d a3 61 9e bc
       0.99275595 0.017894944 0.11881171 -0.019333666
000010 d3 ef 7f 3f fb bf 33 3c 09 dd f2 bd 17 14 58 bc
       0.9997532 0.010971065 -0.11858565 -0.013188384
000020 dc 2b 7e 3f
       0.99285674

beta f4 [3]
000000 20 00 41 3b 6e 8c c2 3d 40 61 85 b9
       0.0029449537 0.09499441 -0.00025440194

rotation f4 [3, 3]
000000 41 25 7e 3f 6b 98 92 3c 8e 53 f3 3d a3 61 9e bc
       0.99275595 0.017894944 0.11881171 -0.019333666
000010 d3 ef 7f 3f fb bf 33 3c 09 dd f2 bd 17 14 58 bc
       0.9997532 0.010971065 -0.11858565 -0.013188384
000020 dc 2b 7e 3f
       0.99285674

beta f4 [3]
000000 20 00 41 3b 6e 8c c2 3d 40 61 85 b9
       0.0029449537 0.09499441 -0.00025440194

rotation f4 [3, 3]
000000 41 25 7e 3f 6b 98 92 3c 8e 53 f3 3d a3 61 9e bc
       0.99275595 0.017894944 0.11881171 -0.019333666
000010 d3 ef 7f 3f fb bf 33 3c 09 dd f2 bd 17 14 58 bc
       0.9997532 0.010971065 -0.11858565 -0.013188384
000020 dc 2b 7e 3f
       0.99285674

beta f4 [3]
000000 20 00 41 3b 6e 8c c2 3d 40 61 85 b9
       0.0029449537 0.09499441 -0.00025440194

rotation f4 [3, 3]
000000 41 25 7e 3f 6b 98 92 3c 8e 53 f3 3d a3 61 9e bc
       0.99275595 0.017894944 0.11881171 -0.019333666
000010 d3 ef 7f 3f fb bf 33 3c 09 dd f2 bd 17 14 58 bc
       0.9997532 0.010971065 -0.11858565 -0.013188384
000020 dc 2b 7e 3f
       0.99285674

beta f4 [3]
000000 20 00 41 3b 6e 8c c2 3d 40 61 85 b9
       0.0029449537 0.09499441 -0.00025440194

rotation f4 [3, 3]
000000 41 25 7e 3f 6b 98 92 3c 8e 53 f3 3d a3 61 9e bc
       0.99275595 0.017894944 0.11881171 -0.019333666
000010 d3 ef 7f 3f fb bf 33 3c 09 dd f2 bd 17 14 58 bc
       0.9997532 0.010971065 -0.11858565 -0.013188384
000020 dc 2b 7e 3f
       0.99285674

beta f4 [3]
000000 20 00 41 3b 6e 8c c2 3d 40 61 85 b9
       0.0029449537 0.09499441 -0.00025440194

rotation f4 [3, 3]
000000 41 25 7e 3f 6b 98 92 3c 8e 53 f3 3d a3 61 9e bc
       0.99275595 0.017894944 0.11881171 -0.019333666
000010 d3 ef 7f 3f fb bf 33 3c 09 dd f2 bd 17 14 58 bc
       0.9997532 0.010971065 -0.11858565 -0.013188384
000020 dc 2b 7e 3f
       0.99285674

beta f4 [3]
000000 20 00 41 3b 6e 8c c2 3d 40 61 85 b9
       0.0029449537 0.09499441 -0.00025440194

rotation f4 [3, 3]
000000 41 25 7e 3f 6b 98 92 3c 8e 53 f3 3d a3 61 9e bc
       0.99275595 0.017894944 0.11881171 -0.019333666
000010 d3 ef 7f 3f fb bf 33 3c 09 dd f2 bd 17 14 58 bc
       0.9997532 0.010971065 -0.11858565 -0.013188384
000020 dc 2b 7e 3f
       0.99285674

beta f4 [3]
000000 20 00 41 3b 6e 8c c2 3d 40 61 85 b9
       0.0029449537 0.09499441 -0.00025440194

rotation f4 [3, 3]
000000 41 25 7e 3f 6b 98 92 3c 8e 53 f3 3d a3 61 9e bc
       0.99275595 0.017894944 0.11881171 -0.019333666
000010 d3 ef 7f 3f fb bf 33 3c 09 dd f2 bd 17 14 58 bc
       0.9997532 0.010971065 -0.11858565 -0.013188384
000020 dc 2b 7e 3f
       0.99285674

beta f4 [3]
000000 20 00 41 3b 6e 8c c2 3d 40 61 85 b9
       0.0029449537 0.09499441 -0.00025440194

rotation f4 [3, 3]
000000 41 25 7e 3f 6b 98 92 3c 8e 53 f3 3d a3 61 9e bc
       0.99275595 0.017894944 0.11881171 -0.019333666
000010 d3 ef 7f 3f fb bf 33 3c 09 dd f2 bd 17 14 58 bc
       0.9997532 0.010971065 -0.11858565 -0.013188384
000020 dc 2b 7e 3f
       0.99285674

beta f4 [3]
000000 20 00 41 3b 6e 8c c2 3d 40 61 85 b9
       0.0029449537 0.09499441 -0.00025440194

rotation f4 [3, 3]
000000 41 25 7e 3f 6b 98 92 3c 8e 53 f3 3d a3 61 9e bc
       0.99275595 0.017894944 0.11881171 -0.019333666
000010 d3 ef 7f 3f fb bf 33 3c 09 dd f2 bd 17 14 58 bc
       0.9997532 0.010971065 -0.11858565 -0.013188384
000020 dc 2b 7e 3f
       0.99285674

beta f4 [3]
000000 20 00 41 3b 6e 8c c2 3d 40 61 85 b9
       0.0029449537 0.09499441 -0.00025440194

rotation f4 [3, 3]
000000 41 25 7e 3f 6b 98 92 3c 8e 53 f3 3d a3 61 9e bc
       0.99275595 0.017894944 0.11881171 -0.019333666
000010 d3 ef 7f 3f fb bf 33 3c 09 dd f2 bd 17 14 58 bc
       0.9997532 0.010971065 -0.11858565 -0.013188384
000020 dc 2b 7e 3f
       0.99285674

beta f4 [3]
000000 20 00 41 3b 6e 8c c2 3d 40 61 85 b9
       0.0029449537 0.09499441 -0.00025440194

rotation f4 [3, 3]
000000 41 25 7e 3f 6b 98 92 3c 8e 53 f3 3d a3 61 9e bc
       0.99275595 0.017894944 0.11881171 -0.019333666
000010 d3 ef 7f 3f fb bf 33 3c 09 dd f2 bd 17 14 58 bc
       0.9997532 0.010971065 -0.11858565 -0.013188384
000020 dc 2b 7e 3f
       0.99285674

beta f4 [3]
000000 20 00 41 3b 6e 8c c2 3d 40 61 85 b9
       0.0029449537 0.09499441 -0.00025440194

rotation f4 [3, 3]
000000 41 25 7e 3f 6b 98 92 3c 8e 53 f3 3d a3 61 9e bc
       0.99275595 0.017894944 0.11881171 -0.019333666
000010 d3 ef 7f 3f fb bf 33 3c 09 dd f2 bd 17 14 58 bc
       0.9997532 0.010971065 -0.11858565 -0.013188384
000020 dc 2b 7e 3f
       0.99285674

beta f4 [3]
000000 20 00 41 3b 6e 8c c2 3d 40 61 85 b9
       0.0029449537 0.09499441 -0.00025440194
