code/experiment/shape_registration/data/test/saved/data_noise60.pt (torch, 102679 bytes, 6 tensors)

X0 f4 [2048, 3]
-0.16582 0.10517073 -0.47398645 0.2057463 0.84968567 0.47606903 0.013938427 -0.44868255
0.40947968 0.22509706 0.18116713 0.12710553 0.14793819 -0.44884515 -0.24893261 -0.15712035
0.1862812 0.54298335 -0.26940334 0.14724636 0.027896583 -0.21574175 0.7006526 0.3556553
0.2596519 0.120131254 -0.320319 -0.07394469 -0.23167825 0.047962785 0.09195918 -0.075327635
0.38167322 -0.11110139 -0.21216488 -0.3170667 0.029142559 0.44405246 0.38061613 0.17436236
-0.44835746 0.10734838 0.012580633 0.06931496 -0.11713627 -0.066789925 0.18596411 0.24865746
0.15086514 0.17672777 0.5309502 -0.14850199 -0.44884515 -0.14510539 0.16143483 -0.18004918
-0.10778603 -0.26533806 0.027361393 -0.22819962 -0.028185964 -0.4394951 -0.45837566 -0.15988469
-0.44827628 0.19149953 -0.02891773 0.8949728 0.34614277 0.05953461 -0.038333416 -0.42666653
0.1027078 0.19886732 -0.5117935 0.08477193 -0.041504383 0.11060059 -0.07866037 -0.23167825
0.29329407 0.29006028 0.072485924 -0.0859963 0.029013276 0.6693499 0.42444003 0.11222869
-0.23249102 -0.31836757 -0.19939923 -0.06085515 -0.019480258 0.04658264 -0.38794756 -0.062897384
-0.09971851 -0.016218424 0.3005303 -0.16687691 0.20931506 -0.2660067 0.1332218 0.16812563
0.31484008 0.0022386312 -0.24322343 0.4852565 -0.037097096 -0.15142941 -0.1376253 -0.0055179596
0.049476624 0.5066398 0.16598785 -0.046057463 -0.25519317 -0.07792866 0.034353733 -0.30487087
-0.08784801 0.052647352 0.093689024 0.062583625 -0.32891965 0.21125686 -0.017510533 0.23904037
0.42858642 0.18525738 0.19887567 -0.17055406 -0.16167343 -0.27615237 -0.10063124 -0.007355392
-0.44738185 0.092631996 0.04465574 0.20492458 0.11588532 -0.13118374 0.7992761 0.47102803
-0.28981102 0.17514229 -0.14152795 -0.011819184 0.07435608 -0.5457791 -0.13451743 -0.41567254
-0.31226963 -0.18004847 -0.43242168 0.018359393 0.08367413 -0.16451955 0.24150252 0.092544496
-0.25184202 0.021888196 -0.13362312 0.20942068 0.1000309 0.0034011602 -0.28127456 -0.42845532
0.20720989 -0.044350147 -0.0100081265 0.10327691 0.80561805 0.3594768 0.021223366 -0.2914374
-0.18697777 -0.06589544 -0.09077549 0.4623282 0.081909835 0.029475212 0.2585765 -0.069066525
-0.10573578 0.17377508 -0.007331133 -0.44884515 -0.21933734 0.17192322 0.07102251 -0.44975734
-0.16102302 0.18210196 0.37500602 0.12379044 -0.4487641 0.29174942 0.0020189285 -0.106467485
-0.29430112 -0.051341772 0.20813632 -0.46130267 -0.16817772 -0.087767124 -0.19982398 0.19322526
0.20969725 -0.018797189 0.13200217 0.19888353 -0.34243405 0.062477887 -0.29802346 0.3589077
-0.05922842 -0.38827276 0.28500098 0.06805533 0.06744528 -0.2972281 0.103715956 -0.445593
-0.3912173 0.16558152 -0.3437984 -0.13689351 0.15606862 0.03183317 -0.13022646 -0.12622422
0.029556513 -0.12274644 -0.067928135 0.74114275 0.3451671 -0.04784572 0.09525156 0.37533146
-0.25045907 0.1090734 -0.3439787 -0.08378273 -0.0132911205 -0.43861842 -0.17614579 0.20868087
-0.06522277 0.16045922 0.0675261 0.061183065 -0.050854027 -0.09061313 0.036580056 -0.28273737
00000000: b8cc 29be c063 d73d 5aae f2be 28af 523e
00000010: 0085 593f 52bf f33e 005e 643c b8b9 e5be
00000020: 52a7 d13e d87f 663e e083 393e f427 023e
00000030: 1c7d 173e 08cf e5be 31e8 7ebe 28e4 20be
00000040: 80c0 3e3e f500 0b3f 3cef 89be c0c7 163e
00000050: 6087 e43c 68eb 5cbe f85d 333f 7418 b63e
00000060: 18f1 843e 6007 f63d da00 a4be 5070 97bd
00000070: 103d 6dbe a074 443d 1855 bc3d 6045 9abd
00000080: ac6a c33e 2089 e3bd c041 59be 9156 a2be
00000090: 60bc ee3c d85a e33e 1ee0 c23e 0c8c 323e
000000a0: 1c8f e5be 78d9 db3d 001f 4e3c 00f5 8d3d
000000b0: 24e5 efbd 28c9 88bd 606d 3e3e 10a0 7e3e
000000c0: 647c 1a3e 20f8 343e 5aec 073f e810 18be
000000d0: 08cf e5be 8296 14be 2c4f 253e d05e 38be
000000e0: ecbe dcbd 64da 87be 0025 e03c 29ad 69be
000000f0: 40e6 e6bc 8005 e1be 37b0 eabe d0b8 23be
00000100: 7884 e5be 7418 443e e0e4 ecbc f01c 653f
00000110: a039 b13e 90da 733d 8003 1dbd 0974 dabe
00000120: 7858 d23d e0a3 4b3e e604 03bf e89c ad3d
00000130: 8000 2abd 9082 e23d b018 a1bd 103d 6dbe
00000140: a42a 963e c882 943e 8073 943d d41e b0bd
00000150: 40ad ed3c 845a 2b3f 3450 d93e 28d8 e53d
00000160: 2012 6ebe 1301 a3be 502f 4cbe 4043 79bd
00000170: 1095 9fbc 70cd 3e3d 10a1 c6be 58d0 80bd
00000180: 3839 ccbd 80dc 84bc 1cdf 993e c8e1 2abe
00000190: b056 563e 0832 88be 4c6b 083e 2029 2c3e
000001a0: b832 a13e 00b6 123b 900f 79be 8a73 f83e
000001b0: 20f3 17bd 5010 1bbe a6ed 0cbe 00d0 b4bb
000001c0: 00a8 4a3d 25b3 013f b8f8 293e c0a6 3cbd
000001d0: aea8 82be 1099 9fbd 80b6 0c3d 0918 9cbe
000001e0: a8e9 b3bd c0a4 573d 08e0 bf3d d82b 803d
000001f0: 2868 a8be b853 583e 4072 8fbc 00c7 743e
00000200: ae6f db3e 1cb4 3d3e 10a6 4b3e b9a5 2ebe
00000210: b88d 25be d863 8dbe c017 cebd 8005 f1bb
00000220: 3c0f e5be d8b5 bd3d f0e8 363d c0d7 513e
00000230: 4855 ed3d 0855 06be 5c9d 4c3f 962a f13e
00000240: 1c62 94be 8058 333e b4ec 10be 40a5 41bc
00000250: 0048 983d 2eb8 0bbf f0be 09be 08d3 d4be
00000260: cee1 9fbe a05e 38be 6066 ddbe 7066 963c
00000270: 585d ab3d d077 28be 704c 773e f887 bd3d
00000280: 70f1 80be e04e b33c 80d4 08be 6072 563e
00000290: 00dd cc3d 00e6 5e3b 3803 90be 7f5e dbbe
000002a0: d42e 543e 80a8 35bd 20f9 23bc d882 d33d
000002b0: fc3c 4e3f 580d b83e a0dc ad3c 4837 95be
000002c0: 1a77 3fbe 30f4 86bd 80e8 b9bd 48b6 ec3e
000002d0: 58c0 a73d 0076 f13c 2464 843e c072 8dbd
000002e0: 008c d8bd 18f2 313e 003a f0bb 08cf e5be
000002f0: f899 60be a40c 303e 4074 913d 9846 e6be
00000300: 38e3 24be f078 3a3e ca00 c03e d885 fd3d
00000310: 68c4 e5be 2e60 953e 0050 043b a00b dabd
00000320: a3ae 96be c04b 52bd b021 553e dd2f ecbe
00000330: c836 2cbe 40bf b3bd a89e 4cbe d8dc 453e
00000340: e0ba 563e 90fc 99bc 942b 073e 20a8 4b3e
00000350: 8453 afbe d0e8 7f3d 8896 98be c0c2 b73e
00000360: 8099 72bd b0cb c6be a6eb 913e 9860 8b3d
00000370: c020 8a3d 482e 98be 0869 d43d c424 e4be
00000380: a24d c8be 348e 293e 5806 b0be d02d 0cbe
00000390: 74d0 1f3e 8063 023d 165a 05be ec40 01be
000003a0: 8020 f23c 7c62 fbbd e81d 8bbd 88bb 3d3f
000003b0: beb9 b03e e0f9 43bd 4013 c33d 722b c03e
000003c0: 2c3c 80be e061 df3d fa1d b0be 4896 abbd
000003d0: 00c3 59bc 9892 e0be 905f 34be 70b0 553e
000003e0: 8493 85bd 6c4f 243e 204b 8a3d 189b 7a3d
000003f0: 504c 50bd 6093 b9bd f8d4 153d f4c2 90be

Y0 f4 [2048, 3]
1.3661468 0.9837502 -0.93368614 1.6218781 1.728471 -0.5317817 0.8132879 1.2901164
-0.54757667 1.3184756 1.2963634 -0.5402995 1.0271292 0.877823 -0.62175715 1.1276487
1.6100764 -0.6869751 1.2283734 1.3122437 -0.88211226 1.4822319 1.680831 -0.8203417
1.4155717 1.0057065 -0.6215029 1.0308293 1.1640282 -0.7139402 1.0636909 1.3844608
-0.53969204 1.139284 0.96131015 -0.82925224 1.3674569 1.5676602 -0.6306782 0.9312088
1.0838935 -0.51747304 1.277993 1.1516912 -0.7271737 1.2291054 1.4204111 -0.7003715
1.1861258 1.5463563 -0.48920047 0.9389882 0.99059176 -0.7886589 1.1530869 1.0483665
-0.60432446 1.2291793 1.1203203 -0.93061095 1.0576434 0.7877507 -0.78816897 0.8412482
1.1916236 -0.7137244 1.6400411 1.7074986 -0.72016895 1.3099296 0.92483246 -0.76210284
1.4869597 0.9460248 -0.7777513 1.16002 1.2368181 -0.613946 0.9600478 1.309789
-0.65696216 1.3258884 1.1230067 -0.5398482 1.4919763 1.6685863 -0.6417163 1.1714247
0.91503006 -0.68273324 1.1291319 1.2028219 -0.82826823 0.99117005 1.0255926 -0.6478431
1.0848652 1.3894542 -0.68958455 1.3700616 1.1414834 -0.8934963 1.2389375 1.4188743
-0.5527048 0.9143579 1.4053226 -0.55639255 1.1397566 1.0747081 -0.7431746 1.0847522
1.5167553 -0.584356 1.2774472 1.0051001 -0.6503371 1.2922955 1.0448384 -0.8284682
1.187985 1.2881209 -0.73912823 0.9521758 1.2044413 -0.57605183 1.2198949 1.5358365
-0.6294775 1.4061211 1.1333122 -0.6406917 1.0287519 1.07665 -0.80293703 0.9000827
1.1070487 -0.63905454 1.3004619 1.3289478 -0.66238946 1.5260743 1.7671608 -0.74674225
1.2895442 1.2249752 -0.93949705 1.3982785 0.90435857 -0.8483848 1.009521 0.90044916
-0.82368696 0.89620185 1.0981084 -0.7707015 1.0477173 1.2733883 -0.570787 1.05889
1.1130266 -0.6103739 1.2724807 1.3520062 -0.78235716 1.1515937 0.85262716 -0.7755797
1.2168235 1.1433736 -0.5637579 1.6080236 1.6626924 -0.6225489 1.0801821 0.98881745
-0.70394576 1.0001382 1.4543538 -0.6208733 1.160492 1.348372 -0.58641994 1.0725687
1.2794445 -0.69210535 0.98802006 0.9222445 -0.7152428 1.4052217 0.9281026 -0.705366
1.1721616 1.5101205 -0.73021203 0.868466 1.2014763 -0.50511515 1.2194395 0.99032736
-0.7604667 1.4477795 1.0056659 -0.8662241 1.1702808 1.0818973 -0.84955794 1.3710698
1.2251916 -0.59942615 1.4445392 1.0410063 -0.71730316 0.9289069 1.3019792 -0.54296035
0.8710108 1.2493805 -0.6313175 1.3390931 1.0350457 -0.7350774 1.060879 0.80251515
-0.68557817 1.0626041 0.9759304 -0.5930011 1.2872789 1.1065853 -0.6336852 1.2279805
1.1592195 -0.81476814 1.5390531 1.6624724 -0.73091304 1.141613 1.4617616 -0.64835364
1.3147795 1.0765421 -0.95715445 1.3002417 0.950972 -0.86041194 1.310678 1.2615043
-0.8503126 1.2553573 1.2307931 -0.5874298 1.1244266 1.2002646 -0.71531975 1.1968063
00000000: e6dd ae3f 0ed7 7b3f 0e06 6fbf b499 cf3f
00000010: 8a3e dd3f d822 08bf a333 503f 8922 a53f
00000020: fc2d 0cbf cfc3 a83f 3cef a53f 1151 0abf
00000030: f878 833f 02b9 603f 7a2b 1fbf cb56 903f
00000040: fc16 ce3f 9add 2fbf 573b 9d3f 9af7 a73f
00000050: 1cd2 61bf c6b9 bd3f 7825 d73f ea01 52bf
00000060: 7431 b53f feba 803f d01a 1fbf 37f2 833f
00000070: e0fe 943f c9c4 36bf 0627 883f 0336 b13f
00000080: 4229 0abf 0fd4 913f 6c18 763f e049 54bf
00000090: d408 af3f 17a9 c83f 2074 21bf b363 6e3f
000000a0: 06bd 8a3f 1d79 04bf 4695 a33f 9e6a 933f
000000b0: 0e28 3abf 5353 9d3f 08d0 b53f 8c4b 33bf
000000c0: f8d2 973f 01ef c53f 7c78 fabe 8861 703f
000000d0: 6c97 7d3f 8de5 49bf 5a98 933f e030 863f
000000e0: 02b5 1abf bf55 9d3f a866 8f3f 853c 6ebf
000000f0: dc60 873f 08aa 493f 71c5 49bf 0b5c 573f
00000100: 1f87 983f a4b6 36bf deec d13f 508f da3f
00000110: fe5c 38bf c6ab a73f d2c1 6c3f 2c19 43bf
00000120: b254 be3f ae2e 723f b61a 47bf 897b 943f
00000130: 0e50 9e3f 912b 1dbf b1c5 753f 2aa7 a73f
00000140: ac2e 28bf b6b6 a93f afbe 8f3f 7e33 0abf
00000150: 14f9 be3f 3c94 d53f 8547 24bf 3ff1 953f
00000160: 693f 6a3f 9bc7 2ebf 6587 903f 11f6 993f
00000170: 6309 54bf 52bd 7d3f 9e46 833f 0cd9 25bf
00000180: dddc 8a3f a3d9 b13f 9d88 30bf 2e5e af3f
00000190: 211c 923f 2cbc 64bf 8195 9e3f ac9d b53f
000001a0: 107e 0dbf 5c13 6a3f 9ce1 b33f be6f 0ebf
000001b0: 8be3 913f 0990 893f b140 3ebf 29d9 8a3f
000001c0: 0a25 c23f 5b98 15bf 6483 a33f 1fa7 803f
000001d0: 7e7c 26bf f069 a53f 44bd 853f 7e16 54bf
000001e0: e40f 983f 25e1 a43f 8237 3dbf cbc1 733f
000001f0: 222b 9a3f 2278 13bf 8425 9c3f 4a96 c43f
00000200: 7025 21bf c7fb b33f 6010 913f 5f04 24bf
00000210: 24ae 833f abcf 893f 488d 4dbf d26b 663f
00000220: c6b3 8d3f 1499 23bf 8975 a63f f61a aa3f
00000230: 5b92 29bf 6756 c33f 5332 e23f 802a 3fbf
00000240: c90f a53f fdcb 9c3f e182 70bf cafa b23f
00000250: 0b84 673f bf2f 59bf fc37 813f d683 663f
00000260: 26dd 52bf 7c6d 653f d18e 8c3f b24c 45bf
00000270: 9a1b 863f 63fe a23f 191f 12bf b589 873f
00000280: a877 8e3f 7741 1cbf a6e0 a23f 8a0e ad3f
00000290: 8f48 48bf 6c67 933f c645 5a3f 648c 46bf
000002a0: dfc0 9b3f 115a 923f 7052 10bf b8d3 cd3f
000002b0: 1bd3 d43f 5d5f 1fbf 6843 8a3f 2423 7d3f
000002c0: ca35 34bf 8704 803f 4428 ba3f 8df1 1ebf
000002d0: 008b 943f 7497 ac3f 9e1f 16bf ee49 893f
000002e0: d6c4 a33f d12d 31bf e2ee 7c3f 3718 6c3f
000002f0: 271a 37bf 4ede b33f 2298 6d3f de92 34bf
00000300: 6409 963f a14b c13f 2def 3abf ca53 5e3f
00000310: fac9 993f 3a4f 01bf 9816 9c3f 1886 7d3f
00000320: f2ad 42bf d750 b93f a9b9 803f ddc0 5dbf
00000330: c3cb 953f 9c7b 8a3f a17c 59bf 377f af3f
00000340: 14d3 9c3f fe73 19bf a9e6 b83f b23f 853f
00000350: 2ea1 37bf d8cc 6d3f 41a7 a63f 73ff 0abf
00000360: 90fa 5e3f b3eb 9f3f 069e 21bf 6767 ab3f
00000370: 617c 843f 082e 3cbf e2ca 873f a271 4d3f
00000380: 0d82 2fbf 6903 883f 93d6 793f ecce 17bf
00000390: 8ec5 a43f 96a4 8d3f 3139 22bf 772e 9d3f
000003a0: 4e61 943f a594 50bf b1ff c43f e5cb d43f
000003b0: 1e1d 3bbf 6020 923f 011b bb3f 81fa 25bf
000003c0: b24a a83f 22cc 893f 1308 75bf 526e a63f
000003d0: e772 733f f543 5cbf 4cc4 a73f f978 a13f
000003e0: 16ae 59bf 8caf a03f a18a 9d3f cd61 16bf
000003f0: 36ed 8f3f 45a2 993f 321f 37bf f330 993f

X1 f4 [2150, 3]
-0.16582 0.10517073 -0.47398645 0.2057463 0.84968567 0.47606903 0.013938427 -0.44868255
0.40947968 0.22509706 0.18116713 0.12710553 0.14793819 -0.44884515 -0.24893261 -0.15712035
0.1862812 0.54298335 -0.26940334 0.14724636 0.027896583 -0.21574175 0.7006526 0.3556553
0.2596519 0.120131254 -0.320319 -0.07394469 -0.23167825 0.047962785 0.09195918 -0.075327635
0.38167322 -0.11110139 -0.21216488 -0.3170667 0.029142559 0.44405246 0.38061613 0.17436236
-0.44835746 0.10734838 0.012580633 0.06931496 -0.11713627 -0.066789925 0.18596411 0.24865746
0.15086514 0.17672777 0.5309502 -0.14850199 -0.44884515 -0.14510539 0.16143483 -0.18004918
-0.10778603 -0.26533806 0.027361393 -0.22819962 -0.028185964 -0.4394951 -0.45837566 -0.15988469
-0.44827628 0.19149953 -0.02891773 0.8949728 0.34614277 0.05953461 -0.038333416 -0.42666653
0.1027078 0.19886732 -0.5117935 0.08477193 -0.041504383 0.11060059 -0.07866037 -0.23167825
0.29329407 0.29006028 0.072485924 -0.0859963 0.029013276 0.6693499 0.42444003 0.11222869
-0.23249102 -0.31836757 -0.19939923 -0.06085515 -0.019480258 0.04658264 -0.38794756 -0.062897384
-0.09971851 -0.016218424 0.3005303 -0.16687691 0.20931506 -0.2660067 0.1332218 0.16812563
0.31484008 0.0022386312 -0.24322343 0.4852565 -0.037097096 -0.15142941 -0.1376253 -0.0055179596
0.049476624 0.5066398 0.16598785 -0.046057463 -0.25519317 -0.07792866 0.034353733 -0.30487087
-0.08784801 0.052647352 0.093689024 0.062583625 -0.32891965 0.21125686 -0.017510533 0.23904037
0.42858642 0.18525738 0.19887567 -0.17055406 -0.16167343 -0.27615237 -0.10063124 -0.007355392
-0.44738185 0.092631996 0.04465574 0.20492458 0.11588532 -0.13118374 0.7992761 0.47102803
-0.28981102 0.17514229 -0.14152795 -0.011819184 0.07435608 -0.5457791 -0.13451743 -0.41567254
-0.31226963 -0.18004847 -0.43242168 0.018359393 0.08367413 -0.16451955 0.24150252 0.092544496
-0.25184202 0.021888196 -0.13362312 0.20942068 0.1000309 0.0034011602 -0.28127456 -0.42845532
0.20720989 -0.044350147 -0.0100081265 0.10327691 0.80561805 0.3594768 0.021223366 -0.2914374
-0.18697777 -0.06589544 -0.09077549 0.4623282 0.081909835 0.029475212 0.2585765 -0.069066525
-0.10573578 0.17377508 -0.007331133 -0.44884515 -0.21933734 0.17192322 0.07102251 -0.44975734
-0.16102302 0.18210196 0.37500602 0.12379044 -0.4487641 0.29174942 0.0020189285 -0.106467485
-0.29430112 -0.051341772 0.20813632 -0.46130267 -0.16817772 -0.087767124 -0.19982398 0.19322526
0.20969725 -0.018797189 0.13200217 0.19888353 -0.34243405 0.062477887 -0.29802346 0.3589077
-0.05922842 -0.38827276 0.28500098 0.06805533 0.06744528 -0.2972281 0.103715956 -0.445593
-0.3912173 0.16558152 -0.3437984 -0.13689351 0.15606862 0.03183317 -0.13022646 -0.12622422
0.029556513 -0.12274644 -0.067928135 0.74114275 0.3451671 -0.04784572 0.09525156 0.37533146
-0.25045907 0.1090734 -0.3439787 -0.08378273 -0.0132911205 -0.43861842 -0.17614579 0.20868087
-0.06522277 0.16045922 0.0675261 0.061183065 -0.050854027 -0.09061313 0.036580056 -0.28273737
00000000: b8cc 29be c063 d73d 5aae f2be 28af 523e
00000010: 0085 593f 52bf f33e 005e 643c b8b9 e5be
00000020: 52a7 d13e d87f 663e e083 393e f427 023e
00000030: 1c7d 173e 08cf e5be 31e8 7ebe 28e4 20be
00000040: 80c0 3e3e f500 0b3f 3cef 89be c0c7 163e
00000050: 6087 e43c 68eb 5cbe f85d 333f 7418 b63e
00000060: 18f1 843e 6007 f63d da00 a4be 5070 97bd
00000070: 103d 6dbe a074 443d 1855 bc3d 6045 9abd
00000080: ac6a c33e 2089 e3bd c041 59be 9156 a2be
00000090: 60bc ee3c d85a e33e 1ee0 c23e 0c8c 323e
000000a0: 1c8f e5be 78d9 db3d 001f 4e3c 00f5 8d3d
000000b0: 24e5 efbd 28c9 88bd 606d 3e3e 10a0 7e3e
000000c0: 647c 1a3e 20f8 343e 5aec 073f e810 18be
000000d0: 08cf e5be 8296 14be 2c4f 253e d05e 38be
000000e0: ecbe dcbd 64da 87be 0025 e03c 29ad 69be
000000f0: 40e6 e6bc 8005 e1be 37b0 eabe d0b8 23be
00000100: 7884 e5be 7418 443e e0e4 ecbc f01c 653f
00000110: a039 b13e 90da 733d 8003 1dbd 0974 dabe
00000120: 7858 d23d e0a3 4b3e e604 03bf e89c ad3d
00000130: 8000 2abd 9082 e23d b018 a1bd 103d 6dbe
00000140: a42a 963e c882 943e 8073 943d d41e b0bd
00000150: 40ad ed3c 845a 2b3f 3450 d93e 28d8 e53d
00000160: 2012 6ebe 1301 a3be 502f 4cbe 4043 79bd
00000170: 1095 9fbc 70cd 3e3d 10a1 c6be 58d0 80bd
00000180: 3839 ccbd 80dc 84bc 1cdf 993e c8e1 2abe
00000190: b056 563e 0832 88be 4c6b 083e 2029 2c3e
000001a0: b832 a13e 00b6 123b 900f 79be 8a73 f83e
000001b0: 20f3 17bd 5010 1bbe a6ed 0cbe 00d0 b4bb
000001c0: 00a8 4a3d 25b3 013f b8f8 293e c0a6 3cbd
000001d0: aea8 82be 1099 9fbd 80b6 0c3d 0918 9cbe
000001e0: a8e9 b3bd c0a4 573d 08e0 bf3d d82b 803d
000001f0: 2868 a8be b853 583e 4072 8fbc 00c7 743e
00000200: ae6f db3e 1cb4 3d3e 10a6 4b3e b9a5 2ebe
00000210: b88d 25be d863 8dbe c017 cebd 8005 f1bb
00000220: 3c0f e5be d8b5 bd3d f0e8 363d c0d7 513e
00000230: 4855 ed3d 0855 06be 5c9d 4c3f 962a f13e
00000240: 1c62 94be 8058 333e b4ec 10be 40a5 41bc
00000250: 0048 983d 2eb8 0bbf f0be 09be 08d3 d4be
00000260: cee1 9fbe a05e 38be 6066 ddbe 7066 963c
00000270: 585d ab3d d077 28be 704c 773e f887 bd3d
00000280: 70f1 80be e04e b33c 80d4 08be 6072 563e
00000290: 00dd cc3d 00e6 5e3b 3803 90be 7f5e dbbe
000002a0: d42e 543e 80a8 35bd 20f9 23bc d882 d33d
000002b0: fc3c 4e3f 580d b83e a0dc ad3c 4837 95be
000002c0: 1a77 3fbe 30f4 86bd 80e8 b9bd 48b6 ec3e
000002d0: 58c0 a73d 0076 f13c 2464 843e c072 8dbd
000002e0: 008c d8bd 18f2 313e 003a f0bb 08cf e5be
000002f0: f899 60be a40c 303e 4074 913d 9846 e6be
00000300: 38e3 24be f078 3a3e ca00 c03e d885 fd3d
00000310: 68c4 e5be 2e60 953e 0050 043b a00b dabd
00000320: a3ae 96be c04b 52bd b021 553e dd2f ecbe
00000330: c836 2cbe 40bf b3bd a89e 4cbe d8dc 453e
00000340: e0ba 563e 90fc 99bc 942b 073e 20a8 4b3e
00000350: 8453 afbe d0e8 7f3d 8896 98be c0c2 b73e
00000360: 8099 72bd b0cb c6be a6eb 913e 9860 8b3d
00000370: c020 8a3d 482e 98be 0869 d43d c424 e4be
00000380: a24d c8be 348e 293e 5806 b0be d02d 0cbe
00000390: 74d0 1f3e 8063 023d 165a 05be ec40 01be
000003a0: 8020 f23c 7c62 fbbd e81d 8bbd 88bb 3d3f
000003b0: beb9 b03e e0f9 43bd 4013 c33d 722b c03e
000003c0: 2c3c 80be e061 df3d fa1d b0be 4896 abbd
000003d0: 00c3 59bc 9892 e0be 905f 34be 70b0 553e
000003e0: 8493 85bd 6c4f 243e 204b 8a3d 189b 7a3d
000003f0: 504c 50bd 6093 b9bd f8d4 153d f4c2 90be

Y1 f4 [2150, 3]
1.3661468 0.9837502 -0.93368614 1.6218781 1.728471 -0.5317817 0.8132879 1.2901164
-0.54757667 1.3184756 1.2963634 -0.5402995 1.0271292 0.877823 -0.62175715 1.1276487
1.6100764 -0.6869751 1.2283734 1.3122437 -0.88211226 1.4822319 1.680831 -0.8203417
1.4155717 1.0057065 -0.6215029 1.0308293 1.1640282 -0.7139402 1.0636909 1.3844608
-0.53969204 1.139284 0.96131015 -0.82925224 1.3674569 1.5676602 -0.6306782 0.9312088
1.0838935 -0.51747304 1.277993 1.1516912 -0.7271737 1.2291054 1.4204111 -0.7003715
1.1861258 1.5463563 -0.48920047 0.9389882 0.99059176 -0.7886589 1.1530869 1.0483665
-0.60432446 1.2291793 1.1203203 -0.93061095 1.0576434 0.7877507 -0.78816897 0.8412482
1.1916236 -0.7137244 1.6400411 1.7074986 -0.72016895 1.3099296 0.92483246 -0.76210284
1.4869597 0.9460248 -0.7777513 1.16002 1.2368181 -0.613946 0.9600478 1.309789
-0.65696216 1.3258884 1.1230067 -0.5398482 1.4919763 1.6685863 -0.6417163 1.1714247
0.91503006 -0.68273324 1.1291319 1.2028219 -0.82826823 0.99117005 1.0255926 -0.6478431
1.0848652 1.3894542 -0.68958455 1.3700616 1.1414834 -0.8934963 1.2389375 1.4188743
-0.5527048 0.9143579 1.4053226 -0.55639255 1.1397566 1.0747081 -0.7431746 1.0847522
1.5167553 -0.584356 1.2774472 1.0051001 -0.6503371 1.2922955 1.0448384 -0.8284682
1.187985 1.2881209 -0.73912823 0.9521758 1.2044413 -0.57605183 1.2198949 1.5358365
-0.6294775 1.4061211 1.1333122 -0.6406917 1.0287519 1.07665 -0.80293703 0.9000827
1.1070487 -0.63905454 1.3004619 1.3289478 -0.66238946 1.5260743 1.7671608 -0.74674225
1.2895442 1.2249752 -0.93949705 1.3982785 0.90435857 -0.8483848 1.009521 0.90044916
-0.82368696 0.89620185 1.0981084 -0.7707015 1.0477173 1.2733883 -0.570787 1.05889
1.1130266 -0.6103739 1.2724807 1.3520062 -0.78235716 1.1515937 0.85262716 -0.7755797
1.2168235 1.1433736 -0.5637579 1.6080236 1.6626924 -0.6225489 1.0801821 0.98881745
-0.70394576 1.0001382 1.4543538 -0.6208733 1.160492 1.348372 -0.58641994 1.0725687
1.2794445 -0.69210535 0.98802006 0.9222445 -0.7152428 1.4052217 0.9281026 -0.705366
1.1721616 1.5101205 -0.73021203 0.868466 1.2014763 -0.50511515 1.2194395 0.99032736
-0.7604667 1.4477795 1.0056659 -0.8662241 1.1702808 1.0818973 -0.84955794 1.3710698
1.2251916 -0.59942615 1.4445392 1.0410063 -0.71730316 0.9289069 1.3019792 -0.54296035
0.8710108 1.2493805 -0.6313175 1.3390931 1.0350457 -0.7350774 1.060879 0.80251515
-0.68557817 1.0626041 0.9759304 -0.5930011 1.2872789 1.1065853 -0.6336852 1.2279805
1.1592195 -0.81476814 1.5390531 1.6624724 -0.73091304 1.141613 1.4617616 -0.64835364
1.3147795 1.0765421 -0.95715445 1.3002417 0.950972 -0.86041194 1.310678 1.2615043
-0.8503126 1.2553573 1.2307931 -0.5874298 1.1244266 1.2002646 -0.71531975 1.1968063
00000000: e6dd ae3f 0ed7 7b3f 0e06 6fbf b499 cf3f
00000010: 8a3e dd3f d822 08bf a333 503f 8922 a53f
00000020: fc2d 0cbf cfc3 a83f 3cef a53f 1151 0abf
00000030: f878 833f 02b9 603f 7a2b 1fbf cb56 903f
00000040: fc16 ce3f 9add 2fbf 573b 9d3f 9af7 a73f
00000050: 1cd2 61bf c6b9 bd3f 7825 d73f ea01 52bf
00000060: 7431 b53f feba 803f d01a 1fbf 37f2 833f
00000070: e0fe 943f c9c4 36bf 0627 883f 0336 b13f
00000080: 4229 0abf 0fd4 913f 6c18 763f e049 54bf
00000090: d408 af3f 17a9 c83f 2074 21bf b363 6e3f
000000a0: 06bd 8a3f 1d79 04bf 4695 a33f 9e6a 933f
000000b0: 0e28 3abf 5353 9d3f 08d0 b53f 8c4b 33bf
000000c0: f8d2 973f 01ef c53f 7c78 fabe 8861 703f
000000d0: 6c97 7d3f 8de5 49bf 5a98 933f e030 863f
000000e0: 02b5 1abf bf55 9d3f a866 8f3f 853c 6ebf
000000f0: dc60 873f 08aa 493f 71c5 49bf 0b5c 573f
00000100: 1f87 983f a4b6 36bf deec d13f 508f da3f
00000110: fe5c 38bf c6ab a73f d2c1 6c3f 2c19 43bf
00000120: b254 be3f ae2e 723f b61a 47bf 897b 943f
00000130: 0e50 9e3f 912b 1dbf b1c5 753f 2aa7 a73f
00000140: ac2e 28bf b6b6 a93f afbe 8f3f 7e33 0abf
00000150: 14f9 be3f 3c94 d53f 8547 24bf 3ff1 953f
00000160: 693f 6a3f 9bc7 2ebf 6587 903f 11f6 993f
00000170: 6309 54bf 52bd 7d3f 9e46 833f 0cd9 25bf
00000180: dddc 8a3f a3d9 b13f 9d88 30bf 2e5e af3f
00000190: 211c 923f 2cbc 64bf 8195 9e3f ac9d b53f
000001a0: 107e 0dbf 5c13 6a3f 9ce1 b33f be6f 0ebf
000001b0: 8be3 913f 0990 893f b140 3ebf 29d9 8a3f
000001c0: 0a25 c23f 5b98 15bf 6483 a33f 1fa7 803f
000001d0: 7e7c 26bf f069 a53f 44bd 853f 7e16 54bf
000001e0: e40f 983f 25e1 a43f 8237 3dbf cbc1 733f
000001f0: 222b 9a3f 2278 13bf 8425 9c3f 4a96 c43f
00000200: 7025 21bf c7fb b33f 6010 913f 5f04 24bf
00000210: 24ae 833f abcf 893f 488d 4dbf d26b 663f
00000220: c6b3 8d3f 1499 23bf 8975 a63f f61a aa3f
00000230: 5b92 29bf 6756 c33f 5332 e23f 802a 3fbf
00000240: c90f a53f fdcb 9c3f e182 70bf cafa b23f
00000250: 0b84 673f bf2f 59bf fc37 813f d683 663f
00000260: 26dd 52bf 7c6d 653f d18e 8c3f b24c 45bf
00000270: 9a1b 863f 63fe a23f 191f 12bf b589 873f
00000280: a877 8e3f 7741 1cbf a6e0 a23f 8a0e ad3f
00000290: 8f48 48bf 6c67 933f c645 5a3f 648c 46bf
000002a0: dfc0 9b3f 115a 923f 7052 10bf b8d3 cd3f
000002b0: 1bd3 d43f 5d5f 1fbf 6843 8a3f 2423 7d3f
000002c0: ca35 34bf 8704 803f 4428 ba3f 8df1 1ebf
000002d0: 008b 943f 7497 ac3f 9e1f 16bf ee49 893f
000002e0: d6c4 a33f d12d 31bf e2ee 7c3f 3718 6c3f
000002f0: 271a 37bf 4ede b33f 2298 6d3f de92 34bf
00000300: 6409 963f a14b c13f 2def 3abf ca53 5e3f
00000310: fac9 993f 3a4f 01bf 9816 9c3f 1886 7d3f
00000320: f2ad 42bf d750 b93f a9b9 803f ddc0 5dbf
00000330: c3cb 953f 9c7b 8a3f a17c 59bf 377f af3f
00000340: 14d3 9c3f fe73 19bf a9e6 b83f b23f 853f
00000350: 2ea1 37bf d8cc 6d3f 41a7 a63f 73ff 0abf
00000360: 90fa 5e3f b3eb 9f3f 069e 21bf 6767 ab3f
00000370: 617c 843f 082e 3cbf e2ca 873f a271 4d3f
00000380: 0d82 2fbf 6903 883f 93d6 793f ecce 17bf
00000390: 8ec5 a43f 96a4 8d3f 3139 22bf 772e 9d3f
000003a0: 4e61 943f a594 50bf b1ff c43f e5cb d43f
000003b0: 1e1d 3bbf 6020 923f 011b bb3f 81fa 25bf
000003c0: b24a a83f 22cc 893f 1308 75bf 526e a63f
000003d0: e772 733f f543 5cbf 4cc4 a73f f978 a13f
000003e0: 16ae 59bf 8caf a03f a18a 9d3f cd61 16bf
000003f0: 36ed 8f3f 45a2 993f 321f 37bf f330 993f

theta_op f4 [3]
-1.1780972 -0.41887903 -1.2566371
00000000: e4cb 96bf 5077 d6be 7cd9 a0bf

beta_op f4 [3]
0.8676716 -2.4422722 -0.40000576
00000000: ba1f 5e3f 304e 1cc0 8ecd ccbe
