code/experiment/shape_registration/result/saved/witchcastle/10k-5p/icp_du_param.pt (torch, 315945 bytes, 800 tensors)

rotation f4 [3, 3]
0	0x3f7ffd3c	0.9999578
1	0x3be9f200	0.0071394444
2	0x3bbd73e0	0.0057816356
3	0xbbea2fc0	-0.0071468055
4	0x3f7ffe4b	0.99997395
5	0x3aa89800	0.0012862682
6	0xbbbd24c0	-0.005772203
7	0xbaadfa00	-0.0013273358
8	0x3f7ffedc	0.9999826

beta f4 [3]
0	0xc15196d4	-13.099323
1	0x419985de	19.190365
2	0xc08ea95a	-4.458173

rotation f4 [3, 3]
0	0x3f7feb90	0.99968815
1	0x3c860830	0.016361326
2	0x3c9aafa0	0.018882573
3	0xbc84e1e0	-0.016220987
4	0x3f7ff58a	0.9998404
5	0xbbf70e80	-0.0075395703
6	0xbc9bac18	-0.01900296
7	0x3becf300	0.0072311163
8	0x3f7ff276	0.9997934

beta f4 [3]
0	0xc15e1c9c	-13.881985
1	0x41a0fc19	20.123095
2	0xc0b6b0aa	-5.7090654

rotation f4 [3, 3]
0	0x3f7fc501	0.9990998
1	0x3cc2e580	0.023791075
2	0x3d0fdfe8	0.035125643
3	0xbcbd54f0	-0.02311179
4	0x3f7fe1ee	0.99954116
5	0xbca0a850	-0.019611508
6	0xbd11b814	-0.03557594
7	0x3c99dd70	0.018782347
8	0x3f7fcaf6	0.9991907

beta f4 [3]
0	0xc153fc53	-13.249103
1	0x419aea76	19.364483
2	0xc0bbdc08	-5.8706093

rotation f4 [3, 3]
0	0x3f7f989f	0.99842256
1	0x3cf8aa10	0.03035453
2	0x3d4176c8	0.04723242
3	0xbcedd130	-0.029030412
4	0x3f7fc9c5	0.9991725
5	0xbce941b0	-0.028473705
6	0xbd44d864	-0.04805793
7	0x3cdda7f0	0.027057618
8	0x3f7f9c3f	0.9984779

beta f4 [3]
0	0xc14ab983	-12.670291
1	0x4195f8ae	18.746426
2	0xc0bd58e0	-5.917099

rotation f4 [3, 3]
0	0x3f7f719d	0.99782735
1	0x3d0cac60	0.034344077
2	0x3d664cdc	0.056225643
3	0xbd050ef0	-0.03248495
4	0x3f7fb848	0.99890566
5	0xbd09d948	-0.03365448
6	0xbd6ac838	-0.05731985
7	0x3d021148	0.031754762
8	0x3f7f7325	0.9978507

beta f4 [3]
0	0xc145ce92	-12.362932
1	0x4194d4fa	18.603992
2	0xc0c3872c	-6.1102505

rotation f4 [3, 3]
0	0x3f7f5836	0.99743974
1	0x3d1f3420	0.03886807
2	0x3d75e420	0.06003201
3	0xbd15ff10	-0.0366202
4	0x3f7fa47a	0.99860346
5	0xbd1c0938	-0.03809473
6	0xbd7b9cdc	-0.06142889
7	0x3d12a210	0.035799086
8	0x3f7f5a2a	0.99746954

beta f4 [3]
0	0xc13ffbc8	-11.99897
1	0x419253ad	18.290857
2	0xc0c1dfda	-6.0585756

rotation f4 [3, 3]
0	0x3f7f443c	0.9971349
1	0x3d342e00	0.04398918
2	0x3d7c0ca8	0.061535507
3	0xbd29b2dc	-0.04143034
4	0x3f7f8d14	0.99824643
5	0xbd2d1de0	-0.04226482
6	0xbd819c8a	-0.063286856
7	0x3d222d50	0.039593995
8	0x3f7f491f	0.9972095

beta f4 [3]
0	0xc139cde6	-11.612768
1	0x418f474c	17.909813
2	0xc0bc927c	-5.8928814

rotation f4 [3, 3]
0	0x3f7f30c5	0.9968379
1	0x3d4c6550	0.049901307
2	0x3d7d4ad0	0.061838925
3	0xbd412960	-0.0471586
4	0x3f7f7486	0.99787176
5	0xbd387d80	-0.04504156
6	0xbd82fad4	-0.06395498
7	0x3d2bf658	0.04198298
8	0x3f7f3ff1	0.9970694

beta f4 [3]
0	0xc15558ae	-13.33415
1	0x41a06fbb	20.054556
2	0xc0f9da36	-7.807887

rotation f4 [3, 3]
0	0x3f7edb90	0.99553776
1	0x3d6c1ea0	0.057646394
2	0x3d98fefc	0.074705094
3	0xbd5c8950	-0.05384189
4	0x3f7f482a	0.9971949
5	0xbd54eb70	-0.051982343
6	0xbd9eb458	-0.077492416
7	0x3d437e50	0.047727883
8	0x3f7ef000	0.9958496

beta f4 [3]
0	0xc15541bc	-13.328548
1	0x41a1076b	20.128622
2	0xc1063db9	-8.390069

rotation f4 [3, 3]
0	0x3f7e7d2b	0.9940974
1	0x3d774438	0.060367793
2	0x3db89ee6	0.090146825
3	0xbd61ad34	-0.05509682
4	0x3f7f26c8	0.9966855
5	0xbd752cf0	-0.05985731
6	0xbdbf68b1	-0.0934614
7	0x3d5f62a0	0.054537416
8	0x3f7e7f30	0.9941282

beta f4 [3]
0	0xc14de042	-12.86725
1	0x419fa0a1	19.953432
2	0xc10bb375	-8.731313

rotation f4 [3, 3]
0	0x3f7e1f30	0.9926634
1	0x3d801588	0.06254107
2	0x3dd3ebda	0.103477195
3	0xbd642dd8	-0.055707783
4	0x3f7f03ce	0.9961518
5	0xbd8a9158	-0.06766003
6	0xbddbc5bd	-0.10731075
7	0x3d7b7db8	0.06139919
8	0x3f7e0932	0.9923278

beta f4 [3]
0	0xc13e6408	-11.899422
1	0x41991df5	19.139627
2	0xc106c96e	-8.424177

rotation f4 [3, 3]
0	0x3f7dda66	0.99161375
1	0x3d864434	0.065559775
2	0x3de41730	0.11137235
3	0xbd6c76f0	-0.057730615
4	0x3f7ee7b2	0.9957229
5	0xbd93b774	-0.07212725
6	0xbdecccae	-0.11562477
7	0x3d854f5c	0.06509277
8	0x3f7dbc85	0.9911578

beta f4 [3]
0	0xc1314d9e	-11.0814495
1	0x4193774a	18.433247
2	0xc0ff3512	-7.9752283

rotation f4 [3, 3]
0	0x3f7d954e	0.99055946
1	0x3d8cbd1c	0.06872007
2	0x3df2ec2c	0.118614525
3	0xbd7551f4	-0.05989261
4	0x3f7eca34	0.9952729
5	0xbd9c912c	-0.07644877
6	0xbdfc88ab	-0.12330755
7	0x3d8c8a2c	0.06862292
8	0x3f7d702e	0.989993

beta f4 [3]
0	0xc125c2be	-10.3600445
1	0x418ed371	17.853243
2	0xc0f37d6a	-7.6090593

rotation f4 [3, 3]
0	0x3f7d5d76	0.98970735
1	0x3d950fa0	0.07278371
2	0x3dfc5814	0.12321487
3	0xbd817e76	-0.06322949
4	0x3f7eabaa	0.9948069
5	0xbda35784	-0.07975677
6	0xbe037611	-0.12838008
7	0x3d91b46c	0.07114491
8	0x3f7d3a3c	0.98916984

beta f4 [3]
0	0xc11665d4	-9.39986
1	0x41872c92	16.896763
2	0xc0d9e056	-6.8086348

rotation f4 [3, 3]
0	0x3f7d372f	0.9891233
1	0x3da37694	0.07981601
2	0x3dfd0898	0.12355155
3	0xbd8e2cb8	-0.06942123
4	0x3f7e6d05	0.993851
5	0xbdb0ad80	-0.086268425
6	0xbe04ca1b	-0.12967722
7	0x3d9d30d0	0.07675326
8	0x3f7d13ae	0.98858154

beta f4 [3]
0	0xc111d250	-9.113846
1	0x41840458	16.502121
2	0xc0d4cae4	-6.649767

rotation f4 [3, 3]
0	0x3f7d23fa	0.9888302
1	0x3db25358	0.08707303
2	0x3df7bd82	0.120966926
3	0xbd9baaa0	-0.076009035
4	0x3f7e2403	0.992737
5	0xbdbefb80	-0.093253136
6	0xbe0348f6	-0.12820801
7	0x3daa04c4	0.0830169
8	0x3f7cff0d	0.98826677

beta f4 [3]
0	0xc1069ebf	-8.413756
1	0x41789300	15.535889
2	0xc0bcc3fc	-5.898924

rotation f4 [3, 3]
0	0x3f7d0de4	0.9884932
1	0x3dbdd77a	0.092696145
2	0x3df4ce90	0.11953461
3	0xbda6a47c	-0.08136842
4	0x3f7df472	0.9920112
5	0xbdc56e10	-0.096401334
6	0xbe029377	-0.12751566
7	0x3daf3d10	0.085565686
8	0x3f7cf6aa	0.9881388

beta f4 [3]
0	0xc102fa02	-8.186037
1	0x4173f2bc	15.246761
2	0xc0b5d9da	-5.682843

rotation f4 [3, 3]
0	0x3f7cfeff	0.98826593
1	0x3dc84394	0.097785145
2	0x3df04f5c	0.117338866
3	0xbdb0cbea	-0.086326435
4	0x3f7dc7c0	0.9913292
5	0xbdcae134	-0.09906235
6	0xbe010854	-0.12600833
7	0x3db3c100	0.08777046
8	0x3f7cf6a6	0.98813856

beta f4 [3]
0	0xc0fb075b	-7.844648
1	0x416cd030	14.800827
2	0xc0a912f0	-5.2835617

rotation f4 [3, 3]
0	0x3f7d00d8	0.9882941
1	0x3dd1be5c	0.10241386
2	0x3de79384	0.11307433
3	0xbdba5254	-0.09097734
4	0x3f7d988f	0.9906091
5	0xbdd103d4	-0.10205808
6	0xbdfacec1	-0.122464664
7	0x3db97fdc	0.0905759
8	0x3f7d0342	0.98833096

beta f4 [3]
0	0xc0f5d42f	-7.6821513
1	0x416874c9	14.528512
2	0xc0a0e2ec	-5.0277004

rotation f4 [3, 3]
0	0x3f7cfc54	0.9882252
1	0x3ddc1828	0.10746795
2	0x3ddf0bce	0.108909234
3	0xbdc477f8	-0.09593195
4	0x3f7d5dc0	0.98971176
5	0xbdd96244	-0.10614446
6	0xbdf41d14	-0.11919609
7	0x3dc16d0c	0.09444627
8	0x3f7d05b4	0.9883683

beta f4 [3]
0	0xc0f2afff	-7.583984
1	0x416472e6	14.278051
2	0xc09b63b4	-4.855921

rotation f4 [3, 3]
0	0x3f7d0210	0.9883127
1	0x3de31420	0.11087823
2	0x3dd63f44	0.10461286
3	0xbdcb9080	-0.099396706
4	0x3f7d3159	0.98903424
5	0xbddfb5e8	-0.10923368
6	0xbdecb3cd	-0.11557732
7	0x3dc7ccf0	0.097558856
8	0x3f7d0e0f	0.98849577

beta f4 [3]
0	0xc0eeb50d	-7.459601
1	0x4160c52a	14.048136
2	0xc0946e42	-4.638459

rotation f4 [3, 3]
0	0x3f7d0840	0.98840714
1	0x3de7ddba	0.11321588
2	0x3dcf2d82	0.10116102
3	0xbdd07b68	-0.10179788
4	0x3f7d0f60	0.98851585
5	0xbde4ba84	-0.111683875
6	0xbde6b1b5	-0.11264364
7	0x3dccfc98	0.10009116
8	0x3f7d13ac	0.9885814

beta f4 [3]
0	0xc0e74bd0	-7.2280045
1	0x415c2c4e	13.760817
2	0xc08a82cc	-4.3284664

rotation f4 [3, 3]
0	0x3f7d1340	0.988575
1	0x3deb6260	0.11493373
2	0x3dc7b894	0.09752002
3	0xbdd44d16	-0.103662655
4	0x3f7cf3b9	0.9880939
5	0xbde8d588	-0.11368853
6	0xbde01a7f	-0.10942554
7	0x3dd1787c	0.10228059
8	0x3f7d1cb0	0.988719

beta f4 [3]
0	0xc0e0a210	-7.019783
1	0x4158cf60	13.550629
2	0xc081bdb8	-4.054409

rotation f4 [3, 3]
0	0x3f7d12d6	0.98856866
1	0x3def9618	0.1169855
2	0x3dc2cb76	0.09511463
3	0xbdd8d11c	-0.105867594
4	0x3f7cddce	0.9877595
5	0xbdea9d70	-0.1145581
6	0xbddbdb55	-0.10735194
7	0x3dd34f84	0.10317901
8	0x3f7d2577	0.9888529

beta f4 [3]
0	0xc0da4c0c	-6.821783
1	0x4155f8ea	13.37327
2	0xc073714c	-3.80379

rotation f4 [3, 3]
0	0x3f7d1769	0.98863846
1	0x3df56ec8	0.119840205
2	0x3db9d2ec	0.09073433
3	0xbddf8b82	-0.10915281
4	0x3f7cc4b2	0.98737633
5	0xbdeb11b8	-0.11477989
6	0xbdd3a626	-0.10334425
7	0x3dd41da0	0.10357213
8	0x3f7d3ec4	0.989239

beta f4 [3]
0	0xc0d1ebf2	-6.560052
1	0x41510216	13.063009
2	0xc058d530	-3.388012

rotation f4 [3, 3]
0	0x3f7d2e29	0.9889856
1	0x3df81a60	0.12114406
2	0x3dae2788	0.08503634
3	0xbde3234c	-0.11090717
4	0x3f7caca6	0.9870094
5	0xbdee0eec	-0.1162394
6	0xbdc8bb56	-0.098013565
7	0x3dd81f10	0.105528
8	0x3f7d54be	0.9895743

beta f4 [3]
0	0xc0c8eb06	-6.2786894
1	0x414bf02c	12.746136
2	0xc03dc41c	-2.9650946

rotation f4 [3, 3]
0	0x3f7d5322	0.98954976
1	0x3df9c7a4	0.121962816
2	0x3d9d887a	0.076920465
3	0xbde6b754	-0.11265436
4	0x3f7ca518	0.98689413
5	0xbdec9e9c	-0.1155369
6	0xbdb853d0	-0.09000361
7	0x3dd86684	0.10566428
8	0x3f7d85a5	0.9903205

beta f4 [3]
0	0xc0c57f14	-6.1717625
1	0x4149da52	12.615801
2	0xc0284034	-2.6289186

rotation f4 [3, 3]
0	0x3f7d868e	0.9903344
1	0x3df6b4b4	0.12046185
2	0x3d8ccdf0	0.06875217
3	0xbde587ea	-0.11207564
4	0x3f7cad98	0.98702383
5	0xbdeb82bc	-0.11499545
6	0xbda758dc	-0.081712455
7	0x3dd9741c	0.10617849
8	0x3f7db123	0.99098414

beta f4 [3]
0	0xc0c1b861	-6.053757
1	0x41486274	12.524036
2	0xc0141cc0	-2.3142548

rotation f4 [3, 3]
0	0x3f7dadfa	0.9909359
1	0x3df45d2c	0.119318336
2	0x3d7ccddc	0.06171976
3	0xbde50560	-0.11182666
4	0x3f7cbd2b	0.9872615
5	0xbde7ca48	-0.11317879
6	0xbd9872d6	-0.07443778
7	0x3dd78dc8	0.105250895
8	0x3f7ddd27	0.99165577

beta f4 [3]
0	0xc0bf824c	-5.9846554
1	0x4147fc79	12.499139
2	0xc003f1a4	-2.0616236

rotation f4 [3, 3]
0	0x3f7dbfdf	0.991209
1	0x3df5e2ea	0.12006171
2	0x3d63aef8	0.055586785
3	0xbde84e80	-0.11343098
4	0x3f7cc824	0.9874289
5	0xbde16f60	-0.11007571
6	0xbd8b7a10	-0.06810391
7	0x3dd28a3c	0.10280272
8	0x3f7e0bcc	0.9923675

beta f4 [3]
0	0xc0b6d3e0	-5.7133636
1	0x4143b9e2	12.232882
2	0xbfc89a70	-1.567213

rotation f4 [3, 3]
0	0x3f7dd611	0.99154764
1	0x3df32d30	0.11873853
2	0x3d562e1c	0.052290067
3	0xbde6d0dc	-0.112703055
4	0x3f7ce922	0.9879323
5	0xbdd99590	-0.1062423
6	0xbd83a234	-0.06427422
7	0x3dcbacec	0.099450916
8	0x3f7e32e8	0.99296427

beta f4 [3]
0	0xc0aa0188	-5.312687
1	0x413f753a	11.96612
2	0xbf862f08	-1.0483103

rotation f4 [3, 3]
0	0x3f7dd403	0.9915163
1	0x3df6319c	0.12021181
2	0x3d4a832c	0.0494415
3	0xbdead1c2	-0.114657894
4	0x3f7cf120	0.9880543
5	0xbdd2df64	-0.10296515
6	0xbd7acade	-0.061228625
7	0x3dc57934	0.09642258
8	0x3f7e5317	0.99345535

beta f4 [3]
0	0xc0a486f4	-5.141474
1	0x413d8094	11.843891
2	0xbf3ed5d0	-0.74545

rotation f4 [3, 3]
0	0x3f7dcb9a	0.99138796
1	0x3dfa5384	0.122229606
2	0x3d4091e4	0.047014132
3	0xbdefbd20	-0.117059946
4	0x3f7cf085	0.98804504
5	0xbdcd74e8	-0.10032064
6	0xbd707e30	-0.05871409
7	0x3dc06aac	0.09395346
8	0x3f7e6c8d	0.99384385

beta f4 [3]
0	0xc09872d8	-4.764019
1	0x4137e3b3	11.493091
2	0xbe837240	-0.25673103

rotation f4 [3, 3]
0	0x3f7dcaec	0.9913776
1	0x3dfcf1b0	0.12350786
2	0x3d334a6c	0.043772146
3	0xbdf3819a	-0.11889954
4	0x3f7d0068	0.98828745
5	0xbdc3e844	-0.095657855
6	0xbd619526	-0.05507388
7	0x3db78f28	0.08962852
8	0x3f7e945d	0.99445134

beta f4 [3]
0	0xc0928168	-4.5782967
1	0x4135da2e	11.365767
2	0x3da29200	0.079380035

rotation f4 [3, 3]
0	0x3f7db00f	0.9909677
1	0x3e0229eb	0.12711303
2	0x3d2f0148	0.04272583
3	0xbdfb8a50	-0.122822404
4	0x3f7cfbd6	0.9882177
5	0xbdbb0950	-0.091326356
6	0xbd5c7e28	-0.05383125
7	0x3dae9998	0.085253894
8	0x3f7eb209	0.9949041

beta f4 [3]
0	0xc08c8534	-4.39126
1	0x41335308	11.207771
2	0x3ec063c0	0.37576103

rotation f4 [3, 3]
0	0x3f7da016	0.99072397
1	0x3e05e278	0.13074672
2	0x3d17adf0	0.037031114
3	0xbe0216ef	-0.12704061
4	0x3f7ce612	0.9878856
5	0xbdb6881c	-0.089126796
6	0xbd4592cc	-0.0482357
7	0x3dab3444	0.08359578
8	0x3f7ece12	0.9953319

beta f4 [3]
0	0xc07e14ec	-3.970027
1	0x412be4d3	10.743365
2	0x3f783870	0.96961117

rotation f4 [3, 3]
0	0x3f7d9a2a	0.9906336
1	0x3e08bc8a	0.13353172
2	0x3ce9cdf8	0.028540596
3	0xbe05e17c	-0.13074297
4	0x3f7ce4a4	0.9878638
5	0xbdabb924	-0.08384922
6	0xbd21583a	-0.03939078
7	0x3da2790c	0.07933244
8	0x3f7efe68	0.99606943

beta f4 [3]
0	0xc05c01c8	-3.4376087
1	0x41235a42	10.209536
2	0x3fe40f20	1.7817116

rotation f4 [3, 3]
0	0x3f7dc31d	0.99125844
1	0x3e05a420	0.1305089
2	0x3c9e4120	0.019318163
3	0xbe03afdb	-0.12860052
4	0x3f7d0f24	0.9885123
5	0xbda29ae4	-0.07939699
6	0xbcf1527c	-0.029458277
7	0x3d9c1858	0.07621831
8	0x3f7f24cf	0.9966554

beta f4 [3]
0	0xc0402e60	-3.0028305
1	0x411eca51	9.924394
2	0x401bbdac	2.4334517

rotation f4 [3, 3]
0	0x3f7df261	0.99197966
1	0x3e011bd0	0.12608266
2	0x3c121df0	0.0089182705
3	0xbe000c68	-0.12504733
4	0x3f7d3dae	0.9892224
5	0xbd9c01f8	-0.07617563
6	0xbc96f2f8	-0.018426403
7	0x3d98790c	0.07444963
8	0x3f7f3efb	0.99705476

beta f4 [3]
0	0xc024a654	-2.5726519
1	0x411a5bff	9.64746
2	0x4043932c	3.0558577

rotation f4 [3, 3]
0	0x3f7e09f2	0.99233925
1	0x3dfd0000	0.123535156
2	0xba714a00	-0.0009204447
3	0xbdfc798a	-0.12327869
4	0x3f7d5f93	0.9897396
5	0xbd93ecb4	-0.07222882
6	0xbc034430	-0.008011863
7	0x3d9305f8	0.07178873
8	0x3f7f54c6	0.9973873

beta f4 [3]
0	0xbfd14b70	-1.6351147
1	0x410dd2e8	8.863991
2	0x40839da0	4.1129913

rotation f4 [3, 3]
0	0x3f7e1f92	0.9926692
1	0x3df653a2	0.120276704
2	0xbc431d70	-0.011908874
3	0xbdf76b3c	-0.12081
4	0x3f7d87e1	0.9903546
5	0xbd8af4b8	-0.06784958
6	0x3b6e1c00	0.0036332607
7	0x3d8ce25c	0.06879112
8	0x3f7f6452	0.9976245

beta f4 [3]
0	0xbf99b840	-1.2009354
1	0x4108f49d	8.55972
2	0x40983f9a	4.757764

rotation f4 [3, 3]
0	0x3f7e1332	0.9924804
1	0x3df597a8	0.11991817
2	0xbcc8fb98	-0.024534032
3	0xbdf8524c	-0.12125072
4	0x3f7d9958	0.9906211
5	0xbd8102d0	-0.062993646
6	0x3c8936c8	0.016749755
7	0x3d862218	0.065494716
8	0x3f7f6a10	0.99771214

beta f4 [3]
0	0xbf77e8c0	-0.96839523
1	0x41061394	8.37978
2	0x40a92246	5.285434

rotation f4 [3, 3]
0	0x3f7e0b7b	0.9923627
1	0x3df0ff04	0.1176739
2	0xbd178b24	-0.03699793
3	0xbdf52b58	-0.11971158
4	0x3f7db694	0.9910672
5	0xbd70bf20	-0.05877602
6	0x3cf3b850	0.029750973
7	0x3d808658	0.06275624
8	0x3f7f61bc	0.99758506

beta f4 [3]
0	0xbffe8440	-1.988411
1	0x41168170	9.406601
2	0x40985056	4.7598066

rotation f4 [3, 3]
0	0x3f7e37ec	0.9930408
1	0x3de24288	0.11047846
2	0xbd271ee4	-0.040800944
3	0xbde68cf8	-0.112573564
4	0x3f7e01ec	0.9922168
5	0xbd5a06e8	-0.053229243
6	0x3d0dbb94	0.034602717
7	0x3d6b5308	0.05745223
8	0x3f7f6c73	0.99774855

beta f4 [3]
0	0xbff7a768	-1.9347963
1	0x411a6f06	9.652105
2	0x409cce18	4.900158

rotation f4 [3, 3]
0	0x3f7e5aa0	0.9935703
1	0x3dd813a8	0.10550624
2	0xbd283278	-0.041063756
3	0xbddbf656	-0.10740344
4	0x3f7e3bb2	0.9930984
5	0xbd40fd38	-0.04711649
6	0x3d12acc0	0.03580928
7	0x3d51d078	0.051224202
8	0x3f7f7fe2	0.9980451

beta f4 [3]
0	0xbfdac938	-1.7092657
1	0x411b4581	9.704469
2	0x40a4bc12	5.147958

rotation f4 [3, 3]
0	0x3f7e7869	0.9940248
1	0x3dd00b7c	0.101584405
2	0xbd239a00	-0.039941788
3	0xbdd37926	-0.103258416
4	0x3f7e668e	0.99375236
5	0xbd2d7d00	-0.042355537
6	0x3d10f488	0.035389453
7	0x3d3d5868	0.04622689
8	0x3f7f90da	0.998304

beta f4 [3]
0	0xc00ab9b4	-2.1675844
1	0x4125c77b	10.361201
2	0x409a6d1a	4.825818

rotation f4 [3, 3]
0	0x3f7e983f	0.9945106
1	0x3dc5542c	0.09635195
2	0xbd271fc8	-0.040801793
3	0xbdc8555e	-0.097819075
4	0x3f7e9be2	0.9945661
5	0xbd11f358	-0.03563246
6	0x3d18271c	0.037146673
7	0x3d217f38	0.039427966
8	0x3f7f9fc6	0.9985317

beta f4 [3]
0	0xc03eaa9c	-2.9791632
1	0x41360f98	11.378807
2	0x4089fc6c	4.312063

rotation f4 [3, 3]
0	0x3f7ea10d	0.99464494
1	0x3dc35180	0.09537029
2	0xbd231a38	-0.039819926
3	0xbdc6115c	-0.0967128
4	0x3f7ea859	0.9947563
5	0xbd084260	-0.033266425
6	0x3d1540b0	0.036438644
7	0x3d174dc0	0.036939383
8	0x3f7fa7b1	0.9986525

beta f4 [3]
0	0xc07461ac	-3.8184614
1	0x4143f7c5	12.247991
2	0x406f9494	3.7434435

rotation f4 [3, 3]
0	0x3f7ea7f8	0.9947505
1	0x3dc8d078	0.09805387
2	0xbcefd4b8	-0.029276237
3	0xbdcad5f2	-0.09904088
4	0x3f7e96c7	0.9944882
5	0xbd0ce990	-0.03440243
6	0x3cd2dff8	0.025741562
7	0x3d180c88	0.037121326
8	0x3f7fbd1a	0.9989792

beta f4 [3]
0	0xc075fda4	-3.843606
1	0x4143b3c2	12.231386
2	0x4064e018	3.5761776

rotation f4 [3, 3]
0	0x3f7eb596	0.9949583
1	0x3dc99f58	0.098448455
2	0xbc9cce60	-0.019141376
3	0xbdcaf74a	-0.09910448
4	0x3f7e9032	0.99438775
5	0xbd17b908	-0.037041694
6	0x3c7c1b20	0.0153873265
7	0x3d1ebaa0	0.0387522
8	0x3f7fc702	0.99913037

beta f4 [3]
0	0xc07406a8	-3.8129063
1	0x4143d57e	12.239622
2	0x40592c44	3.3933268

rotation f4 [3, 3]
0	0x3f7eb132	0.9948913
1	0x3dcd1fec	0.10015854
2	0xbc4ec070	-0.012619123
3	0xbdce02cc	-0.10059127
4	0x3f7e7e0c	0.9941108
5	0xbd251d70	-0.040311277
6	0x3c0b6290	0.008507386
7	0x3d297840	0.041374445
8	0x3f7fc57f	0.9991073

beta f4 [3]
0	0xc09b928e	-4.86164
1	0x4154048c	13.25111
2	0x401a5748	2.4115772

rotation f4 [3, 3]
0	0x3f7ea5f9	0.99472004
1	0x3dd223a0	0.10260701
2	0xbaffc380	-0.001951322
3	0xbdd21808	-0.1025849
4	0x3f7e5d1d	0.9936083
5	0xbd40eb58	-0.04709944
6	0xbb3daa80	-0.0028940737
7	0x3d40b890	0.047051013
8	0x3f7fb724	0.99888825

beta f4 [3]
0	0xc0a47934	-5.1397953
1	0x4156e562	13.431002
2	0x3ff585b0	1.9181423

rotation f4 [3, 3]
0	0x3f7e94ee	0.99446
1	0x3dd64b8c	0.10463628
2	0x3c24ad70	0.010051116
3	0xbdd4e4b6	-0.10395186
4	0x3f7e3d75	0.99312526
5	0xbd5c7200	-0.053819656
6	0xbc7fcf60	-0.015613407
7	0x3d56f1e0	0.052476764
8	0x3f7f9db4	0.9985001

beta f4 [3]
0	0xc0a77420	-5.2329254
1	0x41571f71	13.445176
2	0x3fc3fba0	1.5311165

rotation f4 [3, 3]
0	0x3f7e820d	0.9941719
1	0x3dd99de6	0.1062582
2	0x3c9534a8	0.018213585
3	0xbdd6f296	-0.10495488
4	0x3f7e186c	0.99256015
5	0xbd7ccf60	-0.061721206
6	0xbcc9d240	-0.024636388
7	0x3d7381f8	0.05945012
8	0x3f7f782d	0.9979275

beta f4 [3]
0	0xc0ab1fa2	-5.3476114
1	0x4156fb63	13.436374
2	0x3f982030	1.1884823

rotation f4 [3, 3]
0	0x3f7e661c	0.99374557
1	0x3dddf5f6	0.10837929
2	0x3cdc5670	0.026896685
3	0xbdd9c35e	-0.106329665
4	0x3f7df163	0.9919645
5	0xbd8c6678	-0.06855482
6	0xbd0bb766	-0.03411045
7	0x3d85aa24	0.065265924
8	0x3f7f4e09	0.9972845

beta f4 [3]
0	0xc0ada3b8	-5.426235
1	0x41568beb	13.40916
2	0x3f5dac50	0.86591053

rotation f4 [3, 3]
0	0x3f7e5c74	0.9935982
1	0x3ddc7c28	0.107658684
2	0x3d0c33b4	0.034228995
3	0xbdd6c64a	-0.104870394
4	0x3f7dddb6	0.9916643
5	0xbd994ef8	-0.07485765
6	0xbd2c0b1c	-0.042002782
7	0x3d90f99c	0.07078859
8	0x3f7f2199	0.9966064

beta f4 [3]
0	0xc0ae7b54	-5.4525547
1	0x4156dbe0	13.42868
2	0x3f159120	0.5842457

rotation f4 [3, 3]
0	0x3f7e5a78	0.99356794
1	0x3dd9fc1c	0.10643789
2	0x3d1e52c0	0.038653135
3	0xbdd30444	-0.10303548
4	0x3f7dc8df	0.9913463
5	0xbda6950c	-0.08133897
6	0xbd406a1c	-0.046976194
7	0x3d9d5ac4	0.07683328
8	0x3f7ef5b4	0.99593663

beta f4 [3]
0	0xc0afcd84	-5.4938374
1	0x41571e12	13.444841
2	0x3eb12f60	0.34606457

rotation f4 [3, 3]
0	0x3f7e6956	0.9937948
1	0x3dd3a780	0.103346825
2	0x3d287474	0.041126683
3	0xbdcbae3a	-0.099453405
4	0x3f7dbe59	0.9911857
5	0xbdb33ed0	-0.08752215
6	0xbd4c04be	-0.04980921
7	0x3da9c1c0	0.08288908
8	0x3f7eccdb	0.99531335

beta f4 [3]
0	0xc0b04026	-5.5078306
1	0x4157d943	13.490542
2	0x3e1b5500	0.15169144

rotation f4 [3, 3]
0	0x3f7e70da	0.9939095
1	0x3dd092b0	0.101842284
2	0x3d2c6cf4	0.042096093
3	0xbdc7d4c6	-0.0975738
4	0x3f7da7a7	0.9908394
5	0xbdbf32cc	-0.093358606
6	0xbd51ca5c	-0.051218376
7	0x3db59f1c	0.08868238
8	0x3f7ea76a	0.99474204

beta f4 [3]
0	0xc0b1b820	-5.553726
1	0x415808de	13.502165
2	0xbb324000	-0.0027198792

rotation f4 [3, 3]
0	0x3f7e756e	0.99397933
1	0x3dcd4542	0.100229755
2	0x3d355088	0.044266254
3	0xbdc399fe	-0.09550856
4	0x3f7d95ba	0.9905659
5	0xbdc94524	-0.09827641
6	0xbd5bf30c	-0.053698584
7	0x3dbf665c	0.093456954
8	0x3f7e8236	0.99417436

beta f4 [3]
0	0xc0b20b42	-5.5638742
1	0x415847e8	13.517555
2	0xbe140c80	-0.14457893

rotation f4 [3, 3]
0	0x3f7e6a7c	0.9938123
1	0x3dcdd428	0.10050231
2	0x3d41b828	0.047294766
3	0xbdc33780	-0.0953207
4	0x3f7d8287	0.99027294
5	0xbdcf9564	-0.10135916
6	0xbd698f44	-0.057021394
7	0x3dc5111c	0.09622404
8	0x3f7e64c4	0.99372506

beta f4 [3]
0	0xc0b27d1a	-5.577771
1	0x4158348a	13.512827
2	0xbe7ed100	-0.24884415

rotation f4 [3, 3]
0	0x3f7e55df	0.9934978
1	0x3dd1466c	0.1021851
2	0x3d4d9e04	0.050199524
3	0xbdc5abf0	-0.09651935
4	0x3f7d6489	0.9898153
5	0xbdd64d1c	-0.10463926
6	0xbd7751f6	-0.0603809
7	0x3dcafc18	0.09911364
8	0x3f7e4526	0.9932426

beta f4 [3]
0	0xc0b37ede	-5.6092367
1	0x41579a43	13.475162
2	0xbeb30680	-0.34965897

rotation f4 [3, 3]
0	0x3f7e49e6	0.9933151
1	0x3dd17fa8	0.102294266
2	0x3d5b1bb8	0.05349323
3	0xbdc5161c	-0.09623358
4	0x3f7d5f18	0.98973227
5	0xbdd87138	-0.1056847
6	0xbd8291f1	-0.06375492
7	0x3dcc73e8	0.09983045
8	0x3f7e32a0	0.99296

beta f4 [3]
0	0xc0b2aea2	-5.5838175
1	0x4157c8c4	13.486515
2	0xbec861c0	-0.39137077

rotation f4 [3, 3]
0	0x3f7e3610	0.9930124
1	0x3dd3c580	0.103404045
2	0x3d68f214	0.05687149
3	0xbdc68e30	-0.09695089
4	0x3f7d5544	0.9895823
5	0xbdd9fa4c	-0.106434435
6	0xbd89cc74	-0.067284495
7	0x3dcd29b4	0.1001772
8	0x3f7e2111	0.99269205

beta f4 [3]
0	0xc0d27dce	-6.577857
1	0x41683884	14.513798
2	0xbfbb8720	-1.4650612

rotation f4 [3, 3]
0	0x3f7e47a4	0.99328065
1	0x3dcc1280	0.09964466
2	0x3d711548	0.058858186
3	0xbdbe3576	-0.092875406
4	0x3f7d618e	0.9897698
5	0xbdddcc10	-0.108299375
6	0xbd8d68d9	-0.06904764
7	0x3dd11c5c	0.10210487
8	0x3f7e0c3a	0.99237406

beta f4 [3]
0	0xc0e27b18	-7.077526
1	0x4171a723	15.103305
2	0xc0050808	-2.0786152

rotation f4 [3, 3]
0	0x3f7e5979	0.99355274
1	0x3dc03e36	0.09386866
2	0x3d8236e6	0.06358127
3	0xbdb0c78a	-0.08631809
4	0x3f7d6944	0.9898875
5	0xbde68de4	-0.11257532
6	0xbd9689fc	-0.07350537
7	0x3dd9d410	0.10636151
8	0x3f7dd9f9	0.99160725

beta f4 [3]
0	0xc0e1f192	-7.0607386
1	0x4174054e	15.251295
2	0xc018fe88	-2.3905354

rotation f4 [3, 3]
0	0x3f7e6557	0.9937338
1	0x3db56b54	0.08858362
2	0x3d8b9a02	0.06816484
3	0xbda47d3c	-0.08031699
4	0x3f7d72b2	0.99003136
5	0xbdecf5c8	-0.115703166
6	0xbd9f3366	-0.07773475
7	0x3de0433c	0.10950324
8	0x3f7dae64	0.99094224

beta f4 [3]
0	0xc0e82118	-7.25404
1	0x417a37cc	15.638622
2	0xc03a0178	-2.9063396

rotation f4 [3, 3]
0	0x3f7e6fe1	0.99389464
1	0x3da957a0	0.08268666
2	0x3d959a16	0.0730478
3	0xbd9738de	-0.073838934
4	0x3f7d8dc0	0.9904442
5	0xbdee8cf8	-0.116479814
6	0xbda7e5b5	-0.0819811
7	0x3de20c34	0.11037484
8	0x3f7d9198	0.99050283

beta f4 [3]
0	0xc0eb6308	-7.355839
1	0x41800558	16.00261
2	0xc053d080	-3.3096008

rotation f4 [3, 3]
0	0x3f7e7bb4	0.99407506
1	0x3d9946a4	0.07484177
2	0x3da16c6e	0.078820094
3	0xbd85daaa	-0.065358475
4	0x3f7db31c	0.99101424
5	0xbdeeff28	-0.11669761
6	0xbdb1dc36	-0.0868458
7	0x3de307b8	0.110854566
8	0x3f7d72ea	0.9900347

beta f4 [3]
0	0xc0edb6e0	-7.4285736
1	0x418388a3	16.441717
2	0xc0711a88	-3.7672443

rotation f4 [3, 3]
0	0x3f7e8c8d	0.99433213
1	0x3d88ff30	0.06689298
2	0x3da93d92	0.08263697
3	0xbd6962d0	-0.056979
4	0x3f7dd2b9	0.9914966
5	0xbdef9b08	-0.11699492
6	0xbdb7d44e	-0.08976041
7	0x3de49ac8	0.11162335
8	0x3f7d5c3d	0.9896887

beta f4 [3]
0	0xc0e47ea6	-7.14046
1	0x41839bdc	16.451103
2	0xc0716f18	-3.7724056

rotation f4 [3, 3]
0	0x3f7e958c	0.9944694
1	0x3d78b050	0.06071502
2	0x3daf8316	0.085699245
3	0xbd4e3fa8	-0.050353676
4	0x3f7de048	0.9917035
5	0xbdf239a4	-0.118274
6	0xbdbcc32e	-0.09216915
7	0x3de80c60	0.11330485
8	0x3f7d412e	0.9892758

beta f4 [3]
0	0xc0e132f6	-7.037471
1	0x4184b33c	16.587517
2	0xc07c9a38	-3.9469128

rotation f4 [3, 3]
0	0x3f7e9e9a	0.99460757
1	0x3d5b20f8	0.05349824
2	0x3db5f4c8	0.08884579
3	0xbd2e729c	-0.04258977
4	0x3f7de710	0.991807
5	0xbdf6a6b4	-0.12043515
6	0xbdc1a922	-0.09456088
7	0x3ded9254	0.116001755
8	0x3f7d1de3	0.9887373

beta f4 [3]
0	0xc0dd08fa	-6.907346
1	0x4185e31d	16.735895
2	0xc0845c40	-4.136261

rotation f4 [3, 3]
0	0x3f7e9e45	0.9946025
1	0x3d48e7c0	0.04904914
2	0x3dbb4178	0.091433465
3	0xbd196024	-0.037445202
4	0x3f7dd342	0.9915048
5	0xbdff1c24	-0.12456539
6	0xbdc62d82	-0.09676649
7	0x3df6b890	0.12046921
8	0x3f7cece4	0.98798966

beta f4 [3]
0	0xc0da5366	-6.8226805
1	0x41865772	16.792698
2	0xc08b28e8	-4.3487434

rotation f4 [3, 3]
0	0x3f7e92ac	0.99442554
1	0x3d3259e0	0.043542743
2	0x3dc4abbe	0.0960307
3	0xbcfda058	-0.030960247
4	0x3f7dbe30	0.9911833
5	0xbe03eb92	-0.12882832
6	0xbdce6cce	-0.100793466
7	0x3e0023f2	0.12513712
8	0x3f7cac6f	0.9870061

beta f4 [3]
0	0xc0d57852	-6.6709375
1	0x4186fa99	16.872362
2	0xc09302dc	-4.594099

rotation f4 [3, 3]
0	0x3f7e8f4e	0.99437416
1	0x3d181938	0.037133425
2	0x3dcb2852	0.099198
3	0xbcc38d30	-0.023871034
4	0x3f7db270	0.991004
5	0xbe06d7c4	-0.13168246
6	0xbdd3582e	-0.10319553
7	0x3e03a8ca	0.12857357
8	0x3f7c7f32	0.98631585

beta f4 [3]
0	0xc0d06592	-6.5123987
1	0x4187cfde	16.976498
2	0xc098a450	-4.7700577

rotation f4 [3, 3]
0	0x3f7e90fe	0.9943999
1	0x3cf5cf80	0.03000617
2	0x3dcf87da	0.101333335
3	0xbc846360	-0.016160667
4	0x3f7da157	0.9907431
5	0xbe0a04e8	-0.13478434
6	0xbdd5e474	-0.104439646
7	0x3e0791bc	0.13239187
8	0x3f7c5584	0.98567986

beta f4 [3]
0	0xc0c4ff76	-6.156184
1	0x4186b0e8	16.83638
2	0xc095cec8	-4.681492

rotation f4 [3, 3]
0	0x3f7e8d6a	0.9943453
1	0x3ccd37e0	0.025051057
2	0x3dd357d0	0.10319483
3	0xbc304770	-0.0107592195
4	0x3f7d9425	0.99054176
5	0xbe0c1258	-0.13678873
6	0xbdd85c9c	-0.10564539
7	0x3e0a248c	0.13490504
8	0x3f7c36c0	0.9852104

beta f4 [3]
0	0xc0c08762	-6.016526
1	0x41871ef8	16.890121
2	0xc098971c	-4.768446

rotation f4 [3, 3]
0	0x3f7e9558	0.9944663
1	0x3c96dba0	0.018415272
2	0x3dd3d1de	0.10342763
3	0xbb7716c0	-0.003770277
4	0x3f7d79a6	0.99013746
5	0xbe0f67e0	-0.14004469
6	0xbdd70348	-0.10498673
7	0x3e0e366e	0.13887951
8	0x3f7c1726	0.9847282

beta f4 [3]
0	0xc0bc44f0	-5.883415
1	0x4187b3f4	16.962868
2	0xc09be91c	-4.8722057

rotation f4 [3, 3]
0	0x3f7ea745	0.99473983
1	0x3c13ac60	0.009013265
2	0x3dd0f98c	0.10203847
3	0x3bbb9140	0.0057241023
4	0x3f7d5b4e	0.98967445
5	0xbe12a884	-0.14322096
6	0xbdd175d0	-0.10227549
7	0x3e127c30	0.14305186
8	0x3f7c02bd	0.9844168

beta f4 [3]
0	0xc0b753f6	-5.728999
1	0x4188b49a	17.088184
2	0xc09e5bd4	-4.9487095

rotation f4 [3, 3]
0	0x3f7eb850	0.9949999
1	0x3a27d800	0.0006402731
2	0x3dcc8a8e	0.09987365
3	0x3c633c60	0.013869375
4	0x3f7d49a8	0.98940516
5	0xbe13fc64	-0.14451748
6	0xbdca903e	-0.09890793
7	0x3e14aa10	0.14517999
8	0x3f7c04da	0.984449

beta f4 [3]
0	0xc0b2bf5c	-5.5858593
1	0x4189a513	17.205603
2	0xc09e3a18	-4.9445915

rotation f4 [3, 3]
0	0x3f7ec819	0.99524075
1	0xbbc05780	-0.005869806
2	0x3dc734cc	0.09726867
3	0x3ca493a8	0.02008994
4	0x3f7d35a4	0.98909974
5	0xbe155e94	-0.1458686
6	0xbdc34820	-0.09535241
7	0x3e16a8dc	0.14712852
8	0x3f7c08e0	0.9845104

beta f4 [3]
0	0xc0af6536	-5.481105
1	0x418a43ac	17.283043
2	0xc09da5b0	-4.9264755

rotation f4 [3, 3]
0	0x3f7ecfe1	0.9953595
1	0xbc4c52c0	-0.012470901
2	0x3dc367ba	0.09541269
3	0x3cd9a0d0	0.02656594
4	0x3f7d179b	0.98864144
5	0xbe17795e	-0.14792392
6	0xbdbd6852	-0.09248413
7	0x3e195de4	0.14977223
8	0x3f7c00ac	0.98438525

beta f4 [3]
0	0xc0abaed0	-5.3650894
1	0x418aca50	17.348785
2	0xc09e55e0	-4.947983

rotation f4 [3, 3]
0	0x3f7ed389	0.9954153
1	0xbc949e80	-0.018141985
2	0x3dc05168	0.09390527
3	0x3d03a480	0.0321393
4	0x3f7cfa74	0.9881966
5	0xbe195e60	-0.14977407
6	0xbdb87be0	-0.09008002
7	0x3e1bc170	0.1521051
8	0x3f7bf7d2	0.9842502

beta f4 [3]
0	0xc0a18220	-5.0471344
1	0x4188f8c0	17.12146
2	0xc0960c04	-4.6889668

rotation f4 [3, 3]
0	0x3f7ed964	0.9955046
1	0xbcb27f90	-0.021789342
2	0x3dbcc384	0.09216979
3	0x3d11cb90	0.035594523
4	0x3f7ce780	0.9879074
5	0xbe1a8674	-0.15090352
6	0xbdb3bf38	-0.087767065
7	0x3e1d309a	0.15350571
8	0x3f7bf74a	0.9842421

beta f4 [3]
0	0xc07fdf68	-3.9980106
1	0x417d79de	15.842253
2	0xc05606b8	-3.34416

rotation f4 [3, 3]
0	0x3f7eea59	0.99576336
1	0xbcbc3070	-0.022972316
2	0x3db657fe	0.08903502
3	0x3d145590	0.03621441
4	0x3f7cedfc	0.98800635
5	0xbe19b4a4	-0.15010315
6	0xbdad184e	-0.084519014
7	0x3e1c5b28	0.15269148
8	0x3f7c1238	0.984653

beta f4 [3]
0	0xc0662d84	-3.596528
1	0x417690e8	15.4103775
2	0xc02f35b0	-2.7376518

rotation f4 [3, 3]
0	0x3f7eedfe	0.995819
1	0xbc907e80	-0.017638445
2	0x3db79018	0.089630306
3	0x3cfe4bf0	0.03104207
4	0x3f7cf64a	0.9881331
5	0xbe1a0a78	-0.15043056
6	0xbdaff35c	-0.08591339
7	0x3e1c3efa	0.15258399
8	0x3f7c0b6a	0.98454916

beta f4 [3]
0	0xc04b4598	-3.1761227
1	0x416c5c25	14.772496
2	0xc0089628	-2.1341648

rotation f4 [3, 3]
0	0x3f7ef29c	0.9958894
1	0xbc3b5540	-0.011433899
2	0x3db8064e	0.089855775
3	0x3ccbb430	0.024866194
4	0x3f7d07c6	0.98839986
5	0xbe196be8	-0.14982569
6	0xbdb26194	-0.08710018
7	0x3e1b1436	0.15144429
8	0x3f7c101a	0.9846207

beta f4 [3]
0	0xc03beb74	-2.936246
1	0x4165cdc6	14.362738
2	0xbfdc78c0	-1.722435

rotation f4 [3, 3]
0	0x3f7efc1b	0.9960343
1	0xbbd7ecc0	-0.006589502
2	0x3db5b70e	0.088728055
3	0x3ca23378	0.019799933
4	0x3f7d190a	0.9886633
5	0xbe1869de	-0.14884135
6	0xbdb1a566	-0.086741254
7	0x3e199bc8	0.15000832
8	0x3f7c209b	0.9848725

beta f4 [3]
0	0xc037f998	-2.874609
1	0x416325e0	14.196747
2	0xbfc065f0	-1.5031109

rotation f4 [3, 3]
0	0x3f7f0054	0.99609876
1	0xbb3c8600	-0.0028766394
2	0x3db4a310	0.08820164
3	0x3c836e50	0.016043812
4	0x3f7d1c7e	0.988716
5	0xbe18843e	-0.14894196
6	0xbdb1b8a2	-0.08677794
7	0x3e195edc	0.14977592
8	0x3f7c22b5	0.9849046

beta f4 [3]
0	0xc03394c8	-2.805956
1	0x4160c074	14.046986
2	0xbfacb180	-1.3491669

rotation f4 [3, 3]
0	0x3f7f0212	0.99612534
1	0x3a995800	0.00116992
2	0x3db41802	0.087936416
3	0x3c45c0c0	0.012069881
4	0x3f7d16e2	0.9886304
5	0xbe1979e8	-0.1498791
6	0xbdb267ca	-0.087112024
7	0x3e19f7e0	0.15035963
8	0x3f7c1aea	0.9847857

beta f4 [3]
0	0xc02e3cc0	-2.722458
1	0x415d736a	13.840677
2	0xbf971af0	-1.1805096

rotation f4 [3, 3]
0	0x3f7f053c	0.9961736
1	0x3b9c3400	0.004766941
2	0x3db2b78e	0.087264165
3	0x3c0a7b50	0.008452252
4	0x3f7d1336	0.9885744
5	0xbe1a1afc	-0.15049356
6	0xbdb22502	-0.08698465
7	0x3e1a4554	0.15065509
8	0x3f7c18b3	0.9847519

beta f4 [3]
0	0xc0324f70	-2.7860985
1	0x415d5344	13.8328285
2	0xbf98d580	-1.1940155

rotation f4 [3, 3]
0	0x3f7f0bdb	0.99627465
1	0x3bc95280	0.006143868
2	0x3db02a4e	0.08601819
3	0x3be18880	0.006882727
4	0x3f7d15ac	0.98861194
5	0xbe19eff0	-0.15032935
6	0xbdb00d04	-0.085962325
7	0x3e19f852	0.15036133
8	0x3f7c2189	0.9848867

beta f4 [3]
0	0xc030e930	-2.7642326
1	0x415c5b62	13.77231
2	0xbf8be1b0	-1.0928249

rotation f4 [3, 3]
0	0x3f7f081c	0.9962175
1	0x3bfb0140	0.007660061
2	0x3db144f0	0.08655727
3	0x3bafc780	0.0053643584
4	0x3f7d2111	0.9887858
5	0xbe18d356	-0.14924368
6	0xbdb19f76	-0.08672993
7	0x3e18b912	0.14914349
8	0x3f7c2945	0.9850047

beta f4 [3]
0	0xc01bcea0	-2.4344864
1	0x4155e1fc	13.367672
2	0xbf227760	-0.634634

rotation f4 [3, 3]
0	0x3f7f0990	0.99623966
1	0x3c4135c0	0.0117926
2	0x3dafc8f0	0.08583248
3	0x3a92fd80	0.0011214465
4	0x3f7d259e	0.98885524
5	0xbe1872c8	-0.14887536
6	0xbdb16bf4	-0.086631685
7	0x3e17f942	0.14841178
8	0x3f7c3112	0.98512375

beta f4 [3]
0	0xc01ad698	-2.4193478
1	0x41538010	13.218765
2	0xbeeab500	-0.45841217

rotation f4 [3, 3]
0	0x3f7f0df4	0.99630666
1	0x3c79aa20	0.015238315
2	0x3dad1172	0.08450593
3	0xbb20d800	-0.0024542809
4	0x3f7d20a0	0.98877907
5	0xbe18f33e	-0.1493654
6	0xbdafc988	-0.08583361
7	0x3e182c50	0.14860654
8	0x3f7c33bd	0.98516446

beta f4 [3]
0	0xc0269178	-2.6026287
1	0x4154fb16	13.3113
2	0xbf0a7fc0	-0.5410118

rotation f4 [3, 3]
0	0x3f7f14b9	0.99640995
1	0x3c93da40	0.018048406
2	0x3da967c8	0.08271748
3	0xbbb6e260	-0.005581185
4	0x3f7d2800	0.9888916
5	0xbe181a26	-0.14853725
6	0xbdad0386	-0.08447938
7	0x3e171552	0.14754227
8	0x3f7c45e6	0.98544157

beta f4 [3]
0	0xc02ae5c0	-2.6702728
1	0x41545e02	13.272951
2	0xbee38800	-0.44439697

rotation f4 [3, 3]
0	0x3f7f1679	0.99643666
1	0x3ca20600	0.019778252
2	0x3da7ea2e	0.08198963
3	0xbbf37ba0	-0.0074305087
4	0x3f7d29f4	0.9889214
5	0xbe17cf56	-0.14825186
6	0xbdac0f74	-0.08401385
7	0x3e16a526	0.14711437
8	0x3f7c4cac	0.9855449

beta f4 [3]
0	0xc02d4e88	-2.7079182
1	0x4153f7c2	13.247988
2	0xbec5c280	-0.38624954

rotation f4 [3, 3]
0	0x3f7f1439	0.9964023
1	0x3ca82610	0.020525962
2	0x3da86442	0.08222248
3	0xbc05ff50	-0.008178547
4	0x3f7d2e33	0.9889862
5	0xbe1753c0	-0.14778042
6	0xbdacbfe4	-0.08435038
7	0x3e161806	0.14657602
8	0x3f7c500a	0.9855963

beta f4 [3]
0	0xc02d9760	-2.7123642
1	0x4153d650	13.239822
2	0xbeb06680	-0.344532

rotation f4 [3, 3]
0	0x3f7f1060	0.9963436
1	0x3cac6490	0.021044046
2	0x3da994c2	0.082803264
3	0xbc0cc320	-0.008591443
4	0x3f7d2c34	0.98895574
5	0xbe1782c2	-0.14795974
6	0xbdae15d8	-0.0850026
7	0x3e163a72	0.14670733
8	0x3f7c4b18	0.98552084

beta f4 [3]
0	0xc02d71a0	-2.7100601
1	0x4153a762	13.228365
2	0xbea71ac0	-0.32637596

rotation f4 [3, 3]
0	0x3f7f0e61	0.99631315
1	0x3cad9060	0.021187007
2	0x3daa4290	0.08313477
3	0xbc0df6e0	-0.008664817
4	0x3f7d2a06	0.9889225
5	0xbe17bd54	-0.14818317
6	0xbdaecda8	-0.085353196
7	0x3e16714a	0.14691654
8	0x3f7c4714	0.98545957

beta f4 [3]
0	0xc02d2524	-2.705392
1	0x41539658	13.224205
2	0xbe9e28c0	-0.30890465

rotation f4 [3, 3]
0	0x3f7f0ebe	0.9963187
1	0x3cb03400	0.02150917
2	0x3da9f2ba	0.082982495
3	0xbc13a120	-0.009010583
4	0x3f7d2a2e	0.98892486
5	0xbe17b2e6	-0.14814338
6	0xbdae9784	-0.08524993
7	0x3e166002	0.14685062
8	0x3f7c484e	0.9854783

beta f4 [3]
0	0xc02dce28	-2.7157078
1	0x41538b19	13.221459
2	0xbe921780	-0.28533554

rotation f4 [3, 3]
0	0x3f7f0c16	0.99627817
1	0x3cb19960	0.02167958
2	0x3daadb74	0.083426386
3	0xbc15bca0	-0.00913921
4	0x3f7d2cea	0.9889666
5	0xbe1767be	-0.14785668
6	0xbdaf8972	-0.085711375
7	0x3e160f9c	0.14654392
8	0x3f7c48aa	0.98548377

beta f4 [3]
0	0xc02d7148	-2.7100391
1	0x41539036	13.222708
2	0xbe870b40	-0.2637577

rotation f4 [3, 3]
0	0x3f7f08f1	0.9962302
1	0x3cb43b90	0.022001058
2	0x3dabdb24	0.08391407
3	0xbc197c40	-0.009368002
4	0x3f7d2ab0	0.9889326
5	0xbe179f3e	-0.1480684
6	0xbdb0a03a	-0.08624311
7	0x3e163ece	0.14672396
8	0x3f7c43de	0.9854106

beta f4 [3]
0	0xc02d4244	-2.7071695
1	0x41537ad0	13.2174835
2	0xbe82a780	-0.25518417

rotation f4 [3, 3]
0	0x3f7f0501	0.9961701
1	0x3cb7cfc0	0.02243793
2	0x3dad12f6	0.08450882
3	0xbc1ebe10	-0.009688869
4	0x3f7d27b5	0.98888713
5	0xbe17e99e	-0.14835212
6	0xbdb1f7ce	-0.08689843
7	0x3e167dee	0.14696476
8	0x3f7c3dbe	0.9853171

beta f4 [3]
0	0xc0449318	-3.071478
1	0x415a709e	13.652494
2	0xbf359d20	-0.7094288

rotation f4 [3, 3]
0	0x3f7efa4a	0.9960066
1	0x3cb6a960	0.022297561
2	0x3db10da4	0.0864518
3	0xbc1ae060	-0.009452909
4	0x3f7d3c8f	0.9892053
5	0xbe15bd48	-0.14622986
6	0xbdb5d1e4	-0.08877924
7	0x3e144df2	0.14482859
8	0x3f7c477d	0.9854658

beta f4 [3]
0	0xc042cb58	-3.043661
1	0x415aed4e	13.682936
2	0xbf319660	-0.6937008

rotation f4 [3, 3]
0	0x3f7ef10e	0.9958657
1	0x3cb98690	0.022647172
2	0x3db429a8	0.08797008
3	0xbc1f49f0	-0.009722218
4	0x3f7d4b86	0.98943365
5	0xbe142228	-0.14466155
6	0xbdb8f7ee	-0.09031664
7	0x3e12a520	0.14320803
8	0x3f7c4ddc	0.98556304

beta f4 [3]
0	0xc041f518	-3.0305843
1	0x415b2ef2	13.698961
2	0xbf2f9fc0	-0.68603134

rotation f4 [3, 3]
0	0x3f7eebd7	0.99578613
1	0x3cb6ca60	0.022313297
2	0x3db62c9e	0.08895229
3	0xbc18e330	-0.0093315095
4	0x3f7d5458	0.98956823
5	0xbe1336da	-0.14376393
6	0xbdbad804	-0.09123233
7	0x3e11be76	0.14232811
8	0x3f7c50b0	0.9856062

beta f4 [3]
0	0xc04133b4	-3.0187807
1	0x415b8701	13.72046
2	0xbf301aa0	-0.68790627

rotation f4 [3, 3]
0	0x3f7ee5e0	0.9956951
1	0x3cb2fbe0	0.021848619
2	0x3db87a92	0.090077534
3	0xbc0ecc90	-0.008715764
4	0x3f7d5574	0.98958516
5	0xbe132216	-0.14368472
6	0xbdbcfc96	-0.092278644
7	0x3e11b22c	0.14228123
8	0x3f7c4ac0	0.9855156

beta f4 [3]
0	0xc03fc8e0	-2.9966354
1	0x415bafaa	13.730387
2	0xbf34fe00	-0.70700073

rotation f4 [3, 3]
0	0x3f7ee373	0.9956581
1	0x3cb00100	0.021484852
2	0x3db97d6a	0.09057124
3	0xbc07d9d0	-0.008291677
4	0x3f7d5682	0.98960125
5	0xbe130b38	-0.14359748
6	0xbdbde130	-0.09271467
7	0x3e11a2e0	0.14222288
8	0x3f7c489b	0.9854829

beta f4 [3]
0	0xc03f0894	-2.9848986
1	0x415bd42f	13.739303
2	0xbf370340	-0.71489334

rotation f4 [3, 3]
0	0x3f7ee31c	0.9956529
1	0x3caf8660	0.02142638
2	0x3db9a154	0.09063974
3	0xbc06baa0	-0.008223206
4	0x3f7d5678	0.98960066
5	0xbe130d22	-0.14360479
6	0xbdbe0072	-0.09277429
7	0x3e11a60a	0.14223495
8	0x3f7c481c	0.9854753

beta f4 [3]
0	0xc03f2974	-2.986905
1	0x415be182	13.742556
2	0xbf3802e0	-0.71879387

rotation f4 [3, 3]
0	0x3f7ee310	0.9956522
1	0x3caf2f20	0.021384776
2	0x3db9aeb4	0.09066525
3	0xbc05fe40	-0.008178294
4	0x3f7d5696	0.98960245
5	0xbe130be8	-0.1436001
6	0xbdbe0a5a	-0.09279318
7	0x3e11a5e2	0.14223436
8	0x3f7c4808	0.9854741

beta f4 [3]
0	0xc03f43b4	-2.9885073
1	0x415becea	13.74534
2	0xbf38a440	-0.72125626

rotation f4 [3, 3]
0	0x3f7ee229	0.99563843
1	0x3cac2620	0.021014273
2	0x3dba2a18	0.0909006
3	0xbbfde5e0	-0.0077483505
4	0x3f7d53fc	0.98956275
5	0xbe135964	-0.14389569
6	0xbdbe6a00	-0.09297562
7	0x3e11fc44	0.14256388
8	0x3f7c43c6	0.98540914

beta f4 [3]
0	0xc03ebb24	-2.9801722
1	0x415bfefb	13.749751
2	0xbf3be280	-0.73392487

rotation f4 [3, 3]
0	0x3f7edf1c	0.9955919
1	0x3cac2b90	0.021016866
2	0x3dbb32c6	0.09140544
3	0xbbfacfe0	-0.007654175
4	0x3f7d518a	0.98952544
5	0xbe139d46	-0.14415464
6	0xbdbf712e	-0.09347759
7	0x3e123f2a	0.14281908
8	0x3f7c3e3b	0.98532456

beta f4 [3]
0	0xc03e52e0	-2.9738083
1	0x415bf95a	13.748377
2	0xbf3ef340	-0.7458992

rotation f4 [3, 3]
0	0x3f7ede19	0.99557644
1	0x3caccec0	0.02109468
2	0x3dbb81c2	0.09155609
3	0xbbfc5920	-0.007701054
4	0x3f7d50b5	0.98951274
5	0xbe13b3ea	-0.144241
6	0xbdbfc5ae	-0.09363876
7	0x3e1253de	0.14289805
8	0x3f7c3c79	0.98529774

beta f4 [3]
0	0xc03e5b78	-2.9743328
1	0x415bfae9	13.748757
2	0xbf3f7be0	-0.74798393

rotation f4 [3, 3]
0	0x3f7edd46	0.99556386
1	0x3cad7f80	0.02117896
2	0x3dbbbe92	0.09167208
3	0xbbfe5620	-0.0077617317
4	0x3f7d5005	0.98950225
5	0xbe13c5d2	-0.14430931
6	0xbdc00872	-0.09376611
7	0x3e126382	0.14295772
8	0x3f7c3b1d	0.985277

beta f4 [3]
0	0xc03e8330	-2.976757
1	0x415c0333	13.750781
2	0xbf3f9260	-0.74832726

rotation f4 [3, 3]
0	0x3f7ed89c	0.9954927
1	0x3cac5920	0.021038592
2	0x3dbd6352	0.092474595
3	0xbbf54a60	-0.007485673
4	0x3f7d4e0e	0.98947227
5	0xbe13ff22	-0.14452794
6	0xbdc19f2e	-0.09454189
7	0x3e129ef2	0.14318445
8	0x3f7c3419	0.98516995

beta f4 [3]
0	0xc03d6ca0	-2.959755
1	0x415c049d	13.751126
2	0xbf432ea0	-0.7624302

rotation f4 [3, 3]
0	0x3f7ed742	0.9954721
1	0x3cac8190	0.021057874
2	0x3dbdd6b8	0.0926947
3	0xbbf47d60	-0.007461235
4	0x3f7d4cf8	0.9894557
5	0xbe141e6c	-0.1446473
6	0xbdc21320	-0.09476304
7	0x3e12bd7e	0.14330098
8	0x3f7c31a0	0.9851322

beta f4 [3]
0	0xc03d6010	-2.9589882
1	0x415c0c0c	13.752941
2	0xbf447e40	-0.7675514

rotation f4 [3, 3]
0	0x3f7ed434	0.99542546
1	0x3caa3a20	0.02077967
2	0x3dbefc88	0.0932551
3	0xbbe92c00	-0.007115841
4	0x3f7d4e4e	0.9894761
5	0xbe13fe02	-0.14452365
6	0xbdc32084	-0.09527686
7	0x3e12a2b8	0.14319885
8	0x3f7c2f59	0.98509747

beta f4 [3]
0	0xc03d05e0	-2.9534836
1	0x415c3a50	13.764236
2	0xbf466fe0	-0.7751446

rotation f4 [3, 3]
0	0x3f7ed306	0.99540746
1	0x3ca8dce0	0.020613134
2	0x3dbf72a2	0.09348036
3	0xbbe239c0	-0.006903857
4	0x3f7d4cfe	0.98945606
5	0xbe1423fe	-0.14466855
6	0xbdc38940	-0.09547663
7	0x3e12cc9c	0.14335865
8	0x3f7c2c86	0.9850544

beta f4 [3]
0	0xc03d4f80	-2.9579773
1	0x415c6002	13.773439
2	0xbf487100	-0.78297424

rotation f4 [3, 3]
0	0x3f7ed1ef	0.99539083
1	0x3ca88e60	0.020575702
2	0x3dbfd4da	0.0936677
3	0xbbdf8ba0	-0.0068220645
4	0x3f7d4b3c	0.98942924
5	0xbe14542a	-0.14485231
6	0xbdc3e858	-0.095658004
7	0x3e12fd98	0.14354551
8	0x3f7c2997	0.9850096

beta f4 [3]
0	0xc03d8db8	-2.9617748
1	0x415c74e0	13.778534
2	0xbf4a4ea0	-0.7902622

rotation f4 [3, 3]
0	0x3f7eceef	0.99534506
1	0x3ca2ac60	0.019857585
2	0x3dc123ce	0.09430657
3	0xbbc30560	-0.0059515685
4	0x3f7d456c	0.98934054
5	0xbe14fe4e	-0.14550135
6	0xbdc4ff78	-0.09619039
7	0x3e13b9a0	0.14426279
8	0x3f7c1f57	0.9848532

beta f4 [3]
0	0xc03c6e78	-2.9442425
1	0x415c966b	13.786723
2	0xbf511040	-0.8166542

rotation f4 [3, 3]
0	0x3f7ecd32	0.99531853
1	0x3ca2da60	0.01987952
2	0x3dc1b572	0.09458436
3	0xbbc1e120	-0.0059167296
4	0x3f7d43ca	0.9893156
5	0xbe152a7e	-0.1456699
6	0xbdc591c0	-0.0964694
7	0x3e13e506	0.14442834
8	0x3f7c1bf4	0.98480153

beta f4 [3]
0	0xc03c8014	-2.9453173
1	0x415c9cf0	13.788315
2	0xbf537cc0	-0.8261223

rotation f4 [3, 3]
0	0x3f7eccc5	0.99531204
1	0x3ca31750	0.019908577
2	0x3dc1d4d8	0.09464425
3	0xbbc27cc0	-0.0059352815
4	0x3f7d43a8	0.9893136
5	0xbe152e5c	-0.14568466
6	0xbdc5b328	-0.09653312
7	0x3e13e812	0.14443997
8	0x3f7c1b71	0.9847937

beta f4 [3]
0	0xc03cb800	-2.9487305
1	0x415ca548	13.790352
2	0xbf542020	-0.8286152

rotation f4 [3, 3]
0	0x3f7ecc75	0.99530727
1	0x3ca2da60	0.01987952
2	0x3dc1f132	0.094698325
3	0xbbc130a0	-0.005895689
4	0x3f7d4354	0.9893086
5	0xbe1536ae	-0.1457164
6	0xbdc5cd22	-0.096582666
7	0x3e13f114	0.14447433
8	0x3f7c1ac7	0.9847836

beta f4 [3]
0	0xc03cf88c	-2.95267
1	0x415cb58d	13.794324
2	0xbf54f7e0	-0.8319073

rotation f4 [3, 3]
0	0x3f7ecd04	0.9953158
1	0x3ca190f0	0.019722432
2	0x3dc1d470	0.09464347
3	0xbbbb65a0	-0.0057189018
4	0x3f7d408a	0.98926604
5	0xbe1583b4	-0.14601022
6	0xbdc5a5b0	-0.09650743
7	0x3e14428c	0.1447851
8	0x3f7c1847	0.98474544

beta f4 [3]
0	0xc03d0e64	-2.9540033
1	0x415cb5ee	13.794416
2	0xbf571540	-0.840168

rotation f4 [3, 3]
0	0x3f7ecd10	0.9953165
1	0x3ca11aa0	0.019666016
2	0x3dc1d780	0.094649315
3	0xbbb95100	-0.005655408
4	0x3f7d4004	0.98925805
5	0xbe1593a6	-0.14607105
6	0xbdc5a496	-0.09650533
7	0x3e1453fe	0.14485165
8	0x3f7c17a8	0.98473597

beta f4 [3]
0	0xc03d0c28	-2.953867
1	0x415cb75c	13.794765
2	0xbf57a240	-0.8423195

rotation f4 [3, 3]
0	0x3f7ecd12	0.9953166
1	0x3ca0fb60	0.019651115
2	0x3dc1d8b4	0.09465161
3	0xbbb8c9a0	-0.00563927
4	0x3f7d3ff4	0.9892571
5	0xbe1595fe	-0.14607999
6	0xbdc5a4a8	-0.09650546
7	0x3e1456d8	0.14486253
8	0x3f7c178e	0.9847344

beta f4 [3]
0	0xc03d0c38	-2.9538708
1	0x415cb7e8	13.794899
2	0xbf57bca0	-0.84272194

rotation f4 [3, 3]
0	0x3f7ecd08	0.995316
1	0x3ca0f620	0.019648612
2	0x3dc1db0a	0.094656065
3	0xbbb8b1e0	-0.0056364387
4	0x3f7d3fec	0.9892566
5	0xbe15961e	-0.14608046
6	0xbdc5a6c6	-0.0965095
7	0x3e1456f2	0.14486292
8	0x3f7c1784	0.9847338

beta f4 [3]
0	0xc03d0c6c	-2.9538832
1	0x415cb820	13.794952
2	0xbf57bf00	-0.8427582

rotation f4 [3, 3]
0	0x3f7ecd06	0.9953159
1	0x3ca0f6a0	0.01964885
2	0x3dc1dd6a	0.094660595
3	0xbbb8ac40	-0.005635768
4	0x3f7d3ffa	0.98925745
5	0xbe1595c6	-0.14607915
6	0xbdc5a90e	-0.09651385
7	0x3e1456a8	0.14486182
8	0x3f7c1784	0.9847338

beta f4 [3]
0	0xc03d0e84	-2.954011
1	0x415cb87f	13.795043
2	0xbf57bfa0	-0.8427677

rotation f4 [3, 3]
0	0x3f7ecd01	0.9953156
1	0x3ca0f9a0	0.01965028
2	0x3dc1dcb6	0.094659254
3	0xbbb8bfe0	-0.0056381077
4	0x3f7d3ff2	0.989257
5	0xbe159526	-0.14607677
6	0xbdc5a87a	-0.09651275
7	0x3e1455dc	0.14485878
8	0x3f7c1789	0.9847341

beta f4 [3]
0	0xc03d1034	-2.954114
1	0x415cb868	13.795021
2	0xbf57b840	-0.8426552

rotation f4 [3, 3]
0	0x3f7ecd0b	0.9953162
1	0x3ca100c0	0.019653678
2	0x3dc1db6e	0.09465681
3	0xbbb8e200	-0.0056421757
4	0x3f7d4001	0.9892579
5	0xbe15943a	-0.14607325
6	0xbdc5a782	-0.0965109
7	0x3e1454e6	0.14485511
8	0x3f7c1797	0.98473495

beta f4 [3]
0	0xc03d12fc	-2.9542837
1	0x415cb85d	13.795011
2	0xbf57af00	-0.84251404

rotation f4 [3, 3]
0	0x3f7ecd0b	0.9953162
1	0x3ca100c0	0.019653678
2	0x3dc1db6e	0.09465681
3	0xbbb8e200	-0.0056421757
4	0x3f7d4001	0.9892579
5	0xbe15943a	-0.14607325
6	0xbdc5a782	-0.0965109
7	0x3e1454e6	0.14485511
8	0x3f7c1797	0.98473495

beta f4 [3]
0	0xc03d12fc	-2.9542837
1	0x415cb85d	13.795011
2	0xbf57af00	-0.84251404

rotation f4 [3, 3]
0	0x3f7ecd0b	0.9953162
1	0x3ca100c0	0.019653678
2	0x3dc1db6e	0.09465681
3	0xbbb8e200	-0.0056421757
4	0x3f7d4001	0.9892579
5	0xbe15943a	-0.14607325
6	0xbdc5a782	-0.0965109
7	0x3e1454e6	0.14485511
8	0x3f7c1797	0.98473495

beta f4 [3]
0	0xc03d12fc	-2.9542837
1	0x415cb85d	13.795011
2	0xbf57af00	-0.84251404

rotation f4 [3, 3]
0	0x3f7ecd0b	0.9953162
1	0x3ca100c0	0.019653678
2	0x3dc1db6e	0.09465681
3	0xbbb8e200	-0.0056421757
4	0x3f7d4001	0.9892579
5	0xbe15943a	-0.14607325
6	0xbdc5a782	-0.0965109
7	0x3e1454e6	0.14485511
8	0x3f7c1797	0.98473495

beta f4 [3]
0	0xc03d12fc	-2.9542837
1	0x415cb85d	13.795011
2	0xbf57af00	-0.84251404

rotation f4 [3, 3]
0	0x3f7ecd0b	0.9953162
1	0x3ca100c0	0.019653678
2	0x3dc1db6e	0.09465681
3	0xbbb8e200	-0.0056421757
4	0x3f7d4001	0.9892579
5	0xbe15943a	-0.14607325
6	0xbdc5a782	-0.0965109
7	0x3e1454e6	0.14485511
8	0x3f7c1797	0.98473495

beta f4 [3]
0	0xc03d12fc	-2.9542837
1	0x415cb85d	13.795011
2	0xbf57af00	-0.84251404

rotation f4 [3, 3]
0	0x3f7ecd0b	0.9953162
1	0x3ca100c0	0.019653678
2	0x3dc1db6e	0.09465681
3	0xbbb8e200	-0.0056421757
4	0x3f7d4001	0.9892579
5	0xbe15943a	-0.14607325
6	0xbdc5a782	-0.0965109
7	0x3e1454e6	0.14485511
8	0x3f7c1797	0.98473495

beta f4 [3]
0	0xc03d12fc	-2.9542837
1	0x415cb85d	13.795011
2	0xbf57af00	-0.84251404

rotation f4 [3, 3]
0	0x3f7ecd0b	0.9953162
1	0x3ca100c0	0.019653678
2	0x3dc1db6e	0.09465681
3	0xbbb8e200	-0.0056421757
4	0x3f7d4001	0.9892579
5	0xbe15943a	-0.14607325
6	0xbdc5a782	-0.0965109
7	0x3e1454e6	0.14485511
8	0x3f7c1797	0.98473495

beta f4 [3]
0	0xc03d12fc	-2.9542837
1	0x415cb85d	13.795011
2	0xbf57af00	-0.84251404

rotation f4 [3, 3]
0	0x3f7ecd0b	0.9953162
1	0x3ca100c0	0.019653678
2	0x3dc1db6e	0.09465681
3	0xbbb8e200	-0.0056421757
4	0x3f7d4001	0.9892579
5	0xbe15943a	-0.14607325
6	0xbdc5a782	-0.0965109
7	0x3e1454e6	0.14485511
8	0x3f7c1797	0.98473495

beta f4 [3]
0	0xc03d12fc	-2.9542837
1	0x415cb85d	13.795011
2	0xbf57af00	-0.84251404

rotation f4 [3, 3]
0	0x3f7ecd0b	0.9953162
1	0x3ca100c0	0.019653678
2	0x3dc1db6e	0.09465681
3	0xbbb8e200	-0.0056421757
4	0x3f7d4001	0.9892579
5	0xbe15943a	-0.14607325
6	0xbdc5a782	-0.0965109
7	0x3e1454e6	0.14485511
8	0x3f7c1797	0.98473495

beta f4 [3]
0	0xc03d12fc	-2.9542837
1	0x415cb85d	13.795011
2	0xbf57af00	-0.84251404

rotation f4 [3, 3]
0	0x3f7ecd0b	0.9953162
1	0x3ca100c0	0.019653678
2	0x3dc1db6e	0.09465681
3	0xbbb8e200	-0.0056421757
4	0x3f7d4001	0.9892579
5	0xbe15943a	-0.14607325
6	0xbdc5a782	-0.0965109
7	0x3e1454e6	0.14485511
8	0x3f7c1797	0.98473495

beta f4 [3]
0	0xc03d12fc	-2.9542837
1	0x415cb85d	13.795011
2	0xbf57af00	-0.84251404

rotation f4 [3, 3]
0	0x3f7ecd0b	0.9953162
1	0x3ca100c0	0.019653678
2	0x3dc1db6e	0.09465681
3	0xbbb8e200	-0.0056421757
4	0x3f7d4001	0.9892579
5	0xbe15943a	-0.14607325
6	0xbdc5a782	-0.0965109
7	0x3e1454e6	0.14485511
8	0x3f7c1797	0.98473495

beta f4 [3]
0	0xc03d12fc	-2.9542837
1	0x415cb85d	13.795011
2	0xbf57af00	-0.84251404

rotation f4 [3, 3]
0	0x3f7ecd0b	0.9953162
1	0x3ca100c0	0.019653678
2	0x3dc1db6e	0.09465681
3	0xbbb8e200	-0.0056421757
4	0x3f7d4001	0.9892579
5	0xbe15943a	-0.14607325
6	0xbdc5a782	-0.0965109
7	0x3e1454e6	0.14485511
8	0x3f7c1797	0.98473495

beta f4 [3]
0	0xc03d12fc	-2.9542837
1	0x415cb85d	13.795011
2	0xbf57af00	-0.84251404

rotation f4 [3, 3]
0	0x3f7ecd0b	0.9953162
1	0x3ca100c0	0.019653678
2	0x3dc1db6e	0.09465681
3	0xbbb8e200	-0.0056421757
4	0x3f7d4001	0.9892579
5	0xbe15943a	-0.14607325
6	0xbdc5a782	-0.0965109
7	0x3e1454e6	0.14485511
8	0x3f7c1797	0.98473495

beta f4 [3]
0	0xc03d12fc	-2.9542837
1	0x415cb85d	13.795011
2	0xbf57af00	-0.84251404

rotation f4 [3, 3]
0	0x3f7ecd0b	0.9953162
1	0x3ca100c0	0.019653678
2	0x3dc1db6e	0.09465681
3	0xbbb8e200	-0.0056421757
4	0x3f7d4001	0.9892579
5	0xbe15943a	-0.14607325
6	0xbdc5a782	-0.0965109
7	0x3e1454e6	0.14485511
8	0x3f7c1797	0.98473495

beta f4 [3]
0	0xc03d12fc	-2.9542837
1	0x415cb85d	13.795011
2	0xbf57af00	-0.84251404

rotation f4 [3, 3]
0	0x3f7ecd0b	0.9953162
1	0x3ca100c0	0.019653678
2	0x3dc1db6e	0.09465681
3	0xbbb8e200	-0.0056421757
4	0x3f7d4001	0.9892579
5	0xbe15943a	-0.14607325
6	0xbdc5a782	-0.0965109
7	0x3e1454e6	0.14485511
8	0x3f7c1797	0.98473495

beta f4 [3]
0	0xc03d12fc	-2.9542837
1	0x415cb85d	13.795011
2	0xbf57af00	-0.84251404

rotation f4 [3, 3]
0	0x3f7ecd0b	0.9953162
1	0x3ca100c0	0.019653678
2	0x3dc1db6e	0.09465681
3	0xbbb8e200	-0.0056421757
4	0x3f7d4001	0.9892579
5	0xbe15943a	-0.14607325
6	0xbdc5a782	-0.0965109
7	0x3e1454e6	0.14485511
8	0x3f7c1797	0.98473495

beta f4 [3]
0	0xc03d12fc	-2.9542837
1	0x415cb85d	13.795011
2	0xbf57af00	-0.84251404

rotation f4 [3, 3]
0	0x3f7ecd0b	0.9953162
1	0x3ca100c0	0.019653678
2	0x3dc1db6e	0.09465681
3	0xbbb8e200	-0.0056421757
4	0x3f7d4001	0.9892579
5	0xbe15943a	-0.14607325
6	0xbdc5a782	-0.0965109
7	0x3e1454e6	0.14485511
8	0x3f7c1797	0.98473495

beta f4 [3]
0	0xc03d12fc	-2.9542837
1	0x415cb85d	13.795011
2	0xbf57af00	-0.84251404

rotation f4 [3, 3]
0	0x3f7ecd0b	0.9953162
1	0x3ca100c0	0.019653678
2	0x3dc1db6e	0.09465681
3	0xbbb8e200	-0.0056421757
4	0x3f7d4001	0.9892579
5	0xbe15943a	-0.14607325
6	0xbdc5a782	-0.0965109
7	0x3e1454e6	0.14485511
8	0x3f7c1797	0.98473495

beta f4 [3]
0	0xc03d12fc	-2.9542837
1	0x415cb85d	13.795011
2	0xbf57af00	-0.84251404

rotation f4 [3, 3]
0	0x3f7ecd0b	0.9953162
1	0x3ca100c0	0.019653678
2	0x3dc1db6e	0.09465681
3	0xbbb8e200	-0.0056421757
4	0x3f7d4001	0.9892579
5	0xbe15943a	-0.14607325
6	0xbdc5a782	-0.0965109
7	0x3e1454e6	0.14485511
8	0x3f7c1797	0.98473495

beta f4 [3]
0	0xc03d12fc	-2.9542837
1	0x415cb85d	13.795011
2	0xbf57af00	-0.84251404

rotation f4 [3, 3]
0	0x3f7ecd0b	0.9953162
1	0x3ca100c0	0.019653678
2	0x3dc1db6e	0.09465681
3	0xbbb8e200	-0.0056421757
4	0x3f7d4001	0.9892579
5	0xbe15943a	-0.14607325
6	0xbdc5a782	-0.0965109
7	0x3e1454e6	0.14485511
8	0x3f7c1797	0.98473495

beta f4 [3]
0	0xc03d12fc	-2.9542837
1	0x415cb85d	13.795011
2	0xbf57af00	-0.84251404

rotation f4 [3, 3]
0	0x3f7ecd0b	0.9953162
1	0x3ca100c0	0.019653678
2	0x3dc1db6e	0.09465681
3	0xbbb8e200	-0.0056421757
4	0x3f7d4001	0.9892579
5	0xbe15943a	-0.14607325
6	0xbdc5a782	-0.0965109
7	0x3e1454e6	0.14485511
8	0x3f7c1797	0.98473495

beta f4 [3]
0	0xc03d12fc	-2.9542837
1	0x415cb85d	13.795011
2	0xbf57af00	-0.84251404

rotation f4 [3, 3]
0	0x3f7ecd0b	0.9953162
1	0x3ca100c0	0.019653678
2	0x3dc1db6e	0.09465681
3	0xbbb8e200	-0.0056421757
4	0x3f7d4001	0.9892579
5	0xbe15943a	-0.14607325
6	0xbdc5a782	-0.0965109
7	0x3e1454e6	0.14485511
8	0x3f7c1797	0.98473495

beta f4 [3]
0	0xc03d12fc	-2.9542837
1	0x415cb85d	13.795011
2	0xbf57af00	-0.84251404

rotation f4 [3, 3]
0	0x3f7ecd0b	0.9953162
1	0x3ca100c0	0.019653678
2	0x3dc1db6e	0.09465681
3	0xbbb8e200	-0.0056421757
4	0x3f7d4001	0.9892579
5	0xbe15943a	-0.14607325
6	0xbdc5a782	-0.0965109
7	0x3e1454e6	0.14485511
8	0x3f7c1797	0.98473495

beta f4 [3]
0	0xc03d12fc	-2.9542837
1	0x415cb85d	13.795011
2	0xbf57af00	-0.84251404

rotation f4 [3, 3]
0	0x3f7ecd0b	0.9953162
1	0x3ca100c0	0.019653678
2	0x3dc1db6e	0.09465681
3	0xbbb8e200	-0.0056421757
4	0x3f7d4001	0.9892579
5	0xbe15943a	-0.14607325
6	0xbdc5a782	-0.0965109
7	0x3e1454e6	0.14485511
8	0x3f7c1797	0.98473495

beta f4 [3]
0	0xc03d12fc	-2.9542837
1	0x415cb85d	13.795011
2	0xbf57af00	-0.84251404

rotation f4 [3, 3]
0	0x3f7ecd0b	0.9953162
1	0x3ca100c0	0.019653678
2	0x3dc1db6e	0.09465681
3	0xbbb8e200	-0.0056421757
4	0x3f7d4001	0.9892579
5	0xbe15943a	-0.14607325
6	0xbdc5a782	-0.0965109
7	0x3e1454e6	0.14485511
8	0x3f7c1797	0.98473495

beta f4 [3]
0	0xc03d12fc	-2.9542837
1	0x415cb85d	13.795011
2	0xbf57af00	-0.84251404

rotation f4 [3, 3]
0	0x3f7ecd0b	0.9953162
1	0x3ca100c0	0.019653678
2	0x3dc1db6e	0.09465681
3	0xbbb8e200	-0.0056421757
4	0x3f7d4001	0.9892579
5	0xbe15943a	-0.14607325
6	0xbdc5a782	-0.0965109
7	0x3e1454e6	0.14485511
8	0x3f7c1797	0.98473495

beta f4 [3]
0	0xc03d12fc	-2.9542837
1	0x415cb85d	13.795011
2	0xbf57af00	-0.84251404

rotation f4 [3, 3]
0	0x3f7ecd0b	0.9953162
1	0x3ca100c0	0.019653678
2	0x3dc1db6e	0.09465681
3	0xbbb8e200	-0.0056421757
4	0x3f7d4001	0.9892579
5	0xbe15943a	-0.14607325
6	0xbdc5a782	-0.0965109
7	0x3e1454e6	0.14485511
8	0x3f7c1797	0.98473495

beta f4 [3]
0	0xc03d12fc	-2.9542837
1	0x415cb85d	13.795011
2	0xbf57af00	-0.84251404

rotation f4 [3, 3]
0	0x3f7ecd0b	0.9953162
1	0x3ca100c0	0.019653678
2	0x3dc1db6e	0.09465681
3	0xbbb8e200	-0.0056421757
4	0x3f7d4001	0.9892579
5	0xbe15943a	-0.14607325
6	0xbdc5a782	-0.0965109
7	0x3e1454e6	0.14485511
8	0x3f7c1797	0.98473495

beta f4 [3]
0	0xc03d12fc	-2.9542837
1	0x415cb85d	13.795011
2	0xbf57af00	-0.84251404

rotation f4 [3, 3]
0	0x3f7ecd0b	0.9953162
1	0x3ca100c0	0.019653678
2	0x3dc1db6e	0.09465681
3	0xbbb8e200	-0.0056421757
4	0x3f7d4001	0.9892579
5	0xbe15943a	-0.14607325
6	0xbdc5a782	-0.0965109
7	0x3e1454e6	0.14485511
8	0x3f7c1797	0.98473495

beta f4 [3]
0	0xc03d12fc	-2.9542837
1	0x415cb85d	13.795011
2	0xbf57af00	-0.84251404

rotation f4 [3, 3]
0	0x3f7ecd0b	0.9953162
1	0x3ca100c0	0.019653678
2	0x3dc1db6e	0.09465681
3	0xbbb8e200	-0.0056421757
4	0x3f7d4001	0.9892579
5	0xbe15943a	-0.14607325
6	0xbdc5a782	-0.0965109
7	0x3e1454e6	0.14485511
8	0x3f7c1797	0.98473495

beta f4 [3]
0	0xc03d12fc	-2.9542837
1	0x415cb85d	13.795011
2	0xbf57af00	-0.84251404

rotation f4 [3, 3]
0	0x3f7ecd0b	0.9953162
1	0x3ca100c0	0.019653678
2	0x3dc1db6e	0.09465681
3	0xbbb8e200	-0.0056421757
4	0x3f7d4001	0.9892579
5	0xbe15943a	-0.14607325
6	0xbdc5a782	-0.0965109
7	0x3e1454e6	0.14485511
8	0x3f7c1797	0.98473495

beta f4 [3]
0	0xc03d12fc	-2.9542837
1	0x415cb85d	13.795011
2	0xbf57af00	-0.84251404

rotation f4 [3, 3]
0	0x3f7ecd0b	0.9953162
1	0x3ca100c0	0.019653678
2	0x3dc1db6e	0.09465681
3	0xbbb8e200	-0.0056421757
4	0x3f7d4001	0.9892579
5	0xbe15943a	-0.14607325
6	0xbdc5a782	-0.0965109
7	0x3e1454e6	0.14485511
8	0x3f7c1797	0.98473495

beta f4 [3]
0	0xc03d12fc	-2.9542837
1	0x415cb85d	13.795011
2	0xbf57af00	-0.84251404

rotation f4 [3, 3]
0	0x3f7ecd0b	0.9953162
1	0x3ca100c0	0.019653678
2	0x3dc1db6e	0.09465681
3	0xbbb8e200	-0.0056421757
4	0x3f7d4001	0.9892579
5	0xbe15943a	-0.14607325
6	0xbdc5a782	-0.0965109
7	0x3e1454e6	0.14485511
8	0x3f7c1797	0.98473495

beta f4 [3]
0	0xc03d12fc	-2.9542837
1	0x415cb85d	13.795011
2	0xbf57af00	-0.84251404

rotation f4 [3, 3]
0	0x3f7ecd0b	0.9953162
1	0x3ca100c0	0.019653678
2	0x3dc1db6e	0.09465681
3	0xbbb8e200	-0.0056421757
4	0x3f7d4001	0.9892579
5	0xbe15943a	-0.14607325
6	0xbdc5a782	-0.0965109
7	0x3e1454e6	0.14485511
8	0x3f7c1797	0.98473495

beta f4 [3]
0	0xc03d12fc	-2.9542837
1	0x415cb85d	13.795011
2	0xbf57af00	-0.84251404

rotation f4 [3, 3]
0	0x3f7ecd0b	0.9953162
1	0x3ca100c0	0.019653678
2	0x3dc1db6e	0.09465681
3	0xbbb8e200	-0.0056421757
4	0x3f7d4001	0.9892579
5	0xbe15943a	-0.14607325
6	0xbdc5a782	-0.0965109
7	0x3e1454e6	0.14485511
8	0x3f7c1797	0.98473495

beta f4 [3]
0	0xc03d12fc	-2.9542837
1	0x415cb85d	13.795011
2	0xbf57af00	-0.84251404

rotation f4 [3, 3]
0	0x3f7ecd0b	0.9953162
1	0x3ca100c0	0.019653678
2	0x3dc1db6e	0.09465681
3	0xbbb8e200	-0.0056421757
4	0x3f7d4001	0.9892579
5	0xbe15943a	-0.14607325
6	0xbdc5a782	-0.0965109
7	0x3e1454e6	0.14485511
8	0x3f7c1797	0.98473495

beta f4 [3]
0	0xc03d12fc	-2.9542837
1	0x415cb85d	13.795011
2	0xbf57af00	-0.84251404

rotation f4 [3, 3]
0	0x3f7ecd0b	0.9953162
1	0x3ca100c0	0.019653678
2	0x3dc1db6e	0.09465681
3	0xbbb8e200	-0.0056421757
4	0x3f7d4001	0.9892579
5	0xbe15943a	-0.14607325
6	0xbdc5a782	-0.0965109
7	0x3e1454e6	0.14485511
8	0x3f7c1797	0.98473495

beta f4 [3]
0	0xc03d12fc	-2.9542837
1	0x415cb85d	13.795011
2	0xbf57af00	-0.84251404

rotation f4 [3, 3]
0	0x3f7ecd0b	0.9953162
1	0x3ca100c0	0.019653678
2	0x3dc1db6e	0.09465681
3	0xbbb8e200	-0.0056421757
4	0x3f7d4001	0.9892579
5	0xbe15943a	-0.14607325
6	0xbdc5a782	-0.0965109
7	0x3e1454e6	0.14485511
8	0x3f7c1797	0.98473495

beta f4 [3]
0	0xc03d12fc	-2.9542837
1	0x415cb85d	13.795011
2	0xbf57af00	-0.84251404

rotation f4 [3, 3]
0	0x3f7ecd0b	0.9953162
1	0x3ca100c0	0.019653678
2	0x3dc1db6e	0.09465681
3	0xbbb8e200	-0.0056421757
4	0x3f7d4001	0.9892579
5	0xbe15943a	-0.14607325
6	0xbdc5a782	-0.0965109
7	0x3e1454e6	0.14485511
8	0x3f7c1797	0.98473495

beta f4 [3]
0	0xc03d12fc	-2.9542837
1	0x415cb85d	13.795011
2	0xbf57af00	-0.84251404

rotation f4 [3, 3]
0	0x3f7ecd0b	0.9953162
1	0x3ca100c0	0.019653678
2	0x3dc1db6e	0.09465681
3	0xbbb8e200	-0.0056421757
4	0x3f7d4001	0.9892579
5	0xbe15943a	-0.14607325
6	0xbdc5a782	-0.0965109
7	0x3e1454e6	0.14485511
8	0x3f7c1797	0.98473495

beta f4 [3]
0	0xc03d12fc	-2.9542837
1	0x415cb85d	13.795011
2	0xbf57af00	-0.84251404

rotation f4 [3, 3]
0	0x3f7ecd0b	0.9953162
1	0x3ca100c0	0.019653678
2	0x3dc1db6e	0.09465681
3	0xbbb8e200	-0.0056421757
4	0x3f7d4001	0.9892579
5	0xbe15943a	-0.14607325
6	0xbdc5a782	-0.0965109
7	0x3e1454e6	0.14485511
8	0x3f7c1797	0.98473495

beta f4 [3]
0	0xc03d12fc	-2.9542837
1	0x415cb85d	13.795011
2	0xbf57af00	-0.84251404

rotation f4 [3, 3]
0	0x3f7ecd0b	0.9953162
1	0x3ca100c0	0.019653678
2	0x3dc1db6e	0.09465681
3	0xbbb8e200	-0.0056421757
4	0x3f7d4001	0.9892579
5	0xbe15943a	-0.14607325
6	0xbdc5a782	-0.0965109
7	0x3e1454e6	0.14485511
8	0x3f7c1797	0.98473495

beta f4 [3]
0	0xc03d12fc	-2.9542837
1	0x415cb85d	13.795011
2	0xbf57af00	-0.84251404
