sliced_opt/code/experiment/shape_registration/data/test/save/data70.pt (torch, 50719 bytes, 4 tensors)

X f4 [2048, 3]
0	0xbeb81e91	-0.3596082
1	0xbda5fde3	-0.08105066
2	0x3ea4ced4	0.32189047
3	0x3e8c949e	0.27457136
4	0xbdf22fca	-0.11825521
5	0xbf65abe8	-0.89715433
6	0x3e97bc62	0.29635912
7	0xbc9d3230	-0.01918897
8	0x3f709218	0.9397292
9	0x3ed64912	0.41852623
10	0x3e1e6ae2	0.1547046
11	0x3d5bc853	0.05365784
12	0xbebac242	-0.36476332
13	0x3e0fad33	0.14030914
14	0xbeef6c6f	-0.46762416
15	0xbe9eabd9	-0.30990484
16	0xbbc5de9b	-0.0060384995
17	0x3f6bd091	0.9211512
18	0x3dec6d52	0.11544289
19	0xbe323c0b	-0.17405717
20	0xbea8f4a9	-0.3299916
21	0xbdd98e25	-0.10622815
22	0x3e931644	0.28727925
23	0x3bd37e3e	0.006454258
24	0x3e6247e5	0.22097738
25	0xbe2df3a2	-0.1698747
26	0x3ede53e0	0.43423367
27	0xbe7d4c8a	-0.24736229
28	0xbdcfb469	-0.101418324
29	0xbf67c35d	-0.90532476
30	0x3e710595	0.23537286
31	0x3e5ef587	0.21773349
32	0xbf11aecb	-0.5690734
33	0xbe9d6060	-0.3073759
34	0xbe307115	-0.17230637
35	0xbe0455a3	-0.12923293
36	0xbd30a01e	-0.04312145
37	0x3e0d1640	0.13778019
38	0x3f195ead	0.5991009
39	0x3d29ab02	0.04142285
40	0xbe313d10	-0.1730845
41	0x3d92a4e4	0.07160357
42	0x3ca65941	0.020306231
43	0x3e2ef38a	0.1708509
44	0xbf6037e5	-0.8758529
45	0xbe8d30f6	-0.27576417
46	0xbe5a7934	-0.21335298
47	0xbf0d4023	-0.5517599
48	0x3e5a0391	0.21290423
49	0x3e952db9	0.29136446
50	0xbe5733e6	-0.21015891
51	0x3ea198ad	0.31561795
52	0x3e0dfbbb	0.13865559
53	0x3f16c15b	0.5888879
54	0x3e03f55f	0.1288657
55	0x3e2761b2	0.16345862
56	0x3e867ab8	0.26265502
57	0xbe80317d	-0.25037757
58	0xbe5069e9	-0.20352902
59	0x3f22c1da	0.63577044
60	0xbed96f9d	-0.42467967
61	0x3e1f1d60	0.1553855
62	0x3d8bcaa1	0.06825758
63	0x3ebcbcdc	0.36862838
64	0xbe4b6f04	-0.19866568
65	0xbf11558d	-0.56771165
66	0x3eb13bd9	0.34615973
67	0xbe189dfb	-0.14904015
68	0xbdb30312	-0.0874082
69	0xba6853e6	-0.00088625995
70	0xbe1afcd5	-0.1513551
71	0x3f5a88af	0.8536481
72	0xbdc4a8af	-0.09602486
73	0x3e92bd06	0.28659838
74	0xbeab985b	-0.33514675
75	0x3cfca4a4	0.030840226
76	0xbe0ffddc	-0.14061683
77	0xbf286451	-0.6577807
78	0xbebce676	-0.36894578
79	0x3dd0780c	0.10179147
80	0x3f1ecc50	0.62030506
81	0x3ec15e83	0.3776742
82	0x3d4834a7	0.04887834
83	0xbeae624b	-0.34059367
84	0xbe92b81a	-0.28656083
85	0x3e287a2d	0.16452856
86	0xbf44349b	-0.7664277
87	0x3ec55a6d	0.38545552
88	0xbe1b25a1	-0.15151073
89	0x3f2f1b98	0.6840148
90	0xbe2f1cad	-0.17100783
91	0x3e170c0b	0.14750688
92	0x3e90d680	0.2828865
93	0xbd9945cc	-0.07484016
94	0xbe2ac3b3	-0.16676216
95	0x3ecc6640	0.3992176
96	0x3eb3d2cb	0.3512176
97	0xbdb21a6f	-0.08696448
98	0x3e40908a	0.18805137
99	0xbd5ae56f	-0.05344146
100	0x3e55e538	0.20888221
101	0xbf1c10f3	-0.6096336
102	0xbeafc0bd	-0.34326735
103	0x3e0ce340	0.13758564
104	0xbe45c5c4	-0.19313723
105	0x3e914305	0.28371444
106	0x3e124424	0.14283806
107	0xbf542aa6	-0.82877576
108	0xbe5957ca	-0.21224895
109	0xbe313d10	-0.1730845
110	0x3dfedeec	0.12444863
111	0xbe598aca	-0.2124435
112	0xbd3b7135	-0.04576226
113	0xbebd6c7a	-0.36996824
114	0x3daab5cd	0.08335457
115	0x3d9d461f	0.0767939
116	0x3f4fad69	0.8112398
117	0x3c1ed55b	0.009694423
118	0xbd92a8be	-0.07161091
119	0xbf65bf07	-0.8974461
120	0x3eb49ec7	0.35277387
121	0x3dd6d7eb	0.10490402
122	0x3eac93ab	0.33706412
123	0x3e1e73d1	0.15473868
124	0x3e8c10aa	0.27356464
125	0x3cc6b28a	0.024255056
126	0xbd5c0303	-0.05371381
127	0xbe30a414	-0.17250091
128	0xbe19f2af	-0.15033983
129	0x3d95bbf1	0.073112376
130	0xbe26484c	-0.16238517
131	0x3f1f05af	0.6211805
132	0x3ebdc896	0.37067097
133	0x3cfb16d7	0.03065054
134	0xbf23234d	-0.6372574
135	0x3e45987f	0.19296454
136	0x3bd68f1c	0.0065478217
137	0xbef4c091	-0.47803167
138	0xbe47e9a8	-0.19522727
139	0x3c8c40c3	0.017120725
140	0xbf1821c8	-0.59426546
141	0xbe5957ca	-0.21224895
142	0x3c8b2332	0.016984556
143	0x3ef24c34	0.47323763
144	0xbebb8e3e	-0.3663196
145	0xbd88fe6d	-0.06689153
146	0xbf35d029	-0.7102075
147	0x3eac1ab5	0.33614126
148	0xbe31700f	-0.17327903
149	0xbea90168	-0.33008885
150	0xbe268bdc	-0.1626429
151	0x3da5d6f1	0.080976374
152	0x3f462a5c	0.77408385
153	0xbd78db34	-0.060755923
154	0xbe277a45	-0.16355236
155	0xbeed61b9	-0.4636362
156	0x3e57861e	0.21047255
157	0xbe24f52c	-0.1610915
158	0x3f4cf697	0.80063766
159	0x3ec5672d	0.3855528
160	0xbd12e276	-0.0358605
161	0x3ef7ecd6	0.4842288
162	0x3ebcfc9a	0.3691147
163	0x3d81c8b4	0.06337109
164	0xbdfe827c	-0.12427232
165	0x3e0342e3	0.12818484
166	0x3e07b55c	0.13252777
167	0x3eee8348	0.46584535
168	0xbeb6d317	-0.35707924
169	0xbd3be166	-0.045869254
170	0x3d7a42ae	0.061098747
171	0x3e0bed34	0.13664705
172	0xbe2d7424	-0.16938835
173	0x3e809a58	0.25117755
174	0xbe570d57	-0.21001182
175	0x3e972baf	0.29525515
176	0xbe2f763b	-0.17134945
177	0x3e50a6c3	0.20376115
178	0xbd454867	-0.04816475
179	0xbf35a9ea	-0.70962393
180	0x3d7f8634	0.062383845
181	0x3e82f39b	0.2557648
182	0xbee9590f	-0.4557576
183	0x3ca5ca77	0.020238144
184	0x3e9fc940	0.3120823
185	0xbe2f8fbb	-0.17144673
186	0xbdbf3366	-0.09335975
187	0xbcd059ea	-0.0254335
188	0x3f79162a	0.97299445
189	0xbe5957ca	-0.21224895
190	0xbe210601	-0.15724947
191	0x3f57a53e	0.84236515
192	0xbeb613db	-0.35562024
193	0x3de100b4	0.10986462
194	0x3ebc7695	0.3680922
195	0x3e58059c	0.2109589
196	0xbb84365b	-0.0040348
197	0x3f2c8b06	0.6739963
198	0xbe21c3f6	-0.1579741
199	0x3db3fba5	0.08788232
200	0xbf64aced	-0.89326364
201	0xbebefdec	-0.37303102
202	0xbda54b67	-0.080710225
203	0x3f0b6039	0.544437
204	0xbe18cd26	-0.14922008
205	0xbe03763a	-0.12838069
206	0xbf3df49d	-0.74201375
207	0x3dc92b0f	0.09822666
208	0xbd059e24	-0.032621518
209	0x3f7876ce	0.9705628
210	0xbeb3afe8	-0.35095143
211	0xbd9117ea	-0.07084639
212	0x3f3e3287	0.7429585
213	0xbec1881d	-0.3779916
214	0xbd3b7b68	-0.045771986
215	0xbf021ebf	-0.50828165
216	0x3e8825f6	0.26591462
217	0x3e5bc598	0.21462095
218	0xbec3d918	-0.38251567
219	0xbcd13010	-0.025535613
220	0x3e5fdb02	0.21860889
221	0x3e2ebc6a	0.17064062
222	0xbeb4eea1	-0.3533831
223	0xbe22d611	-0.15901972
224	0xbea3ba05	-0.3197786
225	0xbe7158ca	-0.23569027
226	0x3e5466c0	0.20742321
227	0xbf181b68	-0.5941682
228	0x3e2c4c06	0.16825876
229	0xbe305795	-0.1722091
230	0xbdf327bb	-0.11872812
231	0x3eaae8bb	0.33380684
232	0x3d9d1320	0.076696634
233	0x3f474f97	0.7785582
234	0x3e2de3ff	0.16981505
235	0x3ce3d287	0.027810348
236	0xbf696813	-0.9117443
237	0x3e626164	0.22107464
238	0xbe313d10	-0.1730845
239	0x3d79fb49	0.06103066
240	0xbe8cfdf8	-0.27537513
241	0x3e688554	0.2270711
242	0xbeaad91f	-0.33368775
243	0x3dd683c8	0.10474354
244	0x3e3bccc5	0.18339832
245	0xbf306f46	-0.6891979
246	0xbe8ca4ba	-0.27469426
247	0x3e6a9cc9	0.22911371
248	0xbb32c3aa	-0.002727727
249	0x3e0bd3b5	0.13654979
250	0xbe237428	-0.15962279
251	0xbf026b3d	-0.5094488
252	0xbd30c8eb	-0.04316036
253	0x3e17a507	0.14809047
254	0x3ed71b46	0.42012995
255	0x3e874d3b	0.2642611

Y f4 [2048, 3]
0	0x3fc43e06	1.5331428
1	0x3ea08055	0.3134791
2	0x3e90ac71	0.28256562
3	0x40211dd5	2.5174458
4	0x3f3d099e	0.738428
5	0x3f07026f	0.5273809
6	0x3f9b8063	1.2148556
7	0x3e32997e	0.17441365
8	0x3f6a8c30	0.9162016
9	0x3fe57f04	1.7929387
10	0x3f1cb6c8	0.612164
11	0x3f576dba	0.84151804
12	0x400027b0	2.0024223
13	0x3f3efbcc	0.7460296
14	0x3e0617c8	0.1309501
15	0x3f8d0baa	1.1019185
16	0x3e261164	0.16217571
17	0x3ee37f38	0.44432998
18	0x40072b26	2.1120086
19	0x3efd2417	0.49441597
20	0x3f03e325	0.5151847
21	0x3fd65ebd	1.6747662
22	0x3f3316ab	0.69956464
23	0x3edd6efc	0.43248737
24	0x3fcd14c1	1.6021959
25	0x3e734a54	0.23758823
26	0x3f3ff472	0.7498237
27	0x401a6cbf	2.4128873
28	0x3f3aa9aa	0.72915137
29	0x3dfbd5d4	0.12296644
30	0x400a9e5a	2.165915
31	0x3f5d5fa8	0.86474085
32	0x3f140a48	0.5782819
33	0x3ff1a1c0	1.8877487
34	0x3ed021cf	0.40650794
35	0x3e69f9d0	0.22849202
36	0x3faa0ed8	1.328578
37	0x3ec77b55	0.38961282
38	0x3f17c684	0.59287286
39	0x3fe8c903	1.8186344
40	0x3eb48344	0.35256398
41	0x3f09cf17	0.5383162
42	0x40168204	2.3516855
43	0x3f6d631e	0.92729366
44	0x3eb2694a	0.34845954
45	0x400cdd99	2.2010252
46	0x3f06599d	0.5248049
47	0x3e2a8548	0.16652405
48	0x3ff19176	1.8872516
49	0x3f4ad79c	0.79235244
50	0x3f22d80c	0.6361091
51	0x3fb41bcc	1.4070983
52	0x3ed223db	0.4104298
53	0x3f5e45a2	0.86825
54	0x3fcb289a	1.5871766
55	0x3f0859e4	0.5326216
56	0x3f28e5d2	0.6597568
57	0x3fb0a257	1.3799542
58	0x3df9335c	0.12167999
59	0x3ed9259c	0.42411506
60	0x3fce95ce	1.6139467
61	0x3f1186ce	0.5684632
62	0x3e451e54	0.1924985
63	0x40157edb	2.3358676
64	0x3f12205d	0.5708063
65	0x3f298a10	0.6622629
66	0x3ffd9f24	1.9814191
67	0x3ee0d0c7	0.43909284
68	0x3f3e45e3	0.7432539
69	0x3fa162d7	1.2608289
70	0x3dc33be0	0.095329046
71	0x3f29bbac	0.6630199
72	0x3ff4f47a	1.9137108
73	0x3f5160bc	0.8178823
74	0x3ebe7a0a	0.37202483
75	0x4013e0eb	2.310603
76	0x3f20cb5f	0.6281032
77	0x3ec582d0	0.38576365
78	0x3fa16ea6	1.2611892
79	0x3eaeb80b	0.3412479
80	0x3eafe11e	0.34351438
81	0x40060d7c	2.094573
82	0x3f2bb21e	0.6706866
83	0x3f39e63c	0.72616935
84	0x400dde40	2.21669
85	0x3f5edf66	0.8705963
86	0x3e07f778	0.13277996
87	0x3fba539c	1.4556766
88	0x3e30092a	0.17190996
89	0x3f6d84ca	0.92780745
90	0x3fc2651f	1.518711
91	0x3f000e38	0.50021696
92	0x3edcc61d	0.43119898
93	0x3fc879b3	1.566214
94	0x3e73f250	0.23822904
95	0x3f03a50e	0.5142373
96	0x3fe29215	1.7700831
97	0x3ec6f376	0.3885762
98	0x3f4e1d7d	0.80513746
99	0x4008ea9c	2.1393194
100	0x3f5be899	0.8590179
101	0x3eb1616a	0.34644634
102	0x3fe8a3ac	1.8174949
103	0x3f26653e	0.64998233
104	0x3e4f32b4	0.20234185
105	0x401869c2	2.381455
106	0x3f672e6b	0.90305203
107	0x3f0f6c1e	0.5602435
108	0x3fdd9ad7	1.7312878
109	0x3ea51cc0	0.32248497
110	0x3eb49afa	0.35274488
111	0x4001e65d	2.0296853
112	0x3f15dacf	0.58537
113	0x3e84ecee	0.25962013
114	0x3f9d2fee	1.2280252
115	0x3e8e644a	0.2781089
116	0x3f3af276	0.73026216
117	0x401cb476	2.4485145
118	0x3f428263	0.75980204
119	0x3ea63cdd	0.3246831
120	0x3fcce369	1.60069
121	0x3ef3405c	0.4751004
122	0x3f585510	0.84504795
123	0x3fdc1492	1.7193778
124	0x3f321580	0.69564056
125	0x3f231f02	0.6371919
126	0x3ffa0188	1.9531717
127	0x3ed9d4dc	0.4254521
128	0x3ed73df1	0.42039445
129	0x3fb8628f	1.4405078
130	0x3e2f77b6	0.1713551
131	0x3f2c58d8	0.67323065
132	0x40138578	2.3050213
133	0x3f429024	0.7600119
134	0x3f291b7d	0.6605757
135	0x400ab890	2.1675148
136	0x3f2de425	0.67926246
137	0x3f0dcc4f	0.55389875
138	0x400aabea	2.1667428
139	0x3f3588d9	0.7091194
140	0x3e6c88d8	0.23099077
141	0x3fb63f02	1.4237978
142	0x3ead47ae	0.3384375
143	0x3edcd679	0.4313238
144	0x400f7c2d	2.241954
145	0x3f2e4e8b	0.680886
146	0x3d92aa50	0.07161391
147	0x4009fb05	2.155946
148	0x3f015836	0.50525224
149	0x3f2f93a2	0.68584645
150	0x3f99ffd0	1.2031193
151	0x3e90ad6a	0.28257304
152	0x3f0866cc	0.53281856
153	0x400a9b2f	2.1657217
154	0x3f0a4396	0.5400938
155	0x3eb495d0	0.35270548
156	0x3fabedfb	1.3432001
157	0x3dee9500	0.11649513
158	0x3f50bd61	0.8153897
159	0x3fc6eb17	1.5540494
160	0x3ea610ae	0.324346
161	0x3f64aed7	0.89329284
162	0x3ff80f5d	1.9379689
163	0x3f1b1493	0.6057827
164	0x3f4373f2	0.76348794
165	0x3fba7e59	1.4569808
166	0x3ee14069	0.43994454
167	0x3f32cc7f	0.69843286
168	0x3fd9dfd4	1.7021432
169	0x3edbc73e	0.42925447
170	0x3e6f9c82	0.23399547
171	0x3fdb225e	1.7119863
172	0x3e9849a6	0.2974369
173	0x3f25e551	0.64803034
174	0x3fe3209c	1.7744327
175	0x3f4317b8	0.76208067
176	0x3ea2547a	0.31705076
177	0x4016574f	2.349079
178	0x3f387a62	0.7206174
179	0x3f036d77	0.51338905
180	0x40028963	2.0396354
181	0x3f58468e	0.8448266
182	0x3ef01ac0	0.4689541
183	0x3fe848c6	1.8147209
184	0x3f48efd1	0.7849093
185	0x3efddf18	0.4958427
186	0x3f8eda02	1.1160281
187	0x3e0fad56	0.14030966
188	0x3f1f0914	0.6212323
189	0x3f9d3cb6	1.2284153
190	0x3dae7648	0.08518654
191	0x3efe7f0d	0.49706307
192	0x3fb7c829	1.4357959
193	0x3edebe38	0.435045
194	0x3e9b851b	0.3037499
195	0x3fb03572	1.376631
196	0x3e8bfc20	0.27340794
197	0x3f4c37ce	0.7977265
198	0x4016d65a	2.356833
199	0x3f5d8748	0.8653455
200	0x3e502882	0.20327953
201	0x3fb025de	1.3761556
202	0x3e71ac48	0.23600876
203	0x3ea22818	0.31671214
204	0x40150998	2.3287106
205	0x3f286110	0.65773106
206	0x3e6bc9a4	0.23026139
207	0x3f944a62	1.15852
208	0x3e14590e	0.14487097
209	0x3f44bf8e	0.7685479
210	0x3f9eabb2	1.2396147
211	0x3e33920a	0.17536178
212	0x3ebf75e2	0.37394625
213	0x4005e9f8	2.0924053
214	0x3f2026de	0.62559307
215	0x3dd4e608	0.103954375
216	0x4002ce73	2.0438507
217	0x3f4c9e77	0.799293
218	0x3f2399b3	0.639064
219	0x3fcceba4	1.6009412
220	0x3f18d624	0.5970175
221	0x3f064791	0.5245295
222	0x400061a0	2.0059586
223	0x3ef5bad2	0.47994095
224	0x3e1f2824	0.15542656
225	0x4005ee25	2.0926602
226	0x3f581a5f	0.8441524
227	0x3e558fb4	0.208556
228	0x3ffcdf48	1.975564
229	0x3ed99b56	0.42501324
230	0x3f192e2a	0.59836066
231	0x3fa68059	1.3007919
232	0x3e9a1a87	0.30098364
233	0x3f6ad8e8	0.9173722
234	0x401d2f2c	2.4560041
235	0x3f57fec8	0.8437314
236	0x3ee68658	0.4502437
237	0x3fee5268	1.8618898
238	0x3ebaa829	0.3645642
239	0x3f2cd3f7	0.6751093
240	0x3ff2dfac	1.8974509
241	0x3f4426c3	0.76621646
242	0x3e6c6ba6	0.2308794
243	0x400f08bc	2.234908
244	0x3f60262e	0.8755826
245	0x3ee74002	0.45166022
246	0x3fd57361	1.6675836
247	0x3f272f99	0.65307003
248	0x3e986b2c	0.29769266
249	0x400f1370	2.2355614
250	0x3f116514	0.5679486
251	0x3efe18d2	0.4962831
252	0x3fb9789c	1.4489932
253	0x3eeb05b1	0.4590278
254	0x3f0eba18	0.55752707
255	0x3fd8e5e1	1.6945153

theta f4 [3]
0	0x3f860a92	1.0471976
1	0x3f860a92	1.0471976
2	0xbf860a92	-1.0471976

beta f4 [3]
0	0x3fe66666	1.8
1	0x3f000000	0.5
2	0x3f000000	0.5
