code/experiment/shape_registration/result/saved/mumble_sitting/10k-5p/spot_param.pt (torch, 157585 bytes, 400 tensors)

rotation f4 [3, 3]
000000 a7 0e 7e 3f de d3 c3 3d b6 55 9e bd 88 2f af bd
       0.9924111 0.09561895 -0.07731192 -0.08553988
000010 7c 0f 7d 3f 84 1a ff 3d c6 e8 b4 3d 9c 9f ef bd
       0.9885175 0.12456229 0.088334605 -0.11700365
000020 e2 3b 7d 3f
       0.989195

beta f4 [3]
000000 84 ba ae 41 58 ed 2c c1 8e 4a 3d c1
       21.841072 -10.807945 -11.830702

rotation f4 [3, 3]
000000 82 10 78 3f e1 ae 37 3e ed f4 2d be 25 60 10 be
       0.9690019 0.17937805 -0.16987963 -0.14099176
000010 cd 56 77 3f 24 26 5d 3e 9d bd 4f 3e 84 c4 3d be
       0.9661682 0.2159658 0.20287175 -0.18531996
000020 7a 25 76 3f
       0.96150935

beta f4 [3]
000000 40 0f 9b 41 f8 0e c4 c0 ba 6e 81 c1
       19.382446 -6.1268272 -16.179066

rotation f4 [3, 3]
000000 50 34 72 3f 12 b8 78 3e a1 55 5b be f8 ff 33 be
       0.9461107 0.24288967 -0.21419384 -0.17578113
000010 96 cf 70 3f c9 9b 94 3e 82 41 8b 3e 3c a5 72 be
       0.9406675 0.29025105 0.27198416 -0.23695844
000020 84 c3 6e 3f
       0.93267083

beta f4 [3]
000000 c8 25 8d 41 d5 ec 11 c0 39 d1 94 c1
       17.643448 -2.28008 -18.60216

rotation f4 [3, 3]
000000 80 ec 69 3f 2d 18 9a 3e 6b b4 8b be ba 0f 52 be
       0.91376495 0.3009657 -0.27286085 -0.20513812
000010 1f ed 6b 3f 39 b9 a8 3e b4 87 b3 3e 90 07 7b be
       0.92158693 0.32953814 0.3506447 -0.24514604
000020 f4 62 67 3f
       0.90385365

beta f4 [3]
000000 55 fa 70 41 40 a8 83 3d b9 d9 a4 c1
       15.061116 0.064285755 -20.60631

rotation f4 [3, 3]
000000 d4 7c 61 3f 54 d4 b1 3e 8d bf a4 be 02 b2 69 be
       0.880811 0.34732306 -0.32177392 -0.22821811
000010 7a 2a 68 3f a7 58 b5 3e 45 65 d4 3e 28 44 74 be
       0.90689814 0.354192 0.41483513 -0.23854125
000020 4a c9 60 3f
       0.8780714

beta f4 [3]
000000 1e 5e 4b 41 32 a2 c6 3f 3a bc b0 c1
       12.710478 1.5518248 -22.091908

rotation f4 [3, 3]
000000 19 0c 5c 3f 6a 7c c3 3e 09 ea ad be c8 00 7d be
       0.8595596 0.38180858 -0.33967617 -0.2470733
000010 3b 6f 64 3f 1c 6c c1 3e ae 09 e5 3e c0 93 76 be
       0.89232224 0.37777793 0.44733948 -0.240798
000020 b0 80 5c 3f
       0.8613386

beta f4 [3]
000000 6f a4 37 41 96 7f 3d 40 4c 52 b5 c1
       11.477645 2.9609122 -22.665184

rotation f4 [3, 3]
000000 1a ca 56 3f da 6a cd 3e 9f 2c bc be 31 66 85 be
       0.8390213 0.40120584 -0.36752793 -0.26054528
000010 5c a6 63 3f 7e 7c c0 3e e4 8f f4 3e be f1 60 be
       0.8892572 0.3759498 0.4776603 -0.21967217
000020 6e c3 59 3f
       0.8506383

beta f4 [3]
000000 41 2a 23 41 58 e6 3d 40 df 38 b9 c1
       10.197816 2.967184 -23.15277

rotation f4 [3, 3]
000000 45 5d 52 3f 88 4d db 3e ac 73 c0 be d4 fa 8c be
       0.8217357 0.4283259 -0.3758825 -0.27535117
000010 32 3c 60 3f 86 d6 ca 3e f0 73 ff 3e 06 60 63 be
       0.8759185 0.39616793 0.4989314 -0.22204599
000020 62 74 56 3f
       0.83771336

beta f4 [3]
000000 c4 dc 15 41 be 70 84 40 d7 75 bc c1
       9.366398 4.1387625 -23.557539

rotation f4 [3, 3]
000000 d0 77 4f 3f 84 86 e0 3e dc e5 c6 be c5 08 8e be
       0.81042194 0.43852627 -0.38847244 -0.27741066
000010 2c 0d 5f 3f 16 46 cf 3e c9 18 04 3f 14 9b 61 be
       0.87129474 0.4048316 0.5160032 -0.22031814
000020 a3 e8 53 3f
       0.8277685

beta f4 [3]
000000 2f d9 07 41 40 64 8f 40 51 43 bd c1
       8.490523 4.4809875 -23.65787

rotation f4 [3, 3]
000000 f7 54 4e 3f ff 18 e0 3e 92 0a cc be 7a b8 8d be
       0.80598396 0.4376907 -0.39851815 -0.27679807
000010 2f b0 5f 3f 68 ba cc 3e 98 f2 05 3f 14 0f 59 be
       0.8737821 0.39985967 0.52323294 -0.21197158
000020 d4 4d 53 3f
       0.8254063

beta f4 [3]
000000 2a 8a 02 41 30 05 85 40 52 44 bf c1
       8.158731 4.1568832 -23.90836

rotation f4 [3, 3]
000000 7a db 4c 3f 0b b6 e4 3e 08 dd cc be 3a 94 90 be
       0.80022395 0.44670138 -0.40012383 -0.28238088
000010 20 89 5e 3f 52 bb cf 3e 5b 70 07 3f be c3 58 be
       0.86927986 0.40572602 0.52905816 -0.2116842
000020 c1 5e 52 3f
       0.82175833

beta f4 [3]
000000 b0 4f fd 40 5c 6a 90 40 b7 af bf c1
       7.9159775 4.5129833 -23.960798

rotation f4 [3, 3]
000000 b9 7b 4b 3f f6 98 e7 3e 10 16 cf be 7c eb 92 be
       0.7948566 0.45233887 -0.4044652 -0.28695285
000010 de 15 5e 3f 36 04 d0 3e 71 df 08 3f b4 d6 53 be
       0.86752117 0.40628213 0.53465945 -0.20687371
000020 3f c1 51 3f
       0.81935495

beta f4 [3]
000000 18 ed f5 40 c6 69 92 40 7f 95 c0 c1
       7.685192 4.575412 -24.072996

rotation f4 [3, 3]
000000 58 7d 48 3f 29 e7 f0 3e df 25 d0 be 6f 1b 9c be
       0.7831626 0.4705136 -0.40653893 -0.3048968
000010 72 41 5c 3f c0 1a d1 3e 58 bc 0a 3f 66 99 48 be
       0.8603736 0.4084072 0.5419364 -0.19589767
000020 9c 38 51 3f
       0.81727004

beta f4 [3]
000000 84 dc ee 40 ba fb 9d 40 c2 e3 c0 c1
       7.4644184 4.9369783 -24.11121

rotation f4 [3, 3]
000000 d6 f9 47 3f d2 ee f4 3e 44 67 cd be a0 17 9c be
       0.78115594 0.47838455 -0.40117848 -0.30486774
000010 ce 5f 5a 3f 48 dd d8 3e b8 7a 0b 3f 6a 91 55 be
       0.85302436 0.42356324 0.5448413 -0.20856252
000020 99 eb 4f 3f
       0.8121887

beta f4 [3]
000000 b4 92 e9 40 e4 ab b6 40 2d 5f c0 c1
       7.299158 5.7084827 -24.046473

rotation f4 [3, 3]
000000 b8 56 47 3f 7d ee f6 3e bf 7c cd be 75 b3 a1 be
       0.778667 0.48228827 -0.40134236 -0.31582227
000010 c0 9e 5a 3f 97 b3 d3 3e c6 ca 0a 3f fe e4 47 be
       0.85398483 0.41347954 0.5421566 -0.19520947
000020 bc 39 51 3f
       0.8172872

beta f4 [3]
000000 77 dc f1 40 a7 10 ad 40 c8 ef c0 c1
       7.558162 5.4082828 -24.11708

rotation f4 [3, 3]
000000 25 18 49 3f a4 df f4 3e 61 0f c9 be ef a1 a0 be
       0.78552467 0.47826874 -0.39269546 -0.31373546
000010 fa d1 5a 3f 28 b0 d3 3e 39 8d 08 3f ca 69 4e be
       0.8547665 0.41345334 0.5334049 -0.20157543
000020 32 4d 52 3f
       0.8214904

beta f4 [3]
000000 1c 36 ff 40 7e b9 ae 40 46 5b bf c1
       7.975355 5.460143 -23.919567

rotation f4 [3, 3]
000000 1d fb 47 3f 32 fc f4 3e 52 52 cd be f0 50 9f be
       0.78117543 0.4784866 -0.40101868 -0.31116438
000010 26 f3 5a 3f c7 25 d4 3e cd 8e 0a 3f e4 ab 4b be
       0.85527265 0.41435072 0.54124147 -0.1988979
000020 4c 27 51 3f
       0.8170059

beta f4 [3]
000000 3c 84 f2 40 04 38 ac 40 86 2e c1 c1
       7.578642 5.381838 -24.147717

rotation f4 [3, 3]
000000 00 71 48 3f 58 18 f1 3e 6c 1c d0 be e2 83 9d be
       0.78297424 0.47088885 -0.40646684 -0.3076468
000010 ce 6d 5c 3f 64 4f cf 3e 34 68 0a 3f 84 96 44 be
       0.8610505 0.40490258 0.5406525 -0.19198042
000020 17 ad 51 3f
       0.8190474

beta f4 [3]
000000 43 0a f1 40 cf ed 99 40 7b 2f c0 c1
       7.5325027 4.8102794 -24.023184

rotation f4 [3, 3]
000000 e3 f1 45 3f b2 1f ee 3e 76 b5 dc be d7 38 97 be
       0.77322215 0.46508557 -0.43107194 -0.29535553
000010 d4 9c 5d 3f ac f2 ce 3e be a7 0f 3f 96 a8 3d be
       0.86567426 0.4041952 0.5611533 -0.18521342
000020 75 85 4e 3f
       0.8067239

beta f4 [3]
000000 dd 5e cb 40 85 a3 8a 40 71 db c2 c1
       6.35533 4.332461 -24.35715

rotation f4 [3, 3]
000000 79 15 45 3f 01 3d ed 3e 45 b5 e0 be 27 76 95 be
       0.7698589 0.46335605 -0.43888298 -0.29191706
000010 4c ff 5d 3f c0 93 ce 3e 4f 4a 11 3f e6 e0 3a be
       0.8671768 0.403471 0.5675401 -0.18249854
000020 92 88 4d 3f
       0.80286515

beta f4 [3]
000000 f0 d8 c0 40 96 91 85 40 d1 dc c4 c1
       6.0264816 4.1740217 -24.60782

rotation f4 [3, 3]
000000 69 2b 45 3f 4c 4d ef 3e 9e 34 de be 7f 3a 99 be
       0.77019364 0.4673866 -0.4339952 -0.2992744
000010 8c 9f 5d 3f cc 6b cd 3e 5d 30 10 3f 76 6d 37 be
       0.86571574 0.40121305 0.56323797 -0.1791285
000020 50 80 4e 3f
       0.8066454

beta f4 [3]
000000 3c a0 c9 40 1d 0b 87 40 f2 c2 c3 c1
       6.30081 4.2201066 -24.470188

rotation f4 [3, 3]
000000 a3 d5 43 3f 26 e3 ed 3e 9e 5c e4 be 4e 3a 9d be
       0.7649786 0.46462363 -0.4460191 -0.30708545
000010 ee 31 5f 3f 3c 58 c3 3e 1c ee 10 3f b2 9d 1e be
       0.8718556 0.38153255 0.56613326 -0.15489843
000020 e6 43 4f 3f
       0.8096298

beta f4 [3]
000000 2c 48 c7 40 50 70 51 40 a2 ce c4 c1
       6.22756 3.27248 -24.600895

rotation f4 [3, 3]
000000 e5 81 44 3f 14 a7 f6 3e 70 70 d8 be 48 db aa be
       0.76760703 0.48174345 -0.42273283 -0.33370423
000010 be 0f 5d 3f 76 98 c1 3e e8 14 0c 3f e8 c1 18 be
       0.86352146 0.3781163 0.547194 -0.1491772
000020 c3 d7 52 3f
       0.82360476

beta f4 [3]
000000 d9 ff ec 40 63 3d 72 40 94 83 c1 c1
       7.4062314 3.7849967 -24.189247

rotation f4 [3, 3]
000000 58 41 43 3f f8 f7 f0 3e a3 1c e3 be 55 16 a4 be
       0.7627158 0.47064185 -0.44357786 -0.32048288
000010 d7 eb 5e 3f 1c e7 be 3e 6c ce 0f 3f 5e a3 11 be
       0.87078613 0.37285697 0.5617435 -0.14222476
000020 7c a3 50 3f
       0.8149946

beta f4 [3]
000000 7a f5 d1 40 96 b1 45 40 60 19 c4 c1
       6.5612154 3.088964 -24.51239

rotation f4 [3, 3]
000000 a0 44 42 3f 37 b8 f7 3e 7d 33 df be bd 30 a7 be
       0.75885963 0.48382732 -0.4359397 -0.32654372
000010 61 a1 5c 3f 77 b2 c6 3e c1 3f 10 3f f0 cb 1b be
       0.86183745 0.38808033 0.5634728 -0.15214515
000020 84 df 4f 3f
       0.8120043

beta f4 [3]
000000 f9 c0 cf 40 e2 3d 7e 40 08 5c c3 c1
       6.492306 3.972527 -24.419937

rotation f4 [3, 3]
000000 7e 8e 44 3f a8 f4 f4 3e 1f 2e da be da f0 a3 be
       0.76779926 0.47842908 -0.42613313 -0.32019693
000010 ba d5 5c 3f 9b 7c c8 3e 7f 10 0e 3f 44 25 28 be
       0.8626362 0.39157566 0.5549392 -0.16420466
000020 22 c6 50 3f
       0.81552327

beta f4 [3]
000000 e0 3b dc 40 96 0f 85 40 ec e9 c1 c1
       6.882309 4.1581526 -24.23922

rotation f4 [3, 3]
000000 8d 25 44 3f 38 f9 f5 3e bd 82 da be 26 1a 9f be
       0.766198 0.480417 -0.4267787 -0.31074637
000010 fe ba 5b 3f 6d 0e d1 3e 4e fe 0f 3f de 8d 38 be
       0.858322 0.40831318 0.56247413 -0.18022868
000020 24 93 4e 3f
       0.8069327

beta f4 [3]
000000 10 d9 cd 40 de 97 99 40 99 37 c3 c1
       6.432747 4.7997885 -24.402147

rotation f4 [3, 3]
000000 79 62 44 3f 96 a7 f8 3e 1d 96 d6 be e6 ab 9f be
       0.7671276 0.48565358 -0.41911402 -0.31185836
000010 43 70 5a 3f 0e fb d5 3e cc 82 0f 3f e4 75 42 be
       0.8532755 0.41793102 0.56058955 -0.18990284
000020 b7 57 4e 3f
       0.8060259

beta f4 [3]
000000 ab aa d2 40 09 cf ab 40 3d e8 c3 c1
       6.5833335 5.369023 -24.488398

rotation f4 [3, 3]
000000 43 a4 42 3f dc 80 f8 3e 57 04 dd be 0f 4d a0 be
       0.76031893 0.48535812 -0.43167374 -0.3130879
000010 a0 2a 5b 3f d0 80 d2 3e 75 b1 11 3f 02 b4 35 be
       0.85611916 0.411139 0.569114 -0.17744449
000020 c8 89 4d 3f
       0.8028836

beta f4 [3]
000000 6a f0 c3 40 ba 50 9d 40 e4 ab c4 c1
       6.1230974 4.9161043 -24.583931

rotation f4 [3, 3]
000000 ce 5e 40 3f a1 a9 f8 3e 01 a9 e4 be fd fd a1 be
       0.7514466 0.48566917 -0.4466019 -0.3163909
000010 26 f6 5b 3f 1c d7 cd 3e 68 38 14 3f f0 a9 24 be
       0.8592247 0.40203178 0.5789857 -0.16080451
000020 6a a0 4c 3f
       0.7993227

beta f4 [3]
000000 92 d4 b3 40 57 4e 8b 40 90 20 c6 c1
       5.6196985 4.353313 -24.7659

rotation f4 [3, 3]
000000 a4 95 40 3f ce 80 fb 3e cf cc e0 be a9 e8 a5 be
       0.75228333 0.49121708 -0.43906257 -0.32404068
000010 bf 29 5b 3f a0 20 ce 3e 56 da 12 3f 94 71 24 be
       0.85610574 0.40259266 0.57364404 -0.16058952
000020 0d 9f 4d 3f
       0.8032082

beta f4 [3]
000000 b2 67 bd 40 2f 35 92 40 9e f3 c3 c1
       5.918908 4.568992 -24.493954

rotation f4 [3, 3]
000000 45 57 42 3f 2e 1b f8 3e 56 84 de be 8f c3 a6 be
       0.7591441 0.48458236 -0.4346034 -0.32571074
000010 a2 61 5c 3f ad 27 c8 3e 38 46 10 3f c6 f0 1e be
       0.86086476 0.3909277 0.56357145 -0.15521535
000020 e6 b4 4f 3f
       0.81135404

beta f4 [3]
000000 f0 dc cf 40 4a 93 83 40 4a c2 c3 c1
       6.49572 4.1117296 -24.469868

rotation f4 [3, 3]
000000 26 c7 44 3f 7a 6e f8 3e 5d 66 d5 be 6b 66 a5 be
       0.76866376 0.48521787 -0.4167966 -0.323047
000010 d2 5b 5b 3f 08 b4 cd 3e 5a 55 0d 3f 4e 5b 32 be
       0.8568698 0.40176415 0.5520836 -0.17417642
000020 9c bd 50 3f
       0.8153932

beta f4 [3]
000000 10 d9 e1 40 57 2b 99 40 e4 5e c1 c1
       7.057747 4.7865405 -24.171333

rotation f4 [3, 3]
000000 5d 82 43 3f 16 44 fb 3e cf bd d6 be 31 84 a6 be
       0.76370794 0.49075383 -0.41941687 -0.3252273
000010 6f 8c 5a 3f 4e 3c d0 3e 58 c2 0e 3f ca 61 32 be
       0.85370535 0.4067101 0.55765295 -0.17420116
000020 41 c4 4f 3f
       0.81158835

beta f4 [3]
000000 28 bb d9 40 52 d0 a0 40 40 90 c2 c1
       6.804096 5.0254297 -24.320435

rotation f4 [3, 3]
000000 59 0a 42 3f 5b ec fc 3e 50 19 da be 8b 32 a6 be
       0.7579704 0.49399075 -0.42597437 -0.32460436
000010 1a 23 5a 3f 18 35 d2 3e 52 d7 10 3f e4 11 31 be
       0.8520981 0.41056132 0.5657855 -0.17291981
000020 38 64 4e 3f
       0.8062167

beta f4 [3]
000000 2e 12 cb 40 92 92 a3 40 d6 d5 c2 c1
       6.345969 5.111642 -24.354412

rotation f4 [3, 3]
000000 1c b2 40 3f 90 c5 fd 3e 85 d9 dd be 47 bd a6 be
       0.75271773 0.4956479 -0.43330017 -0.32566282
000010 57 32 5a 3f ce 87 d1 3e aa 78 12 3f 46 f0 2a be
       0.8523306 0.40923923 0.5721537 -0.1669322
000020 01 90 4d 3f
       0.8029786

beta f4 [3]
000000 5c 60 c0 40 2e 2c 9f 40 4b 9a c3 c1
       6.0117626 4.974143 -24.450338

rotation f4 [3, 3]
000000 8f b8 44 3f 48 67 f3 3e 92 52 db be f3 01 a4 be
       0.76844114 0.47539735 -0.42836434 -0.32032737
000010 d2 81 5d 3f 79 71 c5 3e 56 d1 0d 3f ec ef 22 be
       0.86526215 0.38563135 0.55397546 -0.15911835
000020 14 33 51 3f
       0.81718564

beta f4 [3]
000000 ae 21 de 40 c5 f6 76 40 0d 21 c2 c1
       6.9416113 3.8588116 -24.266138

rotation f4 [3, 3]
000000 09 45 45 3f 48 5f f3 3e 84 60 d9 be ba 1e a6 be
       0.77058464 0.4753363 -0.42456448 -0.32445318
000010 97 ae 5d 3f 36 e0 c2 3e 1f 6f 0c 3f 9e 47 1f be
       0.8659453 0.38061684 0.5485706 -0.15554664
000020 5e 4e 52 3f
       0.8215083

beta f4 [3]
000000 3c b9 e8 40 1a 22 6f 40 2f f1 c1 c1
       7.2726116 3.7364564 -24.242765

rotation f4 [3, 3]
000000 5a c7 42 3f d4 e3 fc 3e 4d 7d d7 be d4 b8 aa be
       0.76085436 0.4939257 -0.42087784 -0.33344138
000010 98 9e 5a 3f c5 7f cc 3e 0a 84 0e 3f 42 7b 27 be
       0.85398245 0.3994123 0.55670226 -0.16355613
000020 e1 7f 50 3f
       0.8144513

beta f4 [3]
000000 fe 1d dd 40 c3 48 99 40 b1 6a c2 c1
       6.909911 4.790132 -24.302095

rotation f4 [3, 3]
000000 9b 4f 46 3f 37 cf ef 3e e9 8b d9 be e3 f4 a3 be
       0.7746522 0.4683778 -0.42489555 -0.3202277
000010 95 b2 5e 3f 57 0e c0 3e c3 99 0b 3f 80 39 1e be
       0.86991245 0.3751094 0.54531497 -0.15451622
000020 f3 e8 52 3f
       0.823867

beta f4 [3]
000000 06 14 ed 40 62 66 5a 40 71 a2 c1 c1
       7.4086943 3.412499 -24.204317

rotation f4 [3, 3]
000000 fd 6e 46 3f 90 a0 f0 3e 2b 31 d8 be ac ab 9f be
       0.77513105 0.469975 -0.42225012 -0.31185663
000010 fe a7 5d 3f ea 4e c8 3e 0e aa 0c 3f 2a b0 2f be
       0.8658446 0.39122707 0.5494698 -0.17157045
000020 52 55 51 3f
       0.81770813

beta f4 [3]
000000 0c dd e3 40 6d 0d 82 40 29 dd c1 c1
       7.1207333 4.064139 -24.232988

rotation f4 [3, 3]
000000 86 7b 44 3f a8 cf f2 3e 14 d4 dc be a8 2a 9c be
       0.7675098 0.47424054 -0.43130553 -0.30501294
000010 b8 a8 5c 3f ca 59 cf 3e ab 56 10 3f ae 93 37 be
       0.86194944 0.4049819 0.56382245 -0.17927429
000020 63 63 4e 3f
       0.806204

beta f4 [3]
000000 33 53 c9 40 d5 1f 90 40 df db c2 c1
       6.291406 4.5038857 -24.357359

rotation f4 [3, 3]
000000 ed 99 48 3f 3e 11 ed 3e 93 15 d4 be f7 b4 9a be
       0.7835987 0.46302217 -0.4142271 -0.3021619
000010 44 da 5d 3f cb 4f cb 3e 57 f7 0a 3f 5a 76 3e be
       0.8666117 0.39709315 0.5428366 -0.18599835
000020 e2 a8 51 3f
       0.8189832

beta f4 [3]
000000 bb 1c ec 40 bd db 88 40 34 e9 c0 c1
       7.378507 4.2768235 -24.113869

rotation f4 [3, 3]
000000 f7 20 4a 3f e4 63 e8 3e 76 75 d3 be 68 e1 98 be
       0.7895655 0.4538871 -0.41300553 -0.2985947
000010 7c 43 5f 3f fa 74 c6 3e 63 3f 09 3f e2 1b 3b be
       0.8721235 0.3876112 0.53612345 -0.18272355
000020 f2 f9 52 3f
       0.82412636

beta f4 [3]
000000 6a 77 f7 40 fb c4 72 40 34 65 c1 c1
       7.733327 3.7932727 -24.174416

rotation f4 [3, 3]
000000 95 ce 49 3f 30 14 ef 3e e8 22 cd be fe 1e 9c be
       0.78830844 0.4669509 -0.40065694 -0.30492395
000010 3f b1 5c 3f 3b 3e cf 3e e4 ce 08 3f 0c a4 49 be
       0.86207956 0.40477166 0.5344069 -0.19691485
000020 97 6c 52 3f
       0.82196945

beta f4 [3]
000000 32 af fb 40 ed 7d 9a 40 c5 59 c0 c1
       7.865136 4.827872 -24.043833

rotation f4 [3, 3]
000000 c4 17 47 3f 02 0d ef 3e e0 83 d7 be 8c bf 9d be
       0.7777064 0.46689612 -0.420928 -0.308102
000010 20 e4 5d 3f 68 ca c8 3e 3e 46 0c 3f c6 82 33 be
       0.86676216 0.39216924 0.5479468 -0.17530355
000020 66 64 51 3f
       0.8179382

beta f4 [3]
000000 cb 2c e5 40 84 11 82 40 58 80 c1 c1
       7.161718 4.064638 -24.187668

rotation f4 [3, 3]
000000 5c 5f 46 3f f3 1f f1 3e 8a dc d7 be 72 c6 9c be
       0.77489257 0.47094688 -0.42160445 -0.30620152
000010 04 fa 5c 3f d8 87 cd 3e ce 8f 0d 3f 70 55 3a be
       0.86318994 0.40142703 0.55297554 -0.18196654
000020 4a 26 50 3f
       0.81308424

beta f4 [3]
000000 68 a8 dc 40 08 e9 8e 40 00 4b c2 c1
       6.8955574 4.465946 -24.286621

rotation f4 [3, 3]
000000 20 cf 45 3f 68 c4 f2 3e cb 16 d8 be ba bd a1 be
       0.7726917 0.4741547 -0.4220489 -0.31590062
000010 1b 2a 5d 3f 26 d2 c8 3e cc f3 0c 3f f8 d1 2d be
       0.8639237 0.3922283 0.55059505 -0.16974628
000020 ae 3c 51 3f
       0.81733215

beta f4 [3]
000000 68 b5 e2 40 8c 87 85 40 06 a6 c1 c1
       7.0846443 4.1727962 -24.206066

rotation f4 [3, 3]
000000 e5 a1 41 3f bd 04 fd 3e 53 6f db be be 9e a6 be
       0.75637656 0.49417678 -0.4285837 -0.32542986
000010 0d 46 5a 3f b8 4d d1 3e d8 43 11 3f ae cd 2d be
       0.8526314 0.40879607 0.56744146 -0.16972992
000020 59 44 4e 3f
       0.8057304

beta f4 [3]
000000 20 dd c8 40 e6 66 a0 40 6f 7b c3 c1
       6.276993 5.012561 -24.43527

rotation f4 [3, 3]
000000 92 56 44 3f 33 3c f4 3e d9 c4 db be 9d ff 9c be
       0.76694596 0.47702178 -0.4292362 -0.30663767
000010 b6 29 5c 3f 7f d3 d0 3e 2d 4f 10 3f a0 89 39 be
       0.86001146 0.4078636 0.5637081 -0.18118906
000020 89 4c 4e 3f
       0.80585533

beta f4 [3]
000000 e5 3a cb 40 29 40 96 40 cc f2 c3 c1
       6.3509393 4.695332 -24.493553

rotation f4 [3, 3]
000000 13 08 45 3f d0 02 f3 3e 20 a4 da be e3 b9 9c be
       0.76965445 0.47463083 -0.42703342 -0.3061057
000010 ee 7c 5c 3f df a7 cf 3e 88 6f 0f 3f a8 ca 39 be
       0.8612813 0.40557763 0.5602956 -0.18143713
000020 a8 e4 4e 3f
       0.8081765

beta f4 [3]
000000 89 8c d0 40 1c 44 93 40 7a 4d c3 c1
       6.517155 4.602064 -24.41283

rotation f4 [3, 3]
000000 ae 7d 46 3f ee 2b f0 3e df 7c d8 be 54 4b 9c be
       0.7753552 0.46908516 -0.4228277 -0.3052622
000010 19 50 5d 3f 5c 72 cc 3e 56 87 0d 3f c4 dd 38 be
       0.86450344 0.39931 0.5528463 -0.18053347
000020 f8 40 50 3f
       0.81349134

beta f4 [3]
000000 01 d7 dc 40 9f e2 8a 40 32 89 c2 c1
       6.9012456 4.3401637 -24.31699

rotation f4 [3, 3]
000000 d6 f8 44 3f f2 28 f5 3e 10 72 d8 be ba 5c a2 be
       0.76942194 0.478828 -0.42274523 -0.3171137
000010 34 62 5c 3f 5a bb cb 3e 3f f1 0d 3f 78 3c 30 be
       0.86087346 0.39791375 0.5544624 -0.17210567
000020 99 70 50 3f
       0.8142181

beta f4 [3]
000000 cb a5 dc 40 d9 61 8e 40 f8 16 c2 c1
       6.8952384 4.4494443 -24.261215

rotation f4 [3, 3]
000000 53 13 45 3f 64 08 f7 3e b5 ec d5 be c8 39 a3 be
       0.7698261 0.4824859 -0.41782156 -0.3188002
000010 a6 98 5b 3f c7 6c ce 3e f8 8c 0d 3f aa 6c 35 be
       0.857798 0.40317366 0.55293226 -0.17717233
000020 96 6d 50 3f
       0.81417215

beta f4 [3]
000000 2c cc df 40 54 ed 98 40 2f e0 c1 c1
       6.9936733 4.7789707 -24.234465

rotation f4 [3, 3]
000000 8b df 47 3f d8 1a ef 3e a8 8b d4 be 1d c2 9d be
       0.78075475 0.46700168 -0.415128 -0.3081216
000010 d6 a0 5d 3f c2 f0 c9 3e 48 28 0b 3f 16 5a 38 be
       0.8657354 0.39441496 0.5435834 -0.18003115
000020 c5 df 51 3f
       0.8198207

beta f4 [3]
000000 0c dd ec 40 42 89 87 40 c7 46 c1 c1
       7.4019833 4.235505 -24.15956

rotation f4 [3, 3]
000000 95 71 47 3f 9e 0e f6 3e b9 20 ce be 51 84 a9 be
       0.7790769 0.48058027 -0.4025934 -0.33108762
000010 58 57 5c 3f f4 01 c6 3e 84 49 08 3f 86 08 2c be
       0.86070776 0.38673365 0.53237176 -0.16800126
000020 61 65 54 3f
       0.8296719

beta f4 [3]
000000 02 74 02 41 3a 38 8c 40 64 5a bf c1
       8.153322 4.3818636 -23.919136

rotation f4 [3, 3]
000000 5e e3 46 3f 10 da fb 3e bf 37 c9 be b6 88 ac be
       0.77690685 0.49189806 -0.39300343 -0.33698052
000010 25 25 5a 3f 12 01 cd 3e 03 27 08 3f e0 ec 36 be
       0.8521293 0.4003988 0.5318453 -0.17863798
000020 bc e9 53 3f
       0.82778525

beta f4 [3]
000000 1e 3a 03 41 70 0c a7 40 a6 3c be c1
       8.201689 5.2202682 -23.779613

rotation f4 [3, 3]
000000 42 7b 48 3f b6 40 f3 3e a3 6d cd be 17 ad a1 be
       0.78313076 0.47510308 -0.4012271 -0.3157737
000010 4c 12 5c 3f 56 9e cd 3e ca 24 09 3f 74 50 40 be
       0.8596542 0.40159863 0.5357176 -0.1878069
000020 4c c0 52 3f
       0.8232467

beta f4 [3]
000000 f3 9c fb 40 03 ee 9a 40 9c b7 bf c1
       7.862909 4.841554 -23.964653

rotation f4 [3, 3]
000000 b2 c9 44 3f a0 35 fb 3e de 15 d2 be 2e e1 a9 be
       0.7687026 0.4906435 -0.41032308 -0.3317961
000010 a7 b6 5a 3f 7e cc cc 3e 1f fc 0b 3f a0 72 2f be
       0.85434955 0.39999765 0.5468158 -0.1713357
000020 04 cd 51 3f
       0.81953454

beta f4 [3]
000000 11 ff ec 40 bc 5f 9d 40 71 d0 c0 c1
       7.406136 4.9179363 -24.101778

rotation f4 [3, 3]
000000 4c b6 44 3f 0e 6d f9 3e 18 7b d4 be 9b cc a6 be
       0.7684066 0.48716015 -0.41500163 -0.32577977
000010 77 1e 5b 3f 5e 98 cd 3e 80 03 0d 3f 82 84 31 be
       0.8559336 0.4015531 0.55083466 -0.17335704
000020 5f 00 51 3f
       0.8164119

beta f4 [3]
000000 12 d3 e4 40 4e eb 9a 40 38 5e c1 c1
       7.1507654 4.8412237 -24.171005

rotation f4 [3, 3]
000000 e8 10 43 3f d1 3e fb 3e 20 5f d8 be c8 8a a9 be
       0.7619767 0.49071363 -0.42260075 -0.33113694
000010 c4 24 5b 3f 9f 3b cb 3e 90 79 0e 3f 90 6b 26 be
       0.85602975 0.39693925 0.5565424 -0.1625197
000020 a8 94 50 3f
       0.8147683

beta f4 [3]
000000 fc be dc 40 7f c8 93 40 d5 63 c2 c1
       6.8983135 4.6182246 -24.298746

rotation f4 [3, 3]
000000 cd b2 44 3f a6 57 f4 3e 5c 5b da be a0 07 a8 be
       0.7683533 0.4772312 -0.42647827 -0.32818317
000010 42 a8 5d 3f 41 58 c1 3e c0 aa 0c 3f c0 ca 19 be
       0.86584866 0.37762645 0.54948044 -0.15018749
000020 d6 67 52 3f
       0.8218969

beta f4 [3]
000000 f6 dd e8 40 82 ab 68 40 fd bb c2 c1
       7.277095 3.635468 -24.341791

rotation f4 [3, 3]
000000 2e cc 43 3f c6 cb f9 3e 86 67 d7 be db a5 ac be
       0.7648343 0.4878828 -0.4207117 -0.33720288
000010 3e 10 5c 3f 39 88 c4 3e 90 86 0c 3f ce 5b 1b be
       0.85962284 0.3838518 0.54892826 -0.1517174
000020 98 6d 52 3f
       0.82198477

beta f4 [3]
000000 ae 13 eb 40 53 26 84 40 c8 bf c1 c1
       7.3461523 4.1296782 -24.218643

rotation f4 [3, 3]
000000 89 23 42 3f b5 22 fa 3e e2 f1 dc be 61 3a ab be
       0.7583547 0.48854604 -0.43153292 -0.33442977
000010 91 1f 5c 3f ea 80 c5 3e 39 3c 0f 3f 34 c6 17 be
       0.85985667 0.38574916 0.5595127 -0.14821702
000020 0d c2 50 3f
       0.815461

beta f4 [3]
000000 05 1a d8 40 94 21 81 40 e1 a9 c2 c1
       6.753176 4.035349 -24.332949

rotation f4 [3, 3]
000000 7a ef 41 3f 97 b5 f9 3e 7b 23 de be 3d da a8 be
       0.7575604 0.48771355 -0.43386444 -0.32979003
000010 9d 0b 5c 3f 1c e2 c7 3e 73 36 10 3f 5a 54 1c be
       0.8595522 0.39039695 0.5633308 -0.15266553
000020 92 df 4f 3f
       0.81200516

beta f4 [3]
000000 3c 7b d0 40 66 d9 84 40 fa 03 c3 c1
       6.5150433 4.151538 -24.376942

rotation f4 [3, 3]
000000 db fd 41 3f 68 56 fa 3e b6 3b dd be 15 f8 a3 be
       0.7577798 0.48894048 -0.43209618 -0.3202521
000010 bc 0b 5b 3f e4 2a d0 3e 21 8a 11 3f 14 ca 2d be
       0.8556478 0.40657723 0.56851393 -0.16971618
000020 f6 12 4e 3f
       0.8049768

beta f4 [3]
000000 b5 9c c5 40 61 47 99 40 01 91 c3 c1
       6.1753793 4.7899632 -24.445803

rotation f4 [3, 3]
000000 c1 c4 45 3f 04 9c f4 3e 98 26 d6 be 76 71 9f be
       0.7725335 0.4777528 -0.4182632 -0.3114125
000010 0c ef 5b 3f 26 f0 cf 3e 68 a9 0d 3f 48 e6 3b be
       0.8591163 0.40612906 0.5533662 -0.18349564
000020 52 fe 4f 3f
       0.81247437

beta f4 [3]
000000 6e eb dc 40 99 93 99 40 7f ba c1 c1
       6.903739 4.7992673 -24.216063

rotation f4 [3, 3]
000000 94 6a 47 3f 8e be f6 3e 57 69 cd be b2 dd a4 be
       0.77897 0.48192257 -0.4011943 -0.3220039
000010 ca 3e 5b 3f 5d 9d ce 3e 02 bf 09 3f 86 9b 3d be
       0.85642684 0.40354434 0.5380708 -0.18516359
000020 00 83 52 3f
       0.8223114

beta f4 [3]
000000 8a e5 f8 40 2e fc a0 40 b8 80 bf c1
       7.77802 5.0307837 -23.93785

rotation f4 [3, 3]
000000 69 7a 45 3f 38 2f fb 3e 38 82 cf be 74 72 a6 be
       0.7713991 0.49059463 -0.40529037 -0.32509196
000010 ec f0 59 3f 8a d2 d2 3e 2c 0b 0c 3f 6e 56 3e be
       0.8513324 0.41176254 0.54704547 -0.18587658
000020 d5 f2 50 3f
       0.8162053

beta f4 [3]
000000 8a 12 eb 40 f1 80 ad 40 c9 a2 c0 c1
       7.346013 5.42199 -24.079485

rotation f4 [3, 3]
000000 36 1c 47 3f 9b 89 f6 3e a7 d7 ce be 2e fd 9f be
       0.7777742 0.4815186 -0.40398905 -0.31247848
000010 63 99 5a 3f a8 15 d5 3e 1f 9d 0b 3f 32 32 4a be
       0.853903 0.41618085 0.5453662 -0.1974571
000020 28 8a 50 3f
       0.8146081

beta f4 [3]
000000 ba bb ea 40 34 50 ae 40 e0 8a c0 c1
       7.335416 5.4472904 -24.06781

rotation f4 [3, 3]
000000 6e e7 47 3f 4a 69 f2 3e 0f a6 d0 be fa 16 9b be
       0.7808751 0.47345954 -0.40751693 -0.30290967
000010 c6 85 5b 3f f4 e8 d4 3e 7b dc 0b 3f d0 1b 4e be
       0.85751 0.4158398 0.546333 -0.20127797
000020 52 22 50 3f
       0.8130237

beta f4 [3]
000000 3c c3 e7 40 1a 29 a8 40 34 e8 c1 c1
       7.2425823 5.2550173 -24.23838

rotation f4 [3, 3]
000000 8e 15 4a 3f 18 87 ec 3e 77 fe ce be 57 0c 97 be
       0.7893914 0.46196818 -0.40428516 -0.29501602
000010 00 ee 5c 3f 14 f9 d1 3e a9 d1 09 3f 4e 5e 51 be
       0.8630066 0.41010344 0.5383554 -0.2044613
000020 2e 4a 51 3f
       0.81753814

beta f4 [3]
000000 a2 b8 f1 40 a1 41 9c 40 e7 59 c0 c1
       7.553788 4.8830113 -24.043898

rotation f4 [3, 3]
000000 29 e9 46 3f 46 55 f2 3e 55 80 d4 be e6 b8 9b be
       0.77699524 0.47330683 -0.4150416 -0.30414504
000010 b8 08 5c 3f 0a 52 d2 3e a7 18 0d 3f e8 92 45 be
       0.85950804 0.41078216 0.5511574 -0.19294322
000020 48 d1 4f 3f
       0.8117871

beta f4 [3]
000000 40 8c df 40 0a 6d 9e 40 48 35 c2 c1
       6.9858704 4.9508104 -24.276016

rotation f4 [3, 3]
000000 07 48 46 3f 06 bf f1 3e 4f 80 d7 be bf 1d a2 be
       0.77453655 0.47216052 -0.4209008 -0.3166332
000010 6f 8f 5d 3f 18 c3 c6 3e be 2d 0c 3f 54 6d 2b be
       0.8654699 0.3882072 0.547573 -0.16740924
000020 06 e1 51 3f
       0.81983984

beta f4 [3]
000000 f8 e8 e7 40 be 4c 80 40 70 50 c1 c1
       7.2471886 4.009368 -24.164276

rotation f4 [3, 3]
000000 b6 b1 45 3f 94 94 f4 3e 71 75 d6 be cf ce 9f be
       0.7722429 0.47769606 -0.41886476 -0.3121247
000010 32 08 5c 3f f0 3d cf 3e b8 a9 0d 3f e4 34 3a be
       0.85950005 0.40476942 0.55337095 -0.18184239
000020 81 16 50 3f
       0.8128434

beta f4 [3]
000000 77 53 dd 40 b5 b5 97 40 6e f5 c1 c1
       6.9164386 4.740931 -24.244839

rotation f4 [3, 3]
000000 c2 b2 47 3f 0d fa ef 3e 7f 38 d4 be c0 4a 9c be
       0.7800714 0.4687046 -0.41449353 -0.3052578
000010 0a 05 5d 3f b2 b6 cd 3e 18 d2 0b 3f 0e 61 3f be
       0.86335814 0.40178448 0.5461745 -0.18689367
000020 d6 09 51 3f
       0.81655633

beta f4 [3]
000000 a8 87 e7 40 88 64 91 40 6b 41 c1 c1
       7.2353096 4.543522 -24.156942

rotation f4 [3, 3]
000000 e2 56 45 3f 14 18 f8 3e 53 b6 d3 be 46 33 a1 be
       0.770857 0.4845587 -0.4135004 -0.3148443
000010 68 a7 5a 3f ba f1 d3 3e 5e c3 0d 3f d4 71 41 be
       0.8541169 0.4139536 0.5537623 -0.18891078
000020 3b 9b 4f 3f
       0.8109624

beta f4 [3]
000000 32 00 dd 40 56 b2 a8 40 8a 5d c1 c1
       6.906274 5.2717695 -24.170673

rotation f4 [3, 3]
000000 89 e9 44 3f f6 7f f9 3e ac a6 d3 be 4d 65 a4 be
       0.76918846 0.4873044 -0.41338098 -0.32108536
000010 f0 a1 5a 3f 7c 90 d1 3e 78 70 0d 3f 20 79 3a be
       0.85403347 0.40930545 0.5524974 -0.18210268
000020 98 39 50 3f
       0.8133788

beta f4 [3]
000000 73 e7 e0 40 29 d6 a4 40 f0 6f c1 c1
       7.028253 5.1511426 -24.179657

rotation f4 [3, 3]
000000 3f 1b 44 3f aa 90 f9 3e 06 8c d6 be f5 9d a2 be
       0.76604074 0.48743182 -0.41903704 -0.31761137
000010 d4 91 5a 3f 6e 35 d3 3e 54 10 0f 3f da 4d 3b be
       0.85378766 0.412517 0.5588429 -0.18291417
000020 c8 10 4f 3f
       0.8088498

beta f4 [3]
000000 67 9c d5 40 fa f8 a5 40 f2 6c c2 c1
       6.675342 5.1866426 -24.303196

rotation f4 [3, 3]
000000 91 8f 45 3f 72 90 f5 3e 27 d3 d5 be a9 e0 9d be
       0.7717219 0.47961766 -0.4176266 -0.30835465
000010 35 45 5b 3f e2 e5 d3 3e 5d 63 0e 3f 54 2f 43 be
       0.85652477 0.41386324 0.55620366 -0.19061023
000020 80 13 4f 3f
       0.8088913

beta f4 [3]
000000 2a 8e d8 40 3c 53 a4 40 4a fd c2 c1
       6.767354 5.1351604 -24.373676

rotation f4 [3, 3]
000000 2c bc 44 3f 8a ad f9 3e 7e 19 d4 be 79 57 a2 be
       0.7684963 0.48765212 -0.414257 -0.3170736
000010 89 42 5a 3f 32 b2 d4 3e cf 46 0e 3f e0 68 40 be
       0.85257775 0.41542202 0.55576795 -0.18790007
000020 a9 50 4f 3f
       0.8098245

beta f4 [3]
000000 52 40 da 40 e7 bb ab 40 63 95 c1 c1
       6.8203516 5.3666873 -24.197943

rotation f4 [3, 3]
000000 0d f3 42 3f f7 56 f6 3e af 59 de be 2b 6b 9f be
       0.76152116 0.48113224 -0.43427798 -0.3113645
000010 23 f6 5b 3f 1a d7 cf 3e 16 86 11 3f d8 15 32 be
       0.8592245 0.40593797 0.56845224 -0.17391145
000020 24 db 4d 3f
       0.8041251

beta f4 [3]
000000 8e 50 c4 40 17 a2 93 40 68 73 c4 c1
       6.1348333 4.6135364 -24.55635

rotation f4 [3, 3]
000000 51 02 47 3f 98 40 f1 3e 66 5c d5 be 1a 23 9a be
       0.7773791 0.47119594 -0.41672057 -0.30104905
000010 7e 41 5c 3f 29 8f d2 3e 7a 64 0d 3f 86 e7 46 be
       0.86037433 0.41124848 0.5523144 -0.19424257
000020 65 89 4f 3f
       0.8106902

beta f4 [3]
000000 2a e0 dc 40 8d 19 9d 40 43 7e c2 c1
       6.902364 4.909369 -24.311651

rotation f4 [3, 3]
000000 32 9a 44 3f b2 ef f9 3e 99 49 d4 be 9f 1f a3 be
       0.76797783 0.48815686 -0.414624 -0.31860062
000010 8a 4e 5a 3f 7c e7 d3 3e 89 3c 0e 3f a0 34 3e be
       0.8527609 0.41387546 0.5556112 -0.18574762
000020 3a 78 4f 3f
       0.81042826

beta f4 [3]
000000 4a da da 40 88 fe a9 40 b0 8c c1 c1
       6.8391466 5.3123207 -24.193695

rotation f4 [3, 3]
000000 ef da 45 3f 4e bd f5 3e da 87 d4 be c2 90 a2 be
       0.7728719 0.4799599 -0.41509897 -0.31751066
000010 0c df 5b 3f 26 c6 cd 3e 66 a6 0c 3f d4 1c 37 be
       0.8588722 0.40190238 0.54941404 -0.17882091
000020 e2 f1 50 3f
       0.81619084

beta f4 [3]
000000 bb c6 e5 40 ec 78 97 40 97 d6 c1 c1
       7.180509 4.733511 -24.22978

rotation f4 [3, 3]
000000 5f af 45 3f b0 6d f9 3e b7 d5 d0 be 83 ef a4 be
       0.7722072 0.48716497 -0.4078805 -0.32213983
000010 50 80 5a 3f 2e b0 d1 3e e4 32 0c 3f 30 4c 3d be
       0.8535204 0.40954727 0.5476515 -0.18486094
000020 51 e7 50 3f
       0.8160296

beta f4 [3]
000000 8e 92 e9 40 fc ce a7 40 b3 0a c1 c1
       7.29914 5.2440166 -24.130224

rotation f4 [3, 3]
000000 cb 9e 45 3f 82 22 f5 3e 0f 19 d6 be 9f 6e 9f be
       0.77195424 0.4787789 -0.41815993 -0.31139085
000010 74 b9 5b 3f 9e d4 d0 3e 2b df 0d 3f 50 14 3d be
       0.85829854 0.40787214 0.5541865 -0.1846478
000020 96 c8 4f 3f
       0.81165445

beta f4 [3]
000000 52 72 dc 40 fa 71 9c 40 fb 97 c2 c1
       6.888955 4.888913 -24.32421

rotation f4 [3, 3]
000000 ea 4d 44 3f a4 7d f8 3e be 11 d7 be 6f cc a4 be
       0.7668139 0.48533356 -0.42005724 -0.3218722
000010 fb 60 5b 3f a5 19 ce 3e 51 2a 0e 3f b8 a1 31 be
       0.85694855 0.4025394 0.5553332 -0.17346847
000020 bd 36 50 3f
       0.81333524

beta f4 [3]
000000 8d a5 dc 40 31 a9 98 40 09 44 c2 c1
       6.895209 4.7706532 -24.28322

rotation f4 [3, 3]
000000 ed f5 43 3f 2a f4 f5 3e 10 33 db be b4 19 a5 be
       0.7654713 0.48037845 -0.42812395 -0.32246172
000010 12 b5 5c 3f e0 18 c8 3e 1d 8d 0e 3f 78 f8 24 be
       0.8621379 0.39081478 0.5568407 -0.16110408
000020 ba 99 50 3f
       0.8148457

beta f4 [3]
000000 88 2e da 40 bf 5b 84 40 68 ac c2 c1
       6.81818 4.1361995 -24.334183

rotation f4 [3, 3]
000000 30 43 46 3f b3 b8 ef 3e d7 d1 d9 be 50 55 9e be
       0.7744627 0.46820602 -0.42542908 -0.30924463
000010 40 ea 5d 3f 1b 39 c8 3e 30 48 0d 3f 44 69 2f be
       0.8668556 0.39106068 0.55188274 -0.1713
000020 68 ee 50 3f
       0.8161378

beta f4 [3]
000000 25 fb de 40 f4 c2 7e 40 7d 0f c2 c1
       6.9681573 3.980649 -24.257563

rotation f4 [3, 3]
000000 3d 49 46 3f c2 f1 f0 3e 56 61 d8 be 40 06 9a be
       0.774555 0.47059447 -0.4226176 -0.30082893
000010 84 a1 5c 3f e7 10 d1 3e 66 6f 0e 3f ea ad 41 be
       0.86183953 0.40833208 0.5563873 -0.18913999
000020 db 21 4f 3f
       0.80911034

beta f4 [3]
000000 e3 90 d5 40 7e 78 96 40 f8 b3 c2 c1
       6.6739364 4.7022085 -24.337875

rotation f4 [3, 3]
000000 f8 f5 48 3f 2a aa ee 3e 45 e8 d0 be 52 4b 9b be
       0.7850032 0.466142 -0.40802208 -0.30330902
000010 44 0e 5d 3f 2c 50 ce 3e 00 48 0a 3f 96 2f 45 be
       0.8634989 0.4029554 0.54016113 -0.19256434
000020 58 b9 51 3f
       0.8192344

beta f4 [3]
000000 a6 f2 ef 40 96 24 94 40 b9 a5 bf c1
       7.49837 4.629466 -23.95592

rotation f4 [3, 3]
000000 16 4c 49 3f d6 14 ed 3e f1 69 d1 be dd c2 9d be
       0.7863172 0.4630496 -0.4090114 -0.3081273
000010 81 23 5e 3f 8f ae c7 3e aa 16 09 3f 70 f9 38 be
       0.86772925 0.39000365 0.5355021 -0.18063903
000020 77 32 53 3f
       0.8249888

beta f4 [3]
000000 fc 6c fa 40 f7 06 83 40 66 83 c0 c1
       7.8258038 4.0946 -24.06416

rotation f4 [3, 3]
000000 8a 99 4a 3f 0a ff e7 3e 66 15 d2 be 33 b1 97 be
       0.7914053 0.45311767 -0.4103195 -0.2962738
000010 0e 17 5f 3f 4e 24 c8 3e d3 e1 08 3f 42 4d 40 be
       0.87144554 0.39090198 0.5346958 -0.18779472
000020 fd eb 52 3f
       0.8239134

beta f4 [3]
000000 87 d4 f8 40 ba fd 7b 40 d8 ed c0 c1
       7.7759433 3.9373612 -24.116135

rotation f4 [3, 3]
000000 7b 7b 46 3f 31 cd f2 3e dc 90 d5 be 5d 75 99 be
       0.77532166 0.47422174 -0.4171208 -0.29972354
000010 0d 8d 5b 3f d2 f8 d5 3e 77 50 0e 3f b8 c5 4b be
       0.857621 0.41791397 0.5559153 -0.19899642
000020 fd 9b 4e 3f
       0.8070677

beta f4 [3]
000000 88 25 d5 40 0b 23 a6 40 92 90 c1 c1
       6.6608315 5.1917777 -24.195591

rotation f4 [3, 3]
000000 65 63 43 3f f2 09 fb 3e 3b 72 d7 be 49 84 a1 be
       0.7632354 0.49031025 -0.42079338 -0.31546238
000010 84 e4 59 3f cc d1 d6 3e 18 5a 10 3f 32 fc 3f be
       0.8511431 0.41956937 0.5638747 -0.18748549
000020 6e e6 4d 3f
       0.8042973

beta f4 [3]
000000 20 0a cd 40 f0 19 af 40 d7 50 c3 c1
       6.407486 5.471916 -24.414473

rotation f4 [3, 3]
000000 76 c0 45 3f c8 c4 fd 3e 6c 47 cb be ae 98 a8 be
       0.772468 0.49564195 -0.39702928 -0.32928985
000010 68 e1 58 3f 02 79 d5 3e c8 02 0b 3f 1c ed 43 be
       0.8471894 0.41693884 0.5430112 -0.19133419
000020 a4 50 51 3f
       0.8176367

beta f4 [3]
000000 a0 c7 f1 40 9e 25 ba 40 ba f9 be c1
       7.5556183 5.817092 -23.871937

rotation f4 [3, 3]
000000 e0 9b 46 3f 96 56 f6 3e 22 ff d0 be 8c e4 a3 be
       0.77581596 0.48112935 -0.4081965 -0.32010305
000010 15 8e 5b 3f 82 12 ce 3e fc 31 0b 3f 9a f2 39 be
       0.85763675 0.40248495 0.54373145 -0.18158951
000020 d9 c2 51 3f
       0.8193794

beta f4 [3]
000000 d4 91 ef 40 34 0d 9c 40 12 c1 c0 c1
       7.4865513 4.8766117 -24.094273

rotation f4 [3, 3]
000000 09 3c 45 3f 8e 6b f8 3e 81 b8 d3 be 95 c3 a4 be
       0.7704473 0.48519558 -0.41351703 -0.32180467
000010 de 1e 5b 3f 4e 39 cf 3e d7 e1 0c 3f 9a 0b 37 be
       0.85593975 0.40473408 0.55032104 -0.1787552
000020 ca ca 50 3f
       0.8155943

beta f4 [3]
000000 29 01 e5 40 b8 57 9e 40 cf 85 c1 c1
       7.1563916 4.948208 -24.190336

rotation f4 [3, 3]
000000 d6 29 45 3f b8 7a f8 3e 84 ea d3 be 6e 62 a2 be
       0.7701696 0.48531127 -0.4138986 -0.3171572
000010 b6 b8 5a 3f 0c c2 d2 3e 8e ab 0d 3f b8 37 3e be
       0.85438097 0.4116367 0.55339897 -0.18575943
000020 2b db 4f 3f
       0.811938

beta f4 [3]
000000 87 6b de 40 c5 3d a6 40 3e 8d c1 c1
       6.950626 5.19504 -24.193966

rotation f4 [3, 3]
000000 60 af 45 3f ac 29 f6 3e 8e ac d4 be a5 2a a1 be
       0.77220726 0.48078668 -0.415379 -0.31477848
000010 4e 7d 5b 3f a0 7c d0 3e 49 4a 0d 3f 78 19 3c be
       0.85738075 0.4072008 0.55191475 -0.1836909
000020 1a 3c 50 3f
       0.8134171

beta f4 [3]
000000 44 68 e1 40 af 21 9e 40 43 82 c2 c1
       7.0439777 4.941612 -24.313604

rotation f4 [3, 3]
000000 29 0a 45 3f 50 8c f7 3e e6 75 d5 be 09 46 9f be
       0.7696863 0.48349237 -0.41691512 -0.3110812
000010 3d b3 5a 3f d4 34 d5 3e a4 b8 0e 3f 94 65 43 be
       0.85429746 0.41641867 0.5575049 -0.19081718
000020 93 d5 4e 3f
       0.8079464

beta f4 [3]
000000 5d 40 d6 40 06 89 a9 40 8a 47 c2 c1
       6.695357 5.2979765 -24.284931

rotation f4 [3, 3]
000000 a3 8b 46 3f c1 2c f7 3e 93 3f d0 be 61 0b 9e be
       0.7755682 0.48276332 -0.40673503 -0.30868056
000010 c2 20 5a 3f df 70 d8 3e 18 f7 0c 3f 10 2a 4f be
       0.85206234 0.42273614 0.55064535 -0.2023089
000020 78 52 4f 3f
       0.8098521

beta f4 [3]
000000 2c e5 e0 40 46 70 b5 40 fa 07 c1 c1
       7.027975 5.6699553 -24.128895

rotation f4 [3, 3]
000000 04 71 43 3f d8 ae fb 3e ef 7f d6 be 06 7a a2 be
       0.76344323 0.49156833 -0.4189448 -0.31733721
000010 7e b6 59 3f 24 d3 d6 3e 9d 02 10 3f 20 e0 3f be
       0.85044086 0.41957963 0.5625399 -0.1873784
000020 47 25 4e 3f
       0.8052563

beta f4 [3]
000000 66 a7 cf 40 88 a5 b0 40 4a 01 c3 c1
       6.4891844 5.5202065 -24.37563

rotation f4 [3, 3]
000000 b7 7d 42 3f 33 03 00 3f 4e cf d4 be e2 ed a7 be
       0.75973076 0.5000488 -0.4156441 -0.32798678
000010 c0 bd 58 3f d0 8f d6 3e a0 bb 0f 3f ae 6b 3a be
       0.84664536 0.41906595 0.5614567 -0.18205139
000020 c2 a6 4e 3f
       0.807232

beta f4 [3]
000000 e1 7c d3 40 9c 02 b6 40 b9 31 c2 c1
       6.608994 5.6878185 -24.274279

rotation f4 [3, 3]
000000 2a d0 43 3f 3d ad fe 3e c1 8d d1 be f6 94 a8 be
       0.7648951 0.49741545 -0.40928462 -0.32926148
000010 a4 17 59 3f 22 9f d4 3e af bb 0d 3f 5a 45 3b be
       0.848017 0.4152766 0.5536451 -0.18288174
000020 f8 fa 4f 3f
       0.8124232

beta f4 [3]
000000 74 f4 e0 40 0a 5c b3 40 d5 43 c1 c1
       7.0298405 5.604985 -24.158121

rotation f4 [3, 3]
000000 32 39 44 3f 98 87 f8 3e d0 51 d7 be ab 14 a5 be
       0.76649773 0.4854095 -0.42054605 -0.3224233
000010 a4 6d 5b 3f d9 a9 cd 3e f9 31 0e 3f f8 6e 30 be
       0.85714173 0.40168646 0.55545 -0.17229831
000020 cf 41 50 3f
       0.81350416

beta f4 [3]
000000 f5 cb dc 40 5a 83 97 40 2d 7c c2 c1
       6.899897 4.734784 -24.310633

rotation f4 [3, 3]
000000 ba 4c 47 3f cd 02 f5 3e 43 ec cf be 0c aa a4 be
       0.7785145 0.478537 -0.4060994 -0.32160985
000010 dd 1b 5c 3f 28 12 cb 3e 80 f9 09 3f 58 72 36 be
       0.85980016 0.3966229 0.5389633 -0.17817056
000020 c8 c1 52 3f
       0.82326937

beta f4 [3]
000000 92 b6 f7 40 fe c0 94 40 24 25 c0 c1
       7.7410364 4.6485586 -24.018135

rotation f4 [3, 3]
000000 27 9f 47 3f 2c 78 f3 3e 7a 7f d0 be 60 ce a4 be
       0.7797722 0.4755262 -0.40722257 -0.32188702
000010 cd c6 5c 3f e8 08 c8 3e 51 77 09 3f e2 bc 31 be
       0.86240846 0.39069295 0.5369769 -0.1735721
000020 1a 57 53 3f
       0.8255478

beta f4 [3]
000000 6f 47 fc 40 6e db 8b 40 05 07 c1 c1
       7.88372 4.370536 -24.128428

rotation f4 [3, 3]
000000 68 a4 48 3f e7 43 ef 3e b7 71 d1 be a1 1c 9b be
       0.78375864 0.46731493 -0.4090707 -0.3029528
000010 b1 d6 5c 3f a8 60 cf 3e 42 cb 0a 3f 1a 2a 46 be
       0.86265093 0.4050343 0.54216397 -0.19351998
000020 c6 53 51 3f
       0.81768453

beta f4 [3]
000000 1f 27 ee 40 dc 1a 97 40 e2 38 c1 c1
       7.4422755 4.7220287 -24.152775

rotation f4 [3, 3]
000000 8e 1c 4c 3f da bf e8 3e 89 49 cb be bc 3e 95 be
       0.7973107 0.4545887 -0.3970454 -0.29149425
000010 f2 b4 5d 3f 14 fa cf 3e b4 4c 07 3f 56 21 55 be
       0.86604226 0.40620482 0.52851415 -0.20813498
000020 18 b1 52 3f
       0.82301474

beta f4 [3]
000000 f8 71 00 41 5a b8 96 40 36 5a bf c1
       8.027824 4.710004 -23.919048

rotation f4 [3, 3]
000000 3d e9 4b 3f 6d 8d e8 3e 66 50 cc be 1f 57 97 be
       0.7965277 0.454204 -0.3990509 -0.29558656
000010 e1 49 5e 3f 51 f0 cb 3e fb 04 07 3f aa 19 4c be
       0.8683148 0.39831784 0.52741975 -0.19931665
000020 c6 6d 53 3f
       0.82589376

beta f4 [3]
000000 f6 03 02 41 ce 48 8c 40 93 72 bf c1
       8.125967 4.3838873 -23.930944

rotation f4 [3, 3]
000000 4e 81 49 3f 30 0d e8 3e 8d 31 d6 be cd 61 96 be
       0.7871293 0.4532256 -0.4183468 -0.2937149
000010 02 32 5f 3f 0e a9 c8 3e 64 d8 0a 3f 5c 11 3e be
       0.8718568 0.39191478 0.54236436 -0.1856131
000020 19 c3 51 3f
       0.8193832

beta f4 [3]
000000 7a 32 eb 40 46 4e 77 40 6c b2 c1 c1
       7.3499117 3.8641524 -24.21212

rotation f4 [3, 3]
000000 e7 6d 48 3f 14 ba e8 3e 27 79 d9 be a2 d1 95 be
       0.782927 0.45454466 -0.42475244 -0.292615
000010 e3 1f 5f 3f 22 65 c9 3e 50 8b 0c 3f 50 15 3c be
       0.8715803 0.3933497 0.54900074 -0.18367505
000020 6b bd 50 3f
       0.8153903

beta f4 [3]
000000 e9 1b e0 40 0a 82 76 40 51 b7 c2 c1
       7.003407 3.851687 -24.33951

rotation f4 [3, 3]
000000 d5 aa 46 3f bc 49 e7 3e 4c 55 e1 be c7 19 8f be
       0.7760442 0.45173442 -0.4401039 -0.27949354
000010 77 34 5f 3f e4 df cd 3e d1 bb 10 3f ba 93 41 be
       0.8718943 0.40209877 0.56536585 -0.1890401
000020 e2 89 4d 3f
       0.8028852

beta f4 [3]
000000 db 90 c0 40 81 06 7b 40 3b 7d c4 c1
       6.0176826 3.922272 -24.561148

rotation f4 [3, 3]
000000 04 0e 45 3f d0 83 ef 3e 1f 62 de be b1 c6 9a be
       0.7697451 0.46780252 -0.43434235 -0.30229715
000010 31 cd 5d 3f 26 7b cb 3e ac ee 0f 3f 2c ce 32 be
       0.8664122 0.39742392 0.5622356 -0.17461461
000020 da ee 4e 3f
       0.8083321

beta f4 [3]
000000 34 02 cd 40 7e bd 82 40 d5 7c c4 c1
       6.406519 4.0856314 -24.560953

rotation f4 [3, 3]
000000 06 a1 44 3f 5f 18 f5 3e 29 c3 d9 be b4 75 a1 be
       0.768082 0.47870156 -0.42531708 -0.31535113
000010 c8 5f 5c 3f 1a 7d cc 3e 66 ac 0e 3f f0 c8 30 be
       0.8608365 0.39939195 0.5573181 -0.17264152
000020 35 e9 4f 3f
       0.8121522

beta f4 [3]
000000 b0 99 d7 40 a6 d8 8e 40 54 9e c2 c1
       6.7375107 4.4639463 -24.327309

rotation f4 [3, 3]
000000 54 1f 44 3f 09 e5 f1 3e 61 1a df be ff 7b 9f be
       0.766103 0.47245052 -0.43574813 -0.3114929
000010 b6 af 5d 3f a0 52 c8 3e b4 eb 0f 3f 02 f2 27 be
       0.8659624 0.39125538 0.5621903 -0.16400912
000020 46 82 4f 3f
       0.81058156

beta f4 [3]
000000 b1 7b ce 40 a6 02 7a 40 d7 88 c3 c1
       6.452599 3.9064116 -24.441816

rotation f4 [3, 3]
000000 cc ed 43 3f 4e 35 f8 3e 1f c2 d8 be 15 a6 a3 be
       0.76534724 0.48478168 -0.42335603 -0.31962648
000010 46 72 5b 3f 18 ba ce 3e 40 03 0f 3f 4a df 31 be
       0.8572124 0.40376353 0.55864334 -0.17370334
000020 a3 9e 4f 3f
       0.81101435

beta f4 [3]
000000 5a e0 d6 40 5a 43 98 40 e2 03 c3 c1
       6.7148867 4.7582216 -24.376896

rotation f4 [3, 3]
000000 20 3f 45 3f 84 bc f4 3e 93 ec d7 be 1f 4a 9e be
       0.77049446 0.47800076 -0.4217268 -0.30915925
000010 55 d9 5b 3f c3 2c d1 3e 88 b5 0e 3f 7c d3 3c be
       0.858785 0.40854463 0.55745745 -0.1844005
000020 42 39 4f 3f
       0.80946743

beta f4 [3]
000000 99 b1 d5 40 b0 f7 9a 40 09 6b c2 c1
       6.6779294 4.8427353 -24.302263

rotation f4 [3, 3]
000000 7b 1d 47 3f f5 52 f2 3e ab be d3 be 19 fb 99 be
       0.7777936 0.47328916 -0.41356406 -0.30074385
000010 10 a8 5b 3f b8 29 d5 3e 32 49 0d 3f 84 3b 4c be
       0.8580332 0.4163339 0.5518981 -0.19944578
000020 3b 49 4f 3f
       0.80971116

beta f4 [3]
000000 38 09 dd 40 0c a3 a5 40 78 e4 c1 c1
       6.9073753 5.176153 -24.236557

rotation f4 [3, 3]
000000 e1 f5 46 3f 6a 3e f3 3e 70 45 d3 be 55 ea 9a be
       0.7771893 0.47508556 -0.41263914 -0.30256906
000010 f0 6a 5b 3f 19 78 d5 3e 94 3f 0d 3f d0 f6 4b be
       0.8571005 0.4169319 0.5517514 -0.1991837
000020 fa 53 4f 3f
       0.80987513

beta f4 [3]
000000 c1 5a de 40 7c e3 a7 40 49 54 c2 c1
       6.9485784 5.246519 -24.291155

rotation f4 [3, 3]
000000 72 75 48 3f 65 cc f1 3e df 39 cf be 11 f1 9c be
       0.7830421 0.47226253 -0.4047384 -0.3065267
000010 6a f7 5b 3f 24 b2 d1 3e 6f 8b 0a 3f 48 5c 49 be
       0.859244 0.40956223 0.5411901 -0.19664109
000020 43 4d 51 3f
       0.8175852

beta f4 [3]
000000 d5 19 f0 40 b5 0b a1 40 20 5b c0 c1
       7.5031533 5.032679 -24.044495

rotation f4 [3, 3]
000000 84 72 46 3f 8c 92 f4 3e c7 aa d3 be 68 d2 9e be
       0.77518487 0.47768056 -0.4134123 -0.31019902
000010 54 9f 5b 3f 2b b9 d1 3e 8b e2 0c 3f c4 d4 41 be
       0.8578999 0.40961584 0.5503318 -0.1892882
000020 54 2e 50 3f
       0.8132069

beta f4 [3]
000000 cc 53 e2 40 47 1c a0 40 57 d6 c1 c1
       7.072729 5.003452 -24.229658

rotation f4 [3, 3]
000000 43 26 45 3f 88 12 fa 3e 10 16 d2 be 80 72 a6 be
       0.7701151 0.48842263 -0.41032457 -0.32509232
000010 d6 9b 5a 3f f2 09 d0 3e 85 81 0c 3f 2c d5 37 be
       0.85394037 0.40632588 0.5488513 -0.17952412
000020 8e 00 51 3f
       0.8164147

beta f4 [3]
000000 e7 d7 e8 40 94 ae a3 40 8a ba c1 c1
       7.2763553 5.115061 -24.216084

rotation f4 [3, 3]
000000 25 04 45 3f 0e 8e fa 3e c5 02 d2 be e8 c6 a5 be
       0.7695945 0.48936504 -0.41017738 -0.32378316
000010 42 4d 5a 3f c3 da d1 3e e6 e3 0c 3f 72 02 3b be
       0.85274136 0.40987214 0.55035245 -0.18262652
000020 14 91 50 3f
       0.8147137

beta f4 [3]
000000 5d 0f e5 40 a7 2b a8 40 b1 02 c1 c1
       7.1581254 5.2553287 -24.126314

rotation f4 [3, 3]
000000 4a dc 43 3f da 68 fb 3e d9 49 d5 be 59 eb a4 be
       0.7650801 0.49103433 -0.41657904 -0.32210806
000010 28 1d 5a 3f d1 4e d3 3e c9 bd 0e 3f 58 ee 39 be
       0.8520074 0.4127107 0.5575834 -0.18157327
000020 78 5d 4f 3f
       0.81001997

beta f4 [3]
000000 fc d8 d8 40 1e 55 a9 40 dd 30 c2 c1
       6.7764874 5.2916403 -24.273859

rotation f4 [3, 3]
000000 3d 20 42 3f 6a a9 fd 3e 1b ef d8 be 6d 31 ac be
       0.7583044 0.49543315 -0.42369923 -0.3363146
000010 64 a5 5a 3f 1f 26 cb 3e a8 f6 0e 3f 88 2e 22 be
       0.85408616 0.39677522 0.5584512 -0.15838063
000020 8b 74 50 3f
       0.8142783

beta f4 [3]
000000 b1 da d9 40 0e 6a 95 40 92 d4 c1 c1
       6.8079457 4.669196 -24.228794

rotation f4 [3, 3]
000000 61 d5 41 3f e5 87 00 3f e8 f4 d5 be 0b 46 af be
       0.75716215 0.5020736 -0.4178841 -0.34233126
000010 f2 8d 59 3f e8 30 cd 3e 50 6c 0e 3f c4 3c 24 be
       0.84982216 0.40076375 0.5563402 -0.16038805
000020 65 b9 50 3f
       0.8153289

beta f4 [3]
000000 01 cc df 40 2a dd a0 40 d2 4f c2 c1
       6.993653 5.0269976 -24.288975

rotation f4 [3, 3]
000000 43 27 43 3f 1a 6b fb 3e f0 da d7 be 5e 94 a7 be
       0.76231784 0.4910515 -0.42159224 -0.32730383
000010 ae be 5a 3f 84 8d ce 3e 65 ef 0e 3f 14 9e 2d be
       0.85447204 0.40342343 0.5583404 -0.16954833
000020 ee e5 4f 3f
       0.8121022

beta f4 [3]
000000 bc f4 d8 40 8b 07 9c 40 92 9f c2 c1
       6.779875 4.875921 -24.327915

rotation f4 [3, 3]
000000 35 15 44 3f 07 0d f3 3e 81 fb dd be 07 8c 9f be
       0.7659486 0.47470877 -0.43355945 -0.3116152
000010 dd 2e 5d 3f b2 7c ca 3e 10 f5 0f 3f e6 d7 2b be
       0.8639963 0.3954826 0.5623331 -0.16781577
000020 ba 48 4f 3f
       0.80970347

beta f4 [3]
000000 08 42 ce 40 71 33 84 40 a3 73 c3 c1
       6.4455605 4.1312795 -24.431463

rotation f4 [3, 3]
000000 6a ed 43 3f 60 2d f8 3e b0 cc d8 be 1f 6c a5 be
       0.7653414 0.48472118 -0.42343664 -0.32309052
000010 c8 bb 5b 3f 34 14 cc 3e ff 80 0e 3f ec 49 2c be
       0.85833406 0.39859164 0.5566558 -0.16825074
000020 50 43 50 3f
       0.8135271

beta f4 [3]
000000 64 99 da 40 a0 09 92 40 0c 6b c2 c1
       6.8312244 4.563675 -24.302269

rotation f4 [3, 3]
000000 e7 fb 44 3f 2f 02 f1 3e 26 04 dd be a0 e7 a1 be
       0.7694687 0.47071978 -0.43167228 -0.31622028
000010 8a 35 5e 3f cc 04 c4 3e 73 0e 0e 3f 94 e1 21 be
       0.86800444 0.3828491 0.554908 -0.15808707
000020 bd 16 51 3f
       0.8167532

beta f4 [3]
000000 40 d7 db 40 10 5f 68 40 9c 9c c2 c1
       6.8700256 3.6308022 -24.32647

rotation f4 [3, 3]
000000 68 55 45 3f 6b 6b f2 3e 2a 35 da be e4 f5 a3 be
       0.77083445 0.47347578 -0.42618686 -0.32023537
000010 c3 c8 5d 3f 08 3c c4 3e 48 fa 0c 3f ea c5 22 be
       0.86634463 0.3832705 0.550694 -0.1589581
000020 4a c6 51 3f
       0.8194319

beta f4 [3]
000000 14 91 e4 40 aa ca 71 40 0b 99 c2 c1
       7.1427097 3.7779946 -24.324728

rotation f4 [3, 3]
000000 2b f0 44 3f 7e 2f f8 3e 68 18 d5 be 50 d7 a3 be
       0.7692897 0.48473734 -0.41620183 -0.32000208
000010 f3 2d 5b 3f c0 b4 cf 3e 76 90 0d 3f ca 30 37 be
       0.8561699 0.4056759 0.55298555 -0.17889705
000020 82 52 50 3f
       0.81375897

beta f4 [3]
000000 b7 22 e0 40 d2 e4 9d 40 0e e8 c1 c1
       7.0042377 4.934182 -24.238308

rotation f4 [3, 3]
000000 47 9c 45 3f 57 4e f8 3e b6 72 d2 be d5 90 a0 be
       0.77191585 0.4849727 -0.41103142 -0.31360498
000010 c8 57 5a 3f 48 b3 d5 3e b0 90 0d 3f e8 eb 45 be
       0.85290194 0.41738343 0.552989 -0.19328272
000020 40 7a 4f 3f
       0.81045914

beta f4 [3]
000000 e4 90 de 40 76 51 ae 40 2e b2 c1 c1
       6.955187 5.447444 -24.212002

rotation f4 [3, 3]
000000 c0 ef 43 3f 2b 68 f9 3e 95 59 d7 be e2 53 a5 be
       0.76537704 0.48712286 -0.42060533 -0.3229056
000010 bc 21 5b 3f e8 b9 ce 3e c3 84 0e 3f 36 5f 31 be
       0.8559835 0.4037621 0.5567133 -0.17321476
000020 65 fc 4f 3f
       0.812445

beta f4 [3]
000000 67 bf da 40 0b d3 9a 40 0a 8d c2 c1
       6.8358645 4.838262 -24.318867

rotation f4 [3, 3]
000000 8a d5 44 3f 6c 60 f3 3e 0d f2 da be 44 53 a0 be
       0.76888335 0.47534502 -0.42762795 -0.31313527
000010 30 f1 5c 3f 90 ec ca 3e e3 b5 0e 3f 64 ee 2e be
       0.8630552 0.39633608 0.5574629 -0.17083126
000020 d0 fb 4f 3f
       0.8124361

beta f4 [3]
000000 71 b3 d7 40 36 8a 88 40 a5 8f c3 c1
       6.7406545 4.2668715 -24.445139

rotation f4 [3, 3]
000000 42 7c 44 3f 92 e8 f7 3e 71 14 d7 be 73 c7 a7 be
       0.767521 0.48419625 -0.42007783 -0.32769355
000010 47 0e 5c 3f 40 bd c8 3e 0a 0a 0d 3f d8 2e 27 be
       0.85959285 0.39206886 0.55093443 -0.16326463
000020 31 84 51 3f
       0.81842333

beta f4 [3]
000000 f2 bb e4 40 0f b9 8b 40 1d 44 c1 c1
       7.1479425 4.36634 -24.158258

rotation f4 [3, 3]
000000 4a f1 44 3f 2f df f3 3e 8c 00 da be a4 23 a0 be
       0.7693068 0.47631213 -0.42578542 -0.31277192
000010 b6 a6 5c 3f e8 54 cc 3e ea 9c 0e 3f 68 04 32 be
       0.8619188 0.39908528 0.5570818 -0.17384493
000020 fc e2 4f 3f
       0.81205726

beta f4 [3]
000000 01 f9 d6 40 00 eb 8c 40 b8 4c c2 c1
       6.717896 4.4036865 -24.28746

rotation f4 [3, 3]
000000 5f 32 45 3f 66 7a fa 3e 83 6c d1 be 8a 46 a8 be
       0.77029985 0.48921508 -0.409031 -0.32866317
000010 95 b0 5a 3f 26 38 ce 3e cb e4 0b 3f a4 0a 34 be
       0.8542569 0.40277213 0.54645985 -0.17582184
000020 46 9e 51 3f
       0.8188213

beta f4 [3]
000000 ed c8 ec 40 d3 68 a0 40 64 ad c0 c1
       7.399527 5.012796 -24.084663

rotation f4 [3, 3]
000000 3b e2 44 3f a2 37 f9 3e ec 16 d4 be 61 dd a8 be
       0.769077 0.48675257 -0.41423738 -0.329814
000010 0a 7d 5b 3f 96 4e ca 3e 2f 28 0c 3f 70 47 2b be
       0.8573767 0.3951308 0.54748815 -0.1672647
000020 b4 e6 51 3f
       0.8199265

beta f4 [3]
000000 38 e2 eb 40 19 bd 93 40 16 79 c1 c1
       7.3713646 4.616833 -24.184124

rotation f4 [3, 3]
000000 c8 88 44 3f 1c cc f7 3e 68 07 d7 be cf 4d a9 be
       0.7677121 0.4839791 -0.41997838 -0.33067176
000010 1a 51 5c 3f 3e 4c c6 3e aa 83 0c 3f 72 43 22 be
       0.8606125 0.38730043 0.54888403 -0.15846041
000020 19 1c 52 3f
       0.82074124

beta f4 [3]
000000 25 22 e9 40 16 35 86 40 d4 4c c1 c1
       7.285418 4.19398 -24.162514

rotation f4 [3, 3]
000000 dc 5b 46 3f 28 ae f4 3e d6 df d3 be 50 b7 a1 be
       0.77483916 0.4778912 -0.4138171 -0.3158517
000010 f6 15 5c 3f a2 86 cd 3e 4c 2f 0c 3f 56 a8 38 be
       0.8597101 0.4014178 0.5475967 -0.18032965
000020 22 2c 51 3f
       0.81707966

beta f4 [3]
000000 20 df e7 40 87 46 96 40 04 32 c1 c1
       7.245987 4.6961093 -24.149422

rotation f4 [3, 3]
000000 8c b8 45 3f f1 cf f6 3e 4f c9 d3 be 7a ec a5 be
       0.7723472 0.48205522 -0.41364524 -0.3240698
000010 02 ef 5b 3f 32 ce ca 3e 34 db 0b 3f 6a 01 30 be
       0.8591157 0.3961044 0.5463135 -0.1718804
000020 7e db 51 3f
       0.81975543

beta f4 [3]
000000 46 be ec 40 e2 99 92 40 0b 9e c1 c1
       7.3982267 4.5812845 -24.20217

rotation f4 [3, 3]
000000 8a ff 44 3f b4 9d f9 3e 8d 31 d3 be 1c e5 a2 be
       0.7695242 0.4875313 -0.41248742 -0.31815422
000010 99 4b 5a 3f 9c 20 d4 3e e4 c0 0d 3f 2c 17 40 be
       0.852716 0.4143113 0.5537245 -0.1875884
000020 11 b1 4f 3f
       0.81129557

beta f4 [3]
000000 5c b1 de 40 ca 6c ab 40 aa fe c1 c1
       6.9591503 5.35703 -24.249348

rotation f4 [3, 3]
000000 15 c9 45 3f ca 8d f6 3e a4 d8 d3 be e7 10 a1 be
       0.7725995 0.4815505 -0.4137622 -0.31458208
000010 38 3f 5b 3f 31 95 d1 3e ae 2d 0d 3f 8a 8f 3e be
       0.8564334 0.40934137 0.55147827 -0.18609443
000020 b6 2b 50 3f
       0.813167

beta f4 [3]
000000 4e c5 e1 40 d4 c4 a1 40 ce 1c c2 c1
       7.055335 5.055277 -24.264065

rotation f4 [3, 3]
000000 c3 85 47 3f 56 f1 ed 3e d0 26 d7 be 49 29 98 be
       0.7793848 0.46473187 -0.420218 -0.29718998
000010 b0 59 5d 3f 68 61 cf 3e 23 34 0d 3f 4a 60 43 be
       0.8646498 0.40504003 0.5515768 -0.190797
000020 d2 df 4f 3f
       0.812009

beta f4 [3]
000000 c6 78 dc 40 2f 87 90 40 d3 21 c2 c1
       6.889743 4.516502 -24.266516

rotation f4 [3, 3]
000000 5f 6a 45 3f b1 40 ef 3e 3c 62 dd be f6 60 9a be
       0.77115434 0.46729043 -0.4323901 -0.301521
000010 96 c1 5d 3f 0e fb cb 3e 55 8b 0f 3f 06 19 35 be
       0.86623514 0.39839977 0.5607198 -0.17685327
000020 f8 13 4f 3f
       0.80889845

beta f4 [3]
000000 8e 58 ce 40 ab 5c 84 40 c4 59 c3 c1
       6.44831 4.136312 -24.41883

rotation f4 [3, 3]
000000 bb 46 43 3f ec 83 f4 3e 15 37 df be 40 74 9d be
       0.762798 0.47756898 -0.43596712 -0.30752754
000010 b2 6a 5c 3f 4e 68 cf 3e c4 9e 11 3f 5e 21 33 be
       0.86100304 0.40509266 0.5688288 -0.17493197
000020 27 bb 4d 3f
       0.80363697

beta f4 [3]
000000 76 66 c2 40 9c ef 8f 40 c1 4b c4 c1
       6.0750074 4.497999 -24.53699

rotation f4 [3, 3]
000000 f2 70 3f 3f 29 a3 00 3f d6 28 de be 4c 3d a8 be
       0.74781716 0.5024896 -0.4339053 -0.32859266
000010 f0 18 59 3f 18 df d4 3e b6 ae 13 3f be 60 2c be
       0.84803677 0.41576457 0.5768846 -0.16833779
000020 56 9e 4c 3f
       0.799291

beta f4 [3]
000000 68 7a ba 40 86 75 aa 40 50 7f c5 c1
       5.827442 5.326846 -24.687164

rotation f4 [3, 3]
000000 3f 20 43 3f 78 5e fa 3e 88 2b d9 be 1d 9e a5 be
       0.7622108 0.489002 -0.42416024 -0.32347193
000010 92 f4 5a 3f d4 3d cf 3e f9 8a 0f 3f 36 6d 2f be
       0.85529435 0.4047686 0.5607143 -0.17131504
000020 44 62 4f 3f
       0.81009316

beta f4 [3]
000000 a4 57 d3 40 61 0f 9b 40 6f 51 c2 c1
       6.6044483 4.8456273 -24.289762
